module @gpt_bs1 attributes {mhlo.num_partitions = 1 : i32, mhlo.num_replicas = 1 : i32} {
  func.func public @main(%arg0: tensor<1x7xi32> {jax.arg_info = "inputs['attention_mask']", mhlo.sharding = "{replicated}"}, %arg1: tensor<1x7xi32> {jax.arg_info = "inputs['input_ids']", mhlo.sharding = "{replicated}"}) -> (tensor<1x20xi32> {jax.result_info = ""}) {
    %0 = stablehlo.constant dense_resource<__elided__> : tensor<50257x768xf16>
    %1 = stablehlo.constant dense_resource<__elided__> : tensor<1024x768xf16>
    %2 = stablehlo.constant dense_resource<__elided__> : tensor<768xf16>
    %3 = stablehlo.constant dense_resource<__elided__> : tensor<768xf16>
    %4 = stablehlo.constant dense_resource<__elided__> : tensor<2304x768xf16>
    %5 = stablehlo.constant dense_resource<__elided__> : tensor<2304xf16>
    %6 = stablehlo.constant dense_resource<__elided__> : tensor<768x768xf16>
    %7 = stablehlo.constant dense_resource<__elided__> : tensor<768xf16>
    %8 = stablehlo.constant dense_resource<__elided__> : tensor<768xf16>
    %9 = stablehlo.constant dense_resource<__elided__> : tensor<768xf16>
    %10 = stablehlo.constant dense_resource<__elided__> : tensor<3072x768xf16>
    %11 = stablehlo.constant dense_resource<__elided__> : tensor<3072xf16>
    %12 = stablehlo.constant dense_resource<__elided__> : tensor<768x3072xf16>
    %13 = stablehlo.constant dense_resource<__elided__> : tensor<768xf16>
    %14 = stablehlo.constant dense_resource<__elided__> : tensor<768xf16>
    %15 = stablehlo.constant dense_resource<__elided__> : tensor<768xf16>
    %16 = stablehlo.constant dense_resource<__elided__> : tensor<2304x768xf16>
    %17 = stablehlo.constant dense_resource<__elided__> : tensor<2304xf16>
    %18 = stablehlo.constant dense_resource<__elided__> : tensor<768x768xf16>
    %19 = stablehlo.constant dense_resource<__elided__> : tensor<768xf16>
    %20 = stablehlo.constant dense_resource<__elided__> : tensor<768xf16>
    %21 = stablehlo.constant dense_resource<__elided__> : tensor<768xf16>
    %22 = stablehlo.constant dense_resource<__elided__> : tensor<3072x768xf16>
    %23 = stablehlo.constant dense_resource<__elided__> : tensor<3072xf16>
    %24 = stablehlo.constant dense_resource<__elided__> : tensor<768x3072xf16>
    %25 = stablehlo.constant dense_resource<__elided__> : tensor<768xf16>
    %26 = stablehlo.constant dense_resource<__elided__> : tensor<768xf16>
    %27 = stablehlo.constant dense_resource<__elided__> : tensor<768xf16>
    %28 = stablehlo.constant dense_resource<__elided__> : tensor<2304x768xf16>
    %29 = stablehlo.constant dense_resource<__elided__> : tensor<2304xf16>
    %30 = stablehlo.constant dense_resource<__elided__> : tensor<768x768xf16>
    %31 = stablehlo.constant dense_resource<__elided__> : tensor<768xf16>
    %32 = stablehlo.constant dense_resource<__elided__> : tensor<768xf16>
    %33 = stablehlo.constant dense_resource<__elided__> : tensor<768xf16>
    %34 = stablehlo.constant dense_resource<__elided__> : tensor<3072x768xf16>
    %35 = stablehlo.constant dense_resource<__elided__> : tensor<3072xf16>
    %36 = stablehlo.constant dense_resource<__elided__> : tensor<768x3072xf16>
    %37 = stablehlo.constant dense_resource<__elided__> : tensor<768xf16>
    %38 = stablehlo.constant dense_resource<__elided__> : tensor<768xf16>
    %39 = stablehlo.constant dense_resource<__elided__> : tensor<768xf16>
    %40 = stablehlo.constant dense_resource<__elided__> : tensor<2304x768xf16>
    %41 = stablehlo.constant dense_resource<__elided__> : tensor<2304xf16>
    %42 = stablehlo.constant dense_resource<__elided__> : tensor<768x768xf16>
    %43 = stablehlo.constant dense_resource<__elided__> : tensor<768xf16>
    %44 = stablehlo.constant dense_resource<__elided__> : tensor<768xf16>
    %45 = stablehlo.constant dense_resource<__elided__> : tensor<768xf16>
    %46 = stablehlo.constant dense_resource<__elided__> : tensor<3072x768xf16>
    %47 = stablehlo.constant dense_resource<__elided__> : tensor<3072xf16>
    %48 = stablehlo.constant dense_resource<__elided__> : tensor<768x3072xf16>
    %49 = stablehlo.constant dense_resource<__elided__> : tensor<768xf16>
    %50 = stablehlo.constant dense_resource<__elided__> : tensor<768xf16>
    %51 = stablehlo.constant dense_resource<__elided__> : tensor<768xf16>
    %52 = stablehlo.constant dense_resource<__elided__> : tensor<2304x768xf16>
    %53 = stablehlo.constant dense_resource<__elided__> : tensor<2304xf16>
    %54 = stablehlo.constant dense_resource<__elided__> : tensor<768x768xf16>
    %55 = stablehlo.constant dense_resource<__elided__> : tensor<768xf16>
    %56 = stablehlo.constant dense_resource<__elided__> : tensor<768xf16>
    %57 = stablehlo.constant dense_resource<__elided__> : tensor<768xf16>
    %58 = stablehlo.constant dense_resource<__elided__> : tensor<3072x768xf16>
    %59 = stablehlo.constant dense_resource<__elided__> : tensor<3072xf16>
    %60 = stablehlo.constant dense_resource<__elided__> : tensor<768x3072xf16>
    %61 = stablehlo.constant dense_resource<__elided__> : tensor<768xf16>
    %62 = stablehlo.constant dense_resource<__elided__> : tensor<768xf16>
    %63 = stablehlo.constant dense_resource<__elided__> : tensor<768xf16>
    %64 = stablehlo.constant dense_resource<__elided__> : tensor<2304x768xf16>
    %65 = stablehlo.constant dense_resource<__elided__> : tensor<2304xf16>
    %66 = stablehlo.constant dense_resource<__elided__> : tensor<768x768xf16>
    %67 = stablehlo.constant dense_resource<__elided__> : tensor<768xf16>
    %68 = stablehlo.constant dense_resource<__elided__> : tensor<768xf16>
    %69 = stablehlo.constant dense_resource<__elided__> : tensor<768xf16>
    %70 = stablehlo.constant dense_resource<__elided__> : tensor<3072x768xf16>
    %71 = stablehlo.constant dense_resource<__elided__> : tensor<3072xf16>
    %72 = stablehlo.constant dense_resource<__elided__> : tensor<768x3072xf16>
    %73 = stablehlo.constant dense_resource<__elided__> : tensor<768xf16>
    %74 = stablehlo.constant dense_resource<__elided__> : tensor<768xf16>
    %75 = stablehlo.constant dense_resource<__elided__> : tensor<768xf16>
    %76 = stablehlo.constant dense_resource<__elided__> : tensor<2304x768xf16>
    %77 = stablehlo.constant dense_resource<__elided__> : tensor<2304xf16>
    %78 = stablehlo.constant dense_resource<__elided__> : tensor<768x768xf16>
    %79 = stablehlo.constant dense_resource<__elided__> : tensor<768xf16>
    %80 = stablehlo.constant dense_resource<__elided__> : tensor<768xf16>
    %81 = stablehlo.constant dense_resource<__elided__> : tensor<768xf16>
    %82 = stablehlo.constant dense_resource<__elided__> : tensor<3072x768xf16>
    %83 = stablehlo.constant dense_resource<__elided__> : tensor<3072xf16>
    %84 = stablehlo.constant dense_resource<__elided__> : tensor<768x3072xf16>
    %85 = stablehlo.constant dense_resource<__elided__> : tensor<768xf16>
    %86 = stablehlo.constant dense_resource<__elided__> : tensor<768xf16>
    %87 = stablehlo.constant dense_resource<__elided__> : tensor<768xf16>
    %88 = stablehlo.constant dense_resource<__elided__> : tensor<2304x768xf16>
    %89 = stablehlo.constant dense_resource<__elided__> : tensor<2304xf16>
    %90 = stablehlo.constant dense_resource<__elided__> : tensor<768x768xf16>
    %91 = stablehlo.constant dense_resource<__elided__> : tensor<768xf16>
    %92 = stablehlo.constant dense_resource<__elided__> : tensor<768xf16>
    %93 = stablehlo.constant dense_resource<__elided__> : tensor<768xf16>
    %94 = stablehlo.constant dense_resource<__elided__> : tensor<3072x768xf16>
    %95 = stablehlo.constant dense_resource<__elided__> : tensor<3072xf16>
    %96 = stablehlo.constant dense_resource<__elided__> : tensor<768x3072xf16>
    %97 = stablehlo.constant dense_resource<__elided__> : tensor<768xf16>
    %98 = stablehlo.constant dense_resource<__elided__> : tensor<768xf16>
    %99 = stablehlo.constant dense_resource<__elided__> : tensor<768xf16>
    %100 = stablehlo.constant dense_resource<__elided__> : tensor<2304x768xf16>
    %101 = stablehlo.constant dense_resource<__elided__> : tensor<2304xf16>
    %102 = stablehlo.constant dense_resource<__elided__> : tensor<768x768xf16>
    %103 = stablehlo.constant dense_resource<__elided__> : tensor<768xf16>
    %104 = stablehlo.constant dense_resource<__elided__> : tensor<768xf16>
    %105 = stablehlo.constant dense_resource<__elided__> : tensor<768xf16>
    %106 = stablehlo.constant dense_resource<__elided__> : tensor<3072x768xf16>
    %107 = stablehlo.constant dense_resource<__elided__> : tensor<3072xf16>
    %108 = stablehlo.constant dense_resource<__elided__> : tensor<768x3072xf16>
    %109 = stablehlo.constant dense_resource<__elided__> : tensor<768xf16>
    %110 = stablehlo.constant dense_resource<__elided__> : tensor<768xf16>
    %111 = stablehlo.constant dense_resource<__elided__> : tensor<768xf16>
    %112 = stablehlo.constant dense_resource<__elided__> : tensor<2304x768xf16>
    %113 = stablehlo.constant dense_resource<__elided__> : tensor<2304xf16>
    %114 = stablehlo.constant dense_resource<__elided__> : tensor<768x768xf16>
    %115 = stablehlo.constant dense_resource<__elided__> : tensor<768xf16>
    %116 = stablehlo.constant dense_resource<__elided__> : tensor<768xf16>
    %117 = stablehlo.constant dense_resource<__elided__> : tensor<768xf16>
    %118 = stablehlo.constant dense_resource<__elided__> : tensor<3072x768xf16>
    %119 = stablehlo.constant dense_resource<__elided__> : tensor<3072xf16>
    %120 = stablehlo.constant dense_resource<__elided__> : tensor<768x3072xf16>
    %121 = stablehlo.constant dense_resource<__elided__> : tensor<768xf16>
    %122 = stablehlo.constant dense_resource<__elided__> : tensor<768xf16>
    %123 = stablehlo.constant dense_resource<__elided__> : tensor<768xf16>
    %124 = stablehlo.constant dense_resource<__elided__> : tensor<2304x768xf16>
    %125 = stablehlo.constant dense_resource<__elided__> : tensor<2304xf16>
    %126 = stablehlo.constant dense_resource<__elided__> : tensor<768x768xf16>
    %127 = stablehlo.constant dense_resource<__elided__> : tensor<768xf16>
    %128 = stablehlo.constant dense_resource<__elided__> : tensor<768xf16>
    %129 = stablehlo.constant dense_resource<__elided__> : tensor<768xf16>
    %130 = stablehlo.constant dense_resource<__elided__> : tensor<3072x768xf16>
    %131 = stablehlo.constant dense_resource<__elided__> : tensor<3072xf16>
    %132 = stablehlo.constant dense_resource<__elided__> : tensor<768x3072xf16>
    %133 = stablehlo.constant dense_resource<__elided__> : tensor<768xf16>
    %134 = stablehlo.constant dense_resource<__elided__> : tensor<768xf16>
    %135 = stablehlo.constant dense_resource<__elided__> : tensor<768xf16>
    %136 = stablehlo.constant dense_resource<__elided__> : tensor<2304x768xf16>
    %137 = stablehlo.constant dense_resource<__elided__> : tensor<2304xf16>
    %138 = stablehlo.constant dense_resource<__elided__> : tensor<768x768xf16>
    %139 = stablehlo.constant dense_resource<__elided__> : tensor<768xf16>
    %140 = stablehlo.constant dense_resource<__elided__> : tensor<768xf16>
    %141 = stablehlo.constant dense_resource<__elided__> : tensor<768xf16>
    %142 = stablehlo.constant dense_resource<__elided__> : tensor<3072x768xf16>
    %143 = stablehlo.constant dense_resource<__elided__> : tensor<3072xf16>
    %144 = stablehlo.constant dense_resource<__elided__> : tensor<768x3072xf16>
    %145 = stablehlo.constant dense_resource<__elided__> : tensor<768xf16>
    %146 = stablehlo.constant dense_resource<__elided__> : tensor<768xf16>
    %147 = stablehlo.constant dense_resource<__elided__> : tensor<768xf16>
    %148 = stablehlo.constant dense<50256> : tensor<i32>
    %149 = stablehlo.broadcast_in_dim %148, dims = [] : (tensor<i32>) -> tensor<1x20xi32>
    %150 = stablehlo.constant dense<0> : tensor<i32>
    %151 = stablehlo.constant dense<0> : tensor<i32>
    %152 = stablehlo.dynamic_update_slice %149, %arg1, %150, %151 : (tensor<1x20xi32>, tensor<1x7xi32>, tensor<i32>, tensor<i32>) -> tensor<1x20xi32>
    %153 = stablehlo.constant dense<false> : tensor<i1>
    %154 = stablehlo.broadcast_in_dim %153, dims = [] : (tensor<i1>) -> tensor<1xi1>
    %155 = stablehlo.constant dense<0.000000e+00> : tensor<f32>
    %156 = stablehlo.broadcast_in_dim %155, dims = [] : (tensor<f32>) -> tensor<1x20x12x64xf32>
    %157 = stablehlo.constant dense<0.000000e+00> : tensor<f32>
    %158 = stablehlo.broadcast_in_dim %157, dims = [] : (tensor<f32>) -> tensor<1x20x12x64xf32>
    %159 = stablehlo.constant dense<0.000000e+00> : tensor<f32>
    %160 = stablehlo.broadcast_in_dim %159, dims = [] : (tensor<f32>) -> tensor<1x20x12x64xf32>
    %161 = stablehlo.constant dense<0.000000e+00> : tensor<f32>
    %162 = stablehlo.broadcast_in_dim %161, dims = [] : (tensor<f32>) -> tensor<1x20x12x64xf32>
    %163 = stablehlo.constant dense<0.000000e+00> : tensor<f32>
    %164 = stablehlo.broadcast_in_dim %163, dims = [] : (tensor<f32>) -> tensor<1x20x12x64xf32>
    %165 = stablehlo.constant dense<0.000000e+00> : tensor<f32>
    %166 = stablehlo.broadcast_in_dim %165, dims = [] : (tensor<f32>) -> tensor<1x20x12x64xf32>
    %167 = stablehlo.constant dense<0.000000e+00> : tensor<f32>
    %168 = stablehlo.broadcast_in_dim %167, dims = [] : (tensor<f32>) -> tensor<1x20x12x64xf32>
    %169 = stablehlo.constant dense<0.000000e+00> : tensor<f32>
    %170 = stablehlo.broadcast_in_dim %169, dims = [] : (tensor<f32>) -> tensor<1x20x12x64xf32>
    %171 = stablehlo.constant dense<0.000000e+00> : tensor<f32>
    %172 = stablehlo.broadcast_in_dim %171, dims = [] : (tensor<f32>) -> tensor<1x20x12x64xf32>
    %173 = stablehlo.constant dense<0.000000e+00> : tensor<f32>
    %174 = stablehlo.broadcast_in_dim %173, dims = [] : (tensor<f32>) -> tensor<1x20x12x64xf32>
    %175 = stablehlo.constant dense<0.000000e+00> : tensor<f32>
    %176 = stablehlo.broadcast_in_dim %175, dims = [] : (tensor<f32>) -> tensor<1x20x12x64xf32>
    %177 = stablehlo.constant dense<0.000000e+00> : tensor<f32>
    %178 = stablehlo.broadcast_in_dim %177, dims = [] : (tensor<f32>) -> tensor<1x20x12x64xf32>
    %179 = stablehlo.constant dense<0.000000e+00> : tensor<f32>
    %180 = stablehlo.broadcast_in_dim %179, dims = [] : (tensor<f32>) -> tensor<1x20x12x64xf32>
    %181 = stablehlo.constant dense<0.000000e+00> : tensor<f32>
    %182 = stablehlo.broadcast_in_dim %181, dims = [] : (tensor<f32>) -> tensor<1x20x12x64xf32>
    %183 = stablehlo.constant dense<0.000000e+00> : tensor<f32>
    %184 = stablehlo.broadcast_in_dim %183, dims = [] : (tensor<f32>) -> tensor<1x20x12x64xf32>
    %185 = stablehlo.constant dense<0.000000e+00> : tensor<f32>
    %186 = stablehlo.broadcast_in_dim %185, dims = [] : (tensor<f32>) -> tensor<1x20x12x64xf32>
    %187 = stablehlo.constant dense<0.000000e+00> : tensor<f32>
    %188 = stablehlo.broadcast_in_dim %187, dims = [] : (tensor<f32>) -> tensor<1x20x12x64xf32>
    %189 = stablehlo.constant dense<0.000000e+00> : tensor<f32>
    %190 = stablehlo.broadcast_in_dim %189, dims = [] : (tensor<f32>) -> tensor<1x20x12x64xf32>
    %191 = stablehlo.constant dense<0.000000e+00> : tensor<f32>
    %192 = stablehlo.broadcast_in_dim %191, dims = [] : (tensor<f32>) -> tensor<1x20x12x64xf32>
    %193 = stablehlo.constant dense<0.000000e+00> : tensor<f32>
    %194 = stablehlo.broadcast_in_dim %193, dims = [] : (tensor<f32>) -> tensor<1x20x12x64xf32>
    %195 = stablehlo.constant dense<0.000000e+00> : tensor<f32>
    %196 = stablehlo.broadcast_in_dim %195, dims = [] : (tensor<f32>) -> tensor<1x20x12x64xf32>
    %197 = stablehlo.constant dense<0.000000e+00> : tensor<f32>
    %198 = stablehlo.broadcast_in_dim %197, dims = [] : (tensor<f32>) -> tensor<1x20x12x64xf32>
    %199 = stablehlo.constant dense<0.000000e+00> : tensor<f32>
    %200 = stablehlo.broadcast_in_dim %199, dims = [] : (tensor<f32>) -> tensor<1x20x12x64xf32>
    %201 = stablehlo.constant dense<0.000000e+00> : tensor<f32>
    %202 = stablehlo.broadcast_in_dim %201, dims = [] : (tensor<f32>) -> tensor<1x20x12x64xf32>
    %203 = stablehlo.constant dense<1> : tensor<i32>
    %204 = stablehlo.broadcast_in_dim %203, dims = [] : (tensor<i32>) -> tensor<1x20xi32>
    %205 = call @_cumulative_reduction(%arg0) : (tensor<1x7xi32>) -> tensor<1x7xi32>
    %206 = stablehlo.constant dense<1> : tensor<i32>
    %207 = stablehlo.broadcast_in_dim %206, dims = [] : (tensor<i32>) -> tensor<1x7xi32>
    %208 = stablehlo.subtract %205, %207 : tensor<1x7xi32>
    %209 = stablehlo.constant dense<0> : tensor<i32>
    %210 = stablehlo.constant dense<0> : tensor<i32>
    %211 = stablehlo.dynamic_update_slice %204, %arg0, %209, %210 : (tensor<1x20xi32>, tensor<1x7xi32>, tensor<i32>, tensor<i32>) -> tensor<1x20xi32>
    %212 = stablehlo.convert %0 : (tensor<50257x768xf16>) -> tensor<50257x768xf32>
    %213 = call @_take(%212, %arg1) : (tensor<50257x768xf32>, tensor<1x7xi32>) -> tensor<1x7x768xf32>
    %214 = stablehlo.convert %1 : (tensor<1024x768xf16>) -> tensor<1024x768xf32>
    %215 = call @_take_0(%214, %208) : (tensor<1024x768xf32>, tensor<1x7xi32>) -> tensor<1x7x768xf32>
    %216 = stablehlo.add %213, %215 : tensor<1x7x768xf32>
    %217 = stablehlo.multiply %216, %216 : tensor<1x7x768xf32>
    %218 = stablehlo.constant dense<0.000000e+00> : tensor<f32>
    %219 = stablehlo.reduce(%217 init: %218) applies stablehlo.add across dimensions = [2] : (tensor<1x7x768xf32>, tensor<f32>) -> tensor<1x7xf32>
    %220 = stablehlo.constant dense<7.680000e+02> : tensor<f32>
    %221 = stablehlo.broadcast_in_dim %220, dims = [] : (tensor<f32>) -> tensor<1x7xf32>
    %222 = stablehlo.divide %219, %221 : tensor<1x7xf32>
    %223 = stablehlo.constant dense<0.000000e+00> : tensor<f32>
    %224 = stablehlo.reduce(%216 init: %223) applies stablehlo.add across dimensions = [2] : (tensor<1x7x768xf32>, tensor<f32>) -> tensor<1x7xf32>
    %225 = stablehlo.constant dense<7.680000e+02> : tensor<f32>
    %226 = stablehlo.broadcast_in_dim %225, dims = [] : (tensor<f32>) -> tensor<1x7xf32>
    %227 = stablehlo.divide %224, %226 : tensor<1x7xf32>
    %228 = stablehlo.multiply %227, %227 : tensor<1x7xf32>
    %229 = stablehlo.subtract %222, %228 : tensor<1x7xf32>
    %230 = stablehlo.constant dense<0.000000e+00> : tensor<f32>
    %231 = stablehlo.broadcast_in_dim %230, dims = [] : (tensor<f32>) -> tensor<1x7xf32>
    %232 = stablehlo.maximum %231, %229 : tensor<1x7xf32>
    %233 = stablehlo.broadcast_in_dim %227, dims = [0, 1] : (tensor<1x7xf32>) -> tensor<1x7x1xf32>
    %234 = stablehlo.broadcast_in_dim %232, dims = [0, 1] : (tensor<1x7xf32>) -> tensor<1x7x1xf32>
    %235 = stablehlo.broadcast_in_dim %233, dims = [0, 1, 2] : (tensor<1x7x1xf32>) -> tensor<1x7x768xf32>
    %236 = stablehlo.subtract %216, %235 : tensor<1x7x768xf32>
    %237 = stablehlo.constant dense<9.99999974E-6> : tensor<f32>
    %238 = stablehlo.broadcast_in_dim %237, dims = [] : (tensor<f32>) -> tensor<1x7x1xf32>
    %239 = stablehlo.add %234, %238 : tensor<1x7x1xf32>
    %240 = stablehlo.rsqrt %239 : tensor<1x7x1xf32>
    %241 = stablehlo.reshape %2 : (tensor<768xf16>) -> tensor<1x1x768xf16>
    %242 = stablehlo.convert %241 : (tensor<1x1x768xf16>) -> tensor<1x1x768xf32>
    %243 = stablehlo.broadcast_in_dim %240, dims = [0, 1, 2] : (tensor<1x7x1xf32>) -> tensor<1x7x768xf32>
    %244 = stablehlo.broadcast_in_dim %242, dims = [0, 1, 2] : (tensor<1x1x768xf32>) -> tensor<1x7x768xf32>
    %245 = stablehlo.multiply %243, %244 : tensor<1x7x768xf32>
    %246 = stablehlo.multiply %236, %245 : tensor<1x7x768xf32>
    %247 = stablehlo.reshape %3 : (tensor<768xf16>) -> tensor<1x1x768xf16>
    %248 = stablehlo.convert %247 : (tensor<1x1x768xf16>) -> tensor<1x1x768xf32>
    %249 = stablehlo.broadcast_in_dim %248, dims = [0, 1, 2] : (tensor<1x1x768xf32>) -> tensor<1x7x768xf32>
    %250 = stablehlo.add %246, %249 : tensor<1x7x768xf32>
    %251 = stablehlo.iota dim = 0 : tensor<1024xi32>
    %252 = stablehlo.broadcast_in_dim %251, dims = [1] : (tensor<1024xi32>) -> tensor<1x1024xi32>
    %253 = stablehlo.broadcast_in_dim %252, dims = [0, 1] : (tensor<1x1024xi32>) -> tensor<1x1024x1xi32>
    %254 = stablehlo.broadcast_in_dim %252, dims = [0, 2] : (tensor<1x1024xi32>) -> tensor<1x1x1024xi32>
    %255 = stablehlo.broadcast_in_dim %253, dims = [0, 1, 2] : (tensor<1x1024x1xi32>) -> tensor<1x1024x1024xi32>
    %256 = stablehlo.broadcast_in_dim %254, dims = [0, 1, 2] : (tensor<1x1x1024xi32>) -> tensor<1x1024x1024xi32>
    %257 = stablehlo.compare  GE, %255, %256,  SIGNED : (tensor<1x1024x1024xi32>, tensor<1x1024x1024xi32>) -> tensor<1x1024x1024xi1>
    %258 = stablehlo.broadcast_in_dim %257, dims = [0, 2, 3] : (tensor<1x1024x1024xi1>) -> tensor<1x1x1024x1024xi1>
    %259 = stablehlo.transpose %4, dims = [1, 0] : (tensor<2304x768xf16>) -> tensor<768x2304xf16>
    %260 = stablehlo.convert %259 : (tensor<768x2304xf16>) -> tensor<768x2304xf32>
    %261 = stablehlo.dot_general %250, %260, contracting_dims = [2] x [0], precision = [DEFAULT, DEFAULT] : (tensor<1x7x768xf32>, tensor<768x2304xf32>) -> tensor<1x7x2304xf32>
    %262 = stablehlo.convert %5 : (tensor<2304xf16>) -> tensor<2304xf32>
    %263 = stablehlo.broadcast_in_dim %262, dims = [2] : (tensor<2304xf32>) -> tensor<1x1x2304xf32>
    %264 = stablehlo.broadcast_in_dim %263, dims = [0, 1, 2] : (tensor<1x1x2304xf32>) -> tensor<1x7x2304xf32>
    %265 = stablehlo.add %261, %264 : tensor<1x7x2304xf32>
    %266 = stablehlo.slice %265 [0:1, 0:7, 0:768] : (tensor<1x7x2304xf32>) -> tensor<1x7x768xf32>
    %267 = stablehlo.slice %265 [0:1, 0:7, 768:1536] : (tensor<1x7x2304xf32>) -> tensor<1x7x768xf32>
    %268 = stablehlo.slice %265 [0:1, 0:7, 1536:2304] : (tensor<1x7x2304xf32>) -> tensor<1x7x768xf32>
    %269 = stablehlo.reshape %266 : (tensor<1x7x768xf32>) -> tensor<1x7x12x64xf32>
    %270 = stablehlo.reshape %267 : (tensor<1x7x768xf32>) -> tensor<1x7x12x64xf32>
    %271 = stablehlo.reshape %268 : (tensor<1x7x768xf32>) -> tensor<1x7x12x64xf32>
    %272 = stablehlo.constant dense<0> : tensor<i32>
    %273 = stablehlo.constant dense<0> : tensor<i32>
    %274 = stablehlo.compare  LT, %272, %273,  SIGNED : (tensor<i32>, tensor<i32>) -> tensor<i1>
    %275 = stablehlo.constant dense<0> : tensor<i32>
    %276 = stablehlo.constant dense<1024> : tensor<i32>
    %277 = stablehlo.add %275, %276 : tensor<i32>
    %278 = stablehlo.constant dense<0> : tensor<i32>
    %279 = stablehlo.select %274, %277, %278 : tensor<i1>, tensor<i32>
    %280 = stablehlo.constant dense<0> : tensor<i32>
    %281 = stablehlo.constant dense<0> : tensor<i32>
    %282 = stablehlo.constant dense<0> : tensor<i32>
    %283 = stablehlo.dynamic_slice %258, %280, %281, %279, %282, sizes = [1, 1, 7, 20] : (tensor<1x1x1024x1024xi1>, tensor<i32>, tensor<i32>, tensor<i32>, tensor<i32>) -> tensor<1x1x7x20xi1>
    %284 = stablehlo.broadcast_in_dim %211, dims = [0, 3] : (tensor<1x20xi32>) -> tensor<1x1x1x20xi32>
    %285 = stablehlo.reshape %284 : (tensor<1x1x1x20xi32>) -> tensor<1x1x20xi32>
    %286 = stablehlo.broadcast_in_dim %285, dims = [0, 1, 3] : (tensor<1x1x20xi32>) -> tensor<1x1x7x20xi32>
    %287 = stablehlo.constant dense<0> : tensor<i32>
    %288 = stablehlo.broadcast_in_dim %287, dims = [] : (tensor<i32>) -> tensor<1x1x7x20xi32>
    %289 = stablehlo.compare  NE, %286, %288,  SIGNED : (tensor<1x1x7x20xi32>, tensor<1x1x7x20xi32>) -> tensor<1x1x7x20xi1>
    %290 = stablehlo.and %289, %283 : tensor<1x1x7x20xi1>
    %291 = stablehlo.convert %290 : (tensor<1x1x7x20xi1>) -> tensor<1x1x7x20xf32>
    %292 = stablehlo.constant dense<0> : tensor<i32>
    %293 = stablehlo.constant dense<0> : tensor<i32>
    %294 = stablehlo.compare  LT, %292, %293,  SIGNED : (tensor<i32>, tensor<i32>) -> tensor<i1>
    %295 = stablehlo.constant dense<0> : tensor<i32>
    %296 = stablehlo.constant dense<20> : tensor<i32>
    %297 = stablehlo.add %295, %296 : tensor<i32>
    %298 = stablehlo.constant dense<0> : tensor<i32>
    %299 = stablehlo.select %294, %297, %298 : tensor<i1>, tensor<i32>
    %300 = stablehlo.constant dense<0> : tensor<i32>
    %301 = stablehlo.constant dense<0> : tensor<i32>
    %302 = stablehlo.constant dense<0> : tensor<i32>
    %303 = stablehlo.dynamic_update_slice %156, %270, %300, %299, %301, %302 : (tensor<1x20x12x64xf32>, tensor<1x7x12x64xf32>, tensor<i32>, tensor<i32>, tensor<i32>, tensor<i32>) -> tensor<1x20x12x64xf32>
    %304 = stablehlo.constant dense<0> : tensor<i32>
    %305 = stablehlo.constant dense<0> : tensor<i32>
    %306 = stablehlo.compare  LT, %304, %305,  SIGNED : (tensor<i32>, tensor<i32>) -> tensor<i1>
    %307 = stablehlo.constant dense<0> : tensor<i32>
    %308 = stablehlo.constant dense<20> : tensor<i32>
    %309 = stablehlo.add %307, %308 : tensor<i32>
    %310 = stablehlo.constant dense<0> : tensor<i32>
    %311 = stablehlo.select %306, %309, %310 : tensor<i1>, tensor<i32>
    %312 = stablehlo.constant dense<0> : tensor<i32>
    %313 = stablehlo.constant dense<0> : tensor<i32>
    %314 = stablehlo.constant dense<0> : tensor<i32>
    %315 = stablehlo.dynamic_update_slice %158, %271, %312, %311, %313, %314 : (tensor<1x20x12x64xf32>, tensor<1x7x12x64xf32>, tensor<i32>, tensor<i32>, tensor<i32>, tensor<i32>) -> tensor<1x20x12x64xf32>
    %316 = stablehlo.constant dense<0> : tensor<i32>
    %317 = stablehlo.constant dense<7> : tensor<i32>
    %318 = stablehlo.add %316, %317 : tensor<i32>
    %319 = stablehlo.iota dim = 0 : tensor<20xi32>
    %320 = stablehlo.constant dense<0> : tensor<i32>
    %321 = stablehlo.constant dense<7> : tensor<i32>
    %322 = stablehlo.add %320, %321 : tensor<i32>
    %323 = stablehlo.broadcast_in_dim %322, dims = [] : (tensor<i32>) -> tensor<20xi32>
    %324 = stablehlo.compare  LT, %319, %323,  SIGNED : (tensor<20xi32>, tensor<20xi32>) -> tensor<20xi1>
    %325 = stablehlo.broadcast_in_dim %324, dims = [3] : (tensor<20xi1>) -> tensor<1x1x7x20xi1>
    %326 = stablehlo.constant dense<0.000000e+00> : tensor<f32>
    %327 = stablehlo.broadcast_in_dim %326, dims = [] : (tensor<f32>) -> tensor<1x1x7x20xf32>
    %328 = stablehlo.compare  NE, %291, %327,  FLOAT : (tensor<1x1x7x20xf32>, tensor<1x1x7x20xf32>) -> tensor<1x1x7x20xi1>
    %329 = stablehlo.and %325, %328 : tensor<1x1x7x20xi1>
    %330 = stablehlo.convert %329 : (tensor<1x1x7x20xi1>) -> tensor<1x1x7x20xf32>
    %331 = stablehlo.constant dense<0.000000e+00> : tensor<f32>
    %332 = stablehlo.broadcast_in_dim %331, dims = [] : (tensor<f32>) -> tensor<1x1x7x20xf32>
    %333 = stablehlo.compare  GT, %330, %332,  FLOAT : (tensor<1x1x7x20xf32>, tensor<1x1x7x20xf32>) -> tensor<1x1x7x20xi1>
    %334 = stablehlo.constant dense<0.000000e+00> : tensor<f32>
    %335 = stablehlo.broadcast_in_dim %334, dims = [] : (tensor<f32>) -> tensor<1x1x7x20xf32>
    %336 = stablehlo.convert %335 : tensor<1x1x7x20xf32>
    %337 = stablehlo.constant dense<-3.40282347E+38> : tensor<f32>
    %338 = stablehlo.broadcast_in_dim %337, dims = [] : (tensor<f32>) -> tensor<1x1x7x20xf32>
    %339 = stablehlo.select %333, %336, %338 : tensor<1x1x7x20xi1>, tensor<1x1x7x20xf32>
    %340 = stablehlo.constant dense<6.400000e+01> : tensor<f32>
    %341 = stablehlo.sqrt %340 : tensor<f32>
    %342 = stablehlo.convert %341 : tensor<f32>
    %343 = stablehlo.broadcast_in_dim %342, dims = [] : (tensor<f32>) -> tensor<1x7x12x64xf32>
    %344 = stablehlo.divide %269, %343 : tensor<1x7x12x64xf32>
    %345 = stablehlo.dot_general %344, %303, batching_dims = [0, 2] x [0, 2], contracting_dims = [3] x [3], precision = [DEFAULT, DEFAULT] : (tensor<1x7x12x64xf32>, tensor<1x20x12x64xf32>) -> tensor<1x12x7x20xf32>
    %346 = stablehlo.broadcast_in_dim %339, dims = [0, 1, 2, 3] : (tensor<1x1x7x20xf32>) -> tensor<1x12x7x20xf32>
    %347 = stablehlo.add %345, %346 : tensor<1x12x7x20xf32>
    %348 = stablehlo.constant dense<0xFF800000> : tensor<f32>
    %349 = stablehlo.reduce(%347 init: %348) applies stablehlo.maximum across dimensions = [3] : (tensor<1x12x7x20xf32>, tensor<f32>) -> tensor<1x12x7xf32>
    %350 = stablehlo.broadcast_in_dim %349, dims = [0, 1, 2] : (tensor<1x12x7xf32>) -> tensor<1x12x7x1xf32>
    %351 = stablehlo.broadcast_in_dim %350, dims = [0, 1, 2, 3] : (tensor<1x12x7x1xf32>) -> tensor<1x12x7x20xf32>
    %352 = stablehlo.subtract %347, %351 : tensor<1x12x7x20xf32>
    %353 = stablehlo.exponential %352 : tensor<1x12x7x20xf32>
    %354 = stablehlo.constant dense<0.000000e+00> : tensor<f32>
    %355 = stablehlo.reduce(%353 init: %354) applies stablehlo.add across dimensions = [3] : (tensor<1x12x7x20xf32>, tensor<f32>) -> tensor<1x12x7xf32>
    %356 = stablehlo.broadcast_in_dim %355, dims = [0, 1, 2] : (tensor<1x12x7xf32>) -> tensor<1x12x7x1xf32>
    %357 = stablehlo.broadcast_in_dim %356, dims = [0, 1, 2, 3] : (tensor<1x12x7x1xf32>) -> tensor<1x12x7x20xf32>
    %358 = stablehlo.divide %353, %357 : tensor<1x12x7x20xf32>
    %359 = stablehlo.dot_general %315, %358, batching_dims = [0, 2] x [0, 1], contracting_dims = [1] x [3], precision = [DEFAULT, DEFAULT] : (tensor<1x20x12x64xf32>, tensor<1x12x7x20xf32>) -> tensor<1x12x64x7xf32>
    %360 = stablehlo.transpose %359, dims = [0, 3, 1, 2] : (tensor<1x12x64x7xf32>) -> tensor<1x7x12x64xf32>
    %361 = stablehlo.reshape %360 : (tensor<1x7x12x64xf32>) -> tensor<1x7x768xf32>
    %362 = stablehlo.transpose %6, dims = [1, 0] : (tensor<768x768xf16>) -> tensor<768x768xf16>
    %363 = stablehlo.convert %362 : (tensor<768x768xf16>) -> tensor<768x768xf32>
    %364 = stablehlo.dot_general %361, %363, contracting_dims = [2] x [0], precision = [DEFAULT, DEFAULT] : (tensor<1x7x768xf32>, tensor<768x768xf32>) -> tensor<1x7x768xf32>
    %365 = stablehlo.convert %7 : (tensor<768xf16>) -> tensor<768xf32>
    %366 = stablehlo.broadcast_in_dim %365, dims = [2] : (tensor<768xf32>) -> tensor<1x1x768xf32>
    %367 = stablehlo.broadcast_in_dim %366, dims = [0, 1, 2] : (tensor<1x1x768xf32>) -> tensor<1x7x768xf32>
    %368 = stablehlo.add %364, %367 : tensor<1x7x768xf32>
    %369 = stablehlo.add %368, %216 : tensor<1x7x768xf32>
    %370 = stablehlo.multiply %369, %369 : tensor<1x7x768xf32>
    %371 = stablehlo.constant dense<0.000000e+00> : tensor<f32>
    %372 = stablehlo.reduce(%370 init: %371) applies stablehlo.add across dimensions = [2] : (tensor<1x7x768xf32>, tensor<f32>) -> tensor<1x7xf32>
    %373 = stablehlo.constant dense<7.680000e+02> : tensor<f32>
    %374 = stablehlo.broadcast_in_dim %373, dims = [] : (tensor<f32>) -> tensor<1x7xf32>
    %375 = stablehlo.divide %372, %374 : tensor<1x7xf32>
    %376 = stablehlo.constant dense<0.000000e+00> : tensor<f32>
    %377 = stablehlo.reduce(%369 init: %376) applies stablehlo.add across dimensions = [2] : (tensor<1x7x768xf32>, tensor<f32>) -> tensor<1x7xf32>
    %378 = stablehlo.constant dense<7.680000e+02> : tensor<f32>
    %379 = stablehlo.broadcast_in_dim %378, dims = [] : (tensor<f32>) -> tensor<1x7xf32>
    %380 = stablehlo.divide %377, %379 : tensor<1x7xf32>
    %381 = stablehlo.multiply %380, %380 : tensor<1x7xf32>
    %382 = stablehlo.subtract %375, %381 : tensor<1x7xf32>
    %383 = stablehlo.constant dense<0.000000e+00> : tensor<f32>
    %384 = stablehlo.broadcast_in_dim %383, dims = [] : (tensor<f32>) -> tensor<1x7xf32>
    %385 = stablehlo.maximum %384, %382 : tensor<1x7xf32>
    %386 = stablehlo.broadcast_in_dim %380, dims = [0, 1] : (tensor<1x7xf32>) -> tensor<1x7x1xf32>
    %387 = stablehlo.broadcast_in_dim %385, dims = [0, 1] : (tensor<1x7xf32>) -> tensor<1x7x1xf32>
    %388 = stablehlo.broadcast_in_dim %386, dims = [0, 1, 2] : (tensor<1x7x1xf32>) -> tensor<1x7x768xf32>
    %389 = stablehlo.subtract %369, %388 : tensor<1x7x768xf32>
    %390 = stablehlo.constant dense<9.99999974E-6> : tensor<f32>
    %391 = stablehlo.broadcast_in_dim %390, dims = [] : (tensor<f32>) -> tensor<1x7x1xf32>
    %392 = stablehlo.add %387, %391 : tensor<1x7x1xf32>
    %393 = stablehlo.rsqrt %392 : tensor<1x7x1xf32>
    %394 = stablehlo.reshape %8 : (tensor<768xf16>) -> tensor<1x1x768xf16>
    %395 = stablehlo.convert %394 : (tensor<1x1x768xf16>) -> tensor<1x1x768xf32>
    %396 = stablehlo.broadcast_in_dim %393, dims = [0, 1, 2] : (tensor<1x7x1xf32>) -> tensor<1x7x768xf32>
    %397 = stablehlo.broadcast_in_dim %395, dims = [0, 1, 2] : (tensor<1x1x768xf32>) -> tensor<1x7x768xf32>
    %398 = stablehlo.multiply %396, %397 : tensor<1x7x768xf32>
    %399 = stablehlo.multiply %389, %398 : tensor<1x7x768xf32>
    %400 = stablehlo.reshape %9 : (tensor<768xf16>) -> tensor<1x1x768xf16>
    %401 = stablehlo.convert %400 : (tensor<1x1x768xf16>) -> tensor<1x1x768xf32>
    %402 = stablehlo.broadcast_in_dim %401, dims = [0, 1, 2] : (tensor<1x1x768xf32>) -> tensor<1x7x768xf32>
    %403 = stablehlo.add %399, %402 : tensor<1x7x768xf32>
    %404 = stablehlo.transpose %10, dims = [1, 0] : (tensor<3072x768xf16>) -> tensor<768x3072xf16>
    %405 = stablehlo.convert %404 : (tensor<768x3072xf16>) -> tensor<768x3072xf32>
    %406 = stablehlo.dot_general %403, %405, contracting_dims = [2] x [0], precision = [DEFAULT, DEFAULT] : (tensor<1x7x768xf32>, tensor<768x3072xf32>) -> tensor<1x7x3072xf32>
    %407 = stablehlo.convert %11 : (tensor<3072xf16>) -> tensor<3072xf32>
    %408 = stablehlo.broadcast_in_dim %407, dims = [2] : (tensor<3072xf32>) -> tensor<1x1x3072xf32>
    %409 = stablehlo.broadcast_in_dim %408, dims = [0, 1, 2] : (tensor<1x1x3072xf32>) -> tensor<1x7x3072xf32>
    %410 = stablehlo.add %406, %409 : tensor<1x7x3072xf32>
    %411 = stablehlo.multiply %410, %410 : tensor<1x7x3072xf32>
    %412 = stablehlo.multiply %410, %411 : tensor<1x7x3072xf32>
    %413 = stablehlo.constant dense<4.471500e-02> : tensor<f32>
    %414 = stablehlo.broadcast_in_dim %413, dims = [] : (tensor<f32>) -> tensor<1x7x3072xf32>
    %415 = stablehlo.multiply %414, %412 : tensor<1x7x3072xf32>
    %416 = stablehlo.add %410, %415 : tensor<1x7x3072xf32>
    %417 = stablehlo.constant dense<0.797884583> : tensor<f32>
    %418 = stablehlo.broadcast_in_dim %417, dims = [] : (tensor<f32>) -> tensor<1x7x3072xf32>
    %419 = stablehlo.multiply %418, %416 : tensor<1x7x3072xf32>
    %420 = stablehlo.tanh %419 : tensor<1x7x3072xf32>
    %421 = stablehlo.constant dense<1.000000e+00> : tensor<f32>
    %422 = stablehlo.broadcast_in_dim %421, dims = [] : (tensor<f32>) -> tensor<1x7x3072xf32>
    %423 = stablehlo.add %422, %420 : tensor<1x7x3072xf32>
    %424 = stablehlo.constant dense<5.000000e-01> : tensor<f32>
    %425 = stablehlo.broadcast_in_dim %424, dims = [] : (tensor<f32>) -> tensor<1x7x3072xf32>
    %426 = stablehlo.multiply %425, %423 : tensor<1x7x3072xf32>
    %427 = stablehlo.multiply %410, %426 : tensor<1x7x3072xf32>
    %428 = stablehlo.transpose %12, dims = [1, 0] : (tensor<768x3072xf16>) -> tensor<3072x768xf16>
    %429 = stablehlo.convert %428 : (tensor<3072x768xf16>) -> tensor<3072x768xf32>
    %430 = stablehlo.dot_general %427, %429, contracting_dims = [2] x [0], precision = [DEFAULT, DEFAULT] : (tensor<1x7x3072xf32>, tensor<3072x768xf32>) -> tensor<1x7x768xf32>
    %431 = stablehlo.convert %13 : (tensor<768xf16>) -> tensor<768xf32>
    %432 = stablehlo.broadcast_in_dim %431, dims = [2] : (tensor<768xf32>) -> tensor<1x1x768xf32>
    %433 = stablehlo.broadcast_in_dim %432, dims = [0, 1, 2] : (tensor<1x1x768xf32>) -> tensor<1x7x768xf32>
    %434 = stablehlo.add %430, %433 : tensor<1x7x768xf32>
    %435 = stablehlo.add %369, %434 : tensor<1x7x768xf32>
    %436 = stablehlo.multiply %435, %435 : tensor<1x7x768xf32>
    %437 = stablehlo.constant dense<0.000000e+00> : tensor<f32>
    %438 = stablehlo.reduce(%436 init: %437) applies stablehlo.add across dimensions = [2] : (tensor<1x7x768xf32>, tensor<f32>) -> tensor<1x7xf32>
    %439 = stablehlo.constant dense<7.680000e+02> : tensor<f32>
    %440 = stablehlo.broadcast_in_dim %439, dims = [] : (tensor<f32>) -> tensor<1x7xf32>
    %441 = stablehlo.divide %438, %440 : tensor<1x7xf32>
    %442 = stablehlo.constant dense<0.000000e+00> : tensor<f32>
    %443 = stablehlo.reduce(%435 init: %442) applies stablehlo.add across dimensions = [2] : (tensor<1x7x768xf32>, tensor<f32>) -> tensor<1x7xf32>
    %444 = stablehlo.constant dense<7.680000e+02> : tensor<f32>
    %445 = stablehlo.broadcast_in_dim %444, dims = [] : (tensor<f32>) -> tensor<1x7xf32>
    %446 = stablehlo.divide %443, %445 : tensor<1x7xf32>
    %447 = stablehlo.multiply %446, %446 : tensor<1x7xf32>
    %448 = stablehlo.subtract %441, %447 : tensor<1x7xf32>
    %449 = stablehlo.constant dense<0.000000e+00> : tensor<f32>
    %450 = stablehlo.broadcast_in_dim %449, dims = [] : (tensor<f32>) -> tensor<1x7xf32>
    %451 = stablehlo.maximum %450, %448 : tensor<1x7xf32>
    %452 = stablehlo.broadcast_in_dim %446, dims = [0, 1] : (tensor<1x7xf32>) -> tensor<1x7x1xf32>
    %453 = stablehlo.broadcast_in_dim %451, dims = [0, 1] : (tensor<1x7xf32>) -> tensor<1x7x1xf32>
    %454 = stablehlo.broadcast_in_dim %452, dims = [0, 1, 2] : (tensor<1x7x1xf32>) -> tensor<1x7x768xf32>
    %455 = stablehlo.subtract %435, %454 : tensor<1x7x768xf32>
    %456 = stablehlo.constant dense<9.99999974E-6> : tensor<f32>
    %457 = stablehlo.broadcast_in_dim %456, dims = [] : (tensor<f32>) -> tensor<1x7x1xf32>
    %458 = stablehlo.add %453, %457 : tensor<1x7x1xf32>
    %459 = stablehlo.rsqrt %458 : tensor<1x7x1xf32>
    %460 = stablehlo.reshape %14 : (tensor<768xf16>) -> tensor<1x1x768xf16>
    %461 = stablehlo.convert %460 : (tensor<1x1x768xf16>) -> tensor<1x1x768xf32>
    %462 = stablehlo.broadcast_in_dim %459, dims = [0, 1, 2] : (tensor<1x7x1xf32>) -> tensor<1x7x768xf32>
    %463 = stablehlo.broadcast_in_dim %461, dims = [0, 1, 2] : (tensor<1x1x768xf32>) -> tensor<1x7x768xf32>
    %464 = stablehlo.multiply %462, %463 : tensor<1x7x768xf32>
    %465 = stablehlo.multiply %455, %464 : tensor<1x7x768xf32>
    %466 = stablehlo.reshape %15 : (tensor<768xf16>) -> tensor<1x1x768xf16>
    %467 = stablehlo.convert %466 : (tensor<1x1x768xf16>) -> tensor<1x1x768xf32>
    %468 = stablehlo.broadcast_in_dim %467, dims = [0, 1, 2] : (tensor<1x1x768xf32>) -> tensor<1x7x768xf32>
    %469 = stablehlo.add %465, %468 : tensor<1x7x768xf32>
    %470 = stablehlo.iota dim = 0 : tensor<1024xi32>
    %471 = stablehlo.broadcast_in_dim %470, dims = [1] : (tensor<1024xi32>) -> tensor<1x1024xi32>
    %472 = stablehlo.broadcast_in_dim %471, dims = [0, 1] : (tensor<1x1024xi32>) -> tensor<1x1024x1xi32>
    %473 = stablehlo.broadcast_in_dim %471, dims = [0, 2] : (tensor<1x1024xi32>) -> tensor<1x1x1024xi32>
    %474 = stablehlo.broadcast_in_dim %472, dims = [0, 1, 2] : (tensor<1x1024x1xi32>) -> tensor<1x1024x1024xi32>
    %475 = stablehlo.broadcast_in_dim %473, dims = [0, 1, 2] : (tensor<1x1x1024xi32>) -> tensor<1x1024x1024xi32>
    %476 = stablehlo.compare  GE, %474, %475,  SIGNED : (tensor<1x1024x1024xi32>, tensor<1x1024x1024xi32>) -> tensor<1x1024x1024xi1>
    %477 = stablehlo.broadcast_in_dim %476, dims = [0, 2, 3] : (tensor<1x1024x1024xi1>) -> tensor<1x1x1024x1024xi1>
    %478 = stablehlo.transpose %16, dims = [1, 0] : (tensor<2304x768xf16>) -> tensor<768x2304xf16>
    %479 = stablehlo.convert %478 : (tensor<768x2304xf16>) -> tensor<768x2304xf32>
    %480 = stablehlo.dot_general %469, %479, contracting_dims = [2] x [0], precision = [DEFAULT, DEFAULT] : (tensor<1x7x768xf32>, tensor<768x2304xf32>) -> tensor<1x7x2304xf32>
    %481 = stablehlo.convert %17 : (tensor<2304xf16>) -> tensor<2304xf32>
    %482 = stablehlo.broadcast_in_dim %481, dims = [2] : (tensor<2304xf32>) -> tensor<1x1x2304xf32>
    %483 = stablehlo.broadcast_in_dim %482, dims = [0, 1, 2] : (tensor<1x1x2304xf32>) -> tensor<1x7x2304xf32>
    %484 = stablehlo.add %480, %483 : tensor<1x7x2304xf32>
    %485 = stablehlo.slice %484 [0:1, 0:7, 0:768] : (tensor<1x7x2304xf32>) -> tensor<1x7x768xf32>
    %486 = stablehlo.slice %484 [0:1, 0:7, 768:1536] : (tensor<1x7x2304xf32>) -> tensor<1x7x768xf32>
    %487 = stablehlo.slice %484 [0:1, 0:7, 1536:2304] : (tensor<1x7x2304xf32>) -> tensor<1x7x768xf32>
    %488 = stablehlo.reshape %485 : (tensor<1x7x768xf32>) -> tensor<1x7x12x64xf32>
    %489 = stablehlo.reshape %486 : (tensor<1x7x768xf32>) -> tensor<1x7x12x64xf32>
    %490 = stablehlo.reshape %487 : (tensor<1x7x768xf32>) -> tensor<1x7x12x64xf32>
    %491 = stablehlo.constant dense<0> : tensor<i32>
    %492 = stablehlo.constant dense<0> : tensor<i32>
    %493 = stablehlo.compare  LT, %491, %492,  SIGNED : (tensor<i32>, tensor<i32>) -> tensor<i1>
    %494 = stablehlo.constant dense<0> : tensor<i32>
    %495 = stablehlo.constant dense<1024> : tensor<i32>
    %496 = stablehlo.add %494, %495 : tensor<i32>
    %497 = stablehlo.constant dense<0> : tensor<i32>
    %498 = stablehlo.select %493, %496, %497 : tensor<i1>, tensor<i32>
    %499 = stablehlo.constant dense<0> : tensor<i32>
    %500 = stablehlo.constant dense<0> : tensor<i32>
    %501 = stablehlo.constant dense<0> : tensor<i32>
    %502 = stablehlo.dynamic_slice %477, %499, %500, %498, %501, sizes = [1, 1, 7, 20] : (tensor<1x1x1024x1024xi1>, tensor<i32>, tensor<i32>, tensor<i32>, tensor<i32>) -> tensor<1x1x7x20xi1>
    %503 = stablehlo.broadcast_in_dim %211, dims = [0, 3] : (tensor<1x20xi32>) -> tensor<1x1x1x20xi32>
    %504 = stablehlo.reshape %503 : (tensor<1x1x1x20xi32>) -> tensor<1x1x20xi32>
    %505 = stablehlo.broadcast_in_dim %504, dims = [0, 1, 3] : (tensor<1x1x20xi32>) -> tensor<1x1x7x20xi32>
    %506 = stablehlo.constant dense<0> : tensor<i32>
    %507 = stablehlo.broadcast_in_dim %506, dims = [] : (tensor<i32>) -> tensor<1x1x7x20xi32>
    %508 = stablehlo.compare  NE, %505, %507,  SIGNED : (tensor<1x1x7x20xi32>, tensor<1x1x7x20xi32>) -> tensor<1x1x7x20xi1>
    %509 = stablehlo.and %508, %502 : tensor<1x1x7x20xi1>
    %510 = stablehlo.convert %509 : (tensor<1x1x7x20xi1>) -> tensor<1x1x7x20xf32>
    %511 = stablehlo.constant dense<0> : tensor<i32>
    %512 = stablehlo.constant dense<0> : tensor<i32>
    %513 = stablehlo.compare  LT, %511, %512,  SIGNED : (tensor<i32>, tensor<i32>) -> tensor<i1>
    %514 = stablehlo.constant dense<0> : tensor<i32>
    %515 = stablehlo.constant dense<20> : tensor<i32>
    %516 = stablehlo.add %514, %515 : tensor<i32>
    %517 = stablehlo.constant dense<0> : tensor<i32>
    %518 = stablehlo.select %513, %516, %517 : tensor<i1>, tensor<i32>
    %519 = stablehlo.constant dense<0> : tensor<i32>
    %520 = stablehlo.constant dense<0> : tensor<i32>
    %521 = stablehlo.constant dense<0> : tensor<i32>
    %522 = stablehlo.dynamic_update_slice %160, %489, %519, %518, %520, %521 : (tensor<1x20x12x64xf32>, tensor<1x7x12x64xf32>, tensor<i32>, tensor<i32>, tensor<i32>, tensor<i32>) -> tensor<1x20x12x64xf32>
    %523 = stablehlo.constant dense<0> : tensor<i32>
    %524 = stablehlo.constant dense<0> : tensor<i32>
    %525 = stablehlo.compare  LT, %523, %524,  SIGNED : (tensor<i32>, tensor<i32>) -> tensor<i1>
    %526 = stablehlo.constant dense<0> : tensor<i32>
    %527 = stablehlo.constant dense<20> : tensor<i32>
    %528 = stablehlo.add %526, %527 : tensor<i32>
    %529 = stablehlo.constant dense<0> : tensor<i32>
    %530 = stablehlo.select %525, %528, %529 : tensor<i1>, tensor<i32>
    %531 = stablehlo.constant dense<0> : tensor<i32>
    %532 = stablehlo.constant dense<0> : tensor<i32>
    %533 = stablehlo.constant dense<0> : tensor<i32>
    %534 = stablehlo.dynamic_update_slice %162, %490, %531, %530, %532, %533 : (tensor<1x20x12x64xf32>, tensor<1x7x12x64xf32>, tensor<i32>, tensor<i32>, tensor<i32>, tensor<i32>) -> tensor<1x20x12x64xf32>
    %535 = stablehlo.constant dense<0> : tensor<i32>
    %536 = stablehlo.constant dense<7> : tensor<i32>
    %537 = stablehlo.add %535, %536 : tensor<i32>
    %538 = stablehlo.iota dim = 0 : tensor<20xi32>
    %539 = stablehlo.constant dense<0> : tensor<i32>
    %540 = stablehlo.constant dense<7> : tensor<i32>
    %541 = stablehlo.add %539, %540 : tensor<i32>
    %542 = stablehlo.broadcast_in_dim %541, dims = [] : (tensor<i32>) -> tensor<20xi32>
    %543 = stablehlo.compare  LT, %538, %542,  SIGNED : (tensor<20xi32>, tensor<20xi32>) -> tensor<20xi1>
    %544 = stablehlo.broadcast_in_dim %543, dims = [3] : (tensor<20xi1>) -> tensor<1x1x7x20xi1>
    %545 = stablehlo.constant dense<0.000000e+00> : tensor<f32>
    %546 = stablehlo.broadcast_in_dim %545, dims = [] : (tensor<f32>) -> tensor<1x1x7x20xf32>
    %547 = stablehlo.compare  NE, %510, %546,  FLOAT : (tensor<1x1x7x20xf32>, tensor<1x1x7x20xf32>) -> tensor<1x1x7x20xi1>
    %548 = stablehlo.and %544, %547 : tensor<1x1x7x20xi1>
    %549 = stablehlo.convert %548 : (tensor<1x1x7x20xi1>) -> tensor<1x1x7x20xf32>
    %550 = stablehlo.constant dense<0.000000e+00> : tensor<f32>
    %551 = stablehlo.broadcast_in_dim %550, dims = [] : (tensor<f32>) -> tensor<1x1x7x20xf32>
    %552 = stablehlo.compare  GT, %549, %551,  FLOAT : (tensor<1x1x7x20xf32>, tensor<1x1x7x20xf32>) -> tensor<1x1x7x20xi1>
    %553 = stablehlo.constant dense<0.000000e+00> : tensor<f32>
    %554 = stablehlo.broadcast_in_dim %553, dims = [] : (tensor<f32>) -> tensor<1x1x7x20xf32>
    %555 = stablehlo.convert %554 : tensor<1x1x7x20xf32>
    %556 = stablehlo.constant dense<-3.40282347E+38> : tensor<f32>
    %557 = stablehlo.broadcast_in_dim %556, dims = [] : (tensor<f32>) -> tensor<1x1x7x20xf32>
    %558 = stablehlo.select %552, %555, %557 : tensor<1x1x7x20xi1>, tensor<1x1x7x20xf32>
    %559 = stablehlo.constant dense<6.400000e+01> : tensor<f32>
    %560 = stablehlo.sqrt %559 : tensor<f32>
    %561 = stablehlo.convert %560 : tensor<f32>
    %562 = stablehlo.broadcast_in_dim %561, dims = [] : (tensor<f32>) -> tensor<1x7x12x64xf32>
    %563 = stablehlo.divide %488, %562 : tensor<1x7x12x64xf32>
    %564 = stablehlo.dot_general %563, %522, batching_dims = [0, 2] x [0, 2], contracting_dims = [3] x [3], precision = [DEFAULT, DEFAULT] : (tensor<1x7x12x64xf32>, tensor<1x20x12x64xf32>) -> tensor<1x12x7x20xf32>
    %565 = stablehlo.broadcast_in_dim %558, dims = [0, 1, 2, 3] : (tensor<1x1x7x20xf32>) -> tensor<1x12x7x20xf32>
    %566 = stablehlo.add %564, %565 : tensor<1x12x7x20xf32>
    %567 = stablehlo.constant dense<0xFF800000> : tensor<f32>
    %568 = stablehlo.reduce(%566 init: %567) applies stablehlo.maximum across dimensions = [3] : (tensor<1x12x7x20xf32>, tensor<f32>) -> tensor<1x12x7xf32>
    %569 = stablehlo.broadcast_in_dim %568, dims = [0, 1, 2] : (tensor<1x12x7xf32>) -> tensor<1x12x7x1xf32>
    %570 = stablehlo.broadcast_in_dim %569, dims = [0, 1, 2, 3] : (tensor<1x12x7x1xf32>) -> tensor<1x12x7x20xf32>
    %571 = stablehlo.subtract %566, %570 : tensor<1x12x7x20xf32>
    %572 = stablehlo.exponential %571 : tensor<1x12x7x20xf32>
    %573 = stablehlo.constant dense<0.000000e+00> : tensor<f32>
    %574 = stablehlo.reduce(%572 init: %573) applies stablehlo.add across dimensions = [3] : (tensor<1x12x7x20xf32>, tensor<f32>) -> tensor<1x12x7xf32>
    %575 = stablehlo.broadcast_in_dim %574, dims = [0, 1, 2] : (tensor<1x12x7xf32>) -> tensor<1x12x7x1xf32>
    %576 = stablehlo.broadcast_in_dim %575, dims = [0, 1, 2, 3] : (tensor<1x12x7x1xf32>) -> tensor<1x12x7x20xf32>
    %577 = stablehlo.divide %572, %576 : tensor<1x12x7x20xf32>
    %578 = stablehlo.dot_general %534, %577, batching_dims = [0, 2] x [0, 1], contracting_dims = [1] x [3], precision = [DEFAULT, DEFAULT] : (tensor<1x20x12x64xf32>, tensor<1x12x7x20xf32>) -> tensor<1x12x64x7xf32>
    %579 = stablehlo.transpose %578, dims = [0, 3, 1, 2] : (tensor<1x12x64x7xf32>) -> tensor<1x7x12x64xf32>
    %580 = stablehlo.reshape %579 : (tensor<1x7x12x64xf32>) -> tensor<1x7x768xf32>
    %581 = stablehlo.transpose %18, dims = [1, 0] : (tensor<768x768xf16>) -> tensor<768x768xf16>
    %582 = stablehlo.convert %581 : (tensor<768x768xf16>) -> tensor<768x768xf32>
    %583 = stablehlo.dot_general %580, %582, contracting_dims = [2] x [0], precision = [DEFAULT, DEFAULT] : (tensor<1x7x768xf32>, tensor<768x768xf32>) -> tensor<1x7x768xf32>
    %584 = stablehlo.convert %19 : (tensor<768xf16>) -> tensor<768xf32>
    %585 = stablehlo.broadcast_in_dim %584, dims = [2] : (tensor<768xf32>) -> tensor<1x1x768xf32>
    %586 = stablehlo.broadcast_in_dim %585, dims = [0, 1, 2] : (tensor<1x1x768xf32>) -> tensor<1x7x768xf32>
    %587 = stablehlo.add %583, %586 : tensor<1x7x768xf32>
    %588 = stablehlo.add %587, %435 : tensor<1x7x768xf32>
    %589 = stablehlo.multiply %588, %588 : tensor<1x7x768xf32>
    %590 = stablehlo.constant dense<0.000000e+00> : tensor<f32>
    %591 = stablehlo.reduce(%589 init: %590) applies stablehlo.add across dimensions = [2] : (tensor<1x7x768xf32>, tensor<f32>) -> tensor<1x7xf32>
    %592 = stablehlo.constant dense<7.680000e+02> : tensor<f32>
    %593 = stablehlo.broadcast_in_dim %592, dims = [] : (tensor<f32>) -> tensor<1x7xf32>
    %594 = stablehlo.divide %591, %593 : tensor<1x7xf32>
    %595 = stablehlo.constant dense<0.000000e+00> : tensor<f32>
    %596 = stablehlo.reduce(%588 init: %595) applies stablehlo.add across dimensions = [2] : (tensor<1x7x768xf32>, tensor<f32>) -> tensor<1x7xf32>
    %597 = stablehlo.constant dense<7.680000e+02> : tensor<f32>
    %598 = stablehlo.broadcast_in_dim %597, dims = [] : (tensor<f32>) -> tensor<1x7xf32>
    %599 = stablehlo.divide %596, %598 : tensor<1x7xf32>
    %600 = stablehlo.multiply %599, %599 : tensor<1x7xf32>
    %601 = stablehlo.subtract %594, %600 : tensor<1x7xf32>
    %602 = stablehlo.constant dense<0.000000e+00> : tensor<f32>
    %603 = stablehlo.broadcast_in_dim %602, dims = [] : (tensor<f32>) -> tensor<1x7xf32>
    %604 = stablehlo.maximum %603, %601 : tensor<1x7xf32>
    %605 = stablehlo.broadcast_in_dim %599, dims = [0, 1] : (tensor<1x7xf32>) -> tensor<1x7x1xf32>
    %606 = stablehlo.broadcast_in_dim %604, dims = [0, 1] : (tensor<1x7xf32>) -> tensor<1x7x1xf32>
    %607 = stablehlo.broadcast_in_dim %605, dims = [0, 1, 2] : (tensor<1x7x1xf32>) -> tensor<1x7x768xf32>
    %608 = stablehlo.subtract %588, %607 : tensor<1x7x768xf32>
    %609 = stablehlo.constant dense<9.99999974E-6> : tensor<f32>
    %610 = stablehlo.broadcast_in_dim %609, dims = [] : (tensor<f32>) -> tensor<1x7x1xf32>
    %611 = stablehlo.add %606, %610 : tensor<1x7x1xf32>
    %612 = stablehlo.rsqrt %611 : tensor<1x7x1xf32>
    %613 = stablehlo.reshape %20 : (tensor<768xf16>) -> tensor<1x1x768xf16>
    %614 = stablehlo.convert %613 : (tensor<1x1x768xf16>) -> tensor<1x1x768xf32>
    %615 = stablehlo.broadcast_in_dim %612, dims = [0, 1, 2] : (tensor<1x7x1xf32>) -> tensor<1x7x768xf32>
    %616 = stablehlo.broadcast_in_dim %614, dims = [0, 1, 2] : (tensor<1x1x768xf32>) -> tensor<1x7x768xf32>
    %617 = stablehlo.multiply %615, %616 : tensor<1x7x768xf32>
    %618 = stablehlo.multiply %608, %617 : tensor<1x7x768xf32>
    %619 = stablehlo.reshape %21 : (tensor<768xf16>) -> tensor<1x1x768xf16>
    %620 = stablehlo.convert %619 : (tensor<1x1x768xf16>) -> tensor<1x1x768xf32>
    %621 = stablehlo.broadcast_in_dim %620, dims = [0, 1, 2] : (tensor<1x1x768xf32>) -> tensor<1x7x768xf32>
    %622 = stablehlo.add %618, %621 : tensor<1x7x768xf32>
    %623 = stablehlo.transpose %22, dims = [1, 0] : (tensor<3072x768xf16>) -> tensor<768x3072xf16>
    %624 = stablehlo.convert %623 : (tensor<768x3072xf16>) -> tensor<768x3072xf32>
    %625 = stablehlo.dot_general %622, %624, contracting_dims = [2] x [0], precision = [DEFAULT, DEFAULT] : (tensor<1x7x768xf32>, tensor<768x3072xf32>) -> tensor<1x7x3072xf32>
    %626 = stablehlo.convert %23 : (tensor<3072xf16>) -> tensor<3072xf32>
    %627 = stablehlo.broadcast_in_dim %626, dims = [2] : (tensor<3072xf32>) -> tensor<1x1x3072xf32>
    %628 = stablehlo.broadcast_in_dim %627, dims = [0, 1, 2] : (tensor<1x1x3072xf32>) -> tensor<1x7x3072xf32>
    %629 = stablehlo.add %625, %628 : tensor<1x7x3072xf32>
    %630 = stablehlo.multiply %629, %629 : tensor<1x7x3072xf32>
    %631 = stablehlo.multiply %629, %630 : tensor<1x7x3072xf32>
    %632 = stablehlo.constant dense<4.471500e-02> : tensor<f32>
    %633 = stablehlo.broadcast_in_dim %632, dims = [] : (tensor<f32>) -> tensor<1x7x3072xf32>
    %634 = stablehlo.multiply %633, %631 : tensor<1x7x3072xf32>
    %635 = stablehlo.add %629, %634 : tensor<1x7x3072xf32>
    %636 = stablehlo.constant dense<0.797884583> : tensor<f32>
    %637 = stablehlo.broadcast_in_dim %636, dims = [] : (tensor<f32>) -> tensor<1x7x3072xf32>
    %638 = stablehlo.multiply %637, %635 : tensor<1x7x3072xf32>
    %639 = stablehlo.tanh %638 : tensor<1x7x3072xf32>
    %640 = stablehlo.constant dense<1.000000e+00> : tensor<f32>
    %641 = stablehlo.broadcast_in_dim %640, dims = [] : (tensor<f32>) -> tensor<1x7x3072xf32>
    %642 = stablehlo.add %641, %639 : tensor<1x7x3072xf32>
    %643 = stablehlo.constant dense<5.000000e-01> : tensor<f32>
    %644 = stablehlo.broadcast_in_dim %643, dims = [] : (tensor<f32>) -> tensor<1x7x3072xf32>
    %645 = stablehlo.multiply %644, %642 : tensor<1x7x3072xf32>
    %646 = stablehlo.multiply %629, %645 : tensor<1x7x3072xf32>
    %647 = stablehlo.transpose %24, dims = [1, 0] : (tensor<768x3072xf16>) -> tensor<3072x768xf16>
    %648 = stablehlo.convert %647 : (tensor<3072x768xf16>) -> tensor<3072x768xf32>
    %649 = stablehlo.dot_general %646, %648, contracting_dims = [2] x [0], precision = [DEFAULT, DEFAULT] : (tensor<1x7x3072xf32>, tensor<3072x768xf32>) -> tensor<1x7x768xf32>
    %650 = stablehlo.convert %25 : (tensor<768xf16>) -> tensor<768xf32>
    %651 = stablehlo.broadcast_in_dim %650, dims = [2] : (tensor<768xf32>) -> tensor<1x1x768xf32>
    %652 = stablehlo.broadcast_in_dim %651, dims = [0, 1, 2] : (tensor<1x1x768xf32>) -> tensor<1x7x768xf32>
    %653 = stablehlo.add %649, %652 : tensor<1x7x768xf32>
    %654 = stablehlo.add %588, %653 : tensor<1x7x768xf32>
    %655 = stablehlo.multiply %654, %654 : tensor<1x7x768xf32>
    %656 = stablehlo.constant dense<0.000000e+00> : tensor<f32>
    %657 = stablehlo.reduce(%655 init: %656) applies stablehlo.add across dimensions = [2] : (tensor<1x7x768xf32>, tensor<f32>) -> tensor<1x7xf32>
    %658 = stablehlo.constant dense<7.680000e+02> : tensor<f32>
    %659 = stablehlo.broadcast_in_dim %658, dims = [] : (tensor<f32>) -> tensor<1x7xf32>
    %660 = stablehlo.divide %657, %659 : tensor<1x7xf32>
    %661 = stablehlo.constant dense<0.000000e+00> : tensor<f32>
    %662 = stablehlo.reduce(%654 init: %661) applies stablehlo.add across dimensions = [2] : (tensor<1x7x768xf32>, tensor<f32>) -> tensor<1x7xf32>
    %663 = stablehlo.constant dense<7.680000e+02> : tensor<f32>
    %664 = stablehlo.broadcast_in_dim %663, dims = [] : (tensor<f32>) -> tensor<1x7xf32>
    %665 = stablehlo.divide %662, %664 : tensor<1x7xf32>
    %666 = stablehlo.multiply %665, %665 : tensor<1x7xf32>
    %667 = stablehlo.subtract %660, %666 : tensor<1x7xf32>
    %668 = stablehlo.constant dense<0.000000e+00> : tensor<f32>
    %669 = stablehlo.broadcast_in_dim %668, dims = [] : (tensor<f32>) -> tensor<1x7xf32>
    %670 = stablehlo.maximum %669, %667 : tensor<1x7xf32>
    %671 = stablehlo.broadcast_in_dim %665, dims = [0, 1] : (tensor<1x7xf32>) -> tensor<1x7x1xf32>
    %672 = stablehlo.broadcast_in_dim %670, dims = [0, 1] : (tensor<1x7xf32>) -> tensor<1x7x1xf32>
    %673 = stablehlo.broadcast_in_dim %671, dims = [0, 1, 2] : (tensor<1x7x1xf32>) -> tensor<1x7x768xf32>
    %674 = stablehlo.subtract %654, %673 : tensor<1x7x768xf32>
    %675 = stablehlo.constant dense<9.99999974E-6> : tensor<f32>
    %676 = stablehlo.broadcast_in_dim %675, dims = [] : (tensor<f32>) -> tensor<1x7x1xf32>
    %677 = stablehlo.add %672, %676 : tensor<1x7x1xf32>
    %678 = stablehlo.rsqrt %677 : tensor<1x7x1xf32>
    %679 = stablehlo.reshape %26 : (tensor<768xf16>) -> tensor<1x1x768xf16>
    %680 = stablehlo.convert %679 : (tensor<1x1x768xf16>) -> tensor<1x1x768xf32>
    %681 = stablehlo.broadcast_in_dim %678, dims = [0, 1, 2] : (tensor<1x7x1xf32>) -> tensor<1x7x768xf32>
    %682 = stablehlo.broadcast_in_dim %680, dims = [0, 1, 2] : (tensor<1x1x768xf32>) -> tensor<1x7x768xf32>
    %683 = stablehlo.multiply %681, %682 : tensor<1x7x768xf32>
    %684 = stablehlo.multiply %674, %683 : tensor<1x7x768xf32>
    %685 = stablehlo.reshape %27 : (tensor<768xf16>) -> tensor<1x1x768xf16>
    %686 = stablehlo.convert %685 : (tensor<1x1x768xf16>) -> tensor<1x1x768xf32>
    %687 = stablehlo.broadcast_in_dim %686, dims = [0, 1, 2] : (tensor<1x1x768xf32>) -> tensor<1x7x768xf32>
    %688 = stablehlo.add %684, %687 : tensor<1x7x768xf32>
    %689 = stablehlo.iota dim = 0 : tensor<1024xi32>
    %690 = stablehlo.broadcast_in_dim %689, dims = [1] : (tensor<1024xi32>) -> tensor<1x1024xi32>
    %691 = stablehlo.broadcast_in_dim %690, dims = [0, 1] : (tensor<1x1024xi32>) -> tensor<1x1024x1xi32>
    %692 = stablehlo.broadcast_in_dim %690, dims = [0, 2] : (tensor<1x1024xi32>) -> tensor<1x1x1024xi32>
    %693 = stablehlo.broadcast_in_dim %691, dims = [0, 1, 2] : (tensor<1x1024x1xi32>) -> tensor<1x1024x1024xi32>
    %694 = stablehlo.broadcast_in_dim %692, dims = [0, 1, 2] : (tensor<1x1x1024xi32>) -> tensor<1x1024x1024xi32>
    %695 = stablehlo.compare  GE, %693, %694,  SIGNED : (tensor<1x1024x1024xi32>, tensor<1x1024x1024xi32>) -> tensor<1x1024x1024xi1>
    %696 = stablehlo.broadcast_in_dim %695, dims = [0, 2, 3] : (tensor<1x1024x1024xi1>) -> tensor<1x1x1024x1024xi1>
    %697 = stablehlo.transpose %28, dims = [1, 0] : (tensor<2304x768xf16>) -> tensor<768x2304xf16>
    %698 = stablehlo.convert %697 : (tensor<768x2304xf16>) -> tensor<768x2304xf32>
    %699 = stablehlo.dot_general %688, %698, contracting_dims = [2] x [0], precision = [DEFAULT, DEFAULT] : (tensor<1x7x768xf32>, tensor<768x2304xf32>) -> tensor<1x7x2304xf32>
    %700 = stablehlo.convert %29 : (tensor<2304xf16>) -> tensor<2304xf32>
    %701 = stablehlo.broadcast_in_dim %700, dims = [2] : (tensor<2304xf32>) -> tensor<1x1x2304xf32>
    %702 = stablehlo.broadcast_in_dim %701, dims = [0, 1, 2] : (tensor<1x1x2304xf32>) -> tensor<1x7x2304xf32>
    %703 = stablehlo.add %699, %702 : tensor<1x7x2304xf32>
    %704 = stablehlo.slice %703 [0:1, 0:7, 0:768] : (tensor<1x7x2304xf32>) -> tensor<1x7x768xf32>
    %705 = stablehlo.slice %703 [0:1, 0:7, 768:1536] : (tensor<1x7x2304xf32>) -> tensor<1x7x768xf32>
    %706 = stablehlo.slice %703 [0:1, 0:7, 1536:2304] : (tensor<1x7x2304xf32>) -> tensor<1x7x768xf32>
    %707 = stablehlo.reshape %704 : (tensor<1x7x768xf32>) -> tensor<1x7x12x64xf32>
    %708 = stablehlo.reshape %705 : (tensor<1x7x768xf32>) -> tensor<1x7x12x64xf32>
    %709 = stablehlo.reshape %706 : (tensor<1x7x768xf32>) -> tensor<1x7x12x64xf32>
    %710 = stablehlo.constant dense<0> : tensor<i32>
    %711 = stablehlo.constant dense<0> : tensor<i32>
    %712 = stablehlo.compare  LT, %710, %711,  SIGNED : (tensor<i32>, tensor<i32>) -> tensor<i1>
    %713 = stablehlo.constant dense<0> : tensor<i32>
    %714 = stablehlo.constant dense<1024> : tensor<i32>
    %715 = stablehlo.add %713, %714 : tensor<i32>
    %716 = stablehlo.constant dense<0> : tensor<i32>
    %717 = stablehlo.select %712, %715, %716 : tensor<i1>, tensor<i32>
    %718 = stablehlo.constant dense<0> : tensor<i32>
    %719 = stablehlo.constant dense<0> : tensor<i32>
    %720 = stablehlo.constant dense<0> : tensor<i32>
    %721 = stablehlo.dynamic_slice %696, %718, %719, %717, %720, sizes = [1, 1, 7, 20] : (tensor<1x1x1024x1024xi1>, tensor<i32>, tensor<i32>, tensor<i32>, tensor<i32>) -> tensor<1x1x7x20xi1>
    %722 = stablehlo.broadcast_in_dim %211, dims = [0, 3] : (tensor<1x20xi32>) -> tensor<1x1x1x20xi32>
    %723 = stablehlo.reshape %722 : (tensor<1x1x1x20xi32>) -> tensor<1x1x20xi32>
    %724 = stablehlo.broadcast_in_dim %723, dims = [0, 1, 3] : (tensor<1x1x20xi32>) -> tensor<1x1x7x20xi32>
    %725 = stablehlo.constant dense<0> : tensor<i32>
    %726 = stablehlo.broadcast_in_dim %725, dims = [] : (tensor<i32>) -> tensor<1x1x7x20xi32>
    %727 = stablehlo.compare  NE, %724, %726,  SIGNED : (tensor<1x1x7x20xi32>, tensor<1x1x7x20xi32>) -> tensor<1x1x7x20xi1>
    %728 = stablehlo.and %727, %721 : tensor<1x1x7x20xi1>
    %729 = stablehlo.convert %728 : (tensor<1x1x7x20xi1>) -> tensor<1x1x7x20xf32>
    %730 = stablehlo.constant dense<0> : tensor<i32>
    %731 = stablehlo.constant dense<0> : tensor<i32>
    %732 = stablehlo.compare  LT, %730, %731,  SIGNED : (tensor<i32>, tensor<i32>) -> tensor<i1>
    %733 = stablehlo.constant dense<0> : tensor<i32>
    %734 = stablehlo.constant dense<20> : tensor<i32>
    %735 = stablehlo.add %733, %734 : tensor<i32>
    %736 = stablehlo.constant dense<0> : tensor<i32>
    %737 = stablehlo.select %732, %735, %736 : tensor<i1>, tensor<i32>
    %738 = stablehlo.constant dense<0> : tensor<i32>
    %739 = stablehlo.constant dense<0> : tensor<i32>
    %740 = stablehlo.constant dense<0> : tensor<i32>
    %741 = stablehlo.dynamic_update_slice %164, %708, %738, %737, %739, %740 : (tensor<1x20x12x64xf32>, tensor<1x7x12x64xf32>, tensor<i32>, tensor<i32>, tensor<i32>, tensor<i32>) -> tensor<1x20x12x64xf32>
    %742 = stablehlo.constant dense<0> : tensor<i32>
    %743 = stablehlo.constant dense<0> : tensor<i32>
    %744 = stablehlo.compare  LT, %742, %743,  SIGNED : (tensor<i32>, tensor<i32>) -> tensor<i1>
    %745 = stablehlo.constant dense<0> : tensor<i32>
    %746 = stablehlo.constant dense<20> : tensor<i32>
    %747 = stablehlo.add %745, %746 : tensor<i32>
    %748 = stablehlo.constant dense<0> : tensor<i32>
    %749 = stablehlo.select %744, %747, %748 : tensor<i1>, tensor<i32>
    %750 = stablehlo.constant dense<0> : tensor<i32>
    %751 = stablehlo.constant dense<0> : tensor<i32>
    %752 = stablehlo.constant dense<0> : tensor<i32>
    %753 = stablehlo.dynamic_update_slice %166, %709, %750, %749, %751, %752 : (tensor<1x20x12x64xf32>, tensor<1x7x12x64xf32>, tensor<i32>, tensor<i32>, tensor<i32>, tensor<i32>) -> tensor<1x20x12x64xf32>
    %754 = stablehlo.constant dense<0> : tensor<i32>
    %755 = stablehlo.constant dense<7> : tensor<i32>
    %756 = stablehlo.add %754, %755 : tensor<i32>
    %757 = stablehlo.iota dim = 0 : tensor<20xi32>
    %758 = stablehlo.constant dense<0> : tensor<i32>
    %759 = stablehlo.constant dense<7> : tensor<i32>
    %760 = stablehlo.add %758, %759 : tensor<i32>
    %761 = stablehlo.broadcast_in_dim %760, dims = [] : (tensor<i32>) -> tensor<20xi32>
    %762 = stablehlo.compare  LT, %757, %761,  SIGNED : (tensor<20xi32>, tensor<20xi32>) -> tensor<20xi1>
    %763 = stablehlo.broadcast_in_dim %762, dims = [3] : (tensor<20xi1>) -> tensor<1x1x7x20xi1>
    %764 = stablehlo.constant dense<0.000000e+00> : tensor<f32>
    %765 = stablehlo.broadcast_in_dim %764, dims = [] : (tensor<f32>) -> tensor<1x1x7x20xf32>
    %766 = stablehlo.compare  NE, %729, %765,  FLOAT : (tensor<1x1x7x20xf32>, tensor<1x1x7x20xf32>) -> tensor<1x1x7x20xi1>
    %767 = stablehlo.and %763, %766 : tensor<1x1x7x20xi1>
    %768 = stablehlo.convert %767 : (tensor<1x1x7x20xi1>) -> tensor<1x1x7x20xf32>
    %769 = stablehlo.constant dense<0.000000e+00> : tensor<f32>
    %770 = stablehlo.broadcast_in_dim %769, dims = [] : (tensor<f32>) -> tensor<1x1x7x20xf32>
    %771 = stablehlo.compare  GT, %768, %770,  FLOAT : (tensor<1x1x7x20xf32>, tensor<1x1x7x20xf32>) -> tensor<1x1x7x20xi1>
    %772 = stablehlo.constant dense<0.000000e+00> : tensor<f32>
    %773 = stablehlo.broadcast_in_dim %772, dims = [] : (tensor<f32>) -> tensor<1x1x7x20xf32>
    %774 = stablehlo.convert %773 : tensor<1x1x7x20xf32>
    %775 = stablehlo.constant dense<-3.40282347E+38> : tensor<f32>
    %776 = stablehlo.broadcast_in_dim %775, dims = [] : (tensor<f32>) -> tensor<1x1x7x20xf32>
    %777 = stablehlo.select %771, %774, %776 : tensor<1x1x7x20xi1>, tensor<1x1x7x20xf32>
    %778 = stablehlo.constant dense<6.400000e+01> : tensor<f32>
    %779 = stablehlo.sqrt %778 : tensor<f32>
    %780 = stablehlo.convert %779 : tensor<f32>
    %781 = stablehlo.broadcast_in_dim %780, dims = [] : (tensor<f32>) -> tensor<1x7x12x64xf32>
    %782 = stablehlo.divide %707, %781 : tensor<1x7x12x64xf32>
    %783 = stablehlo.dot_general %782, %741, batching_dims = [0, 2] x [0, 2], contracting_dims = [3] x [3], precision = [DEFAULT, DEFAULT] : (tensor<1x7x12x64xf32>, tensor<1x20x12x64xf32>) -> tensor<1x12x7x20xf32>
    %784 = stablehlo.broadcast_in_dim %777, dims = [0, 1, 2, 3] : (tensor<1x1x7x20xf32>) -> tensor<1x12x7x20xf32>
    %785 = stablehlo.add %783, %784 : tensor<1x12x7x20xf32>
    %786 = stablehlo.constant dense<0xFF800000> : tensor<f32>
    %787 = stablehlo.reduce(%785 init: %786) applies stablehlo.maximum across dimensions = [3] : (tensor<1x12x7x20xf32>, tensor<f32>) -> tensor<1x12x7xf32>
    %788 = stablehlo.broadcast_in_dim %787, dims = [0, 1, 2] : (tensor<1x12x7xf32>) -> tensor<1x12x7x1xf32>
    %789 = stablehlo.broadcast_in_dim %788, dims = [0, 1, 2, 3] : (tensor<1x12x7x1xf32>) -> tensor<1x12x7x20xf32>
    %790 = stablehlo.subtract %785, %789 : tensor<1x12x7x20xf32>
    %791 = stablehlo.exponential %790 : tensor<1x12x7x20xf32>
    %792 = stablehlo.constant dense<0.000000e+00> : tensor<f32>
    %793 = stablehlo.reduce(%791 init: %792) applies stablehlo.add across dimensions = [3] : (tensor<1x12x7x20xf32>, tensor<f32>) -> tensor<1x12x7xf32>
    %794 = stablehlo.broadcast_in_dim %793, dims = [0, 1, 2] : (tensor<1x12x7xf32>) -> tensor<1x12x7x1xf32>
    %795 = stablehlo.broadcast_in_dim %794, dims = [0, 1, 2, 3] : (tensor<1x12x7x1xf32>) -> tensor<1x12x7x20xf32>
    %796 = stablehlo.divide %791, %795 : tensor<1x12x7x20xf32>
    %797 = stablehlo.dot_general %753, %796, batching_dims = [0, 2] x [0, 1], contracting_dims = [1] x [3], precision = [DEFAULT, DEFAULT] : (tensor<1x20x12x64xf32>, tensor<1x12x7x20xf32>) -> tensor<1x12x64x7xf32>
    %798 = stablehlo.transpose %797, dims = [0, 3, 1, 2] : (tensor<1x12x64x7xf32>) -> tensor<1x7x12x64xf32>
    %799 = stablehlo.reshape %798 : (tensor<1x7x12x64xf32>) -> tensor<1x7x768xf32>
    %800 = stablehlo.transpose %30, dims = [1, 0] : (tensor<768x768xf16>) -> tensor<768x768xf16>
    %801 = stablehlo.convert %800 : (tensor<768x768xf16>) -> tensor<768x768xf32>
    %802 = stablehlo.dot_general %799, %801, contracting_dims = [2] x [0], precision = [DEFAULT, DEFAULT] : (tensor<1x7x768xf32>, tensor<768x768xf32>) -> tensor<1x7x768xf32>
    %803 = stablehlo.convert %31 : (tensor<768xf16>) -> tensor<768xf32>
    %804 = stablehlo.broadcast_in_dim %803, dims = [2] : (tensor<768xf32>) -> tensor<1x1x768xf32>
    %805 = stablehlo.broadcast_in_dim %804, dims = [0, 1, 2] : (tensor<1x1x768xf32>) -> tensor<1x7x768xf32>
    %806 = stablehlo.add %802, %805 : tensor<1x7x768xf32>
    %807 = stablehlo.add %806, %654 : tensor<1x7x768xf32>
    %808 = stablehlo.multiply %807, %807 : tensor<1x7x768xf32>
    %809 = stablehlo.constant dense<0.000000e+00> : tensor<f32>
    %810 = stablehlo.reduce(%808 init: %809) applies stablehlo.add across dimensions = [2] : (tensor<1x7x768xf32>, tensor<f32>) -> tensor<1x7xf32>
    %811 = stablehlo.constant dense<7.680000e+02> : tensor<f32>
    %812 = stablehlo.broadcast_in_dim %811, dims = [] : (tensor<f32>) -> tensor<1x7xf32>
    %813 = stablehlo.divide %810, %812 : tensor<1x7xf32>
    %814 = stablehlo.constant dense<0.000000e+00> : tensor<f32>
    %815 = stablehlo.reduce(%807 init: %814) applies stablehlo.add across dimensions = [2] : (tensor<1x7x768xf32>, tensor<f32>) -> tensor<1x7xf32>
    %816 = stablehlo.constant dense<7.680000e+02> : tensor<f32>
    %817 = stablehlo.broadcast_in_dim %816, dims = [] : (tensor<f32>) -> tensor<1x7xf32>
    %818 = stablehlo.divide %815, %817 : tensor<1x7xf32>
    %819 = stablehlo.multiply %818, %818 : tensor<1x7xf32>
    %820 = stablehlo.subtract %813, %819 : tensor<1x7xf32>
    %821 = stablehlo.constant dense<0.000000e+00> : tensor<f32>
    %822 = stablehlo.broadcast_in_dim %821, dims = [] : (tensor<f32>) -> tensor<1x7xf32>
    %823 = stablehlo.maximum %822, %820 : tensor<1x7xf32>
    %824 = stablehlo.broadcast_in_dim %818, dims = [0, 1] : (tensor<1x7xf32>) -> tensor<1x7x1xf32>
    %825 = stablehlo.broadcast_in_dim %823, dims = [0, 1] : (tensor<1x7xf32>) -> tensor<1x7x1xf32>
    %826 = stablehlo.broadcast_in_dim %824, dims = [0, 1, 2] : (tensor<1x7x1xf32>) -> tensor<1x7x768xf32>
    %827 = stablehlo.subtract %807, %826 : tensor<1x7x768xf32>
    %828 = stablehlo.constant dense<9.99999974E-6> : tensor<f32>
    %829 = stablehlo.broadcast_in_dim %828, dims = [] : (tensor<f32>) -> tensor<1x7x1xf32>
    %830 = stablehlo.add %825, %829 : tensor<1x7x1xf32>
    %831 = stablehlo.rsqrt %830 : tensor<1x7x1xf32>
    %832 = stablehlo.reshape %32 : (tensor<768xf16>) -> tensor<1x1x768xf16>
    %833 = stablehlo.convert %832 : (tensor<1x1x768xf16>) -> tensor<1x1x768xf32>
    %834 = stablehlo.broadcast_in_dim %831, dims = [0, 1, 2] : (tensor<1x7x1xf32>) -> tensor<1x7x768xf32>
    %835 = stablehlo.broadcast_in_dim %833, dims = [0, 1, 2] : (tensor<1x1x768xf32>) -> tensor<1x7x768xf32>
    %836 = stablehlo.multiply %834, %835 : tensor<1x7x768xf32>
    %837 = stablehlo.multiply %827, %836 : tensor<1x7x768xf32>
    %838 = stablehlo.reshape %33 : (tensor<768xf16>) -> tensor<1x1x768xf16>
    %839 = stablehlo.convert %838 : (tensor<1x1x768xf16>) -> tensor<1x1x768xf32>
    %840 = stablehlo.broadcast_in_dim %839, dims = [0, 1, 2] : (tensor<1x1x768xf32>) -> tensor<1x7x768xf32>
    %841 = stablehlo.add %837, %840 : tensor<1x7x768xf32>
    %842 = stablehlo.transpose %34, dims = [1, 0] : (tensor<3072x768xf16>) -> tensor<768x3072xf16>
    %843 = stablehlo.convert %842 : (tensor<768x3072xf16>) -> tensor<768x3072xf32>
    %844 = stablehlo.dot_general %841, %843, contracting_dims = [2] x [0], precision = [DEFAULT, DEFAULT] : (tensor<1x7x768xf32>, tensor<768x3072xf32>) -> tensor<1x7x3072xf32>
    %845 = stablehlo.convert %35 : (tensor<3072xf16>) -> tensor<3072xf32>
    %846 = stablehlo.broadcast_in_dim %845, dims = [2] : (tensor<3072xf32>) -> tensor<1x1x3072xf32>
    %847 = stablehlo.broadcast_in_dim %846, dims = [0, 1, 2] : (tensor<1x1x3072xf32>) -> tensor<1x7x3072xf32>
    %848 = stablehlo.add %844, %847 : tensor<1x7x3072xf32>
    %849 = stablehlo.multiply %848, %848 : tensor<1x7x3072xf32>
    %850 = stablehlo.multiply %848, %849 : tensor<1x7x3072xf32>
    %851 = stablehlo.constant dense<4.471500e-02> : tensor<f32>
    %852 = stablehlo.broadcast_in_dim %851, dims = [] : (tensor<f32>) -> tensor<1x7x3072xf32>
    %853 = stablehlo.multiply %852, %850 : tensor<1x7x3072xf32>
    %854 = stablehlo.add %848, %853 : tensor<1x7x3072xf32>
    %855 = stablehlo.constant dense<0.797884583> : tensor<f32>
    %856 = stablehlo.broadcast_in_dim %855, dims = [] : (tensor<f32>) -> tensor<1x7x3072xf32>
    %857 = stablehlo.multiply %856, %854 : tensor<1x7x3072xf32>
    %858 = stablehlo.tanh %857 : tensor<1x7x3072xf32>
    %859 = stablehlo.constant dense<1.000000e+00> : tensor<f32>
    %860 = stablehlo.broadcast_in_dim %859, dims = [] : (tensor<f32>) -> tensor<1x7x3072xf32>
    %861 = stablehlo.add %860, %858 : tensor<1x7x3072xf32>
    %862 = stablehlo.constant dense<5.000000e-01> : tensor<f32>
    %863 = stablehlo.broadcast_in_dim %862, dims = [] : (tensor<f32>) -> tensor<1x7x3072xf32>
    %864 = stablehlo.multiply %863, %861 : tensor<1x7x3072xf32>
    %865 = stablehlo.multiply %848, %864 : tensor<1x7x3072xf32>
    %866 = stablehlo.transpose %36, dims = [1, 0] : (tensor<768x3072xf16>) -> tensor<3072x768xf16>
    %867 = stablehlo.convert %866 : (tensor<3072x768xf16>) -> tensor<3072x768xf32>
    %868 = stablehlo.dot_general %865, %867, contracting_dims = [2] x [0], precision = [DEFAULT, DEFAULT] : (tensor<1x7x3072xf32>, tensor<3072x768xf32>) -> tensor<1x7x768xf32>
    %869 = stablehlo.convert %37 : (tensor<768xf16>) -> tensor<768xf32>
    %870 = stablehlo.broadcast_in_dim %869, dims = [2] : (tensor<768xf32>) -> tensor<1x1x768xf32>
    %871 = stablehlo.broadcast_in_dim %870, dims = [0, 1, 2] : (tensor<1x1x768xf32>) -> tensor<1x7x768xf32>
    %872 = stablehlo.add %868, %871 : tensor<1x7x768xf32>
    %873 = stablehlo.add %807, %872 : tensor<1x7x768xf32>
    %874 = stablehlo.multiply %873, %873 : tensor<1x7x768xf32>
    %875 = stablehlo.constant dense<0.000000e+00> : tensor<f32>
    %876 = stablehlo.reduce(%874 init: %875) applies stablehlo.add across dimensions = [2] : (tensor<1x7x768xf32>, tensor<f32>) -> tensor<1x7xf32>
    %877 = stablehlo.constant dense<7.680000e+02> : tensor<f32>
    %878 = stablehlo.broadcast_in_dim %877, dims = [] : (tensor<f32>) -> tensor<1x7xf32>
    %879 = stablehlo.divide %876, %878 : tensor<1x7xf32>
    %880 = stablehlo.constant dense<0.000000e+00> : tensor<f32>
    %881 = stablehlo.reduce(%873 init: %880) applies stablehlo.add across dimensions = [2] : (tensor<1x7x768xf32>, tensor<f32>) -> tensor<1x7xf32>
    %882 = stablehlo.constant dense<7.680000e+02> : tensor<f32>
    %883 = stablehlo.broadcast_in_dim %882, dims = [] : (tensor<f32>) -> tensor<1x7xf32>
    %884 = stablehlo.divide %881, %883 : tensor<1x7xf32>
    %885 = stablehlo.multiply %884, %884 : tensor<1x7xf32>
    %886 = stablehlo.subtract %879, %885 : tensor<1x7xf32>
    %887 = stablehlo.constant dense<0.000000e+00> : tensor<f32>
    %888 = stablehlo.broadcast_in_dim %887, dims = [] : (tensor<f32>) -> tensor<1x7xf32>
    %889 = stablehlo.maximum %888, %886 : tensor<1x7xf32>
    %890 = stablehlo.broadcast_in_dim %884, dims = [0, 1] : (tensor<1x7xf32>) -> tensor<1x7x1xf32>
    %891 = stablehlo.broadcast_in_dim %889, dims = [0, 1] : (tensor<1x7xf32>) -> tensor<1x7x1xf32>
    %892 = stablehlo.broadcast_in_dim %890, dims = [0, 1, 2] : (tensor<1x7x1xf32>) -> tensor<1x7x768xf32>
    %893 = stablehlo.subtract %873, %892 : tensor<1x7x768xf32>
    %894 = stablehlo.constant dense<9.99999974E-6> : tensor<f32>
    %895 = stablehlo.broadcast_in_dim %894, dims = [] : (tensor<f32>) -> tensor<1x7x1xf32>
    %896 = stablehlo.add %891, %895 : tensor<1x7x1xf32>
    %897 = stablehlo.rsqrt %896 : tensor<1x7x1xf32>
    %898 = stablehlo.reshape %38 : (tensor<768xf16>) -> tensor<1x1x768xf16>
    %899 = stablehlo.convert %898 : (tensor<1x1x768xf16>) -> tensor<1x1x768xf32>
    %900 = stablehlo.broadcast_in_dim %897, dims = [0, 1, 2] : (tensor<1x7x1xf32>) -> tensor<1x7x768xf32>
    %901 = stablehlo.broadcast_in_dim %899, dims = [0, 1, 2] : (tensor<1x1x768xf32>) -> tensor<1x7x768xf32>
    %902 = stablehlo.multiply %900, %901 : tensor<1x7x768xf32>
    %903 = stablehlo.multiply %893, %902 : tensor<1x7x768xf32>
    %904 = stablehlo.reshape %39 : (tensor<768xf16>) -> tensor<1x1x768xf16>
    %905 = stablehlo.convert %904 : (tensor<1x1x768xf16>) -> tensor<1x1x768xf32>
    %906 = stablehlo.broadcast_in_dim %905, dims = [0, 1, 2] : (tensor<1x1x768xf32>) -> tensor<1x7x768xf32>
    %907 = stablehlo.add %903, %906 : tensor<1x7x768xf32>
    %908 = stablehlo.iota dim = 0 : tensor<1024xi32>
    %909 = stablehlo.broadcast_in_dim %908, dims = [1] : (tensor<1024xi32>) -> tensor<1x1024xi32>
    %910 = stablehlo.broadcast_in_dim %909, dims = [0, 1] : (tensor<1x1024xi32>) -> tensor<1x1024x1xi32>
    %911 = stablehlo.broadcast_in_dim %909, dims = [0, 2] : (tensor<1x1024xi32>) -> tensor<1x1x1024xi32>
    %912 = stablehlo.broadcast_in_dim %910, dims = [0, 1, 2] : (tensor<1x1024x1xi32>) -> tensor<1x1024x1024xi32>
    %913 = stablehlo.broadcast_in_dim %911, dims = [0, 1, 2] : (tensor<1x1x1024xi32>) -> tensor<1x1024x1024xi32>
    %914 = stablehlo.compare  GE, %912, %913,  SIGNED : (tensor<1x1024x1024xi32>, tensor<1x1024x1024xi32>) -> tensor<1x1024x1024xi1>
    %915 = stablehlo.broadcast_in_dim %914, dims = [0, 2, 3] : (tensor<1x1024x1024xi1>) -> tensor<1x1x1024x1024xi1>
    %916 = stablehlo.transpose %40, dims = [1, 0] : (tensor<2304x768xf16>) -> tensor<768x2304xf16>
    %917 = stablehlo.convert %916 : (tensor<768x2304xf16>) -> tensor<768x2304xf32>
    %918 = stablehlo.dot_general %907, %917, contracting_dims = [2] x [0], precision = [DEFAULT, DEFAULT] : (tensor<1x7x768xf32>, tensor<768x2304xf32>) -> tensor<1x7x2304xf32>
    %919 = stablehlo.convert %41 : (tensor<2304xf16>) -> tensor<2304xf32>
    %920 = stablehlo.broadcast_in_dim %919, dims = [2] : (tensor<2304xf32>) -> tensor<1x1x2304xf32>
    %921 = stablehlo.broadcast_in_dim %920, dims = [0, 1, 2] : (tensor<1x1x2304xf32>) -> tensor<1x7x2304xf32>
    %922 = stablehlo.add %918, %921 : tensor<1x7x2304xf32>
    %923 = stablehlo.slice %922 [0:1, 0:7, 0:768] : (tensor<1x7x2304xf32>) -> tensor<1x7x768xf32>
    %924 = stablehlo.slice %922 [0:1, 0:7, 768:1536] : (tensor<1x7x2304xf32>) -> tensor<1x7x768xf32>
    %925 = stablehlo.slice %922 [0:1, 0:7, 1536:2304] : (tensor<1x7x2304xf32>) -> tensor<1x7x768xf32>
    %926 = stablehlo.reshape %923 : (tensor<1x7x768xf32>) -> tensor<1x7x12x64xf32>
    %927 = stablehlo.reshape %924 : (tensor<1x7x768xf32>) -> tensor<1x7x12x64xf32>
    %928 = stablehlo.reshape %925 : (tensor<1x7x768xf32>) -> tensor<1x7x12x64xf32>
    %929 = stablehlo.constant dense<0> : tensor<i32>
    %930 = stablehlo.constant dense<0> : tensor<i32>
    %931 = stablehlo.compare  LT, %929, %930,  SIGNED : (tensor<i32>, tensor<i32>) -> tensor<i1>
    %932 = stablehlo.constant dense<0> : tensor<i32>
    %933 = stablehlo.constant dense<1024> : tensor<i32>
    %934 = stablehlo.add %932, %933 : tensor<i32>
    %935 = stablehlo.constant dense<0> : tensor<i32>
    %936 = stablehlo.select %931, %934, %935 : tensor<i1>, tensor<i32>
    %937 = stablehlo.constant dense<0> : tensor<i32>
    %938 = stablehlo.constant dense<0> : tensor<i32>
    %939 = stablehlo.constant dense<0> : tensor<i32>
    %940 = stablehlo.dynamic_slice %915, %937, %938, %936, %939, sizes = [1, 1, 7, 20] : (tensor<1x1x1024x1024xi1>, tensor<i32>, tensor<i32>, tensor<i32>, tensor<i32>) -> tensor<1x1x7x20xi1>
    %941 = stablehlo.broadcast_in_dim %211, dims = [0, 3] : (tensor<1x20xi32>) -> tensor<1x1x1x20xi32>
    %942 = stablehlo.reshape %941 : (tensor<1x1x1x20xi32>) -> tensor<1x1x20xi32>
    %943 = stablehlo.broadcast_in_dim %942, dims = [0, 1, 3] : (tensor<1x1x20xi32>) -> tensor<1x1x7x20xi32>
    %944 = stablehlo.constant dense<0> : tensor<i32>
    %945 = stablehlo.broadcast_in_dim %944, dims = [] : (tensor<i32>) -> tensor<1x1x7x20xi32>
    %946 = stablehlo.compare  NE, %943, %945,  SIGNED : (tensor<1x1x7x20xi32>, tensor<1x1x7x20xi32>) -> tensor<1x1x7x20xi1>
    %947 = stablehlo.and %946, %940 : tensor<1x1x7x20xi1>
    %948 = stablehlo.convert %947 : (tensor<1x1x7x20xi1>) -> tensor<1x1x7x20xf32>
    %949 = stablehlo.constant dense<0> : tensor<i32>
    %950 = stablehlo.constant dense<0> : tensor<i32>
    %951 = stablehlo.compare  LT, %949, %950,  SIGNED : (tensor<i32>, tensor<i32>) -> tensor<i1>
    %952 = stablehlo.constant dense<0> : tensor<i32>
    %953 = stablehlo.constant dense<20> : tensor<i32>
    %954 = stablehlo.add %952, %953 : tensor<i32>
    %955 = stablehlo.constant dense<0> : tensor<i32>
    %956 = stablehlo.select %951, %954, %955 : tensor<i1>, tensor<i32>
    %957 = stablehlo.constant dense<0> : tensor<i32>
    %958 = stablehlo.constant dense<0> : tensor<i32>
    %959 = stablehlo.constant dense<0> : tensor<i32>
    %960 = stablehlo.dynamic_update_slice %168, %927, %957, %956, %958, %959 : (tensor<1x20x12x64xf32>, tensor<1x7x12x64xf32>, tensor<i32>, tensor<i32>, tensor<i32>, tensor<i32>) -> tensor<1x20x12x64xf32>
    %961 = stablehlo.constant dense<0> : tensor<i32>
    %962 = stablehlo.constant dense<0> : tensor<i32>
    %963 = stablehlo.compare  LT, %961, %962,  SIGNED : (tensor<i32>, tensor<i32>) -> tensor<i1>
    %964 = stablehlo.constant dense<0> : tensor<i32>
    %965 = stablehlo.constant dense<20> : tensor<i32>
    %966 = stablehlo.add %964, %965 : tensor<i32>
    %967 = stablehlo.constant dense<0> : tensor<i32>
    %968 = stablehlo.select %963, %966, %967 : tensor<i1>, tensor<i32>
    %969 = stablehlo.constant dense<0> : tensor<i32>
    %970 = stablehlo.constant dense<0> : tensor<i32>
    %971 = stablehlo.constant dense<0> : tensor<i32>
    %972 = stablehlo.dynamic_update_slice %170, %928, %969, %968, %970, %971 : (tensor<1x20x12x64xf32>, tensor<1x7x12x64xf32>, tensor<i32>, tensor<i32>, tensor<i32>, tensor<i32>) -> tensor<1x20x12x64xf32>
    %973 = stablehlo.constant dense<0> : tensor<i32>
    %974 = stablehlo.constant dense<7> : tensor<i32>
    %975 = stablehlo.add %973, %974 : tensor<i32>
    %976 = stablehlo.iota dim = 0 : tensor<20xi32>
    %977 = stablehlo.constant dense<0> : tensor<i32>
    %978 = stablehlo.constant dense<7> : tensor<i32>
    %979 = stablehlo.add %977, %978 : tensor<i32>
    %980 = stablehlo.broadcast_in_dim %979, dims = [] : (tensor<i32>) -> tensor<20xi32>
    %981 = stablehlo.compare  LT, %976, %980,  SIGNED : (tensor<20xi32>, tensor<20xi32>) -> tensor<20xi1>
    %982 = stablehlo.broadcast_in_dim %981, dims = [3] : (tensor<20xi1>) -> tensor<1x1x7x20xi1>
    %983 = stablehlo.constant dense<0.000000e+00> : tensor<f32>
    %984 = stablehlo.broadcast_in_dim %983, dims = [] : (tensor<f32>) -> tensor<1x1x7x20xf32>
    %985 = stablehlo.compare  NE, %948, %984,  FLOAT : (tensor<1x1x7x20xf32>, tensor<1x1x7x20xf32>) -> tensor<1x1x7x20xi1>
    %986 = stablehlo.and %982, %985 : tensor<1x1x7x20xi1>
    %987 = stablehlo.convert %986 : (tensor<1x1x7x20xi1>) -> tensor<1x1x7x20xf32>
    %988 = stablehlo.constant dense<0.000000e+00> : tensor<f32>
    %989 = stablehlo.broadcast_in_dim %988, dims = [] : (tensor<f32>) -> tensor<1x1x7x20xf32>
    %990 = stablehlo.compare  GT, %987, %989,  FLOAT : (tensor<1x1x7x20xf32>, tensor<1x1x7x20xf32>) -> tensor<1x1x7x20xi1>
    %991 = stablehlo.constant dense<0.000000e+00> : tensor<f32>
    %992 = stablehlo.broadcast_in_dim %991, dims = [] : (tensor<f32>) -> tensor<1x1x7x20xf32>
    %993 = stablehlo.convert %992 : tensor<1x1x7x20xf32>
    %994 = stablehlo.constant dense<-3.40282347E+38> : tensor<f32>
    %995 = stablehlo.broadcast_in_dim %994, dims = [] : (tensor<f32>) -> tensor<1x1x7x20xf32>
    %996 = stablehlo.select %990, %993, %995 : tensor<1x1x7x20xi1>, tensor<1x1x7x20xf32>
    %997 = stablehlo.constant dense<6.400000e+01> : tensor<f32>
    %998 = stablehlo.sqrt %997 : tensor<f32>
    %999 = stablehlo.convert %998 : tensor<f32>
    %1000 = stablehlo.broadcast_in_dim %999, dims = [] : (tensor<f32>) -> tensor<1x7x12x64xf32>
    %1001 = stablehlo.divide %926, %1000 : tensor<1x7x12x64xf32>
    %1002 = stablehlo.dot_general %1001, %960, batching_dims = [0, 2] x [0, 2], contracting_dims = [3] x [3], precision = [DEFAULT, DEFAULT] : (tensor<1x7x12x64xf32>, tensor<1x20x12x64xf32>) -> tensor<1x12x7x20xf32>
    %1003 = stablehlo.broadcast_in_dim %996, dims = [0, 1, 2, 3] : (tensor<1x1x7x20xf32>) -> tensor<1x12x7x20xf32>
    %1004 = stablehlo.add %1002, %1003 : tensor<1x12x7x20xf32>
    %1005 = stablehlo.constant dense<0xFF800000> : tensor<f32>
    %1006 = stablehlo.reduce(%1004 init: %1005) applies stablehlo.maximum across dimensions = [3] : (tensor<1x12x7x20xf32>, tensor<f32>) -> tensor<1x12x7xf32>
    %1007 = stablehlo.broadcast_in_dim %1006, dims = [0, 1, 2] : (tensor<1x12x7xf32>) -> tensor<1x12x7x1xf32>
    %1008 = stablehlo.broadcast_in_dim %1007, dims = [0, 1, 2, 3] : (tensor<1x12x7x1xf32>) -> tensor<1x12x7x20xf32>
    %1009 = stablehlo.subtract %1004, %1008 : tensor<1x12x7x20xf32>
    %1010 = stablehlo.exponential %1009 : tensor<1x12x7x20xf32>
    %1011 = stablehlo.constant dense<0.000000e+00> : tensor<f32>
    %1012 = stablehlo.reduce(%1010 init: %1011) applies stablehlo.add across dimensions = [3] : (tensor<1x12x7x20xf32>, tensor<f32>) -> tensor<1x12x7xf32>
    %1013 = stablehlo.broadcast_in_dim %1012, dims = [0, 1, 2] : (tensor<1x12x7xf32>) -> tensor<1x12x7x1xf32>
    %1014 = stablehlo.broadcast_in_dim %1013, dims = [0, 1, 2, 3] : (tensor<1x12x7x1xf32>) -> tensor<1x12x7x20xf32>
    %1015 = stablehlo.divide %1010, %1014 : tensor<1x12x7x20xf32>
    %1016 = stablehlo.dot_general %972, %1015, batching_dims = [0, 2] x [0, 1], contracting_dims = [1] x [3], precision = [DEFAULT, DEFAULT] : (tensor<1x20x12x64xf32>, tensor<1x12x7x20xf32>) -> tensor<1x12x64x7xf32>
    %1017 = stablehlo.transpose %1016, dims = [0, 3, 1, 2] : (tensor<1x12x64x7xf32>) -> tensor<1x7x12x64xf32>
    %1018 = stablehlo.reshape %1017 : (tensor<1x7x12x64xf32>) -> tensor<1x7x768xf32>
    %1019 = stablehlo.transpose %42, dims = [1, 0] : (tensor<768x768xf16>) -> tensor<768x768xf16>
    %1020 = stablehlo.convert %1019 : (tensor<768x768xf16>) -> tensor<768x768xf32>
    %1021 = stablehlo.dot_general %1018, %1020, contracting_dims = [2] x [0], precision = [DEFAULT, DEFAULT] : (tensor<1x7x768xf32>, tensor<768x768xf32>) -> tensor<1x7x768xf32>
    %1022 = stablehlo.convert %43 : (tensor<768xf16>) -> tensor<768xf32>
    %1023 = stablehlo.broadcast_in_dim %1022, dims = [2] : (tensor<768xf32>) -> tensor<1x1x768xf32>
    %1024 = stablehlo.broadcast_in_dim %1023, dims = [0, 1, 2] : (tensor<1x1x768xf32>) -> tensor<1x7x768xf32>
    %1025 = stablehlo.add %1021, %1024 : tensor<1x7x768xf32>
    %1026 = stablehlo.add %1025, %873 : tensor<1x7x768xf32>
    %1027 = stablehlo.multiply %1026, %1026 : tensor<1x7x768xf32>
    %1028 = stablehlo.constant dense<0.000000e+00> : tensor<f32>
    %1029 = stablehlo.reduce(%1027 init: %1028) applies stablehlo.add across dimensions = [2] : (tensor<1x7x768xf32>, tensor<f32>) -> tensor<1x7xf32>
    %1030 = stablehlo.constant dense<7.680000e+02> : tensor<f32>
    %1031 = stablehlo.broadcast_in_dim %1030, dims = [] : (tensor<f32>) -> tensor<1x7xf32>
    %1032 = stablehlo.divide %1029, %1031 : tensor<1x7xf32>
    %1033 = stablehlo.constant dense<0.000000e+00> : tensor<f32>
    %1034 = stablehlo.reduce(%1026 init: %1033) applies stablehlo.add across dimensions = [2] : (tensor<1x7x768xf32>, tensor<f32>) -> tensor<1x7xf32>
    %1035 = stablehlo.constant dense<7.680000e+02> : tensor<f32>
    %1036 = stablehlo.broadcast_in_dim %1035, dims = [] : (tensor<f32>) -> tensor<1x7xf32>
    %1037 = stablehlo.divide %1034, %1036 : tensor<1x7xf32>
    %1038 = stablehlo.multiply %1037, %1037 : tensor<1x7xf32>
    %1039 = stablehlo.subtract %1032, %1038 : tensor<1x7xf32>
    %1040 = stablehlo.constant dense<0.000000e+00> : tensor<f32>
    %1041 = stablehlo.broadcast_in_dim %1040, dims = [] : (tensor<f32>) -> tensor<1x7xf32>
    %1042 = stablehlo.maximum %1041, %1039 : tensor<1x7xf32>
    %1043 = stablehlo.broadcast_in_dim %1037, dims = [0, 1] : (tensor<1x7xf32>) -> tensor<1x7x1xf32>
    %1044 = stablehlo.broadcast_in_dim %1042, dims = [0, 1] : (tensor<1x7xf32>) -> tensor<1x7x1xf32>
    %1045 = stablehlo.broadcast_in_dim %1043, dims = [0, 1, 2] : (tensor<1x7x1xf32>) -> tensor<1x7x768xf32>
    %1046 = stablehlo.subtract %1026, %1045 : tensor<1x7x768xf32>
    %1047 = stablehlo.constant dense<9.99999974E-6> : tensor<f32>
    %1048 = stablehlo.broadcast_in_dim %1047, dims = [] : (tensor<f32>) -> tensor<1x7x1xf32>
    %1049 = stablehlo.add %1044, %1048 : tensor<1x7x1xf32>
    %1050 = stablehlo.rsqrt %1049 : tensor<1x7x1xf32>
    %1051 = stablehlo.reshape %44 : (tensor<768xf16>) -> tensor<1x1x768xf16>
    %1052 = stablehlo.convert %1051 : (tensor<1x1x768xf16>) -> tensor<1x1x768xf32>
    %1053 = stablehlo.broadcast_in_dim %1050, dims = [0, 1, 2] : (tensor<1x7x1xf32>) -> tensor<1x7x768xf32>
    %1054 = stablehlo.broadcast_in_dim %1052, dims = [0, 1, 2] : (tensor<1x1x768xf32>) -> tensor<1x7x768xf32>
    %1055 = stablehlo.multiply %1053, %1054 : tensor<1x7x768xf32>
    %1056 = stablehlo.multiply %1046, %1055 : tensor<1x7x768xf32>
    %1057 = stablehlo.reshape %45 : (tensor<768xf16>) -> tensor<1x1x768xf16>
    %1058 = stablehlo.convert %1057 : (tensor<1x1x768xf16>) -> tensor<1x1x768xf32>
    %1059 = stablehlo.broadcast_in_dim %1058, dims = [0, 1, 2] : (tensor<1x1x768xf32>) -> tensor<1x7x768xf32>
    %1060 = stablehlo.add %1056, %1059 : tensor<1x7x768xf32>
    %1061 = stablehlo.transpose %46, dims = [1, 0] : (tensor<3072x768xf16>) -> tensor<768x3072xf16>
    %1062 = stablehlo.convert %1061 : (tensor<768x3072xf16>) -> tensor<768x3072xf32>
    %1063 = stablehlo.dot_general %1060, %1062, contracting_dims = [2] x [0], precision = [DEFAULT, DEFAULT] : (tensor<1x7x768xf32>, tensor<768x3072xf32>) -> tensor<1x7x3072xf32>
    %1064 = stablehlo.convert %47 : (tensor<3072xf16>) -> tensor<3072xf32>
    %1065 = stablehlo.broadcast_in_dim %1064, dims = [2] : (tensor<3072xf32>) -> tensor<1x1x3072xf32>
    %1066 = stablehlo.broadcast_in_dim %1065, dims = [0, 1, 2] : (tensor<1x1x3072xf32>) -> tensor<1x7x3072xf32>
    %1067 = stablehlo.add %1063, %1066 : tensor<1x7x3072xf32>
    %1068 = stablehlo.multiply %1067, %1067 : tensor<1x7x3072xf32>
    %1069 = stablehlo.multiply %1067, %1068 : tensor<1x7x3072xf32>
    %1070 = stablehlo.constant dense<4.471500e-02> : tensor<f32>
    %1071 = stablehlo.broadcast_in_dim %1070, dims = [] : (tensor<f32>) -> tensor<1x7x3072xf32>
    %1072 = stablehlo.multiply %1071, %1069 : tensor<1x7x3072xf32>
    %1073 = stablehlo.add %1067, %1072 : tensor<1x7x3072xf32>
    %1074 = stablehlo.constant dense<0.797884583> : tensor<f32>
    %1075 = stablehlo.broadcast_in_dim %1074, dims = [] : (tensor<f32>) -> tensor<1x7x3072xf32>
    %1076 = stablehlo.multiply %1075, %1073 : tensor<1x7x3072xf32>
    %1077 = stablehlo.tanh %1076 : tensor<1x7x3072xf32>
    %1078 = stablehlo.constant dense<1.000000e+00> : tensor<f32>
    %1079 = stablehlo.broadcast_in_dim %1078, dims = [] : (tensor<f32>) -> tensor<1x7x3072xf32>
    %1080 = stablehlo.add %1079, %1077 : tensor<1x7x3072xf32>
    %1081 = stablehlo.constant dense<5.000000e-01> : tensor<f32>
    %1082 = stablehlo.broadcast_in_dim %1081, dims = [] : (tensor<f32>) -> tensor<1x7x3072xf32>
    %1083 = stablehlo.multiply %1082, %1080 : tensor<1x7x3072xf32>
    %1084 = stablehlo.multiply %1067, %1083 : tensor<1x7x3072xf32>
    %1085 = stablehlo.transpose %48, dims = [1, 0] : (tensor<768x3072xf16>) -> tensor<3072x768xf16>
    %1086 = stablehlo.convert %1085 : (tensor<3072x768xf16>) -> tensor<3072x768xf32>
    %1087 = stablehlo.dot_general %1084, %1086, contracting_dims = [2] x [0], precision = [DEFAULT, DEFAULT] : (tensor<1x7x3072xf32>, tensor<3072x768xf32>) -> tensor<1x7x768xf32>
    %1088 = stablehlo.convert %49 : (tensor<768xf16>) -> tensor<768xf32>
    %1089 = stablehlo.broadcast_in_dim %1088, dims = [2] : (tensor<768xf32>) -> tensor<1x1x768xf32>
    %1090 = stablehlo.broadcast_in_dim %1089, dims = [0, 1, 2] : (tensor<1x1x768xf32>) -> tensor<1x7x768xf32>
    %1091 = stablehlo.add %1087, %1090 : tensor<1x7x768xf32>
    %1092 = stablehlo.add %1026, %1091 : tensor<1x7x768xf32>
    %1093 = stablehlo.multiply %1092, %1092 : tensor<1x7x768xf32>
    %1094 = stablehlo.constant dense<0.000000e+00> : tensor<f32>
    %1095 = stablehlo.reduce(%1093 init: %1094) applies stablehlo.add across dimensions = [2] : (tensor<1x7x768xf32>, tensor<f32>) -> tensor<1x7xf32>
    %1096 = stablehlo.constant dense<7.680000e+02> : tensor<f32>
    %1097 = stablehlo.broadcast_in_dim %1096, dims = [] : (tensor<f32>) -> tensor<1x7xf32>
    %1098 = stablehlo.divide %1095, %1097 : tensor<1x7xf32>
    %1099 = stablehlo.constant dense<0.000000e+00> : tensor<f32>
    %1100 = stablehlo.reduce(%1092 init: %1099) applies stablehlo.add across dimensions = [2] : (tensor<1x7x768xf32>, tensor<f32>) -> tensor<1x7xf32>
    %1101 = stablehlo.constant dense<7.680000e+02> : tensor<f32>
    %1102 = stablehlo.broadcast_in_dim %1101, dims = [] : (tensor<f32>) -> tensor<1x7xf32>
    %1103 = stablehlo.divide %1100, %1102 : tensor<1x7xf32>
    %1104 = stablehlo.multiply %1103, %1103 : tensor<1x7xf32>
    %1105 = stablehlo.subtract %1098, %1104 : tensor<1x7xf32>
    %1106 = stablehlo.constant dense<0.000000e+00> : tensor<f32>
    %1107 = stablehlo.broadcast_in_dim %1106, dims = [] : (tensor<f32>) -> tensor<1x7xf32>
    %1108 = stablehlo.maximum %1107, %1105 : tensor<1x7xf32>
    %1109 = stablehlo.broadcast_in_dim %1103, dims = [0, 1] : (tensor<1x7xf32>) -> tensor<1x7x1xf32>
    %1110 = stablehlo.broadcast_in_dim %1108, dims = [0, 1] : (tensor<1x7xf32>) -> tensor<1x7x1xf32>
    %1111 = stablehlo.broadcast_in_dim %1109, dims = [0, 1, 2] : (tensor<1x7x1xf32>) -> tensor<1x7x768xf32>
    %1112 = stablehlo.subtract %1092, %1111 : tensor<1x7x768xf32>
    %1113 = stablehlo.constant dense<9.99999974E-6> : tensor<f32>
    %1114 = stablehlo.broadcast_in_dim %1113, dims = [] : (tensor<f32>) -> tensor<1x7x1xf32>
    %1115 = stablehlo.add %1110, %1114 : tensor<1x7x1xf32>
    %1116 = stablehlo.rsqrt %1115 : tensor<1x7x1xf32>
    %1117 = stablehlo.reshape %50 : (tensor<768xf16>) -> tensor<1x1x768xf16>
    %1118 = stablehlo.convert %1117 : (tensor<1x1x768xf16>) -> tensor<1x1x768xf32>
    %1119 = stablehlo.broadcast_in_dim %1116, dims = [0, 1, 2] : (tensor<1x7x1xf32>) -> tensor<1x7x768xf32>
    %1120 = stablehlo.broadcast_in_dim %1118, dims = [0, 1, 2] : (tensor<1x1x768xf32>) -> tensor<1x7x768xf32>
    %1121 = stablehlo.multiply %1119, %1120 : tensor<1x7x768xf32>
    %1122 = stablehlo.multiply %1112, %1121 : tensor<1x7x768xf32>
    %1123 = stablehlo.reshape %51 : (tensor<768xf16>) -> tensor<1x1x768xf16>
    %1124 = stablehlo.convert %1123 : (tensor<1x1x768xf16>) -> tensor<1x1x768xf32>
    %1125 = stablehlo.broadcast_in_dim %1124, dims = [0, 1, 2] : (tensor<1x1x768xf32>) -> tensor<1x7x768xf32>
    %1126 = stablehlo.add %1122, %1125 : tensor<1x7x768xf32>
    %1127 = stablehlo.iota dim = 0 : tensor<1024xi32>
    %1128 = stablehlo.broadcast_in_dim %1127, dims = [1] : (tensor<1024xi32>) -> tensor<1x1024xi32>
    %1129 = stablehlo.broadcast_in_dim %1128, dims = [0, 1] : (tensor<1x1024xi32>) -> tensor<1x1024x1xi32>
    %1130 = stablehlo.broadcast_in_dim %1128, dims = [0, 2] : (tensor<1x1024xi32>) -> tensor<1x1x1024xi32>
    %1131 = stablehlo.broadcast_in_dim %1129, dims = [0, 1, 2] : (tensor<1x1024x1xi32>) -> tensor<1x1024x1024xi32>
    %1132 = stablehlo.broadcast_in_dim %1130, dims = [0, 1, 2] : (tensor<1x1x1024xi32>) -> tensor<1x1024x1024xi32>
    %1133 = stablehlo.compare  GE, %1131, %1132,  SIGNED : (tensor<1x1024x1024xi32>, tensor<1x1024x1024xi32>) -> tensor<1x1024x1024xi1>
    %1134 = stablehlo.broadcast_in_dim %1133, dims = [0, 2, 3] : (tensor<1x1024x1024xi1>) -> tensor<1x1x1024x1024xi1>
    %1135 = stablehlo.transpose %52, dims = [1, 0] : (tensor<2304x768xf16>) -> tensor<768x2304xf16>
    %1136 = stablehlo.convert %1135 : (tensor<768x2304xf16>) -> tensor<768x2304xf32>
    %1137 = stablehlo.dot_general %1126, %1136, contracting_dims = [2] x [0], precision = [DEFAULT, DEFAULT] : (tensor<1x7x768xf32>, tensor<768x2304xf32>) -> tensor<1x7x2304xf32>
    %1138 = stablehlo.convert %53 : (tensor<2304xf16>) -> tensor<2304xf32>
    %1139 = stablehlo.broadcast_in_dim %1138, dims = [2] : (tensor<2304xf32>) -> tensor<1x1x2304xf32>
    %1140 = stablehlo.broadcast_in_dim %1139, dims = [0, 1, 2] : (tensor<1x1x2304xf32>) -> tensor<1x7x2304xf32>
    %1141 = stablehlo.add %1137, %1140 : tensor<1x7x2304xf32>
    %1142 = stablehlo.slice %1141 [0:1, 0:7, 0:768] : (tensor<1x7x2304xf32>) -> tensor<1x7x768xf32>
    %1143 = stablehlo.slice %1141 [0:1, 0:7, 768:1536] : (tensor<1x7x2304xf32>) -> tensor<1x7x768xf32>
    %1144 = stablehlo.slice %1141 [0:1, 0:7, 1536:2304] : (tensor<1x7x2304xf32>) -> tensor<1x7x768xf32>
    %1145 = stablehlo.reshape %1142 : (tensor<1x7x768xf32>) -> tensor<1x7x12x64xf32>
    %1146 = stablehlo.reshape %1143 : (tensor<1x7x768xf32>) -> tensor<1x7x12x64xf32>
    %1147 = stablehlo.reshape %1144 : (tensor<1x7x768xf32>) -> tensor<1x7x12x64xf32>
    %1148 = stablehlo.constant dense<0> : tensor<i32>
    %1149 = stablehlo.constant dense<0> : tensor<i32>
    %1150 = stablehlo.compare  LT, %1148, %1149,  SIGNED : (tensor<i32>, tensor<i32>) -> tensor<i1>
    %1151 = stablehlo.constant dense<0> : tensor<i32>
    %1152 = stablehlo.constant dense<1024> : tensor<i32>
    %1153 = stablehlo.add %1151, %1152 : tensor<i32>
    %1154 = stablehlo.constant dense<0> : tensor<i32>
    %1155 = stablehlo.select %1150, %1153, %1154 : tensor<i1>, tensor<i32>
    %1156 = stablehlo.constant dense<0> : tensor<i32>
    %1157 = stablehlo.constant dense<0> : tensor<i32>
    %1158 = stablehlo.constant dense<0> : tensor<i32>
    %1159 = stablehlo.dynamic_slice %1134, %1156, %1157, %1155, %1158, sizes = [1, 1, 7, 20] : (tensor<1x1x1024x1024xi1>, tensor<i32>, tensor<i32>, tensor<i32>, tensor<i32>) -> tensor<1x1x7x20xi1>
    %1160 = stablehlo.broadcast_in_dim %211, dims = [0, 3] : (tensor<1x20xi32>) -> tensor<1x1x1x20xi32>
    %1161 = stablehlo.reshape %1160 : (tensor<1x1x1x20xi32>) -> tensor<1x1x20xi32>
    %1162 = stablehlo.broadcast_in_dim %1161, dims = [0, 1, 3] : (tensor<1x1x20xi32>) -> tensor<1x1x7x20xi32>
    %1163 = stablehlo.constant dense<0> : tensor<i32>
    %1164 = stablehlo.broadcast_in_dim %1163, dims = [] : (tensor<i32>) -> tensor<1x1x7x20xi32>
    %1165 = stablehlo.compare  NE, %1162, %1164,  SIGNED : (tensor<1x1x7x20xi32>, tensor<1x1x7x20xi32>) -> tensor<1x1x7x20xi1>
    %1166 = stablehlo.and %1165, %1159 : tensor<1x1x7x20xi1>
    %1167 = stablehlo.convert %1166 : (tensor<1x1x7x20xi1>) -> tensor<1x1x7x20xf32>
    %1168 = stablehlo.constant dense<0> : tensor<i32>
    %1169 = stablehlo.constant dense<0> : tensor<i32>
    %1170 = stablehlo.compare  LT, %1168, %1169,  SIGNED : (tensor<i32>, tensor<i32>) -> tensor<i1>
    %1171 = stablehlo.constant dense<0> : tensor<i32>
    %1172 = stablehlo.constant dense<20> : tensor<i32>
    %1173 = stablehlo.add %1171, %1172 : tensor<i32>
    %1174 = stablehlo.constant dense<0> : tensor<i32>
    %1175 = stablehlo.select %1170, %1173, %1174 : tensor<i1>, tensor<i32>
    %1176 = stablehlo.constant dense<0> : tensor<i32>
    %1177 = stablehlo.constant dense<0> : tensor<i32>
    %1178 = stablehlo.constant dense<0> : tensor<i32>
    %1179 = stablehlo.dynamic_update_slice %172, %1146, %1176, %1175, %1177, %1178 : (tensor<1x20x12x64xf32>, tensor<1x7x12x64xf32>, tensor<i32>, tensor<i32>, tensor<i32>, tensor<i32>) -> tensor<1x20x12x64xf32>
    %1180 = stablehlo.constant dense<0> : tensor<i32>
    %1181 = stablehlo.constant dense<0> : tensor<i32>
    %1182 = stablehlo.compare  LT, %1180, %1181,  SIGNED : (tensor<i32>, tensor<i32>) -> tensor<i1>
    %1183 = stablehlo.constant dense<0> : tensor<i32>
    %1184 = stablehlo.constant dense<20> : tensor<i32>
    %1185 = stablehlo.add %1183, %1184 : tensor<i32>
    %1186 = stablehlo.constant dense<0> : tensor<i32>
    %1187 = stablehlo.select %1182, %1185, %1186 : tensor<i1>, tensor<i32>
    %1188 = stablehlo.constant dense<0> : tensor<i32>
    %1189 = stablehlo.constant dense<0> : tensor<i32>
    %1190 = stablehlo.constant dense<0> : tensor<i32>
    %1191 = stablehlo.dynamic_update_slice %174, %1147, %1188, %1187, %1189, %1190 : (tensor<1x20x12x64xf32>, tensor<1x7x12x64xf32>, tensor<i32>, tensor<i32>, tensor<i32>, tensor<i32>) -> tensor<1x20x12x64xf32>
    %1192 = stablehlo.constant dense<0> : tensor<i32>
    %1193 = stablehlo.constant dense<7> : tensor<i32>
    %1194 = stablehlo.add %1192, %1193 : tensor<i32>
    %1195 = stablehlo.iota dim = 0 : tensor<20xi32>
    %1196 = stablehlo.constant dense<0> : tensor<i32>
    %1197 = stablehlo.constant dense<7> : tensor<i32>
    %1198 = stablehlo.add %1196, %1197 : tensor<i32>
    %1199 = stablehlo.broadcast_in_dim %1198, dims = [] : (tensor<i32>) -> tensor<20xi32>
    %1200 = stablehlo.compare  LT, %1195, %1199,  SIGNED : (tensor<20xi32>, tensor<20xi32>) -> tensor<20xi1>
    %1201 = stablehlo.broadcast_in_dim %1200, dims = [3] : (tensor<20xi1>) -> tensor<1x1x7x20xi1>
    %1202 = stablehlo.constant dense<0.000000e+00> : tensor<f32>
    %1203 = stablehlo.broadcast_in_dim %1202, dims = [] : (tensor<f32>) -> tensor<1x1x7x20xf32>
    %1204 = stablehlo.compare  NE, %1167, %1203,  FLOAT : (tensor<1x1x7x20xf32>, tensor<1x1x7x20xf32>) -> tensor<1x1x7x20xi1>
    %1205 = stablehlo.and %1201, %1204 : tensor<1x1x7x20xi1>
    %1206 = stablehlo.convert %1205 : (tensor<1x1x7x20xi1>) -> tensor<1x1x7x20xf32>
    %1207 = stablehlo.constant dense<0.000000e+00> : tensor<f32>
    %1208 = stablehlo.broadcast_in_dim %1207, dims = [] : (tensor<f32>) -> tensor<1x1x7x20xf32>
    %1209 = stablehlo.compare  GT, %1206, %1208,  FLOAT : (tensor<1x1x7x20xf32>, tensor<1x1x7x20xf32>) -> tensor<1x1x7x20xi1>
    %1210 = stablehlo.constant dense<0.000000e+00> : tensor<f32>
    %1211 = stablehlo.broadcast_in_dim %1210, dims = [] : (tensor<f32>) -> tensor<1x1x7x20xf32>
    %1212 = stablehlo.convert %1211 : tensor<1x1x7x20xf32>
    %1213 = stablehlo.constant dense<-3.40282347E+38> : tensor<f32>
    %1214 = stablehlo.broadcast_in_dim %1213, dims = [] : (tensor<f32>) -> tensor<1x1x7x20xf32>
    %1215 = stablehlo.select %1209, %1212, %1214 : tensor<1x1x7x20xi1>, tensor<1x1x7x20xf32>
    %1216 = stablehlo.constant dense<6.400000e+01> : tensor<f32>
    %1217 = stablehlo.sqrt %1216 : tensor<f32>
    %1218 = stablehlo.convert %1217 : tensor<f32>
    %1219 = stablehlo.broadcast_in_dim %1218, dims = [] : (tensor<f32>) -> tensor<1x7x12x64xf32>
    %1220 = stablehlo.divide %1145, %1219 : tensor<1x7x12x64xf32>
    %1221 = stablehlo.dot_general %1220, %1179, batching_dims = [0, 2] x [0, 2], contracting_dims = [3] x [3], precision = [DEFAULT, DEFAULT] : (tensor<1x7x12x64xf32>, tensor<1x20x12x64xf32>) -> tensor<1x12x7x20xf32>
    %1222 = stablehlo.broadcast_in_dim %1215, dims = [0, 1, 2, 3] : (tensor<1x1x7x20xf32>) -> tensor<1x12x7x20xf32>
    %1223 = stablehlo.add %1221, %1222 : tensor<1x12x7x20xf32>
    %1224 = stablehlo.constant dense<0xFF800000> : tensor<f32>
    %1225 = stablehlo.reduce(%1223 init: %1224) applies stablehlo.maximum across dimensions = [3] : (tensor<1x12x7x20xf32>, tensor<f32>) -> tensor<1x12x7xf32>
    %1226 = stablehlo.broadcast_in_dim %1225, dims = [0, 1, 2] : (tensor<1x12x7xf32>) -> tensor<1x12x7x1xf32>
    %1227 = stablehlo.broadcast_in_dim %1226, dims = [0, 1, 2, 3] : (tensor<1x12x7x1xf32>) -> tensor<1x12x7x20xf32>
    %1228 = stablehlo.subtract %1223, %1227 : tensor<1x12x7x20xf32>
    %1229 = stablehlo.exponential %1228 : tensor<1x12x7x20xf32>
    %1230 = stablehlo.constant dense<0.000000e+00> : tensor<f32>
    %1231 = stablehlo.reduce(%1229 init: %1230) applies stablehlo.add across dimensions = [3] : (tensor<1x12x7x20xf32>, tensor<f32>) -> tensor<1x12x7xf32>
    %1232 = stablehlo.broadcast_in_dim %1231, dims = [0, 1, 2] : (tensor<1x12x7xf32>) -> tensor<1x12x7x1xf32>
    %1233 = stablehlo.broadcast_in_dim %1232, dims = [0, 1, 2, 3] : (tensor<1x12x7x1xf32>) -> tensor<1x12x7x20xf32>
    %1234 = stablehlo.divide %1229, %1233 : tensor<1x12x7x20xf32>
    %1235 = stablehlo.dot_general %1191, %1234, batching_dims = [0, 2] x [0, 1], contracting_dims = [1] x [3], precision = [DEFAULT, DEFAULT] : (tensor<1x20x12x64xf32>, tensor<1x12x7x20xf32>) -> tensor<1x12x64x7xf32>
    %1236 = stablehlo.transpose %1235, dims = [0, 3, 1, 2] : (tensor<1x12x64x7xf32>) -> tensor<1x7x12x64xf32>
    %1237 = stablehlo.reshape %1236 : (tensor<1x7x12x64xf32>) -> tensor<1x7x768xf32>
    %1238 = stablehlo.transpose %54, dims = [1, 0] : (tensor<768x768xf16>) -> tensor<768x768xf16>
    %1239 = stablehlo.convert %1238 : (tensor<768x768xf16>) -> tensor<768x768xf32>
    %1240 = stablehlo.dot_general %1237, %1239, contracting_dims = [2] x [0], precision = [DEFAULT, DEFAULT] : (tensor<1x7x768xf32>, tensor<768x768xf32>) -> tensor<1x7x768xf32>
    %1241 = stablehlo.convert %55 : (tensor<768xf16>) -> tensor<768xf32>
    %1242 = stablehlo.broadcast_in_dim %1241, dims = [2] : (tensor<768xf32>) -> tensor<1x1x768xf32>
    %1243 = stablehlo.broadcast_in_dim %1242, dims = [0, 1, 2] : (tensor<1x1x768xf32>) -> tensor<1x7x768xf32>
    %1244 = stablehlo.add %1240, %1243 : tensor<1x7x768xf32>
    %1245 = stablehlo.add %1244, %1092 : tensor<1x7x768xf32>
    %1246 = stablehlo.multiply %1245, %1245 : tensor<1x7x768xf32>
    %1247 = stablehlo.constant dense<0.000000e+00> : tensor<f32>
    %1248 = stablehlo.reduce(%1246 init: %1247) applies stablehlo.add across dimensions = [2] : (tensor<1x7x768xf32>, tensor<f32>) -> tensor<1x7xf32>
    %1249 = stablehlo.constant dense<7.680000e+02> : tensor<f32>
    %1250 = stablehlo.broadcast_in_dim %1249, dims = [] : (tensor<f32>) -> tensor<1x7xf32>
    %1251 = stablehlo.divide %1248, %1250 : tensor<1x7xf32>
    %1252 = stablehlo.constant dense<0.000000e+00> : tensor<f32>
    %1253 = stablehlo.reduce(%1245 init: %1252) applies stablehlo.add across dimensions = [2] : (tensor<1x7x768xf32>, tensor<f32>) -> tensor<1x7xf32>
    %1254 = stablehlo.constant dense<7.680000e+02> : tensor<f32>
    %1255 = stablehlo.broadcast_in_dim %1254, dims = [] : (tensor<f32>) -> tensor<1x7xf32>
    %1256 = stablehlo.divide %1253, %1255 : tensor<1x7xf32>
    %1257 = stablehlo.multiply %1256, %1256 : tensor<1x7xf32>
    %1258 = stablehlo.subtract %1251, %1257 : tensor<1x7xf32>
    %1259 = stablehlo.constant dense<0.000000e+00> : tensor<f32>
    %1260 = stablehlo.broadcast_in_dim %1259, dims = [] : (tensor<f32>) -> tensor<1x7xf32>
    %1261 = stablehlo.maximum %1260, %1258 : tensor<1x7xf32>
    %1262 = stablehlo.broadcast_in_dim %1256, dims = [0, 1] : (tensor<1x7xf32>) -> tensor<1x7x1xf32>
    %1263 = stablehlo.broadcast_in_dim %1261, dims = [0, 1] : (tensor<1x7xf32>) -> tensor<1x7x1xf32>
    %1264 = stablehlo.broadcast_in_dim %1262, dims = [0, 1, 2] : (tensor<1x7x1xf32>) -> tensor<1x7x768xf32>
    %1265 = stablehlo.subtract %1245, %1264 : tensor<1x7x768xf32>
    %1266 = stablehlo.constant dense<9.99999974E-6> : tensor<f32>
    %1267 = stablehlo.broadcast_in_dim %1266, dims = [] : (tensor<f32>) -> tensor<1x7x1xf32>
    %1268 = stablehlo.add %1263, %1267 : tensor<1x7x1xf32>
    %1269 = stablehlo.rsqrt %1268 : tensor<1x7x1xf32>
    %1270 = stablehlo.reshape %56 : (tensor<768xf16>) -> tensor<1x1x768xf16>
    %1271 = stablehlo.convert %1270 : (tensor<1x1x768xf16>) -> tensor<1x1x768xf32>
    %1272 = stablehlo.broadcast_in_dim %1269, dims = [0, 1, 2] : (tensor<1x7x1xf32>) -> tensor<1x7x768xf32>
    %1273 = stablehlo.broadcast_in_dim %1271, dims = [0, 1, 2] : (tensor<1x1x768xf32>) -> tensor<1x7x768xf32>
    %1274 = stablehlo.multiply %1272, %1273 : tensor<1x7x768xf32>
    %1275 = stablehlo.multiply %1265, %1274 : tensor<1x7x768xf32>
    %1276 = stablehlo.reshape %57 : (tensor<768xf16>) -> tensor<1x1x768xf16>
    %1277 = stablehlo.convert %1276 : (tensor<1x1x768xf16>) -> tensor<1x1x768xf32>
    %1278 = stablehlo.broadcast_in_dim %1277, dims = [0, 1, 2] : (tensor<1x1x768xf32>) -> tensor<1x7x768xf32>
    %1279 = stablehlo.add %1275, %1278 : tensor<1x7x768xf32>
    %1280 = stablehlo.transpose %58, dims = [1, 0] : (tensor<3072x768xf16>) -> tensor<768x3072xf16>
    %1281 = stablehlo.convert %1280 : (tensor<768x3072xf16>) -> tensor<768x3072xf32>
    %1282 = stablehlo.dot_general %1279, %1281, contracting_dims = [2] x [0], precision = [DEFAULT, DEFAULT] : (tensor<1x7x768xf32>, tensor<768x3072xf32>) -> tensor<1x7x3072xf32>
    %1283 = stablehlo.convert %59 : (tensor<3072xf16>) -> tensor<3072xf32>
    %1284 = stablehlo.broadcast_in_dim %1283, dims = [2] : (tensor<3072xf32>) -> tensor<1x1x3072xf32>
    %1285 = stablehlo.broadcast_in_dim %1284, dims = [0, 1, 2] : (tensor<1x1x3072xf32>) -> tensor<1x7x3072xf32>
    %1286 = stablehlo.add %1282, %1285 : tensor<1x7x3072xf32>
    %1287 = stablehlo.multiply %1286, %1286 : tensor<1x7x3072xf32>
    %1288 = stablehlo.multiply %1286, %1287 : tensor<1x7x3072xf32>
    %1289 = stablehlo.constant dense<4.471500e-02> : tensor<f32>
    %1290 = stablehlo.broadcast_in_dim %1289, dims = [] : (tensor<f32>) -> tensor<1x7x3072xf32>
    %1291 = stablehlo.multiply %1290, %1288 : tensor<1x7x3072xf32>
    %1292 = stablehlo.add %1286, %1291 : tensor<1x7x3072xf32>
    %1293 = stablehlo.constant dense<0.797884583> : tensor<f32>
    %1294 = stablehlo.broadcast_in_dim %1293, dims = [] : (tensor<f32>) -> tensor<1x7x3072xf32>
    %1295 = stablehlo.multiply %1294, %1292 : tensor<1x7x3072xf32>
    %1296 = stablehlo.tanh %1295 : tensor<1x7x3072xf32>
    %1297 = stablehlo.constant dense<1.000000e+00> : tensor<f32>
    %1298 = stablehlo.broadcast_in_dim %1297, dims = [] : (tensor<f32>) -> tensor<1x7x3072xf32>
    %1299 = stablehlo.add %1298, %1296 : tensor<1x7x3072xf32>
    %1300 = stablehlo.constant dense<5.000000e-01> : tensor<f32>
    %1301 = stablehlo.broadcast_in_dim %1300, dims = [] : (tensor<f32>) -> tensor<1x7x3072xf32>
    %1302 = stablehlo.multiply %1301, %1299 : tensor<1x7x3072xf32>
    %1303 = stablehlo.multiply %1286, %1302 : tensor<1x7x3072xf32>
    %1304 = stablehlo.transpose %60, dims = [1, 0] : (tensor<768x3072xf16>) -> tensor<3072x768xf16>
    %1305 = stablehlo.convert %1304 : (tensor<3072x768xf16>) -> tensor<3072x768xf32>
    %1306 = stablehlo.dot_general %1303, %1305, contracting_dims = [2] x [0], precision = [DEFAULT, DEFAULT] : (tensor<1x7x3072xf32>, tensor<3072x768xf32>) -> tensor<1x7x768xf32>
    %1307 = stablehlo.convert %61 : (tensor<768xf16>) -> tensor<768xf32>
    %1308 = stablehlo.broadcast_in_dim %1307, dims = [2] : (tensor<768xf32>) -> tensor<1x1x768xf32>
    %1309 = stablehlo.broadcast_in_dim %1308, dims = [0, 1, 2] : (tensor<1x1x768xf32>) -> tensor<1x7x768xf32>
    %1310 = stablehlo.add %1306, %1309 : tensor<1x7x768xf32>
    %1311 = stablehlo.add %1245, %1310 : tensor<1x7x768xf32>
    %1312 = stablehlo.multiply %1311, %1311 : tensor<1x7x768xf32>
    %1313 = stablehlo.constant dense<0.000000e+00> : tensor<f32>
    %1314 = stablehlo.reduce(%1312 init: %1313) applies stablehlo.add across dimensions = [2] : (tensor<1x7x768xf32>, tensor<f32>) -> tensor<1x7xf32>
    %1315 = stablehlo.constant dense<7.680000e+02> : tensor<f32>
    %1316 = stablehlo.broadcast_in_dim %1315, dims = [] : (tensor<f32>) -> tensor<1x7xf32>
    %1317 = stablehlo.divide %1314, %1316 : tensor<1x7xf32>
    %1318 = stablehlo.constant dense<0.000000e+00> : tensor<f32>
    %1319 = stablehlo.reduce(%1311 init: %1318) applies stablehlo.add across dimensions = [2] : (tensor<1x7x768xf32>, tensor<f32>) -> tensor<1x7xf32>
    %1320 = stablehlo.constant dense<7.680000e+02> : tensor<f32>
    %1321 = stablehlo.broadcast_in_dim %1320, dims = [] : (tensor<f32>) -> tensor<1x7xf32>
    %1322 = stablehlo.divide %1319, %1321 : tensor<1x7xf32>
    %1323 = stablehlo.multiply %1322, %1322 : tensor<1x7xf32>
    %1324 = stablehlo.subtract %1317, %1323 : tensor<1x7xf32>
    %1325 = stablehlo.constant dense<0.000000e+00> : tensor<f32>
    %1326 = stablehlo.broadcast_in_dim %1325, dims = [] : (tensor<f32>) -> tensor<1x7xf32>
    %1327 = stablehlo.maximum %1326, %1324 : tensor<1x7xf32>
    %1328 = stablehlo.broadcast_in_dim %1322, dims = [0, 1] : (tensor<1x7xf32>) -> tensor<1x7x1xf32>
    %1329 = stablehlo.broadcast_in_dim %1327, dims = [0, 1] : (tensor<1x7xf32>) -> tensor<1x7x1xf32>
    %1330 = stablehlo.broadcast_in_dim %1328, dims = [0, 1, 2] : (tensor<1x7x1xf32>) -> tensor<1x7x768xf32>
    %1331 = stablehlo.subtract %1311, %1330 : tensor<1x7x768xf32>
    %1332 = stablehlo.constant dense<9.99999974E-6> : tensor<f32>
    %1333 = stablehlo.broadcast_in_dim %1332, dims = [] : (tensor<f32>) -> tensor<1x7x1xf32>
    %1334 = stablehlo.add %1329, %1333 : tensor<1x7x1xf32>
    %1335 = stablehlo.rsqrt %1334 : tensor<1x7x1xf32>
    %1336 = stablehlo.reshape %62 : (tensor<768xf16>) -> tensor<1x1x768xf16>
    %1337 = stablehlo.convert %1336 : (tensor<1x1x768xf16>) -> tensor<1x1x768xf32>
    %1338 = stablehlo.broadcast_in_dim %1335, dims = [0, 1, 2] : (tensor<1x7x1xf32>) -> tensor<1x7x768xf32>
    %1339 = stablehlo.broadcast_in_dim %1337, dims = [0, 1, 2] : (tensor<1x1x768xf32>) -> tensor<1x7x768xf32>
    %1340 = stablehlo.multiply %1338, %1339 : tensor<1x7x768xf32>
    %1341 = stablehlo.multiply %1331, %1340 : tensor<1x7x768xf32>
    %1342 = stablehlo.reshape %63 : (tensor<768xf16>) -> tensor<1x1x768xf16>
    %1343 = stablehlo.convert %1342 : (tensor<1x1x768xf16>) -> tensor<1x1x768xf32>
    %1344 = stablehlo.broadcast_in_dim %1343, dims = [0, 1, 2] : (tensor<1x1x768xf32>) -> tensor<1x7x768xf32>
    %1345 = stablehlo.add %1341, %1344 : tensor<1x7x768xf32>
    %1346 = stablehlo.iota dim = 0 : tensor<1024xi32>
    %1347 = stablehlo.broadcast_in_dim %1346, dims = [1] : (tensor<1024xi32>) -> tensor<1x1024xi32>
    %1348 = stablehlo.broadcast_in_dim %1347, dims = [0, 1] : (tensor<1x1024xi32>) -> tensor<1x1024x1xi32>
    %1349 = stablehlo.broadcast_in_dim %1347, dims = [0, 2] : (tensor<1x1024xi32>) -> tensor<1x1x1024xi32>
    %1350 = stablehlo.broadcast_in_dim %1348, dims = [0, 1, 2] : (tensor<1x1024x1xi32>) -> tensor<1x1024x1024xi32>
    %1351 = stablehlo.broadcast_in_dim %1349, dims = [0, 1, 2] : (tensor<1x1x1024xi32>) -> tensor<1x1024x1024xi32>
    %1352 = stablehlo.compare  GE, %1350, %1351,  SIGNED : (tensor<1x1024x1024xi32>, tensor<1x1024x1024xi32>) -> tensor<1x1024x1024xi1>
    %1353 = stablehlo.broadcast_in_dim %1352, dims = [0, 2, 3] : (tensor<1x1024x1024xi1>) -> tensor<1x1x1024x1024xi1>
    %1354 = stablehlo.transpose %64, dims = [1, 0] : (tensor<2304x768xf16>) -> tensor<768x2304xf16>
    %1355 = stablehlo.convert %1354 : (tensor<768x2304xf16>) -> tensor<768x2304xf32>
    %1356 = stablehlo.dot_general %1345, %1355, contracting_dims = [2] x [0], precision = [DEFAULT, DEFAULT] : (tensor<1x7x768xf32>, tensor<768x2304xf32>) -> tensor<1x7x2304xf32>
    %1357 = stablehlo.convert %65 : (tensor<2304xf16>) -> tensor<2304xf32>
    %1358 = stablehlo.broadcast_in_dim %1357, dims = [2] : (tensor<2304xf32>) -> tensor<1x1x2304xf32>
    %1359 = stablehlo.broadcast_in_dim %1358, dims = [0, 1, 2] : (tensor<1x1x2304xf32>) -> tensor<1x7x2304xf32>
    %1360 = stablehlo.add %1356, %1359 : tensor<1x7x2304xf32>
    %1361 = stablehlo.slice %1360 [0:1, 0:7, 0:768] : (tensor<1x7x2304xf32>) -> tensor<1x7x768xf32>
    %1362 = stablehlo.slice %1360 [0:1, 0:7, 768:1536] : (tensor<1x7x2304xf32>) -> tensor<1x7x768xf32>
    %1363 = stablehlo.slice %1360 [0:1, 0:7, 1536:2304] : (tensor<1x7x2304xf32>) -> tensor<1x7x768xf32>
    %1364 = stablehlo.reshape %1361 : (tensor<1x7x768xf32>) -> tensor<1x7x12x64xf32>
    %1365 = stablehlo.reshape %1362 : (tensor<1x7x768xf32>) -> tensor<1x7x12x64xf32>
    %1366 = stablehlo.reshape %1363 : (tensor<1x7x768xf32>) -> tensor<1x7x12x64xf32>
    %1367 = stablehlo.constant dense<0> : tensor<i32>
    %1368 = stablehlo.constant dense<0> : tensor<i32>
    %1369 = stablehlo.compare  LT, %1367, %1368,  SIGNED : (tensor<i32>, tensor<i32>) -> tensor<i1>
    %1370 = stablehlo.constant dense<0> : tensor<i32>
    %1371 = stablehlo.constant dense<1024> : tensor<i32>
    %1372 = stablehlo.add %1370, %1371 : tensor<i32>
    %1373 = stablehlo.constant dense<0> : tensor<i32>
    %1374 = stablehlo.select %1369, %1372, %1373 : tensor<i1>, tensor<i32>
    %1375 = stablehlo.constant dense<0> : tensor<i32>
    %1376 = stablehlo.constant dense<0> : tensor<i32>
    %1377 = stablehlo.constant dense<0> : tensor<i32>
    %1378 = stablehlo.dynamic_slice %1353, %1375, %1376, %1374, %1377, sizes = [1, 1, 7, 20] : (tensor<1x1x1024x1024xi1>, tensor<i32>, tensor<i32>, tensor<i32>, tensor<i32>) -> tensor<1x1x7x20xi1>
    %1379 = stablehlo.broadcast_in_dim %211, dims = [0, 3] : (tensor<1x20xi32>) -> tensor<1x1x1x20xi32>
    %1380 = stablehlo.reshape %1379 : (tensor<1x1x1x20xi32>) -> tensor<1x1x20xi32>
    %1381 = stablehlo.broadcast_in_dim %1380, dims = [0, 1, 3] : (tensor<1x1x20xi32>) -> tensor<1x1x7x20xi32>
    %1382 = stablehlo.constant dense<0> : tensor<i32>
    %1383 = stablehlo.broadcast_in_dim %1382, dims = [] : (tensor<i32>) -> tensor<1x1x7x20xi32>
    %1384 = stablehlo.compare  NE, %1381, %1383,  SIGNED : (tensor<1x1x7x20xi32>, tensor<1x1x7x20xi32>) -> tensor<1x1x7x20xi1>
    %1385 = stablehlo.and %1384, %1378 : tensor<1x1x7x20xi1>
    %1386 = stablehlo.convert %1385 : (tensor<1x1x7x20xi1>) -> tensor<1x1x7x20xf32>
    %1387 = stablehlo.constant dense<0> : tensor<i32>
    %1388 = stablehlo.constant dense<0> : tensor<i32>
    %1389 = stablehlo.compare  LT, %1387, %1388,  SIGNED : (tensor<i32>, tensor<i32>) -> tensor<i1>
    %1390 = stablehlo.constant dense<0> : tensor<i32>
    %1391 = stablehlo.constant dense<20> : tensor<i32>
    %1392 = stablehlo.add %1390, %1391 : tensor<i32>
    %1393 = stablehlo.constant dense<0> : tensor<i32>
    %1394 = stablehlo.select %1389, %1392, %1393 : tensor<i1>, tensor<i32>
    %1395 = stablehlo.constant dense<0> : tensor<i32>
    %1396 = stablehlo.constant dense<0> : tensor<i32>
    %1397 = stablehlo.constant dense<0> : tensor<i32>
    %1398 = stablehlo.dynamic_update_slice %176, %1365, %1395, %1394, %1396, %1397 : (tensor<1x20x12x64xf32>, tensor<1x7x12x64xf32>, tensor<i32>, tensor<i32>, tensor<i32>, tensor<i32>) -> tensor<1x20x12x64xf32>
    %1399 = stablehlo.constant dense<0> : tensor<i32>
    %1400 = stablehlo.constant dense<0> : tensor<i32>
    %1401 = stablehlo.compare  LT, %1399, %1400,  SIGNED : (tensor<i32>, tensor<i32>) -> tensor<i1>
    %1402 = stablehlo.constant dense<0> : tensor<i32>
    %1403 = stablehlo.constant dense<20> : tensor<i32>
    %1404 = stablehlo.add %1402, %1403 : tensor<i32>
    %1405 = stablehlo.constant dense<0> : tensor<i32>
    %1406 = stablehlo.select %1401, %1404, %1405 : tensor<i1>, tensor<i32>
    %1407 = stablehlo.constant dense<0> : tensor<i32>
    %1408 = stablehlo.constant dense<0> : tensor<i32>
    %1409 = stablehlo.constant dense<0> : tensor<i32>
    %1410 = stablehlo.dynamic_update_slice %178, %1366, %1407, %1406, %1408, %1409 : (tensor<1x20x12x64xf32>, tensor<1x7x12x64xf32>, tensor<i32>, tensor<i32>, tensor<i32>, tensor<i32>) -> tensor<1x20x12x64xf32>
    %1411 = stablehlo.constant dense<0> : tensor<i32>
    %1412 = stablehlo.constant dense<7> : tensor<i32>
    %1413 = stablehlo.add %1411, %1412 : tensor<i32>
    %1414 = stablehlo.iota dim = 0 : tensor<20xi32>
    %1415 = stablehlo.constant dense<0> : tensor<i32>
    %1416 = stablehlo.constant dense<7> : tensor<i32>
    %1417 = stablehlo.add %1415, %1416 : tensor<i32>
    %1418 = stablehlo.broadcast_in_dim %1417, dims = [] : (tensor<i32>) -> tensor<20xi32>
    %1419 = stablehlo.compare  LT, %1414, %1418,  SIGNED : (tensor<20xi32>, tensor<20xi32>) -> tensor<20xi1>
    %1420 = stablehlo.broadcast_in_dim %1419, dims = [3] : (tensor<20xi1>) -> tensor<1x1x7x20xi1>
    %1421 = stablehlo.constant dense<0.000000e+00> : tensor<f32>
    %1422 = stablehlo.broadcast_in_dim %1421, dims = [] : (tensor<f32>) -> tensor<1x1x7x20xf32>
    %1423 = stablehlo.compare  NE, %1386, %1422,  FLOAT : (tensor<1x1x7x20xf32>, tensor<1x1x7x20xf32>) -> tensor<1x1x7x20xi1>
    %1424 = stablehlo.and %1420, %1423 : tensor<1x1x7x20xi1>
    %1425 = stablehlo.convert %1424 : (tensor<1x1x7x20xi1>) -> tensor<1x1x7x20xf32>
    %1426 = stablehlo.constant dense<0.000000e+00> : tensor<f32>
    %1427 = stablehlo.broadcast_in_dim %1426, dims = [] : (tensor<f32>) -> tensor<1x1x7x20xf32>
    %1428 = stablehlo.compare  GT, %1425, %1427,  FLOAT : (tensor<1x1x7x20xf32>, tensor<1x1x7x20xf32>) -> tensor<1x1x7x20xi1>
    %1429 = stablehlo.constant dense<0.000000e+00> : tensor<f32>
    %1430 = stablehlo.broadcast_in_dim %1429, dims = [] : (tensor<f32>) -> tensor<1x1x7x20xf32>
    %1431 = stablehlo.convert %1430 : tensor<1x1x7x20xf32>
    %1432 = stablehlo.constant dense<-3.40282347E+38> : tensor<f32>
    %1433 = stablehlo.broadcast_in_dim %1432, dims = [] : (tensor<f32>) -> tensor<1x1x7x20xf32>
    %1434 = stablehlo.select %1428, %1431, %1433 : tensor<1x1x7x20xi1>, tensor<1x1x7x20xf32>
    %1435 = stablehlo.constant dense<6.400000e+01> : tensor<f32>
    %1436 = stablehlo.sqrt %1435 : tensor<f32>
    %1437 = stablehlo.convert %1436 : tensor<f32>
    %1438 = stablehlo.broadcast_in_dim %1437, dims = [] : (tensor<f32>) -> tensor<1x7x12x64xf32>
    %1439 = stablehlo.divide %1364, %1438 : tensor<1x7x12x64xf32>
    %1440 = stablehlo.dot_general %1439, %1398, batching_dims = [0, 2] x [0, 2], contracting_dims = [3] x [3], precision = [DEFAULT, DEFAULT] : (tensor<1x7x12x64xf32>, tensor<1x20x12x64xf32>) -> tensor<1x12x7x20xf32>
    %1441 = stablehlo.broadcast_in_dim %1434, dims = [0, 1, 2, 3] : (tensor<1x1x7x20xf32>) -> tensor<1x12x7x20xf32>
    %1442 = stablehlo.add %1440, %1441 : tensor<1x12x7x20xf32>
    %1443 = stablehlo.constant dense<0xFF800000> : tensor<f32>
    %1444 = stablehlo.reduce(%1442 init: %1443) applies stablehlo.maximum across dimensions = [3] : (tensor<1x12x7x20xf32>, tensor<f32>) -> tensor<1x12x7xf32>
    %1445 = stablehlo.broadcast_in_dim %1444, dims = [0, 1, 2] : (tensor<1x12x7xf32>) -> tensor<1x12x7x1xf32>
    %1446 = stablehlo.broadcast_in_dim %1445, dims = [0, 1, 2, 3] : (tensor<1x12x7x1xf32>) -> tensor<1x12x7x20xf32>
    %1447 = stablehlo.subtract %1442, %1446 : tensor<1x12x7x20xf32>
    %1448 = stablehlo.exponential %1447 : tensor<1x12x7x20xf32>
    %1449 = stablehlo.constant dense<0.000000e+00> : tensor<f32>
    %1450 = stablehlo.reduce(%1448 init: %1449) applies stablehlo.add across dimensions = [3] : (tensor<1x12x7x20xf32>, tensor<f32>) -> tensor<1x12x7xf32>
    %1451 = stablehlo.broadcast_in_dim %1450, dims = [0, 1, 2] : (tensor<1x12x7xf32>) -> tensor<1x12x7x1xf32>
    %1452 = stablehlo.broadcast_in_dim %1451, dims = [0, 1, 2, 3] : (tensor<1x12x7x1xf32>) -> tensor<1x12x7x20xf32>
    %1453 = stablehlo.divide %1448, %1452 : tensor<1x12x7x20xf32>
    %1454 = stablehlo.dot_general %1410, %1453, batching_dims = [0, 2] x [0, 1], contracting_dims = [1] x [3], precision = [DEFAULT, DEFAULT] : (tensor<1x20x12x64xf32>, tensor<1x12x7x20xf32>) -> tensor<1x12x64x7xf32>
    %1455 = stablehlo.transpose %1454, dims = [0, 3, 1, 2] : (tensor<1x12x64x7xf32>) -> tensor<1x7x12x64xf32>
    %1456 = stablehlo.reshape %1455 : (tensor<1x7x12x64xf32>) -> tensor<1x7x768xf32>
    %1457 = stablehlo.transpose %66, dims = [1, 0] : (tensor<768x768xf16>) -> tensor<768x768xf16>
    %1458 = stablehlo.convert %1457 : (tensor<768x768xf16>) -> tensor<768x768xf32>
    %1459 = stablehlo.dot_general %1456, %1458, contracting_dims = [2] x [0], precision = [DEFAULT, DEFAULT] : (tensor<1x7x768xf32>, tensor<768x768xf32>) -> tensor<1x7x768xf32>
    %1460 = stablehlo.convert %67 : (tensor<768xf16>) -> tensor<768xf32>
    %1461 = stablehlo.broadcast_in_dim %1460, dims = [2] : (tensor<768xf32>) -> tensor<1x1x768xf32>
    %1462 = stablehlo.broadcast_in_dim %1461, dims = [0, 1, 2] : (tensor<1x1x768xf32>) -> tensor<1x7x768xf32>
    %1463 = stablehlo.add %1459, %1462 : tensor<1x7x768xf32>
    %1464 = stablehlo.add %1463, %1311 : tensor<1x7x768xf32>
    %1465 = stablehlo.multiply %1464, %1464 : tensor<1x7x768xf32>
    %1466 = stablehlo.constant dense<0.000000e+00> : tensor<f32>
    %1467 = stablehlo.reduce(%1465 init: %1466) applies stablehlo.add across dimensions = [2] : (tensor<1x7x768xf32>, tensor<f32>) -> tensor<1x7xf32>
    %1468 = stablehlo.constant dense<7.680000e+02> : tensor<f32>
    %1469 = stablehlo.broadcast_in_dim %1468, dims = [] : (tensor<f32>) -> tensor<1x7xf32>
    %1470 = stablehlo.divide %1467, %1469 : tensor<1x7xf32>
    %1471 = stablehlo.constant dense<0.000000e+00> : tensor<f32>
    %1472 = stablehlo.reduce(%1464 init: %1471) applies stablehlo.add across dimensions = [2] : (tensor<1x7x768xf32>, tensor<f32>) -> tensor<1x7xf32>
    %1473 = stablehlo.constant dense<7.680000e+02> : tensor<f32>
    %1474 = stablehlo.broadcast_in_dim %1473, dims = [] : (tensor<f32>) -> tensor<1x7xf32>
    %1475 = stablehlo.divide %1472, %1474 : tensor<1x7xf32>
    %1476 = stablehlo.multiply %1475, %1475 : tensor<1x7xf32>
    %1477 = stablehlo.subtract %1470, %1476 : tensor<1x7xf32>
    %1478 = stablehlo.constant dense<0.000000e+00> : tensor<f32>
    %1479 = stablehlo.broadcast_in_dim %1478, dims = [] : (tensor<f32>) -> tensor<1x7xf32>
    %1480 = stablehlo.maximum %1479, %1477 : tensor<1x7xf32>
    %1481 = stablehlo.broadcast_in_dim %1475, dims = [0, 1] : (tensor<1x7xf32>) -> tensor<1x7x1xf32>
    %1482 = stablehlo.broadcast_in_dim %1480, dims = [0, 1] : (tensor<1x7xf32>) -> tensor<1x7x1xf32>
    %1483 = stablehlo.broadcast_in_dim %1481, dims = [0, 1, 2] : (tensor<1x7x1xf32>) -> tensor<1x7x768xf32>
    %1484 = stablehlo.subtract %1464, %1483 : tensor<1x7x768xf32>
    %1485 = stablehlo.constant dense<9.99999974E-6> : tensor<f32>
    %1486 = stablehlo.broadcast_in_dim %1485, dims = [] : (tensor<f32>) -> tensor<1x7x1xf32>
    %1487 = stablehlo.add %1482, %1486 : tensor<1x7x1xf32>
    %1488 = stablehlo.rsqrt %1487 : tensor<1x7x1xf32>
    %1489 = stablehlo.reshape %68 : (tensor<768xf16>) -> tensor<1x1x768xf16>
    %1490 = stablehlo.convert %1489 : (tensor<1x1x768xf16>) -> tensor<1x1x768xf32>
    %1491 = stablehlo.broadcast_in_dim %1488, dims = [0, 1, 2] : (tensor<1x7x1xf32>) -> tensor<1x7x768xf32>
    %1492 = stablehlo.broadcast_in_dim %1490, dims = [0, 1, 2] : (tensor<1x1x768xf32>) -> tensor<1x7x768xf32>
    %1493 = stablehlo.multiply %1491, %1492 : tensor<1x7x768xf32>
    %1494 = stablehlo.multiply %1484, %1493 : tensor<1x7x768xf32>
    %1495 = stablehlo.reshape %69 : (tensor<768xf16>) -> tensor<1x1x768xf16>
    %1496 = stablehlo.convert %1495 : (tensor<1x1x768xf16>) -> tensor<1x1x768xf32>
    %1497 = stablehlo.broadcast_in_dim %1496, dims = [0, 1, 2] : (tensor<1x1x768xf32>) -> tensor<1x7x768xf32>
    %1498 = stablehlo.add %1494, %1497 : tensor<1x7x768xf32>
    %1499 = stablehlo.transpose %70, dims = [1, 0] : (tensor<3072x768xf16>) -> tensor<768x3072xf16>
    %1500 = stablehlo.convert %1499 : (tensor<768x3072xf16>) -> tensor<768x3072xf32>
    %1501 = stablehlo.dot_general %1498, %1500, contracting_dims = [2] x [0], precision = [DEFAULT, DEFAULT] : (tensor<1x7x768xf32>, tensor<768x3072xf32>) -> tensor<1x7x3072xf32>
    %1502 = stablehlo.convert %71 : (tensor<3072xf16>) -> tensor<3072xf32>
    %1503 = stablehlo.broadcast_in_dim %1502, dims = [2] : (tensor<3072xf32>) -> tensor<1x1x3072xf32>
    %1504 = stablehlo.broadcast_in_dim %1503, dims = [0, 1, 2] : (tensor<1x1x3072xf32>) -> tensor<1x7x3072xf32>
    %1505 = stablehlo.add %1501, %1504 : tensor<1x7x3072xf32>
    %1506 = stablehlo.multiply %1505, %1505 : tensor<1x7x3072xf32>
    %1507 = stablehlo.multiply %1505, %1506 : tensor<1x7x3072xf32>
    %1508 = stablehlo.constant dense<4.471500e-02> : tensor<f32>
    %1509 = stablehlo.broadcast_in_dim %1508, dims = [] : (tensor<f32>) -> tensor<1x7x3072xf32>
    %1510 = stablehlo.multiply %1509, %1507 : tensor<1x7x3072xf32>
    %1511 = stablehlo.add %1505, %1510 : tensor<1x7x3072xf32>
    %1512 = stablehlo.constant dense<0.797884583> : tensor<f32>
    %1513 = stablehlo.broadcast_in_dim %1512, dims = [] : (tensor<f32>) -> tensor<1x7x3072xf32>
    %1514 = stablehlo.multiply %1513, %1511 : tensor<1x7x3072xf32>
    %1515 = stablehlo.tanh %1514 : tensor<1x7x3072xf32>
    %1516 = stablehlo.constant dense<1.000000e+00> : tensor<f32>
    %1517 = stablehlo.broadcast_in_dim %1516, dims = [] : (tensor<f32>) -> tensor<1x7x3072xf32>
    %1518 = stablehlo.add %1517, %1515 : tensor<1x7x3072xf32>
    %1519 = stablehlo.constant dense<5.000000e-01> : tensor<f32>
    %1520 = stablehlo.broadcast_in_dim %1519, dims = [] : (tensor<f32>) -> tensor<1x7x3072xf32>
    %1521 = stablehlo.multiply %1520, %1518 : tensor<1x7x3072xf32>
    %1522 = stablehlo.multiply %1505, %1521 : tensor<1x7x3072xf32>
    %1523 = stablehlo.transpose %72, dims = [1, 0] : (tensor<768x3072xf16>) -> tensor<3072x768xf16>
    %1524 = stablehlo.convert %1523 : (tensor<3072x768xf16>) -> tensor<3072x768xf32>
    %1525 = stablehlo.dot_general %1522, %1524, contracting_dims = [2] x [0], precision = [DEFAULT, DEFAULT] : (tensor<1x7x3072xf32>, tensor<3072x768xf32>) -> tensor<1x7x768xf32>
    %1526 = stablehlo.convert %73 : (tensor<768xf16>) -> tensor<768xf32>
    %1527 = stablehlo.broadcast_in_dim %1526, dims = [2] : (tensor<768xf32>) -> tensor<1x1x768xf32>
    %1528 = stablehlo.broadcast_in_dim %1527, dims = [0, 1, 2] : (tensor<1x1x768xf32>) -> tensor<1x7x768xf32>
    %1529 = stablehlo.add %1525, %1528 : tensor<1x7x768xf32>
    %1530 = stablehlo.add %1464, %1529 : tensor<1x7x768xf32>
    %1531 = stablehlo.multiply %1530, %1530 : tensor<1x7x768xf32>
    %1532 = stablehlo.constant dense<0.000000e+00> : tensor<f32>
    %1533 = stablehlo.reduce(%1531 init: %1532) applies stablehlo.add across dimensions = [2] : (tensor<1x7x768xf32>, tensor<f32>) -> tensor<1x7xf32>
    %1534 = stablehlo.constant dense<7.680000e+02> : tensor<f32>
    %1535 = stablehlo.broadcast_in_dim %1534, dims = [] : (tensor<f32>) -> tensor<1x7xf32>
    %1536 = stablehlo.divide %1533, %1535 : tensor<1x7xf32>
    %1537 = stablehlo.constant dense<0.000000e+00> : tensor<f32>
    %1538 = stablehlo.reduce(%1530 init: %1537) applies stablehlo.add across dimensions = [2] : (tensor<1x7x768xf32>, tensor<f32>) -> tensor<1x7xf32>
    %1539 = stablehlo.constant dense<7.680000e+02> : tensor<f32>
    %1540 = stablehlo.broadcast_in_dim %1539, dims = [] : (tensor<f32>) -> tensor<1x7xf32>
    %1541 = stablehlo.divide %1538, %1540 : tensor<1x7xf32>
    %1542 = stablehlo.multiply %1541, %1541 : tensor<1x7xf32>
    %1543 = stablehlo.subtract %1536, %1542 : tensor<1x7xf32>
    %1544 = stablehlo.constant dense<0.000000e+00> : tensor<f32>
    %1545 = stablehlo.broadcast_in_dim %1544, dims = [] : (tensor<f32>) -> tensor<1x7xf32>
    %1546 = stablehlo.maximum %1545, %1543 : tensor<1x7xf32>
    %1547 = stablehlo.broadcast_in_dim %1541, dims = [0, 1] : (tensor<1x7xf32>) -> tensor<1x7x1xf32>
    %1548 = stablehlo.broadcast_in_dim %1546, dims = [0, 1] : (tensor<1x7xf32>) -> tensor<1x7x1xf32>
    %1549 = stablehlo.broadcast_in_dim %1547, dims = [0, 1, 2] : (tensor<1x7x1xf32>) -> tensor<1x7x768xf32>
    %1550 = stablehlo.subtract %1530, %1549 : tensor<1x7x768xf32>
    %1551 = stablehlo.constant dense<9.99999974E-6> : tensor<f32>
    %1552 = stablehlo.broadcast_in_dim %1551, dims = [] : (tensor<f32>) -> tensor<1x7x1xf32>
    %1553 = stablehlo.add %1548, %1552 : tensor<1x7x1xf32>
    %1554 = stablehlo.rsqrt %1553 : tensor<1x7x1xf32>
    %1555 = stablehlo.reshape %74 : (tensor<768xf16>) -> tensor<1x1x768xf16>
    %1556 = stablehlo.convert %1555 : (tensor<1x1x768xf16>) -> tensor<1x1x768xf32>
    %1557 = stablehlo.broadcast_in_dim %1554, dims = [0, 1, 2] : (tensor<1x7x1xf32>) -> tensor<1x7x768xf32>
    %1558 = stablehlo.broadcast_in_dim %1556, dims = [0, 1, 2] : (tensor<1x1x768xf32>) -> tensor<1x7x768xf32>
    %1559 = stablehlo.multiply %1557, %1558 : tensor<1x7x768xf32>
    %1560 = stablehlo.multiply %1550, %1559 : tensor<1x7x768xf32>
    %1561 = stablehlo.reshape %75 : (tensor<768xf16>) -> tensor<1x1x768xf16>
    %1562 = stablehlo.convert %1561 : (tensor<1x1x768xf16>) -> tensor<1x1x768xf32>
    %1563 = stablehlo.broadcast_in_dim %1562, dims = [0, 1, 2] : (tensor<1x1x768xf32>) -> tensor<1x7x768xf32>
    %1564 = stablehlo.add %1560, %1563 : tensor<1x7x768xf32>
    %1565 = stablehlo.iota dim = 0 : tensor<1024xi32>
    %1566 = stablehlo.broadcast_in_dim %1565, dims = [1] : (tensor<1024xi32>) -> tensor<1x1024xi32>
    %1567 = stablehlo.broadcast_in_dim %1566, dims = [0, 1] : (tensor<1x1024xi32>) -> tensor<1x1024x1xi32>
    %1568 = stablehlo.broadcast_in_dim %1566, dims = [0, 2] : (tensor<1x1024xi32>) -> tensor<1x1x1024xi32>
    %1569 = stablehlo.broadcast_in_dim %1567, dims = [0, 1, 2] : (tensor<1x1024x1xi32>) -> tensor<1x1024x1024xi32>
    %1570 = stablehlo.broadcast_in_dim %1568, dims = [0, 1, 2] : (tensor<1x1x1024xi32>) -> tensor<1x1024x1024xi32>
    %1571 = stablehlo.compare  GE, %1569, %1570,  SIGNED : (tensor<1x1024x1024xi32>, tensor<1x1024x1024xi32>) -> tensor<1x1024x1024xi1>
    %1572 = stablehlo.broadcast_in_dim %1571, dims = [0, 2, 3] : (tensor<1x1024x1024xi1>) -> tensor<1x1x1024x1024xi1>
    %1573 = stablehlo.transpose %76, dims = [1, 0] : (tensor<2304x768xf16>) -> tensor<768x2304xf16>
    %1574 = stablehlo.convert %1573 : (tensor<768x2304xf16>) -> tensor<768x2304xf32>
    %1575 = stablehlo.dot_general %1564, %1574, contracting_dims = [2] x [0], precision = [DEFAULT, DEFAULT] : (tensor<1x7x768xf32>, tensor<768x2304xf32>) -> tensor<1x7x2304xf32>
    %1576 = stablehlo.convert %77 : (tensor<2304xf16>) -> tensor<2304xf32>
    %1577 = stablehlo.broadcast_in_dim %1576, dims = [2] : (tensor<2304xf32>) -> tensor<1x1x2304xf32>
    %1578 = stablehlo.broadcast_in_dim %1577, dims = [0, 1, 2] : (tensor<1x1x2304xf32>) -> tensor<1x7x2304xf32>
    %1579 = stablehlo.add %1575, %1578 : tensor<1x7x2304xf32>
    %1580 = stablehlo.slice %1579 [0:1, 0:7, 0:768] : (tensor<1x7x2304xf32>) -> tensor<1x7x768xf32>
    %1581 = stablehlo.slice %1579 [0:1, 0:7, 768:1536] : (tensor<1x7x2304xf32>) -> tensor<1x7x768xf32>
    %1582 = stablehlo.slice %1579 [0:1, 0:7, 1536:2304] : (tensor<1x7x2304xf32>) -> tensor<1x7x768xf32>
    %1583 = stablehlo.reshape %1580 : (tensor<1x7x768xf32>) -> tensor<1x7x12x64xf32>
    %1584 = stablehlo.reshape %1581 : (tensor<1x7x768xf32>) -> tensor<1x7x12x64xf32>
    %1585 = stablehlo.reshape %1582 : (tensor<1x7x768xf32>) -> tensor<1x7x12x64xf32>
    %1586 = stablehlo.constant dense<0> : tensor<i32>
    %1587 = stablehlo.constant dense<0> : tensor<i32>
    %1588 = stablehlo.compare  LT, %1586, %1587,  SIGNED : (tensor<i32>, tensor<i32>) -> tensor<i1>
    %1589 = stablehlo.constant dense<0> : tensor<i32>
    %1590 = stablehlo.constant dense<1024> : tensor<i32>
    %1591 = stablehlo.add %1589, %1590 : tensor<i32>
    %1592 = stablehlo.constant dense<0> : tensor<i32>
    %1593 = stablehlo.select %1588, %1591, %1592 : tensor<i1>, tensor<i32>
    %1594 = stablehlo.constant dense<0> : tensor<i32>
    %1595 = stablehlo.constant dense<0> : tensor<i32>
    %1596 = stablehlo.constant dense<0> : tensor<i32>
    %1597 = stablehlo.dynamic_slice %1572, %1594, %1595, %1593, %1596, sizes = [1, 1, 7, 20] : (tensor<1x1x1024x1024xi1>, tensor<i32>, tensor<i32>, tensor<i32>, tensor<i32>) -> tensor<1x1x7x20xi1>
    %1598 = stablehlo.broadcast_in_dim %211, dims = [0, 3] : (tensor<1x20xi32>) -> tensor<1x1x1x20xi32>
    %1599 = stablehlo.reshape %1598 : (tensor<1x1x1x20xi32>) -> tensor<1x1x20xi32>
    %1600 = stablehlo.broadcast_in_dim %1599, dims = [0, 1, 3] : (tensor<1x1x20xi32>) -> tensor<1x1x7x20xi32>
    %1601 = stablehlo.constant dense<0> : tensor<i32>
    %1602 = stablehlo.broadcast_in_dim %1601, dims = [] : (tensor<i32>) -> tensor<1x1x7x20xi32>
    %1603 = stablehlo.compare  NE, %1600, %1602,  SIGNED : (tensor<1x1x7x20xi32>, tensor<1x1x7x20xi32>) -> tensor<1x1x7x20xi1>
    %1604 = stablehlo.and %1603, %1597 : tensor<1x1x7x20xi1>
    %1605 = stablehlo.convert %1604 : (tensor<1x1x7x20xi1>) -> tensor<1x1x7x20xf32>
    %1606 = stablehlo.constant dense<0> : tensor<i32>
    %1607 = stablehlo.constant dense<0> : tensor<i32>
    %1608 = stablehlo.compare  LT, %1606, %1607,  SIGNED : (tensor<i32>, tensor<i32>) -> tensor<i1>
    %1609 = stablehlo.constant dense<0> : tensor<i32>
    %1610 = stablehlo.constant dense<20> : tensor<i32>
    %1611 = stablehlo.add %1609, %1610 : tensor<i32>
    %1612 = stablehlo.constant dense<0> : tensor<i32>
    %1613 = stablehlo.select %1608, %1611, %1612 : tensor<i1>, tensor<i32>
    %1614 = stablehlo.constant dense<0> : tensor<i32>
    %1615 = stablehlo.constant dense<0> : tensor<i32>
    %1616 = stablehlo.constant dense<0> : tensor<i32>
    %1617 = stablehlo.dynamic_update_slice %180, %1584, %1614, %1613, %1615, %1616 : (tensor<1x20x12x64xf32>, tensor<1x7x12x64xf32>, tensor<i32>, tensor<i32>, tensor<i32>, tensor<i32>) -> tensor<1x20x12x64xf32>
    %1618 = stablehlo.constant dense<0> : tensor<i32>
    %1619 = stablehlo.constant dense<0> : tensor<i32>
    %1620 = stablehlo.compare  LT, %1618, %1619,  SIGNED : (tensor<i32>, tensor<i32>) -> tensor<i1>
    %1621 = stablehlo.constant dense<0> : tensor<i32>
    %1622 = stablehlo.constant dense<20> : tensor<i32>
    %1623 = stablehlo.add %1621, %1622 : tensor<i32>
    %1624 = stablehlo.constant dense<0> : tensor<i32>
    %1625 = stablehlo.select %1620, %1623, %1624 : tensor<i1>, tensor<i32>
    %1626 = stablehlo.constant dense<0> : tensor<i32>
    %1627 = stablehlo.constant dense<0> : tensor<i32>
    %1628 = stablehlo.constant dense<0> : tensor<i32>
    %1629 = stablehlo.dynamic_update_slice %182, %1585, %1626, %1625, %1627, %1628 : (tensor<1x20x12x64xf32>, tensor<1x7x12x64xf32>, tensor<i32>, tensor<i32>, tensor<i32>, tensor<i32>) -> tensor<1x20x12x64xf32>
    %1630 = stablehlo.constant dense<0> : tensor<i32>
    %1631 = stablehlo.constant dense<7> : tensor<i32>
    %1632 = stablehlo.add %1630, %1631 : tensor<i32>
    %1633 = stablehlo.iota dim = 0 : tensor<20xi32>
    %1634 = stablehlo.constant dense<0> : tensor<i32>
    %1635 = stablehlo.constant dense<7> : tensor<i32>
    %1636 = stablehlo.add %1634, %1635 : tensor<i32>
    %1637 = stablehlo.broadcast_in_dim %1636, dims = [] : (tensor<i32>) -> tensor<20xi32>
    %1638 = stablehlo.compare  LT, %1633, %1637,  SIGNED : (tensor<20xi32>, tensor<20xi32>) -> tensor<20xi1>
    %1639 = stablehlo.broadcast_in_dim %1638, dims = [3] : (tensor<20xi1>) -> tensor<1x1x7x20xi1>
    %1640 = stablehlo.constant dense<0.000000e+00> : tensor<f32>
    %1641 = stablehlo.broadcast_in_dim %1640, dims = [] : (tensor<f32>) -> tensor<1x1x7x20xf32>
    %1642 = stablehlo.compare  NE, %1605, %1641,  FLOAT : (tensor<1x1x7x20xf32>, tensor<1x1x7x20xf32>) -> tensor<1x1x7x20xi1>
    %1643 = stablehlo.and %1639, %1642 : tensor<1x1x7x20xi1>
    %1644 = stablehlo.convert %1643 : (tensor<1x1x7x20xi1>) -> tensor<1x1x7x20xf32>
    %1645 = stablehlo.constant dense<0.000000e+00> : tensor<f32>
    %1646 = stablehlo.broadcast_in_dim %1645, dims = [] : (tensor<f32>) -> tensor<1x1x7x20xf32>
    %1647 = stablehlo.compare  GT, %1644, %1646,  FLOAT : (tensor<1x1x7x20xf32>, tensor<1x1x7x20xf32>) -> tensor<1x1x7x20xi1>
    %1648 = stablehlo.constant dense<0.000000e+00> : tensor<f32>
    %1649 = stablehlo.broadcast_in_dim %1648, dims = [] : (tensor<f32>) -> tensor<1x1x7x20xf32>
    %1650 = stablehlo.convert %1649 : tensor<1x1x7x20xf32>
    %1651 = stablehlo.constant dense<-3.40282347E+38> : tensor<f32>
    %1652 = stablehlo.broadcast_in_dim %1651, dims = [] : (tensor<f32>) -> tensor<1x1x7x20xf32>
    %1653 = stablehlo.select %1647, %1650, %1652 : tensor<1x1x7x20xi1>, tensor<1x1x7x20xf32>
    %1654 = stablehlo.constant dense<6.400000e+01> : tensor<f32>
    %1655 = stablehlo.sqrt %1654 : tensor<f32>
    %1656 = stablehlo.convert %1655 : tensor<f32>
    %1657 = stablehlo.broadcast_in_dim %1656, dims = [] : (tensor<f32>) -> tensor<1x7x12x64xf32>
    %1658 = stablehlo.divide %1583, %1657 : tensor<1x7x12x64xf32>
    %1659 = stablehlo.dot_general %1658, %1617, batching_dims = [0, 2] x [0, 2], contracting_dims = [3] x [3], precision = [DEFAULT, DEFAULT] : (tensor<1x7x12x64xf32>, tensor<1x20x12x64xf32>) -> tensor<1x12x7x20xf32>
    %1660 = stablehlo.broadcast_in_dim %1653, dims = [0, 1, 2, 3] : (tensor<1x1x7x20xf32>) -> tensor<1x12x7x20xf32>
    %1661 = stablehlo.add %1659, %1660 : tensor<1x12x7x20xf32>
    %1662 = stablehlo.constant dense<0xFF800000> : tensor<f32>
    %1663 = stablehlo.reduce(%1661 init: %1662) applies stablehlo.maximum across dimensions = [3] : (tensor<1x12x7x20xf32>, tensor<f32>) -> tensor<1x12x7xf32>
    %1664 = stablehlo.broadcast_in_dim %1663, dims = [0, 1, 2] : (tensor<1x12x7xf32>) -> tensor<1x12x7x1xf32>
    %1665 = stablehlo.broadcast_in_dim %1664, dims = [0, 1, 2, 3] : (tensor<1x12x7x1xf32>) -> tensor<1x12x7x20xf32>
    %1666 = stablehlo.subtract %1661, %1665 : tensor<1x12x7x20xf32>
    %1667 = stablehlo.exponential %1666 : tensor<1x12x7x20xf32>
    %1668 = stablehlo.constant dense<0.000000e+00> : tensor<f32>
    %1669 = stablehlo.reduce(%1667 init: %1668) applies stablehlo.add across dimensions = [3] : (tensor<1x12x7x20xf32>, tensor<f32>) -> tensor<1x12x7xf32>
    %1670 = stablehlo.broadcast_in_dim %1669, dims = [0, 1, 2] : (tensor<1x12x7xf32>) -> tensor<1x12x7x1xf32>
    %1671 = stablehlo.broadcast_in_dim %1670, dims = [0, 1, 2, 3] : (tensor<1x12x7x1xf32>) -> tensor<1x12x7x20xf32>
    %1672 = stablehlo.divide %1667, %1671 : tensor<1x12x7x20xf32>
    %1673 = stablehlo.dot_general %1629, %1672, batching_dims = [0, 2] x [0, 1], contracting_dims = [1] x [3], precision = [DEFAULT, DEFAULT] : (tensor<1x20x12x64xf32>, tensor<1x12x7x20xf32>) -> tensor<1x12x64x7xf32>
    %1674 = stablehlo.transpose %1673, dims = [0, 3, 1, 2] : (tensor<1x12x64x7xf32>) -> tensor<1x7x12x64xf32>
    %1675 = stablehlo.reshape %1674 : (tensor<1x7x12x64xf32>) -> tensor<1x7x768xf32>
    %1676 = stablehlo.transpose %78, dims = [1, 0] : (tensor<768x768xf16>) -> tensor<768x768xf16>
    %1677 = stablehlo.convert %1676 : (tensor<768x768xf16>) -> tensor<768x768xf32>
    %1678 = stablehlo.dot_general %1675, %1677, contracting_dims = [2] x [0], precision = [DEFAULT, DEFAULT] : (tensor<1x7x768xf32>, tensor<768x768xf32>) -> tensor<1x7x768xf32>
    %1679 = stablehlo.convert %79 : (tensor<768xf16>) -> tensor<768xf32>
    %1680 = stablehlo.broadcast_in_dim %1679, dims = [2] : (tensor<768xf32>) -> tensor<1x1x768xf32>
    %1681 = stablehlo.broadcast_in_dim %1680, dims = [0, 1, 2] : (tensor<1x1x768xf32>) -> tensor<1x7x768xf32>
    %1682 = stablehlo.add %1678, %1681 : tensor<1x7x768xf32>
    %1683 = stablehlo.add %1682, %1530 : tensor<1x7x768xf32>
    %1684 = stablehlo.multiply %1683, %1683 : tensor<1x7x768xf32>
    %1685 = stablehlo.constant dense<0.000000e+00> : tensor<f32>
    %1686 = stablehlo.reduce(%1684 init: %1685) applies stablehlo.add across dimensions = [2] : (tensor<1x7x768xf32>, tensor<f32>) -> tensor<1x7xf32>
    %1687 = stablehlo.constant dense<7.680000e+02> : tensor<f32>
    %1688 = stablehlo.broadcast_in_dim %1687, dims = [] : (tensor<f32>) -> tensor<1x7xf32>
    %1689 = stablehlo.divide %1686, %1688 : tensor<1x7xf32>
    %1690 = stablehlo.constant dense<0.000000e+00> : tensor<f32>
    %1691 = stablehlo.reduce(%1683 init: %1690) applies stablehlo.add across dimensions = [2] : (tensor<1x7x768xf32>, tensor<f32>) -> tensor<1x7xf32>
    %1692 = stablehlo.constant dense<7.680000e+02> : tensor<f32>
    %1693 = stablehlo.broadcast_in_dim %1692, dims = [] : (tensor<f32>) -> tensor<1x7xf32>
    %1694 = stablehlo.divide %1691, %1693 : tensor<1x7xf32>
    %1695 = stablehlo.multiply %1694, %1694 : tensor<1x7xf32>
    %1696 = stablehlo.subtract %1689, %1695 : tensor<1x7xf32>
    %1697 = stablehlo.constant dense<0.000000e+00> : tensor<f32>
    %1698 = stablehlo.broadcast_in_dim %1697, dims = [] : (tensor<f32>) -> tensor<1x7xf32>
    %1699 = stablehlo.maximum %1698, %1696 : tensor<1x7xf32>
    %1700 = stablehlo.broadcast_in_dim %1694, dims = [0, 1] : (tensor<1x7xf32>) -> tensor<1x7x1xf32>
    %1701 = stablehlo.broadcast_in_dim %1699, dims = [0, 1] : (tensor<1x7xf32>) -> tensor<1x7x1xf32>
    %1702 = stablehlo.broadcast_in_dim %1700, dims = [0, 1, 2] : (tensor<1x7x1xf32>) -> tensor<1x7x768xf32>
    %1703 = stablehlo.subtract %1683, %1702 : tensor<1x7x768xf32>
    %1704 = stablehlo.constant dense<9.99999974E-6> : tensor<f32>
    %1705 = stablehlo.broadcast_in_dim %1704, dims = [] : (tensor<f32>) -> tensor<1x7x1xf32>
    %1706 = stablehlo.add %1701, %1705 : tensor<1x7x1xf32>
    %1707 = stablehlo.rsqrt %1706 : tensor<1x7x1xf32>
    %1708 = stablehlo.reshape %80 : (tensor<768xf16>) -> tensor<1x1x768xf16>
    %1709 = stablehlo.convert %1708 : (tensor<1x1x768xf16>) -> tensor<1x1x768xf32>
    %1710 = stablehlo.broadcast_in_dim %1707, dims = [0, 1, 2] : (tensor<1x7x1xf32>) -> tensor<1x7x768xf32>
    %1711 = stablehlo.broadcast_in_dim %1709, dims = [0, 1, 2] : (tensor<1x1x768xf32>) -> tensor<1x7x768xf32>
    %1712 = stablehlo.multiply %1710, %1711 : tensor<1x7x768xf32>
    %1713 = stablehlo.multiply %1703, %1712 : tensor<1x7x768xf32>
    %1714 = stablehlo.reshape %81 : (tensor<768xf16>) -> tensor<1x1x768xf16>
    %1715 = stablehlo.convert %1714 : (tensor<1x1x768xf16>) -> tensor<1x1x768xf32>
    %1716 = stablehlo.broadcast_in_dim %1715, dims = [0, 1, 2] : (tensor<1x1x768xf32>) -> tensor<1x7x768xf32>
    %1717 = stablehlo.add %1713, %1716 : tensor<1x7x768xf32>
    %1718 = stablehlo.transpose %82, dims = [1, 0] : (tensor<3072x768xf16>) -> tensor<768x3072xf16>
    %1719 = stablehlo.convert %1718 : (tensor<768x3072xf16>) -> tensor<768x3072xf32>
    %1720 = stablehlo.dot_general %1717, %1719, contracting_dims = [2] x [0], precision = [DEFAULT, DEFAULT] : (tensor<1x7x768xf32>, tensor<768x3072xf32>) -> tensor<1x7x3072xf32>
    %1721 = stablehlo.convert %83 : (tensor<3072xf16>) -> tensor<3072xf32>
    %1722 = stablehlo.broadcast_in_dim %1721, dims = [2] : (tensor<3072xf32>) -> tensor<1x1x3072xf32>
    %1723 = stablehlo.broadcast_in_dim %1722, dims = [0, 1, 2] : (tensor<1x1x3072xf32>) -> tensor<1x7x3072xf32>
    %1724 = stablehlo.add %1720, %1723 : tensor<1x7x3072xf32>
    %1725 = stablehlo.multiply %1724, %1724 : tensor<1x7x3072xf32>
    %1726 = stablehlo.multiply %1724, %1725 : tensor<1x7x3072xf32>
    %1727 = stablehlo.constant dense<4.471500e-02> : tensor<f32>
    %1728 = stablehlo.broadcast_in_dim %1727, dims = [] : (tensor<f32>) -> tensor<1x7x3072xf32>
    %1729 = stablehlo.multiply %1728, %1726 : tensor<1x7x3072xf32>
    %1730 = stablehlo.add %1724, %1729 : tensor<1x7x3072xf32>
    %1731 = stablehlo.constant dense<0.797884583> : tensor<f32>
    %1732 = stablehlo.broadcast_in_dim %1731, dims = [] : (tensor<f32>) -> tensor<1x7x3072xf32>
    %1733 = stablehlo.multiply %1732, %1730 : tensor<1x7x3072xf32>
    %1734 = stablehlo.tanh %1733 : tensor<1x7x3072xf32>
    %1735 = stablehlo.constant dense<1.000000e+00> : tensor<f32>
    %1736 = stablehlo.broadcast_in_dim %1735, dims = [] : (tensor<f32>) -> tensor<1x7x3072xf32>
    %1737 = stablehlo.add %1736, %1734 : tensor<1x7x3072xf32>
    %1738 = stablehlo.constant dense<5.000000e-01> : tensor<f32>
    %1739 = stablehlo.broadcast_in_dim %1738, dims = [] : (tensor<f32>) -> tensor<1x7x3072xf32>
    %1740 = stablehlo.multiply %1739, %1737 : tensor<1x7x3072xf32>
    %1741 = stablehlo.multiply %1724, %1740 : tensor<1x7x3072xf32>
    %1742 = stablehlo.transpose %84, dims = [1, 0] : (tensor<768x3072xf16>) -> tensor<3072x768xf16>
    %1743 = stablehlo.convert %1742 : (tensor<3072x768xf16>) -> tensor<3072x768xf32>
    %1744 = stablehlo.dot_general %1741, %1743, contracting_dims = [2] x [0], precision = [DEFAULT, DEFAULT] : (tensor<1x7x3072xf32>, tensor<3072x768xf32>) -> tensor<1x7x768xf32>
    %1745 = stablehlo.convert %85 : (tensor<768xf16>) -> tensor<768xf32>
    %1746 = stablehlo.broadcast_in_dim %1745, dims = [2] : (tensor<768xf32>) -> tensor<1x1x768xf32>
    %1747 = stablehlo.broadcast_in_dim %1746, dims = [0, 1, 2] : (tensor<1x1x768xf32>) -> tensor<1x7x768xf32>
    %1748 = stablehlo.add %1744, %1747 : tensor<1x7x768xf32>
    %1749 = stablehlo.add %1683, %1748 : tensor<1x7x768xf32>
    %1750 = stablehlo.multiply %1749, %1749 : tensor<1x7x768xf32>
    %1751 = stablehlo.constant dense<0.000000e+00> : tensor<f32>
    %1752 = stablehlo.reduce(%1750 init: %1751) applies stablehlo.add across dimensions = [2] : (tensor<1x7x768xf32>, tensor<f32>) -> tensor<1x7xf32>
    %1753 = stablehlo.constant dense<7.680000e+02> : tensor<f32>
    %1754 = stablehlo.broadcast_in_dim %1753, dims = [] : (tensor<f32>) -> tensor<1x7xf32>
    %1755 = stablehlo.divide %1752, %1754 : tensor<1x7xf32>
    %1756 = stablehlo.constant dense<0.000000e+00> : tensor<f32>
    %1757 = stablehlo.reduce(%1749 init: %1756) applies stablehlo.add across dimensions = [2] : (tensor<1x7x768xf32>, tensor<f32>) -> tensor<1x7xf32>
    %1758 = stablehlo.constant dense<7.680000e+02> : tensor<f32>
    %1759 = stablehlo.broadcast_in_dim %1758, dims = [] : (tensor<f32>) -> tensor<1x7xf32>
    %1760 = stablehlo.divide %1757, %1759 : tensor<1x7xf32>
    %1761 = stablehlo.multiply %1760, %1760 : tensor<1x7xf32>
    %1762 = stablehlo.subtract %1755, %1761 : tensor<1x7xf32>
    %1763 = stablehlo.constant dense<0.000000e+00> : tensor<f32>
    %1764 = stablehlo.broadcast_in_dim %1763, dims = [] : (tensor<f32>) -> tensor<1x7xf32>
    %1765 = stablehlo.maximum %1764, %1762 : tensor<1x7xf32>
    %1766 = stablehlo.broadcast_in_dim %1760, dims = [0, 1] : (tensor<1x7xf32>) -> tensor<1x7x1xf32>
    %1767 = stablehlo.broadcast_in_dim %1765, dims = [0, 1] : (tensor<1x7xf32>) -> tensor<1x7x1xf32>
    %1768 = stablehlo.broadcast_in_dim %1766, dims = [0, 1, 2] : (tensor<1x7x1xf32>) -> tensor<1x7x768xf32>
    %1769 = stablehlo.subtract %1749, %1768 : tensor<1x7x768xf32>
    %1770 = stablehlo.constant dense<9.99999974E-6> : tensor<f32>
    %1771 = stablehlo.broadcast_in_dim %1770, dims = [] : (tensor<f32>) -> tensor<1x7x1xf32>
    %1772 = stablehlo.add %1767, %1771 : tensor<1x7x1xf32>
    %1773 = stablehlo.rsqrt %1772 : tensor<1x7x1xf32>
    %1774 = stablehlo.reshape %86 : (tensor<768xf16>) -> tensor<1x1x768xf16>
    %1775 = stablehlo.convert %1774 : (tensor<1x1x768xf16>) -> tensor<1x1x768xf32>
    %1776 = stablehlo.broadcast_in_dim %1773, dims = [0, 1, 2] : (tensor<1x7x1xf32>) -> tensor<1x7x768xf32>
    %1777 = stablehlo.broadcast_in_dim %1775, dims = [0, 1, 2] : (tensor<1x1x768xf32>) -> tensor<1x7x768xf32>
    %1778 = stablehlo.multiply %1776, %1777 : tensor<1x7x768xf32>
    %1779 = stablehlo.multiply %1769, %1778 : tensor<1x7x768xf32>
    %1780 = stablehlo.reshape %87 : (tensor<768xf16>) -> tensor<1x1x768xf16>
    %1781 = stablehlo.convert %1780 : (tensor<1x1x768xf16>) -> tensor<1x1x768xf32>
    %1782 = stablehlo.broadcast_in_dim %1781, dims = [0, 1, 2] : (tensor<1x1x768xf32>) -> tensor<1x7x768xf32>
    %1783 = stablehlo.add %1779, %1782 : tensor<1x7x768xf32>
    %1784 = stablehlo.iota dim = 0 : tensor<1024xi32>
    %1785 = stablehlo.broadcast_in_dim %1784, dims = [1] : (tensor<1024xi32>) -> tensor<1x1024xi32>
    %1786 = stablehlo.broadcast_in_dim %1785, dims = [0, 1] : (tensor<1x1024xi32>) -> tensor<1x1024x1xi32>
    %1787 = stablehlo.broadcast_in_dim %1785, dims = [0, 2] : (tensor<1x1024xi32>) -> tensor<1x1x1024xi32>
    %1788 = stablehlo.broadcast_in_dim %1786, dims = [0, 1, 2] : (tensor<1x1024x1xi32>) -> tensor<1x1024x1024xi32>
    %1789 = stablehlo.broadcast_in_dim %1787, dims = [0, 1, 2] : (tensor<1x1x1024xi32>) -> tensor<1x1024x1024xi32>
    %1790 = stablehlo.compare  GE, %1788, %1789,  SIGNED : (tensor<1x1024x1024xi32>, tensor<1x1024x1024xi32>) -> tensor<1x1024x1024xi1>
    %1791 = stablehlo.broadcast_in_dim %1790, dims = [0, 2, 3] : (tensor<1x1024x1024xi1>) -> tensor<1x1x1024x1024xi1>
    %1792 = stablehlo.transpose %88, dims = [1, 0] : (tensor<2304x768xf16>) -> tensor<768x2304xf16>
    %1793 = stablehlo.convert %1792 : (tensor<768x2304xf16>) -> tensor<768x2304xf32>
    %1794 = stablehlo.dot_general %1783, %1793, contracting_dims = [2] x [0], precision = [DEFAULT, DEFAULT] : (tensor<1x7x768xf32>, tensor<768x2304xf32>) -> tensor<1x7x2304xf32>
    %1795 = stablehlo.convert %89 : (tensor<2304xf16>) -> tensor<2304xf32>
    %1796 = stablehlo.broadcast_in_dim %1795, dims = [2] : (tensor<2304xf32>) -> tensor<1x1x2304xf32>
    %1797 = stablehlo.broadcast_in_dim %1796, dims = [0, 1, 2] : (tensor<1x1x2304xf32>) -> tensor<1x7x2304xf32>
    %1798 = stablehlo.add %1794, %1797 : tensor<1x7x2304xf32>
    %1799 = stablehlo.slice %1798 [0:1, 0:7, 0:768] : (tensor<1x7x2304xf32>) -> tensor<1x7x768xf32>
    %1800 = stablehlo.slice %1798 [0:1, 0:7, 768:1536] : (tensor<1x7x2304xf32>) -> tensor<1x7x768xf32>
    %1801 = stablehlo.slice %1798 [0:1, 0:7, 1536:2304] : (tensor<1x7x2304xf32>) -> tensor<1x7x768xf32>
    %1802 = stablehlo.reshape %1799 : (tensor<1x7x768xf32>) -> tensor<1x7x12x64xf32>
    %1803 = stablehlo.reshape %1800 : (tensor<1x7x768xf32>) -> tensor<1x7x12x64xf32>
…
      %5253 = stablehlo.constant dense<0> : tensor<i32>
      %5254 = stablehlo.dynamic_update_slice %iterArg_164, %5229, %5251, %5250, %5252, %5253 : (tensor<1x20x12x64xf32>, tensor<1x1x12x64xf32>, tensor<i32>, tensor<i32>, tensor<i32>, tensor<i32>) -> tensor<1x20x12x64xf32>
      %5255 = stablehlo.constant dense<0> : tensor<i32>
      %5256 = stablehlo.compare  LT, %iterArg_163, %5255,  SIGNED : (tensor<i32>, tensor<i32>) -> tensor<i1>
      %5257 = stablehlo.constant dense<20> : tensor<i32>
      %5258 = stablehlo.add %iterArg_163, %5257 : tensor<i32>
      %5259 = stablehlo.select %5256, %5258, %iterArg_163 : tensor<i1>, tensor<i32>
      %5260 = stablehlo.constant dense<0> : tensor<i32>
      %5261 = stablehlo.constant dense<0> : tensor<i32>
      %5262 = stablehlo.constant dense<0> : tensor<i32>
      %5263 = stablehlo.dynamic_update_slice %iterArg_165, %5230, %5260, %5259, %5261, %5262 : (tensor<1x20x12x64xf32>, tensor<1x1x12x64xf32>, tensor<i32>, tensor<i32>, tensor<i32>, tensor<i32>) -> tensor<1x20x12x64xf32>
      %5264 = stablehlo.constant dense<1> : tensor<i32>
      %5265 = stablehlo.add %iterArg_163, %5264 : tensor<i32>
      %5266 = stablehlo.iota dim = 0 : tensor<20xi32>
      %5267 = stablehlo.constant dense<1> : tensor<i32>
      %5268 = stablehlo.add %iterArg_163, %5267 : tensor<i32>
      %5269 = stablehlo.broadcast_in_dim %5268, dims = [] : (tensor<i32>) -> tensor<20xi32>
      %5270 = stablehlo.compare  LT, %5266, %5269,  SIGNED : (tensor<20xi32>, tensor<20xi32>) -> tensor<20xi1>
      %5271 = stablehlo.broadcast_in_dim %5270, dims = [3] : (tensor<20xi1>) -> tensor<1x1x1x20xi1>
      %5272 = stablehlo.constant dense<0.000000e+00> : tensor<f32>
      %5273 = stablehlo.broadcast_in_dim %5272, dims = [] : (tensor<f32>) -> tensor<1x1x1x20xf32>
      %5274 = stablehlo.compare  NE, %5245, %5273,  FLOAT : (tensor<1x1x1x20xf32>, tensor<1x1x1x20xf32>) -> tensor<1x1x1x20xi1>
      %5275 = stablehlo.and %5271, %5274 : tensor<1x1x1x20xi1>
      %5276 = stablehlo.convert %5275 : (tensor<1x1x1x20xi1>) -> tensor<1x1x1x20xf32>
      %5277 = stablehlo.constant dense<0.000000e+00> : tensor<f32>
      %5278 = stablehlo.broadcast_in_dim %5277, dims = [] : (tensor<f32>) -> tensor<1x1x1x20xf32>
      %5279 = stablehlo.compare  GT, %5276, %5278,  FLOAT : (tensor<1x1x1x20xf32>, tensor<1x1x1x20xf32>) -> tensor<1x1x1x20xi1>
      %5280 = stablehlo.constant dense<0.000000e+00> : tensor<f32>
      %5281 = stablehlo.broadcast_in_dim %5280, dims = [] : (tensor<f32>) -> tensor<1x1x1x20xf32>
      %5282 = stablehlo.convert %5281 : tensor<1x1x1x20xf32>
      %5283 = stablehlo.constant dense<-3.40282347E+38> : tensor<f32>
      %5284 = stablehlo.broadcast_in_dim %5283, dims = [] : (tensor<f32>) -> tensor<1x1x1x20xf32>
      %5285 = stablehlo.select %5279, %5282, %5284 : tensor<1x1x1x20xi1>, tensor<1x1x1x20xf32>
      %5286 = stablehlo.constant dense<6.400000e+01> : tensor<f32>
      %5287 = stablehlo.sqrt %5286 : tensor<f32>
      %5288 = stablehlo.convert %5287 : tensor<f32>
      %5289 = stablehlo.broadcast_in_dim %5288, dims = [] : (tensor<f32>) -> tensor<1x1x12x64xf32>
      %5290 = stablehlo.divide %5228, %5289 : tensor<1x1x12x64xf32>
      %5291 = stablehlo.dot_general %5290, %5254, batching_dims = [0, 2] x [0, 2], contracting_dims = [3] x [3], precision = [DEFAULT, DEFAULT] : (tensor<1x1x12x64xf32>, tensor<1x20x12x64xf32>) -> tensor<1x12x1x20xf32>
      %5292 = stablehlo.broadcast_in_dim %5285, dims = [0, 1, 2, 3] : (tensor<1x1x1x20xf32>) -> tensor<1x12x1x20xf32>
      %5293 = stablehlo.add %5291, %5292 : tensor<1x12x1x20xf32>
      %5294 = stablehlo.constant dense<0xFF800000> : tensor<f32>
      %5295 = stablehlo.reduce(%5293 init: %5294) applies stablehlo.maximum across dimensions = [3] : (tensor<1x12x1x20xf32>, tensor<f32>) -> tensor<1x12x1xf32>
      %5296 = stablehlo.broadcast_in_dim %5295, dims = [0, 1, 2] : (tensor<1x12x1xf32>) -> tensor<1x12x1x1xf32>
      %5297 = stablehlo.broadcast_in_dim %5296, dims = [0, 1, 2, 3] : (tensor<1x12x1x1xf32>) -> tensor<1x12x1x20xf32>
      %5298 = stablehlo.subtract %5293, %5297 : tensor<1x12x1x20xf32>
      %5299 = stablehlo.exponential %5298 : tensor<1x12x1x20xf32>
      %5300 = stablehlo.constant dense<0.000000e+00> : tensor<f32>
      %5301 = stablehlo.reduce(%5299 init: %5300) applies stablehlo.add across dimensions = [3] : (tensor<1x12x1x20xf32>, tensor<f32>) -> tensor<1x12x1xf32>
      %5302 = stablehlo.broadcast_in_dim %5301, dims = [0, 1, 2] : (tensor<1x12x1xf32>) -> tensor<1x12x1x1xf32>
      %5303 = stablehlo.broadcast_in_dim %5302, dims = [0, 1, 2, 3] : (tensor<1x12x1x1xf32>) -> tensor<1x12x1x20xf32>
      %5304 = stablehlo.divide %5299, %5303 : tensor<1x12x1x20xf32>
      %5305 = stablehlo.dot_general %5263, %5304, batching_dims = [0, 2] x [0, 1], contracting_dims = [1] x [3], precision = [DEFAULT, DEFAULT] : (tensor<1x20x12x64xf32>, tensor<1x12x1x20xf32>) -> tensor<1x12x64x1xf32>
      %5306 = stablehlo.transpose %5305, dims = [0, 3, 1, 2] : (tensor<1x12x64x1xf32>) -> tensor<1x1x12x64xf32>
      %5307 = stablehlo.reshape %5306 : (tensor<1x1x12x64xf32>) -> tensor<1x1x768xf32>
      %5308 = stablehlo.transpose %iterArg_137, dims = [1, 0] : (tensor<768x768xf16>) -> tensor<768x768xf16>
      %5309 = stablehlo.convert %5308 : (tensor<768x768xf16>) -> tensor<768x768xf32>
      %5310 = stablehlo.dot_general %5307, %5309, contracting_dims = [2] x [0], precision = [DEFAULT, DEFAULT] : (tensor<1x1x768xf32>, tensor<768x768xf32>) -> tensor<1x1x768xf32>
      %5311 = stablehlo.convert %iterArg_138 : (tensor<768xf16>) -> tensor<768xf32>
      %5312 = stablehlo.broadcast_in_dim %5311, dims = [2] : (tensor<768xf32>) -> tensor<1x1x768xf32>
      %5313 = stablehlo.add %5310, %5312 : tensor<1x1x768xf32>
      %5314 = stablehlo.add %5313, %5176 : tensor<1x1x768xf32>
      %5315 = stablehlo.multiply %5314, %5314 : tensor<1x1x768xf32>
      %5316 = stablehlo.constant dense<0.000000e+00> : tensor<f32>
      %5317 = stablehlo.reduce(%5315 init: %5316) applies stablehlo.add across dimensions = [2] : (tensor<1x1x768xf32>, tensor<f32>) -> tensor<1x1xf32>
      %5318 = stablehlo.constant dense<7.680000e+02> : tensor<f32>
      %5319 = stablehlo.broadcast_in_dim %5318, dims = [] : (tensor<f32>) -> tensor<1x1xf32>
      %5320 = stablehlo.divide %5317, %5319 : tensor<1x1xf32>
      %5321 = stablehlo.constant dense<0.000000e+00> : tensor<f32>
      %5322 = stablehlo.reduce(%5314 init: %5321) applies stablehlo.add across dimensions = [2] : (tensor<1x1x768xf32>, tensor<f32>) -> tensor<1x1xf32>
      %5323 = stablehlo.constant dense<7.680000e+02> : tensor<f32>
      %5324 = stablehlo.broadcast_in_dim %5323, dims = [] : (tensor<f32>) -> tensor<1x1xf32>
      %5325 = stablehlo.divide %5322, %5324 : tensor<1x1xf32>
      %5326 = stablehlo.multiply %5325, %5325 : tensor<1x1xf32>
      %5327 = stablehlo.subtract %5320, %5326 : tensor<1x1xf32>
      %5328 = stablehlo.constant dense<0.000000e+00> : tensor<f32>
      %5329 = stablehlo.broadcast_in_dim %5328, dims = [] : (tensor<f32>) -> tensor<1x1xf32>
      %5330 = stablehlo.maximum %5329, %5327 : tensor<1x1xf32>
      %5331 = stablehlo.broadcast_in_dim %5325, dims = [0, 1] : (tensor<1x1xf32>) -> tensor<1x1x1xf32>
      %5332 = stablehlo.broadcast_in_dim %5330, dims = [0, 1] : (tensor<1x1xf32>) -> tensor<1x1x1xf32>
      %5333 = stablehlo.broadcast_in_dim %5331, dims = [0, 1, 2] : (tensor<1x1x1xf32>) -> tensor<1x1x768xf32>
      %5334 = stablehlo.subtract %5314, %5333 : tensor<1x1x768xf32>
      %5335 = stablehlo.constant dense<9.99999974E-6> : tensor<f32>
      %5336 = stablehlo.broadcast_in_dim %5335, dims = [] : (tensor<f32>) -> tensor<1x1x1xf32>
      %5337 = stablehlo.add %5332, %5336 : tensor<1x1x1xf32>
      %5338 = stablehlo.rsqrt %5337 : tensor<1x1x1xf32>
      %5339 = stablehlo.reshape %iterArg_139 : (tensor<768xf16>) -> tensor<1x1x768xf16>
      %5340 = stablehlo.convert %5339 : (tensor<1x1x768xf16>) -> tensor<1x1x768xf32>
      %5341 = stablehlo.broadcast_in_dim %5338, dims = [0, 1, 2] : (tensor<1x1x1xf32>) -> tensor<1x1x768xf32>
      %5342 = stablehlo.multiply %5341, %5340 : tensor<1x1x768xf32>
      %5343 = stablehlo.multiply %5334, %5342 : tensor<1x1x768xf32>
      %5344 = stablehlo.reshape %iterArg_140 : (tensor<768xf16>) -> tensor<1x1x768xf16>
      %5345 = stablehlo.convert %5344 : (tensor<1x1x768xf16>) -> tensor<1x1x768xf32>
      %5346 = stablehlo.add %5343, %5345 : tensor<1x1x768xf32>
      %5347 = stablehlo.transpose %iterArg_141, dims = [1, 0] : (tensor<3072x768xf16>) -> tensor<768x3072xf16>
      %5348 = stablehlo.convert %5347 : (tensor<768x3072xf16>) -> tensor<768x3072xf32>
      %5349 = stablehlo.dot_general %5346, %5348, contracting_dims = [2] x [0], precision = [DEFAULT, DEFAULT] : (tensor<1x1x768xf32>, tensor<768x3072xf32>) -> tensor<1x1x3072xf32>
      %5350 = stablehlo.convert %iterArg_142 : (tensor<3072xf16>) -> tensor<3072xf32>
      %5351 = stablehlo.broadcast_in_dim %5350, dims = [2] : (tensor<3072xf32>) -> tensor<1x1x3072xf32>
      %5352 = stablehlo.add %5349, %5351 : tensor<1x1x3072xf32>
      %5353 = stablehlo.multiply %5352, %5352 : tensor<1x1x3072xf32>
      %5354 = stablehlo.multiply %5352, %5353 : tensor<1x1x3072xf32>
      %5355 = stablehlo.constant dense<4.471500e-02> : tensor<f32>
      %5356 = stablehlo.broadcast_in_dim %5355, dims = [] : (tensor<f32>) -> tensor<1x1x3072xf32>
      %5357 = stablehlo.multiply %5356, %5354 : tensor<1x1x3072xf32>
      %5358 = stablehlo.add %5352, %5357 : tensor<1x1x3072xf32>
      %5359 = stablehlo.constant dense<0.797884583> : tensor<f32>
      %5360 = stablehlo.broadcast_in_dim %5359, dims = [] : (tensor<f32>) -> tensor<1x1x3072xf32>
      %5361 = stablehlo.multiply %5360, %5358 : tensor<1x1x3072xf32>
      %5362 = stablehlo.tanh %5361 : tensor<1x1x3072xf32>
      %5363 = stablehlo.constant dense<1.000000e+00> : tensor<f32>
      %5364 = stablehlo.broadcast_in_dim %5363, dims = [] : (tensor<f32>) -> tensor<1x1x3072xf32>
      %5365 = stablehlo.add %5364, %5362 : tensor<1x1x3072xf32>
      %5366 = stablehlo.constant dense<5.000000e-01> : tensor<f32>
      %5367 = stablehlo.broadcast_in_dim %5366, dims = [] : (tensor<f32>) -> tensor<1x1x3072xf32>
      %5368 = stablehlo.multiply %5367, %5365 : tensor<1x1x3072xf32>
      %5369 = stablehlo.multiply %5352, %5368 : tensor<1x1x3072xf32>
      %5370 = stablehlo.transpose %iterArg_143, dims = [1, 0] : (tensor<768x3072xf16>) -> tensor<3072x768xf16>
      %5371 = stablehlo.convert %5370 : (tensor<3072x768xf16>) -> tensor<3072x768xf32>
      %5372 = stablehlo.dot_general %5369, %5371, contracting_dims = [2] x [0], precision = [DEFAULT, DEFAULT] : (tensor<1x1x3072xf32>, tensor<3072x768xf32>) -> tensor<1x1x768xf32>
      %5373 = stablehlo.convert %iterArg_144 : (tensor<768xf16>) -> tensor<768xf32>
      %5374 = stablehlo.broadcast_in_dim %5373, dims = [2] : (tensor<768xf32>) -> tensor<1x1x768xf32>
      %5375 = stablehlo.add %5372, %5374 : tensor<1x1x768xf32>
      %5376 = stablehlo.add %5314, %5375 : tensor<1x1x768xf32>
      %5377 = stablehlo.multiply %5376, %5376 : tensor<1x1x768xf32>
      %5378 = stablehlo.constant dense<0.000000e+00> : tensor<f32>
      %5379 = stablehlo.reduce(%5377 init: %5378) applies stablehlo.add across dimensions = [2] : (tensor<1x1x768xf32>, tensor<f32>) -> tensor<1x1xf32>
      %5380 = stablehlo.constant dense<7.680000e+02> : tensor<f32>
      %5381 = stablehlo.broadcast_in_dim %5380, dims = [] : (tensor<f32>) -> tensor<1x1xf32>
      %5382 = stablehlo.divide %5379, %5381 : tensor<1x1xf32>
      %5383 = stablehlo.constant dense<0.000000e+00> : tensor<f32>
      %5384 = stablehlo.reduce(%5376 init: %5383) applies stablehlo.add across dimensions = [2] : (tensor<1x1x768xf32>, tensor<f32>) -> tensor<1x1xf32>
      %5385 = stablehlo.constant dense<7.680000e+02> : tensor<f32>
      %5386 = stablehlo.broadcast_in_dim %5385, dims = [] : (tensor<f32>) -> tensor<1x1xf32>
      %5387 = stablehlo.divide %5384, %5386 : tensor<1x1xf32>
      %5388 = stablehlo.multiply %5387, %5387 : tensor<1x1xf32>
      %5389 = stablehlo.subtract %5382, %5388 : tensor<1x1xf32>
      %5390 = stablehlo.constant dense<0.000000e+00> : tensor<f32>
      %5391 = stablehlo.broadcast_in_dim %5390, dims = [] : (tensor<f32>) -> tensor<1x1xf32>
      %5392 = stablehlo.maximum %5391, %5389 : tensor<1x1xf32>
      %5393 = stablehlo.broadcast_in_dim %5387, dims = [0, 1] : (tensor<1x1xf32>) -> tensor<1x1x1xf32>
      %5394 = stablehlo.broadcast_in_dim %5392, dims = [0, 1] : (tensor<1x1xf32>) -> tensor<1x1x1xf32>
      %5395 = stablehlo.broadcast_in_dim %5393, dims = [0, 1, 2] : (tensor<1x1x1xf32>) -> tensor<1x1x768xf32>
      %5396 = stablehlo.subtract %5376, %5395 : tensor<1x1x768xf32>
      %5397 = stablehlo.constant dense<9.99999974E-6> : tensor<f32>
      %5398 = stablehlo.broadcast_in_dim %5397, dims = [] : (tensor<f32>) -> tensor<1x1x1xf32>
      %5399 = stablehlo.add %5394, %5398 : tensor<1x1x1xf32>
      %5400 = stablehlo.rsqrt %5399 : tensor<1x1x1xf32>
      %5401 = stablehlo.reshape %iterArg_145 : (tensor<768xf16>) -> tensor<1x1x768xf16>
      %5402 = stablehlo.convert %5401 : (tensor<1x1x768xf16>) -> tensor<1x1x768xf32>
      %5403 = stablehlo.broadcast_in_dim %5400, dims = [0, 1, 2] : (tensor<1x1x1xf32>) -> tensor<1x1x768xf32>
      %5404 = stablehlo.multiply %5403, %5402 : tensor<1x1x768xf32>
      %5405 = stablehlo.multiply %5396, %5404 : tensor<1x1x768xf32>
      %5406 = stablehlo.reshape %iterArg_146 : (tensor<768xf16>) -> tensor<1x1x768xf16>
      %5407 = stablehlo.convert %5406 : (tensor<1x1x768xf16>) -> tensor<1x1x768xf32>
      %5408 = stablehlo.add %5405, %5407 : tensor<1x1x768xf32>
      %5409 = stablehlo.transpose %iterArg, dims = [1, 0] : (tensor<50257x768xf16>) -> tensor<768x50257xf16>
      %5410 = stablehlo.convert %5409 : (tensor<768x50257xf16>) -> tensor<768x50257xf32>
      %5411 = stablehlo.dot_general %5408, %5410, contracting_dims = [2] x [0], precision = [DEFAULT, DEFAULT] : (tensor<1x1x768xf32>, tensor<768x50257xf32>) -> tensor<1x1x50257xf32>
      %5412 = stablehlo.constant dense<0> : tensor<i32>
      %5413 = stablehlo.constant dense<0> : tensor<i32>
      %5414 = stablehlo.compare  LT, %5412, %5413,  SIGNED : (tensor<i32>, tensor<i32>) -> tensor<i1>
      %5415 = stablehlo.constant dense<0> : tensor<i32>
      %5416 = stablehlo.constant dense<1> : tensor<i32>
      %5417 = stablehlo.add %5415, %5416 : tensor<i32>
      %5418 = stablehlo.constant dense<0> : tensor<i32>
      %5419 = stablehlo.select %5414, %5417, %5418 : tensor<i1>, tensor<i32>
      %5420 = stablehlo.constant dense<-1> : tensor<i32>
      %5421 = stablehlo.constant dense<0> : tensor<i32>
      %5422 = stablehlo.compare  LT, %5420, %5421,  SIGNED : (tensor<i32>, tensor<i32>) -> tensor<i1>
      %5423 = stablehlo.constant dense<-1> : tensor<i32>
      %5424 = stablehlo.constant dense<1> : tensor<i32>
      %5425 = stablehlo.add %5423, %5424 : tensor<i32>
      %5426 = stablehlo.constant dense<-1> : tensor<i32>
      %5427 = stablehlo.select %5422, %5425, %5426 : tensor<i1>, tensor<i32>
      %5428 = stablehlo.constant dense<0> : tensor<i32>
      %5429 = stablehlo.constant dense<0> : tensor<i32>
      %5430 = stablehlo.compare  LT, %5428, %5429,  SIGNED : (tensor<i32>, tensor<i32>) -> tensor<i1>
      %5431 = stablehlo.constant dense<0> : tensor<i32>
      %5432 = stablehlo.constant dense<50257> : tensor<i32>
      %5433 = stablehlo.add %5431, %5432 : tensor<i32>
      %5434 = stablehlo.constant dense<0> : tensor<i32>
      %5435 = stablehlo.select %5430, %5433, %5434 : tensor<i1>, tensor<i32>
      %5436 = stablehlo.dynamic_slice %5411, %5419, %5427, %5435, sizes = [1, 1, 50257] : (tensor<1x1x50257xf32>, tensor<i32>, tensor<i32>, tensor<i32>) -> tensor<1x1x50257xf32>
      %5437 = stablehlo.reshape %5436 : (tensor<1x1x50257xf32>) -> tensor<1x50257xf32>
      %5438 = stablehlo.constant dense<0> : tensor<i32>
      %5439 = stablehlo.subtract %iterArg_149, %5438 : tensor<i32>
      %5440 = stablehlo.constant dense<0> : tensor<i32>
      %5441 = stablehlo.constant dense<1> : tensor<i32>
      %5442 = func.call @clip_7(%5439, %5440, %5441) : (tensor<i32>, tensor<i32>, tensor<i32>) -> tensor<i32>
      %5443 = stablehlo.constant dense<1> : tensor<i32>
      %5444 = stablehlo.subtract %5443, %5442 : tensor<i32>
      %5445 = stablehlo.constant dense<50256> : tensor<i32>
      %5446 = stablehlo.broadcast_in_dim %5445, dims = [] : (tensor<i32>) -> tensor<1xi32>
      %5447 = stablehlo.constant dense<0xFF800000> : tensor<f32>
      %5448 = stablehlo.broadcast_in_dim %5447, dims = [] : (tensor<f32>) -> tensor<1xf32>
      %5449 = "stablehlo.scatter"(%5437, %5446, %5448) ({
      ^bb0(%arg2: tensor<f32>, %arg3: tensor<f32>):
        stablehlo.return %arg3 : tensor<f32>
      }) {indices_are_sorted = true, scatter_dimension_numbers = #stablehlo.scatter<update_window_dims = [0], inserted_window_dims = [1], scatter_dims_to_operand_dims = [1]>, unique_indices = true} : (tensor<1x50257xf32>, tensor<1xi32>, tensor<1xf32>) -> tensor<1x50257xf32>
      %5450 = func.call @_where_8(%5444, %5449, %5437) : (tensor<i32>, tensor<1x50257xf32>, tensor<1x50257xf32>) -> tensor<1x50257xf32>
      %5451 = func.call @argmax(%5450) : (tensor<1x50257xf32>) -> tensor<1xi32>
      %5452 = stablehlo.not %iterArg_152 : tensor<1xi1>
      %5453 = stablehlo.convert %5452 : (tensor<1xi1>) -> tensor<1xi32>
      %5454 = stablehlo.multiply %5451, %5453 : tensor<1xi32>
      %5455 = stablehlo.convert %iterArg_152 : (tensor<1xi1>) -> tensor<1xi32>
      %5456 = stablehlo.broadcast_in_dim %iterArg_147, dims = [] : (tensor<i32>) -> tensor<1xi32>
      %5457 = stablehlo.multiply %5456, %5455 : tensor<1xi32>
      %5458 = stablehlo.add %5454, %5457 : tensor<1xi32>
      %5459 = stablehlo.broadcast_in_dim %iterArg_148, dims = [] : (tensor<i32>) -> tensor<1xi32>
      %5460 = stablehlo.compare  EQ, %5458, %5459,  SIGNED : (tensor<1xi32>, tensor<1xi32>) -> tensor<1xi1>
      %5461 = stablehlo.or %iterArg_152, %5460 : tensor<1xi1>
      %5462 = stablehlo.broadcast_in_dim %5458, dims = [0] : (tensor<1xi32>) -> tensor<1x1xi32>
      %5463 = stablehlo.constant dense<0> : tensor<i32>
      %5464 = stablehlo.compare  LT, %iterArg_149, %5463,  SIGNED : (tensor<i32>, tensor<i32>) -> tensor<i1>
      %5465 = stablehlo.convert %iterArg_149 : tensor<i32>
      %5466 = stablehlo.constant dense<20> : tensor<i32>
      %5467 = stablehlo.add %5465, %5466 : tensor<i32>
      %5468 = stablehlo.select %5464, %5467, %iterArg_149 : tensor<i1>, tensor<i32>
      %5469 = stablehlo.constant dense<0> : tensor<i32>
      %5470 = stablehlo.dynamic_update_slice %iterArg_150, %5462, %5469, %5468 : (tensor<1x20xi32>, tensor<1x1xi32>, tensor<i32>, tensor<i32>) -> tensor<1x20xi32>
      %5471 = stablehlo.constant dense<1> : tensor<i32>
      %5472 = stablehlo.broadcast_in_dim %5471, dims = [] : (tensor<i32>) -> tensor<1x1xi32>
      %5473 = stablehlo.add %iterArg_190, %5472 : tensor<1x1xi32>
      %5474 = stablehlo.constant dense<1> : tensor<i32>
      %5475 = stablehlo.add %iterArg_149, %5474 : tensor<i32>
      stablehlo.return %iterArg, %iterArg_0, %iterArg_1, %iterArg_2, %iterArg_3, %iterArg_4, %iterArg_5, %iterArg_6, %iterArg_7, %iterArg_8, %iterArg_9, %iterArg_10, %iterArg_11, %iterArg_12, %iterArg_13, %iterArg_14, %iterArg_15, %iterArg_16, %iterArg_17, %iterArg_18, %iterArg_19, %iterArg_20, %iterArg_21, %iterArg_22, %iterArg_23, %iterArg_24, %iterArg_25, %iterArg_26, %iterArg_27, %iterArg_28, %iterArg_29, %iterArg_30, %iterArg_31, %iterArg_32, %iterArg_33, %iterArg_34, %iterArg_35, %iterArg_36, %iterArg_37, %iterArg_38, %iterArg_39, %iterArg_40, %iterArg_41, %iterArg_42, %iterArg_43, %iterArg_44, %iterArg_45, %iterArg_46, %iterArg_47, %iterArg_48, %iterArg_49, %iterArg_50, %iterArg_51, %iterArg_52, %iterArg_53, %iterArg_54, %iterArg_55, %iterArg_56, %iterArg_57, %iterArg_58, %iterArg_59, %iterArg_60, %iterArg_61, %iterArg_62, %iterArg_63, %iterArg_64, %iterArg_65, %iterArg_66, %iterArg_67, %iterArg_68, %iterArg_69, %iterArg_70, %iterArg_71, %iterArg_72, %iterArg_73, %iterArg_74, %iterArg_75, %iterArg_76, %iterArg_77, %iterArg_78, %iterArg_79, %iterArg_80, %iterArg_81, %iterArg_82, %iterArg_83, %iterArg_84, %iterArg_85, %iterArg_86, %iterArg_87, %iterArg_88, %iterArg_89, %iterArg_90, %iterArg_91, %iterArg_92, %iterArg_93, %iterArg_94, %iterArg_95, %iterArg_96, %iterArg_97, %iterArg_98, %iterArg_99, %iterArg_100, %iterArg_101, %iterArg_102, %iterArg_103, %iterArg_104, %iterArg_105, %iterArg_106, %iterArg_107, %iterArg_108, %iterArg_109, %iterArg_110, %iterArg_111, %iterArg_112, %iterArg_113, %iterArg_114, %iterArg_115, %iterArg_116, %iterArg_117, %iterArg_118, %iterArg_119, %iterArg_120, %iterArg_121, %iterArg_122, %iterArg_123, %iterArg_124, %iterArg_125, %iterArg_126, %iterArg_127, %iterArg_128, %iterArg_129, %iterArg_130, %iterArg_131, %iterArg_132, %iterArg_133, %iterArg_134, %iterArg_135, %iterArg_136, %iterArg_137, %iterArg_138, %iterArg_139, %iterArg_140, %iterArg_141, %iterArg_142, %iterArg_143, %iterArg_144, %iterArg_145, %iterArg_146, %iterArg_147, %iterArg_148, %5475, %5470, %5462, %5461, %iterArg_153, %3065, %3054, %3063, %3265, %3254, %3263, %5065, %5054, %5063, %5265, %5254, %5263, %3465, %3454, %3463, %3665, %3654, %3663, %3865, %3854, %3863, %4065, %4054, %4063, %4265, %4254, %4263, %4465, %4454, %4463, %4665, %4654, %4663, %4865, %4854, %4863, %5473 : tensor<50257x768xf16>, tensor<1024x768xf16>, tensor<768xf16>, tensor<768xf16>, tensor<2304x768xf16>, tensor<2304xf16>, tensor<768x768xf16>, tensor<768xf16>, tensor<768xf16>, tensor<768xf16>, tensor<3072x768xf16>, tensor<3072xf16>, tensor<768x3072xf16>, tensor<768xf16>, tensor<768xf16>, tensor<768xf16>, tensor<2304x768xf16>, tensor<2304xf16>, tensor<768x768xf16>, tensor<768xf16>, tensor<768xf16>, tensor<768xf16>, tensor<3072x768xf16>, tensor<3072xf16>, tensor<768x3072xf16>, tensor<768xf16>, tensor<768xf16>, tensor<768xf16>, tensor<2304x768xf16>, tensor<2304xf16>, tensor<768x768xf16>, tensor<768xf16>, tensor<768xf16>, tensor<768xf16>, tensor<3072x768xf16>, tensor<3072xf16>, tensor<768x3072xf16>, tensor<768xf16>, tensor<768xf16>, tensor<768xf16>, tensor<2304x768xf16>, tensor<2304xf16>, tensor<768x768xf16>, tensor<768xf16>, tensor<768xf16>, tensor<768xf16>, tensor<3072x768xf16>, tensor<3072xf16>, tensor<768x3072xf16>, tensor<768xf16>, tensor<768xf16>, tensor<768xf16>, tensor<2304x768xf16>, tensor<2304xf16>, tensor<768x768xf16>, tensor<768xf16>, tensor<768xf16>, tensor<768xf16>, tensor<3072x768xf16>, tensor<3072xf16>, tensor<768x3072xf16>, tensor<768xf16>, tensor<768xf16>, tensor<768xf16>, tensor<2304x768xf16>, tensor<2304xf16>, tensor<768x768xf16>, tensor<768xf16>, tensor<768xf16>, tensor<768xf16>, tensor<3072x768xf16>, tensor<3072xf16>, tensor<768x3072xf16>, tensor<768xf16>, tensor<768xf16>, tensor<768xf16>, tensor<2304x768xf16>, tensor<2304xf16>, tensor<768x768xf16>, tensor<768xf16>, tensor<768xf16>, tensor<768xf16>, tensor<3072x768xf16>, tensor<3072xf16>, tensor<768x3072xf16>, tensor<768xf16>, tensor<768xf16>, tensor<768xf16>, tensor<2304x768xf16>, tensor<2304xf16>, tensor<768x768xf16>, tensor<768xf16>, tensor<768xf16>, tensor<768xf16>, tensor<3072x768xf16>, tensor<3072xf16>, tensor<768x3072xf16>, tensor<768xf16>, tensor<768xf16>, tensor<768xf16>, tensor<2304x768xf16>, tensor<2304xf16>, tensor<768x768xf16>, tensor<768xf16>, tensor<768xf16>, tensor<768xf16>, tensor<3072x768xf16>, tensor<3072xf16>, tensor<768x3072xf16>, tensor<768xf16>, tensor<768xf16>, tensor<768xf16>, tensor<2304x768xf16>, tensor<2304xf16>, tensor<768x768xf16>, tensor<768xf16>, tensor<768xf16>, tensor<768xf16>, tensor<3072x768xf16>, tensor<3072xf16>, tensor<768x3072xf16>, tensor<768xf16>, tensor<768xf16>, tensor<768xf16>, tensor<2304x768xf16>, tensor<2304xf16>, tensor<768x768xf16>, tensor<768xf16>, tensor<768xf16>, tensor<768xf16>, tensor<3072x768xf16>, tensor<3072xf16>, tensor<768x3072xf16>, tensor<768xf16>, tensor<768xf16>, tensor<768xf16>, tensor<2304x768xf16>, tensor<2304xf16>, tensor<768x768xf16>, tensor<768xf16>, tensor<768xf16>, tensor<768xf16>, tensor<3072x768xf16>, tensor<3072xf16>, tensor<768x3072xf16>, tensor<768xf16>, tensor<768xf16>, tensor<768xf16>, tensor<i32>, tensor<i32>, tensor<i32>, tensor<1x20xi32>, tensor<1x1xi32>, tensor<1xi1>, tensor<1x20xi32>, tensor<i32>, tensor<1x20x12x64xf32>, tensor<1x20x12x64xf32>, tensor<i32>, tensor<1x20x12x64xf32>, tensor<1x20x12x64xf32>, tensor<i32>, tensor<1x20x12x64xf32>, tensor<1x20x12x64xf32>, tensor<i32>, tensor<1x20x12x64xf32>, tensor<1x20x12x64xf32>, tensor<i32>, tensor<1x20x12x64xf32>, tensor<1x20x12x64xf32>, tensor<i32>, tensor<1x20x12x64xf32>, tensor<1x20x12x64xf32>, tensor<i32>, tensor<1x20x12x64xf32>, tensor<1x20x12x64xf32>, tensor<i32>, tensor<1x20x12x64xf32>, tensor<1x20x12x64xf32>, tensor<i32>, tensor<1x20x12x64xf32>, tensor<1x20x12x64xf32>, tensor<i32>, tensor<1x20x12x64xf32>, tensor<1x20x12x64xf32>, tensor<i32>, tensor<1x20x12x64xf32>, tensor<1x20x12x64xf32>, tensor<i32>, tensor<1x20x12x64xf32>, tensor<1x20x12x64xf32>, tensor<1x1xi32>
    }
    return %2971#151 : tensor<1x20xi32>
  }
  func.func private @_cumulative_reduction(%arg0: tensor<1x7xi32>) -> tensor<1x7xi32> {
    %0 = call @cumsum(%arg0) : (tensor<1x7xi32>) -> tensor<1x7xi32>
    return %0 : tensor<1x7xi32>
  }
  func.func private @cumsum(%arg0: tensor<1x7xi32>) -> tensor<1x7xi32> {
    %0 = stablehlo.slice %arg0 [0:1, 0:6:2] : (tensor<1x7xi32>) -> tensor<1x3xi32>
    %1 = stablehlo.slice %arg0 [0:1, 1:7:2] : (tensor<1x7xi32>) -> tensor<1x3xi32>
    %2 = stablehlo.add %0, %1 : tensor<1x3xi32>
    %3 = stablehlo.slice %2 [0:1, 0:2:2] : (tensor<1x3xi32>) -> tensor<1x1xi32>
    %4 = stablehlo.slice %2 [0:1, 1:3:2] : (tensor<1x3xi32>) -> tensor<1x1xi32>
    %5 = stablehlo.add %3, %4 : tensor<1x1xi32>
    %6 = stablehlo.slice %2 [0:1, 2:3:2] : (tensor<1x3xi32>) -> tensor<1x1xi32>
    %7 = stablehlo.add %5, %6 : tensor<1x1xi32>
    %8 = stablehlo.slice %2 [0:1, 0:1] : (tensor<1x3xi32>) -> tensor<1x1xi32>
    %9 = stablehlo.concatenate %8, %7, dim = 1 : (tensor<1x1xi32>, tensor<1x1xi32>) -> tensor<1x2xi32>
    %10 = stablehlo.constant dense<0> : tensor<i32>
    %11 = stablehlo.pad %9, %10, low = [0, 0], high = [0, 0], interior = [0, 1] : (tensor<1x2xi32>, tensor<i32>) -> tensor<1x3xi32>
    %12 = stablehlo.constant dense<0> : tensor<i32>
    %13 = stablehlo.pad %5, %12, low = [0, 1], high = [0, 1], interior = [0, 1] : (tensor<1x1xi32>, tensor<i32>) -> tensor<1x3xi32>
    %14 = stablehlo.add %11, %13 : tensor<1x3xi32>
    %15 = stablehlo.slice %arg0 [0:1, 2:7:2] : (tensor<1x7xi32>) -> tensor<1x3xi32>
    %16 = stablehlo.add %14, %15 : tensor<1x3xi32>
    %17 = stablehlo.slice %arg0 [0:1, 0:1] : (tensor<1x7xi32>) -> tensor<1x1xi32>
    %18 = stablehlo.concatenate %17, %16, dim = 1 : (tensor<1x1xi32>, tensor<1x3xi32>) -> tensor<1x4xi32>
    %19 = stablehlo.constant dense<0> : tensor<i32>
    %20 = stablehlo.pad %18, %19, low = [0, 0], high = [0, 0], interior = [0, 1] : (tensor<1x4xi32>, tensor<i32>) -> tensor<1x7xi32>
    %21 = stablehlo.constant dense<0> : tensor<i32>
    %22 = stablehlo.pad %14, %21, low = [0, 1], high = [0, 1], interior = [0, 1] : (tensor<1x3xi32>, tensor<i32>) -> tensor<1x7xi32>
    %23 = stablehlo.add %20, %22 : tensor<1x7xi32>
    return %23 : tensor<1x7xi32>
  }
  func.func private @_take(%arg0: tensor<50257x768xf32>, %arg1: tensor<1x7xi32>) -> tensor<1x7x768xf32> {
    %0 = stablehlo.constant dense<0> : tensor<i32>
    %1 = stablehlo.broadcast_in_dim %0, dims = [] : (tensor<i32>) -> tensor<1x7xi32>
    %2 = stablehlo.compare  LT, %arg1, %1,  SIGNED : (tensor<1x7xi32>, tensor<1x7xi32>) -> tensor<1x7xi1>
    %3 = stablehlo.constant dense<50257> : tensor<i32>
    %4 = stablehlo.broadcast_in_dim %3, dims = [] : (tensor<i32>) -> tensor<1x7xi32>
    %5 = stablehlo.add %arg1, %4 : tensor<1x7xi32>
    %6 = call @_where(%2, %5, %arg1) : (tensor<1x7xi1>, tensor<1x7xi32>, tensor<1x7xi32>) -> tensor<1x7xi32>
    %7 = stablehlo.broadcast_in_dim %6, dims = [0, 1] : (tensor<1x7xi32>) -> tensor<1x7x1xi32>
    %8 = stablehlo.constant dense<0> : tensor<1xi32>
    %9 = stablehlo.constant dense<0> : tensor<1xi32>
    %10 = stablehlo.constant dense<50257> : tensor<i32>
    %11 = stablehlo.broadcast_in_dim %10, dims = [] : (tensor<i32>) -> tensor<1xi32>
    %12 = stablehlo.constant dense<768> : tensor<i32>
    %13 = stablehlo.broadcast_in_dim %12, dims = [] : (tensor<i32>) -> tensor<1xi32>
    %14 = stablehlo.concatenate %11, %13, dim = 0 : (tensor<1xi32>, tensor<1xi32>) -> tensor<2xi32>
    %15 = stablehlo.constant dense<0> : tensor<i32>
    %16 = stablehlo.broadcast_in_dim %15, dims = [] : (tensor<i32>) -> tensor<1xi32>
    %17 = stablehlo.compare  LT, %8, %16,  SIGNED : (tensor<1xi32>, tensor<1xi32>) -> tensor<1xi1>
    %18 = stablehlo.constant dense<2> : tensor<i32>
    %19 = stablehlo.broadcast_in_dim %18, dims = [] : (tensor<i32>) -> tensor<1xi32>
    %20 = stablehlo.add %8, %19 : tensor<1xi32>
    %21 = stablehlo.select %17, %20, %8 : tensor<1xi1>, tensor<1xi32>
    %22 = stablehlo.broadcast_in_dim %21, dims = [0] : (tensor<1xi32>) -> tensor<1x1xi32>
    %23 = "stablehlo.gather"(%14, %22) {dimension_numbers = #stablehlo.gather<collapsed_slice_dims = [0], start_index_map = [0], index_vector_dim = 1>, indices_are_sorted = false, slice_sizes = array<i64: 1>} : (tensor<2xi32>, tensor<1x1xi32>) -> tensor<1xi32>
    %24 = stablehlo.constant dense<1> : tensor<i32>
    %25 = stablehlo.broadcast_in_dim %24, dims = [] : (tensor<i32>) -> tensor<1xi32>
    %26 = stablehlo.constant dense<768> : tensor<i32>
    %27 = stablehlo.broadcast_in_dim %26, dims = [] : (tensor<i32>) -> tensor<1xi32>
    %28 = stablehlo.concatenate %25, %27, dim = 0 : (tensor<1xi32>, tensor<1xi32>) -> tensor<2xi32>
    %29 = stablehlo.constant dense<0> : tensor<i32>
    %30 = stablehlo.broadcast_in_dim %29, dims = [] : (tensor<i32>) -> tensor<1xi32>
    %31 = stablehlo.compare  LT, %9, %30,  SIGNED : (tensor<1xi32>, tensor<1xi32>) -> tensor<1xi1>
    %32 = stablehlo.constant dense<2> : tensor<i32>
    %33 = stablehlo.broadcast_in_dim %32, dims = [] : (tensor<i32>) -> tensor<1xi32>
    %34 = stablehlo.add %9, %33 : tensor<1xi32>
    %35 = stablehlo.select %31, %34, %9 : tensor<1xi1>, tensor<1xi32>
    %36 = stablehlo.broadcast_in_dim %35, dims = [0] : (tensor<1xi32>) -> tensor<1x1xi32>
    %37 = "stablehlo.gather"(%28, %36) {dimension_numbers = #stablehlo.gather<collapsed_slice_dims = [0], start_index_map = [0], index_vector_dim = 1>, indices_are_sorted = false, slice_sizes = array<i64: 1>} : (tensor<2xi32>, tensor<1x1xi32>) -> tensor<1xi32>
    %38 = stablehlo.subtract %23, %37 : tensor<1xi32>
    %39 = stablehlo.constant dense<0> : tensor<i32>
    %40 = stablehlo.broadcast_in_dim %39, dims = [] : (tensor<i32>) -> tensor<1x7x1xi32>
    %41 = stablehlo.compare  GE, %7, %40,  SIGNED : (tensor<1x7x1xi32>, tensor<1x7x1xi32>) -> tensor<1x7x1xi1>
    %42 = stablehlo.broadcast_in_dim %38, dims = [2] : (tensor<1xi32>) -> tensor<1x1x1xi32>
    %43 = stablehlo.broadcast_in_dim %42, dims = [0, 1, 2] : (tensor<1x1x1xi32>) -> tensor<1x7x1xi32>
    %44 = stablehlo.compare  LE, %7, %43,  SIGNED : (tensor<1x7x1xi32>, tensor<1x7x1xi32>) -> tensor<1x7x1xi1>
    %45 = stablehlo.and %41, %44 : tensor<1x7x1xi1>
    %46 = stablehlo.constant dense<true> : tensor<i1>
    %47 = stablehlo.reduce(%45 init: %46) applies stablehlo.and across dimensions = [2] : (tensor<1x7x1xi1>, tensor<i1>) -> tensor<1x7xi1>
    %48 = "stablehlo.gather"(%arg0, %7) {dimension_numbers = #stablehlo.gather<offset_dims = [2], collapsed_slice_dims = [0], start_index_map = [0], index_vector_dim = 2>, indices_are_sorted = false, slice_sizes = array<i64: 1, 768>} : (tensor<50257x768xf32>, tensor<1x7x1xi32>) -> tensor<1x7x768xf32>
    %49 = stablehlo.broadcast_in_dim %47, dims = [0, 1] : (tensor<1x7xi1>) -> tensor<1x7x768xi1>
    %50 = stablehlo.constant dense<0x7FC00000> : tensor<f32>
    %51 = stablehlo.broadcast_in_dim %50, dims = [] : (tensor<f32>) -> tensor<1x7x768xf32>
    %52 = stablehlo.select %49, %48, %51 : tensor<1x7x768xi1>, tensor<1x7x768xf32>
    return %52 : tensor<1x7x768xf32>
  }
  func.func private @_where(%arg0: tensor<1x7xi1>, %arg1: tensor<1x7xi32>, %arg2: tensor<1x7xi32>) -> tensor<1x7xi32> {
    %0 = stablehlo.select %arg0, %arg1, %arg2 : tensor<1x7xi1>, tensor<1x7xi32>
    return %0 : tensor<1x7xi32>
  }
  func.func private @_take_0(%arg0: tensor<1024x768xf32>, %arg1: tensor<1x7xi32>) -> tensor<1x7x768xf32> {
    %0 = stablehlo.constant dense<0> : tensor<i32>
    %1 = stablehlo.broadcast_in_dim %0, dims = [] : (tensor<i32>) -> tensor<1x7xi32>
    %2 = stablehlo.compare  LT, %arg1, %1,  SIGNED : (tensor<1x7xi32>, tensor<1x7xi32>) -> tensor<1x7xi1>
    %3 = stablehlo.constant dense<1024> : tensor<i32>
    %4 = stablehlo.broadcast_in_dim %3, dims = [] : (tensor<i32>) -> tensor<1x7xi32>
    %5 = stablehlo.add %arg1, %4 : tensor<1x7xi32>
    %6 = call @_where_1(%2, %5, %arg1) : (tensor<1x7xi1>, tensor<1x7xi32>, tensor<1x7xi32>) -> tensor<1x7xi32>
    %7 = stablehlo.broadcast_in_dim %6, dims = [0, 1] : (tensor<1x7xi32>) -> tensor<1x7x1xi32>
    %8 = stablehlo.constant dense<0> : tensor<1xi32>
    %9 = stablehlo.constant dense<0> : tensor<1xi32>
    %10 = stablehlo.constant dense<1024> : tensor<i32>
    %11 = stablehlo.broadcast_in_dim %10, dims = [] : (tensor<i32>) -> tensor<1xi32>
    %12 = stablehlo.constant dense<768> : tensor<i32>
    %13 = stablehlo.broadcast_in_dim %12, dims = [] : (tensor<i32>) -> tensor<1xi32>
    %14 = stablehlo.concatenate %11, %13, dim = 0 : (tensor<1xi32>, tensor<1xi32>) -> tensor<2xi32>
    %15 = stablehlo.constant dense<0> : tensor<i32>
    %16 = stablehlo.broadcast_in_dim %15, dims = [] : (tensor<i32>) -> tensor<1xi32>
    %17 = stablehlo.compare  LT, %8, %16,  SIGNED : (tensor<1xi32>, tensor<1xi32>) -> tensor<1xi1>
    %18 = stablehlo.constant dense<2> : tensor<i32>
    %19 = stablehlo.broadcast_in_dim %18, dims = [] : (tensor<i32>) -> tensor<1xi32>
    %20 = stablehlo.add %8, %19 : tensor<1xi32>
    %21 = stablehlo.select %17, %20, %8 : tensor<1xi1>, tensor<1xi32>
    %22 = stablehlo.broadcast_in_dim %21, dims = [0] : (tensor<1xi32>) -> tensor<1x1xi32>
    %23 = "stablehlo.gather"(%14, %22) {dimension_numbers = #stablehlo.gather<collapsed_slice_dims = [0], start_index_map = [0], index_vector_dim = 1>, indices_are_sorted = false, slice_sizes = array<i64: 1>} : (tensor<2xi32>, tensor<1x1xi32>) -> tensor<1xi32>
    %24 = stablehlo.constant dense<1> : tensor<i32>
    %25 = stablehlo.broadcast_in_dim %24, dims = [] : (tensor<i32>) -> tensor<1xi32>
    %26 = stablehlo.constant dense<768> : tensor<i32>
    %27 = stablehlo.broadcast_in_dim %26, dims = [] : (tensor<i32>) -> tensor<1xi32>
    %28 = stablehlo.concatenate %25, %27, dim = 0 : (tensor<1xi32>, tensor<1xi32>) -> tensor<2xi32>
    %29 = stablehlo.constant dense<0> : tensor<i32>
    %30 = stablehlo.broadcast_in_dim %29, dims = [] : (tensor<i32>) -> tensor<1xi32>
    %31 = stablehlo.compare  LT, %9, %30,  SIGNED : (tensor<1xi32>, tensor<1xi32>) -> tensor<1xi1>
    %32 = stablehlo.constant dense<2> : tensor<i32>
    %33 = stablehlo.broadcast_in_dim %32, dims = [] : (tensor<i32>) -> tensor<1xi32>
    %34 = stablehlo.add %9, %33 : tensor<1xi32>
    %35 = stablehlo.select %31, %34, %9 : tensor<1xi1>, tensor<1xi32>
    %36 = stablehlo.broadcast_in_dim %35, dims = [0] : (tensor<1xi32>) -> tensor<1x1xi32>
    %37 = "stablehlo.gather"(%28, %36) {dimension_numbers = #stablehlo.gather<collapsed_slice_dims = [0], start_index_map = [0], index_vector_dim = 1>, indices_are_sorted = false, slice_sizes = array<i64: 1>} : (tensor<2xi32>, tensor<1x1xi32>) -> tensor<1xi32>
    %38 = stablehlo.subtract %23, %37 : tensor<1xi32>
    %39 = stablehlo.constant dense<0> : tensor<i32>
    %40 = stablehlo.broadcast_in_dim %39, dims = [] : (tensor<i32>) -> tensor<1x7x1xi32>
    %41 = stablehlo.compare  GE, %7, %40,  SIGNED : (tensor<1x7x1xi32>, tensor<1x7x1xi32>) -> tensor<1x7x1xi1>
    %42 = stablehlo.broadcast_in_dim %38, dims = [2] : (tensor<1xi32>) -> tensor<1x1x1xi32>
    %43 = stablehlo.broadcast_in_dim %42, dims = [0, 1, 2] : (tensor<1x1x1xi32>) -> tensor<1x7x1xi32>
    %44 = stablehlo.compare  LE, %7, %43,  SIGNED : (tensor<1x7x1xi32>, tensor<1x7x1xi32>) -> tensor<1x7x1xi1>
    %45 = stablehlo.and %41, %44 : tensor<1x7x1xi1>
    %46 = stablehlo.constant dense<true> : tensor<i1>
    %47 = stablehlo.reduce(%45 init: %46) applies stablehlo.and across dimensions = [2] : (tensor<1x7x1xi1>, tensor<i1>) -> tensor<1x7xi1>
    %48 = "stablehlo.gather"(%arg0, %7) {dimension_numbers = #stablehlo.gather<offset_dims = [2], collapsed_slice_dims = [0], start_index_map = [0], index_vector_dim = 2>, indices_are_sorted = false, slice_sizes = array<i64: 1, 768>} : (tensor<1024x768xf32>, tensor<1x7x1xi32>) -> tensor<1x7x768xf32>
    %49 = stablehlo.broadcast_in_dim %47, dims = [0, 1] : (tensor<1x7xi1>) -> tensor<1x7x768xi1>
    %50 = stablehlo.constant dense<0x7FC00000> : tensor<f32>
    %51 = stablehlo.broadcast_in_dim %50, dims = [] : (tensor<f32>) -> tensor<1x7x768xf32>
    %52 = stablehlo.select %49, %48, %51 : tensor<1x7x768xi1>, tensor<1x7x768xf32>
    return %52 : tensor<1x7x768xf32>
  }
  func.func private @_where_1(%arg0: tensor<1x7xi1>, %arg1: tensor<1x7xi32>, %arg2: tensor<1x7xi32>) -> tensor<1x7xi32> {
    %0 = stablehlo.select %arg0, %arg1, %arg2 : tensor<1x7xi1>, tensor<1x7xi32>
    return %0 : tensor<1x7xi32>
  }
  func.func private @clip(%arg0: tensor<i32>, %arg1: tensor<i32>, %arg2: tensor<i32>) -> tensor<i32> {
    %0 = stablehlo.maximum %arg1, %arg0 : tensor<i32>
    %1 = stablehlo.minimum %arg2, %0 : tensor<i32>
    return %1 : tensor<i32>
  }
  func.func private @_where_2(%arg0: tensor<i32>, %arg1: tensor<1x50257xf32>, %arg2: tensor<1x50257xf32>) -> tensor<1x50257xf32> {
    %0 = stablehlo.constant dense<0> : tensor<i32>
    %1 = stablehlo.compare  NE, %arg0, %0,  SIGNED : (tensor<i32>, tensor<i32>) -> tensor<i1>
    %2 = stablehlo.broadcast_in_dim %1, dims = [] : (tensor<i1>) -> tensor<1x50257xi1>
    %3 = stablehlo.select %2, %arg1, %arg2 : tensor<1x50257xi1>, tensor<1x50257xf32>
    return %3 : tensor<1x50257xf32>
  }
  func.func private @argmax(%arg0: tensor<1x50257xf32>) -> tensor<1xi32> {
    %0 = stablehlo.iota dim = 1 : tensor<1x50257xi32>
    %1 = stablehlo.constant dense<0xFF800000> : tensor<f32>
    %2 = stablehlo.constant dense<0> : tensor<i32>
    %3:2 = stablehlo.reduce(%arg0 init: %1), (%0 init: %2) across dimensions = [1] : (tensor<1x50257xf32>, tensor<1x50257xi32>, tensor<f32>, tensor<i32>) -> (tensor<1xf32>, tensor<1xi32>)
     reducer(%arg1: tensor<f32>, %arg3: tensor<f32>) (%arg2: tensor<i32>, %arg4: tensor<i32>)  {
      %4 = stablehlo.compare  GT, %arg1, %arg3,  FLOAT : (tensor<f32>, tensor<f32>) -> tensor<i1>
      %5 = stablehlo.compare  NE, %arg1, %arg1,  FLOAT : (tensor<f32>, tensor<f32>) -> tensor<i1>
      %6 = stablehlo.or %4, %5 : tensor<i1>
      %7 = stablehlo.compare  EQ, %arg1, %arg3,  FLOAT : (tensor<f32>, tensor<f32>) -> tensor<i1>
      %8 = stablehlo.compare  LT, %arg2, %arg4,  SIGNED : (tensor<i32>, tensor<i32>) -> tensor<i1>
      %9 = stablehlo.and %7, %8 : tensor<i1>
      %10 = stablehlo.or %6, %9 : tensor<i1>
      %11 = stablehlo.select %6, %arg1, %arg3 : tensor<i1>, tensor<f32>
      %12 = stablehlo.select %10, %arg2, %arg4 : tensor<i1>, tensor<i32>
      stablehlo.return %11, %12 : tensor<f32>, tensor<i32>
    }
    return %3#1 : tensor<1xi32>
  }
  func.func private @_take_3(%arg0: tensor<50257x768xf32>, %arg1: tensor<1x1xi32>) -> tensor<1x1x768xf32> {
    %0 = stablehlo.constant dense<0> : tensor<i32>
    %1 = stablehlo.broadcast_in_dim %0, dims = [] : (tensor<i32>) -> tensor<1x1xi32>
    %2 = stablehlo.compare  LT, %arg1, %1,  SIGNED : (tensor<1x1xi32>, tensor<1x1xi32>) -> tensor<1x1xi1>
    %3 = stablehlo.constant dense<50257> : tensor<i32>
    %4 = stablehlo.broadcast_in_dim %3, dims = [] : (tensor<i32>) -> tensor<1x1xi32>
    %5 = stablehlo.add %arg1, %4 : tensor<1x1xi32>
    %6 = call @_where_4(%2, %5, %arg1) : (tensor<1x1xi1>, tensor<1x1xi32>, tensor<1x1xi32>) -> tensor<1x1xi32>
    %7 = stablehlo.broadcast_in_dim %6, dims = [0, 1] : (tensor<1x1xi32>) -> tensor<1x1x1xi32>
    %8 = stablehlo.constant dense<0> : tensor<1xi32>
    %9 = stablehlo.constant dense<0> : tensor<1xi32>
    %10 = stablehlo.constant dense<50257> : tensor<i32>
    %11 = stablehlo.broadcast_in_dim %10, dims = [] : (tensor<i32>) -> tensor<1xi32>
    %12 = stablehlo.constant dense<768> : tensor<i32>
    %13 = stablehlo.broadcast_in_dim %12, dims = [] : (tensor<i32>) -> tensor<1xi32>
    %14 = stablehlo.concatenate %11, %13, dim = 0 : (tensor<1xi32>, tensor<1xi32>) -> tensor<2xi32>
    %15 = stablehlo.constant dense<0> : tensor<i32>
    %16 = stablehlo.broadcast_in_dim %15, dims = [] : (tensor<i32>) -> tensor<1xi32>
    %17 = stablehlo.compare  LT, %8, %16,  SIGNED : (tensor<1xi32>, tensor<1xi32>) -> tensor<1xi1>
    %18 = stablehlo.constant dense<2> : tensor<i32>
    %19 = stablehlo.broadcast_in_dim %18, dims = [] : (tensor<i32>) -> tensor<1xi32>
    %20 = stablehlo.add %8, %19 : tensor<1xi32>
    %21 = stablehlo.select %17, %20, %8 : tensor<1xi1>, tensor<1xi32>
    %22 = stablehlo.broadcast_in_dim %21, dims = [0] : (tensor<1xi32>) -> tensor<1x1xi32>
    %23 = "stablehlo.gather"(%14, %22) {dimension_numbers = #stablehlo.gather<collapsed_slice_dims = [0], start_index_map = [0], index_vector_dim = 1>, indices_are_sorted = false, slice_sizes = array<i64: 1>} : (tensor<2xi32>, tensor<1x1xi32>) -> tensor<1xi32>
    %24 = stablehlo.constant dense<1> : tensor<i32>
    %25 = stablehlo.broadcast_in_dim %24, dims = [] : (tensor<i32>) -> tensor<1xi32>
    %26 = stablehlo.constant dense<768> : tensor<i32>
    %27 = stablehlo.broadcast_in_dim %26, dims = [] : (tensor<i32>) -> tensor<1xi32>
    %28 = stablehlo.concatenate %25, %27, dim = 0 : (tensor<1xi32>, tensor<1xi32>) -> tensor<2xi32>
    %29 = stablehlo.constant dense<0> : tensor<i32>
    %30 = stablehlo.broadcast_in_dim %29, dims = [] : (tensor<i32>) -> tensor<1xi32>
    %31 = stablehlo.compare  LT, %9, %30,  SIGNED : (tensor<1xi32>, tensor<1xi32>) -> tensor<1xi1>
    %32 = stablehlo.constant dense<2> : tensor<i32>
    %33 = stablehlo.broadcast_in_dim %32, dims = [] : (tensor<i32>) -> tensor<1xi32>
    %34 = stablehlo.add %9, %33 : tensor<1xi32>
    %35 = stablehlo.select %31, %34, %9 : tensor<1xi1>, tensor<1xi32>
    %36 = stablehlo.broadcast_in_dim %35, dims = [0] : (tensor<1xi32>) -> tensor<1x1xi32>
    %37 = "stablehlo.gather"(%28, %36) {dimension_numbers = #stablehlo.gather<collapsed_slice_dims = [0], start_index_map = [0], index_vector_dim = 1>, indices_are_sorted = false, slice_sizes = array<i64: 1>} : (tensor<2xi32>, tensor<1x1xi32>) -> tensor<1xi32>
    %38 = stablehlo.subtract %23, %37 : tensor<1xi32>
    %39 = stablehlo.constant dense<0> : tensor<i32>
    %40 = stablehlo.broadcast_in_dim %39, dims = [] : (tensor<i32>) -> tensor<1x1x1xi32>
    %41 = stablehlo.compare  GE, %7, %40,  SIGNED : (tensor<1x1x1xi32>, tensor<1x1x1xi32>) -> tensor<1x1x1xi1>
    %42 = stablehlo.broadcast_in_dim %38, dims = [2] : (tensor<1xi32>) -> tensor<1x1x1xi32>
    %43 = stablehlo.compare  LE, %7, %42,  SIGNED : (tensor<1x1x1xi32>, tensor<1x1x1xi32>) -> tensor<1x1x1xi1>
    %44 = stablehlo.and %41, %43 : tensor<1x1x1xi1>
    %45 = stablehlo.constant dense<true> : tensor<i1>
    %46 = stablehlo.reduce(%44 init: %45) applies stablehlo.and across dimensions = [2] : (tensor<1x1x1xi1>, tensor<i1>) -> tensor<1x1xi1>
    %47 = "stablehlo.gather"(%arg0, %7) {dimension_numbers = #stablehlo.gather<offset_dims = [2], collapsed_slice_dims = [0], start_index_map = [0], index_vector_dim = 2>, indices_are_sorted = false, slice_sizes = array<i64: 1, 768>} : (tensor<50257x768xf32>, tensor<1x1x1xi32>) -> tensor<1x1x768xf32>
    %48 = stablehlo.broadcast_in_dim %46, dims = [0, 1] : (tensor<1x1xi1>) -> tensor<1x1x768xi1>
    %49 = stablehlo.constant dense<0x7FC00000> : tensor<f32>
    %50 = stablehlo.broadcast_in_dim %49, dims = [] : (tensor<f32>) -> tensor<1x1x768xf32>
    %51 = stablehlo.select %48, %47, %50 : tensor<1x1x768xi1>, tensor<1x1x768xf32>
    return %51 : tensor<1x1x768xf32>
  }
  func.func private @_where_4(%arg0: tensor<1x1xi1>, %arg1: tensor<1x1xi32>, %arg2: tensor<1x1xi32>) -> tensor<1x1xi32> {
    %0 = stablehlo.select %arg0, %arg1, %arg2 : tensor<1x1xi1>, tensor<1x1xi32>
    return %0 : tensor<1x1xi32>
  }
  func.func private @_take_5(%arg0: tensor<1024x768xf32>, %arg1: tensor<1x1xi32>) -> tensor<1x1x768xf32> {
    %0 = stablehlo.constant dense<0> : tensor<i32>
    %1 = stablehlo.broadcast_in_dim %0, dims = [] : (tensor<i32>) -> tensor<1x1xi32>
    %2 = stablehlo.compare  LT, %arg1, %1,  SIGNED : (tensor<1x1xi32>, tensor<1x1xi32>) -> tensor<1x1xi1>
    %3 = stablehlo.constant dense<1024> : tensor<i32>
    %4 = stablehlo.broadcast_in_dim %3, dims = [] : (tensor<i32>) -> tensor<1x1xi32>
    %5 = stablehlo.add %arg1, %4 : tensor<1x1xi32>
    %6 = call @_where_6(%2, %5, %arg1) : (tensor<1x1xi1>, tensor<1x1xi32>, tensor<1x1xi32>) -> tensor<1x1xi32>
    %7 = stablehlo.broadcast_in_dim %6, dims = [0, 1] : (tensor<1x1xi32>) -> tensor<1x1x1xi32>
    %8 = stablehlo.constant dense<0> : tensor<1xi32>
    %9 = stablehlo.constant dense<0> : tensor<1xi32>
    %10 = stablehlo.constant dense<1024> : tensor<i32>
    %11 = stablehlo.broadcast_in_dim %10, dims = [] : (tensor<i32>) -> tensor<1xi32>
    %12 = stablehlo.constant dense<768> : tensor<i32>
    %13 = stablehlo.broadcast_in_dim %12, dims = [] : (tensor<i32>) -> tensor<1xi32>
    %14 = stablehlo.concatenate %11, %13, dim = 0 : (tensor<1xi32>, tensor<1xi32>) -> tensor<2xi32>
    %15 = stablehlo.constant dense<0> : tensor<i32>
    %16 = stablehlo.broadcast_in_dim %15, dims = [] : (tensor<i32>) -> tensor<1xi32>
    %17 = stablehlo.compare  LT, %8, %16,  SIGNED : (tensor<1xi32>, tensor<1xi32>) -> tensor<1xi1>
    %18 = stablehlo.constant dense<2> : tensor<i32>
    %19 = stablehlo.broadcast_in_dim %18, dims = [] : (tensor<i32>) -> tensor<1xi32>
    %20 = stablehlo.add %8, %19 : tensor<1xi32>
    %21 = stablehlo.select %17, %20, %8 : tensor<1xi1>, tensor<1xi32>
    %22 = stablehlo.broadcast_in_dim %21, dims = [0] : (tensor<1xi32>) -> tensor<1x1xi32>
    %23 = "stablehlo.gather"(%14, %22) {dimension_numbers = #stablehlo.gather<collapsed_slice_dims = [0], start_index_map = [0], index_vector_dim = 1>, indices_are_sorted = false, slice_sizes = array<i64: 1>} : (tensor<2xi32>, tensor<1x1xi32>) -> tensor<1xi32>
    %24 = stablehlo.constant dense<1> : tensor<i32>
    %25 = stablehlo.broadcast_in_dim %24, dims = [] : (tensor<i32>) -> tensor<1xi32>
    %26 = stablehlo.constant dense<768> : tensor<i32>
    %27 = stablehlo.broadcast_in_dim %26, dims = [] : (tensor<i32>) -> tensor<1xi32>
    %28 = stablehlo.concatenate %25, %27, dim = 0 : (tensor<1xi32>, tensor<1xi32>) -> tensor<2xi32>
    %29 = stablehlo.constant dense<0> : tensor<i32>
    %30 = stablehlo.broadcast_in_dim %29, dims = [] : (tensor<i32>) -> tensor<1xi32>
    %31 = stablehlo.compare  LT, %9, %30,  SIGNED : (tensor<1xi32>, tensor<1xi32>) -> tensor<1xi1>
    %32 = stablehlo.constant dense<2> : tensor<i32>
    %33 = stablehlo.broadcast_in_dim %32, dims = [] : (tensor<i32>) -> tensor<1xi32>
    %34 = stablehlo.add %9, %33 : tensor<1xi32>
    %35 = stablehlo.select %31, %34, %9 : tensor<1xi1>, tensor<1xi32>
    %36 = stablehlo.broadcast_in_dim %35, dims = [0] : (tensor<1xi32>) -> tensor<1x1xi32>
    %37 = "stablehlo.gather"(%28, %36) {dimension_numbers = #stablehlo.gather<collapsed_slice_dims = [0], start_index_map = [0], index_vector_dim = 1>, indices_are_sorted = false, slice_sizes = array<i64: 1>} : (tensor<2xi32>, tensor<1x1xi32>) -> tensor<1xi32>
    %38 = stablehlo.subtract %23, %37 : tensor<1xi32>
    %39 = stablehlo.constant dense<0> : tensor<i32>
    %40 = stablehlo.broadcast_in_dim %39, dims = [] : (tensor<i32>) -> tensor<1x1x1xi32>
    %41 = stablehlo.compare  GE, %7, %40,  SIGNED : (tensor<1x1x1xi32>, tensor<1x1x1xi32>) -> tensor<1x1x1xi1>
    %42 = stablehlo.broadcast_in_dim %38, dims = [2] : (tensor<1xi32>) -> tensor<1x1x1xi32>
    %43 = stablehlo.compare  LE, %7, %42,  SIGNED : (tensor<1x1x1xi32>, tensor<1x1x1xi32>) -> tensor<1x1x1xi1>
    %44 = stablehlo.and %41, %43 : tensor<1x1x1xi1>
    %45 = stablehlo.constant dense<true> : tensor<i1>
    %46 = stablehlo.reduce(%44 init: %45) applies stablehlo.and across dimensions = [2] : (tensor<1x1x1xi1>, tensor<i1>) -> tensor<1x1xi1>
    %47 = "stablehlo.gather"(%arg0, %7) {dimension_numbers = #stablehlo.gather<offset_dims = [2], collapsed_slice_dims = [0], start_index_map = [0], index_vector_dim = 2>, indices_are_sorted = false, slice_sizes = array<i64: 1, 768>} : (tensor<1024x768xf32>, tensor<1x1x1xi32>) -> tensor<1x1x768xf32>
    %48 = stablehlo.broadcast_in_dim %46, dims = [0, 1] : (tensor<1x1xi1>) -> tensor<1x1x768xi1>
    %49 = stablehlo.constant dense<0x7FC00000> : tensor<f32>
    %50 = stablehlo.broadcast_in_dim %49, dims = [] : (tensor<f32>) -> tensor<1x1x768xf32>
    %51 = stablehlo.select %48, %47, %50 : tensor<1x1x768xi1>, tensor<1x1x768xf32>
    return %51 : tensor<1x1x768xf32>
  }
  func.func private @_where_6(%arg0: tensor<1x1xi1>, %arg1: tensor<1x1xi32>, %arg2: tensor<1x1xi32>) -> tensor<1x1xi32> {
    %0 = stablehlo.select %arg0, %arg1, %arg2 : tensor<1x1xi1>, tensor<1x1xi32>
    return %0 : tensor<1x1xi32>
  }
  func.func private @clip_7(%arg0: tensor<i32>, %arg1: tensor<i32>, %arg2: tensor<i32>) -> tensor<i32> {
    %0 = stablehlo.maximum %arg1, %arg0 : tensor<i32>
    %1 = stablehlo.minimum %arg2, %0 : tensor<i32>
    return %1 : tensor<i32>
  }
  func.func private @_where_8(%arg0: tensor<i32>, %arg1: tensor<1x50257xf32>, %arg2: tensor<1x50257xf32>) -> tensor<1x50257xf32> {
    %0 = stablehlo.constant dense<0> : tensor<i32>
    %1 = stablehlo.compare  NE, %arg0, %0,  SIGNED : (tensor<i32>, tensor<i32>) -> tensor<i1>
    %2 = stablehlo.broadcast_in_dim %1, dims = [] : (tensor<i1>) -> tensor<1x50257xi1>
    %3 = stablehlo.select %2, %arg1, %arg2 : tensor<1x50257xi1>, tensor<1x50257xf32>
    return %3 : tensor<1x50257xf32>
  }
}
