module @jit_run attributes {mhlo.cross_program_prefetches = [], mhlo.is_dynamic = false, mhlo.num_partitions = 1 : i32, mhlo.num_replicas = 1 : i32, mhlo.use_auto_spmd_partitioning = false} {
  func.func @main(%arg0: tensor<1x224x224x3xf32>) -> tensor<1x1000xf32> {
    %cst = stablehlo.constant dense_resource<__elided__> : tensor<1x1000xf32>
    %cst_0 = stablehlo.constant dense_resource<__elided__> : tensor<1024x1000xf32>
    %cst_1 = stablehlo.constant dense<4.900000e+01> : tensor<1x1024xf32>
    %cst_2 = stablehlo.constant dense_resource<__elided__> : tensor<1x1x1024xf32>
    %cst_3 = stablehlo.constant dense_resource<__elided__> : tensor<1x1x1024xf32>
    %cst_4 = stablehlo.constant dense_resource<__elided__> : tensor<1x1x1024xf32>
    %cst_5 = stablehlo.constant dense_resource<__elided__> : tensor<4096x1024xf32>
    %cst_6 = stablehlo.constant dense_resource<__elided__> : tensor<1x1x4096xf32>
    %cst_7 = stablehlo.constant dense_resource<__elided__> : tensor<1024x4096xf32>
    %cst_8 = stablehlo.constant dense_resource<__elided__> : tensor<1x1x1024xf32>
    %cst_9 = stablehlo.constant dense_resource<__elided__> : tensor<1x1x1024xf32>
    %cst_10 = stablehlo.constant dense_resource<__elided__> : tensor<1x1x1024xf32>
    %cst_11 = stablehlo.constant dense_resource<__elided__> : tensor<1024x1024xf32>
    %cst_12 = stablehlo.constant dense_resource<__elided__> : tensor<169x32xf32>
    %cst_13 = stablehlo.constant dense_resource<__elided__> : tensor<1x1x3072xf32>
    %cst_14 = stablehlo.constant dense_resource<__elided__> : tensor<1024x3072xf32>
    %cst_15 = stablehlo.constant dense_resource<__elided__> : tensor<1x1x1024xf32>
    %cst_16 = stablehlo.constant dense_resource<__elided__> : tensor<1x1x1024xf32>
    %cst_17 = stablehlo.constant dense_resource<__elided__> : tensor<1x1x1024xf32>
    %cst_18 = stablehlo.constant dense_resource<__elided__> : tensor<4096x1024xf32>
    %cst_19 = stablehlo.constant dense<4.471500e-02> : tensor<1x49x4096xf32>
    %cst_20 = stablehlo.constant dense<0.797884583> : tensor<1x49x4096xf32>
    %cst_21 = stablehlo.constant dense<1.000000e+00> : tensor<1x49x4096xf32>
    %cst_22 = stablehlo.constant dense<5.000000e-01> : tensor<1x49x4096xf32>
    %cst_23 = stablehlo.constant dense_resource<__elided__> : tensor<1x1x4096xf32>
    %cst_24 = stablehlo.constant dense_resource<__elided__> : tensor<1024x4096xf32>
    %cst_25 = stablehlo.constant dense_resource<__elided__> : tensor<1x1x1024xf32>
    %cst_26 = stablehlo.constant dense_resource<__elided__> : tensor<1x1x1024xf32>
    %cst_27 = stablehlo.constant dense_resource<__elided__> : tensor<1x1x1024xf32>
    %cst_28 = stablehlo.constant dense_resource<__elided__> : tensor<1024x1024xf32>
    %cst_29 = stablehlo.constant dense_resource<__elided__> : tensor<169x32xf32>
    %cst_30 = stablehlo.constant dense<0.176776692> : tensor<1x32x49x32xf32>
    %cst_31 = stablehlo.constant dense_resource<__elided__> : tensor<1x1x3072xf32>
    %cst_32 = stablehlo.constant dense_resource<__elided__> : tensor<1024x3072xf32>
    %cst_33 = stablehlo.constant dense_resource<__elided__> : tensor<1x1x1024xf32>
    %cst_34 = stablehlo.constant dense_resource<__elided__> : tensor<1x1x1024xf32>
    %cst_35 = stablehlo.constant dense<1.024000e+03> : tensor<1x49xf32>
    %cst_36 = stablehlo.constant dense_resource<__elided__> : tensor<2048x1024xf32>
    %cst_37 = stablehlo.constant dense_resource<__elided__> : tensor<1x1x2048xf32>
    %cst_38 = stablehlo.constant dense_resource<__elided__> : tensor<1x1x2048xf32>
    %cst_39 = stablehlo.constant dense<9.99999997E-7> : tensor<1x49x1xf32>
    %cst_40 = stablehlo.constant dense<0.000000e+00> : tensor<1x49xf32>
    %cst_41 = stablehlo.constant dense<2.048000e+03> : tensor<1x49xf32>
    %c = stablehlo.constant dense<1> : tensor<7xi32>
    %c_42 = stablehlo.constant dense<2> : tensor<7xi32>
    %c_43 = stablehlo.constant dense<0> : tensor<7xi32>
    %cst_44 = stablehlo.constant dense_resource<__elided__> : tensor<1x1x512xf32>
    %cst_45 = stablehlo.constant dense_resource<__elided__> : tensor<2048x512xf32>
    %cst_46 = stablehlo.constant dense_resource<__elided__> : tensor<1x1x2048xf32>
    %cst_47 = stablehlo.constant dense_resource<__elided__> : tensor<512x2048xf32>
    %cst_48 = stablehlo.constant dense_resource<__elided__> : tensor<1x1x512xf32>
    %cst_49 = stablehlo.constant dense_resource<__elided__> : tensor<1x1x512xf32>
    %cst_50 = stablehlo.constant dense_resource<__elided__> : tensor<1x1x512xf32>
    %cst_51 = stablehlo.constant dense_resource<__elided__> : tensor<512x512xf32>
    %cst_52 = stablehlo.constant dense_resource<__elided__> : tensor<169x16xf32>
    %cst_53 = stablehlo.constant dense_resource<__elided__> : tensor<1x1x1536xf32>
    %cst_54 = stablehlo.constant dense_resource<__elided__> : tensor<512x1536xf32>
    %cst_55 = stablehlo.constant dense_resource<__elided__> : tensor<1x1x512xf32>
    %cst_56 = stablehlo.constant dense_resource<__elided__> : tensor<1x1x512xf32>
    %cst_57 = stablehlo.constant dense_resource<__elided__> : tensor<1x1x512xf32>
    %cst_58 = stablehlo.constant dense_resource<__elided__> : tensor<2048x512xf32>
    %cst_59 = stablehlo.constant dense_resource<__elided__> : tensor<1x1x2048xf32>
    %cst_60 = stablehlo.constant dense_resource<__elided__> : tensor<512x2048xf32>
    %cst_61 = stablehlo.constant dense_resource<__elided__> : tensor<1x1x512xf32>
    %cst_62 = stablehlo.constant dense_resource<__elided__> : tensor<1x1x512xf32>
    %cst_63 = stablehlo.constant dense_resource<__elided__> : tensor<1x1x512xf32>
    %cst_64 = stablehlo.constant dense_resource<__elided__> : tensor<512x512xf32>
    %cst_65 = stablehlo.constant dense_resource<__elided__> : tensor<169x16xf32>
    %cst_66 = stablehlo.constant dense_resource<__elided__> : tensor<1x1x1536xf32>
    %cst_67 = stablehlo.constant dense_resource<__elided__> : tensor<512x1536xf32>
    %cst_68 = stablehlo.constant dense_resource<__elided__> : tensor<1x1x512xf32>
    %cst_69 = stablehlo.constant dense_resource<__elided__> : tensor<1x1x512xf32>
    %cst_70 = stablehlo.constant dense_resource<__elided__> : tensor<1x1x512xf32>
    %cst_71 = stablehlo.constant dense_resource<__elided__> : tensor<2048x512xf32>
    %cst_72 = stablehlo.constant dense_resource<__elided__> : tensor<1x1x2048xf32>
    %cst_73 = stablehlo.constant dense_resource<__elided__> : tensor<512x2048xf32>
    %cst_74 = stablehlo.constant dense_resource<__elided__> : tensor<1x1x512xf32>
    %cst_75 = stablehlo.constant dense_resource<__elided__> : tensor<1x1x512xf32>
    %cst_76 = stablehlo.constant dense_resource<__elided__> : tensor<1x1x512xf32>
    %cst_77 = stablehlo.constant dense_resource<__elided__> : tensor<512x512xf32>
    %cst_78 = stablehlo.constant dense_resource<__elided__> : tensor<169x16xf32>
    %cst_79 = stablehlo.constant dense_resource<__elided__> : tensor<1x1x1536xf32>
    %cst_80 = stablehlo.constant dense_resource<__elided__> : tensor<512x1536xf32>
    %cst_81 = stablehlo.constant dense_resource<__elided__> : tensor<1x1x512xf32>
    %cst_82 = stablehlo.constant dense_resource<__elided__> : tensor<1x1x512xf32>
    %cst_83 = stablehlo.constant dense_resource<__elided__> : tensor<1x1x512xf32>
    %cst_84 = stablehlo.constant dense_resource<__elided__> : tensor<2048x512xf32>
    %cst_85 = stablehlo.constant dense_resource<__elided__> : tensor<1x1x2048xf32>
    %cst_86 = stablehlo.constant dense_resource<__elided__> : tensor<512x2048xf32>
    %cst_87 = stablehlo.constant dense_resource<__elided__> : tensor<1x1x512xf32>
    %cst_88 = stablehlo.constant dense_resource<__elided__> : tensor<1x1x512xf32>
    %cst_89 = stablehlo.constant dense_resource<__elided__> : tensor<1x1x512xf32>
    %cst_90 = stablehlo.constant dense_resource<__elided__> : tensor<512x512xf32>
    %cst_91 = stablehlo.constant dense_resource<__elided__> : tensor<169x16xf32>
    %cst_92 = stablehlo.constant dense_resource<__elided__> : tensor<1x1x1536xf32>
    %cst_93 = stablehlo.constant dense_resource<__elided__> : tensor<512x1536xf32>
    %cst_94 = stablehlo.constant dense_resource<__elided__> : tensor<1x1x512xf32>
    %cst_95 = stablehlo.constant dense_resource<__elided__> : tensor<1x1x512xf32>
    %cst_96 = stablehlo.constant dense_resource<__elided__> : tensor<1x1x512xf32>
    %cst_97 = stablehlo.constant dense_resource<__elided__> : tensor<2048x512xf32>
    %cst_98 = stablehlo.constant dense_resource<__elided__> : tensor<1x1x2048xf32>
    %cst_99 = stablehlo.constant dense_resource<__elided__> : tensor<512x2048xf32>
    %cst_100 = stablehlo.constant dense_resource<__elided__> : tensor<1x1x512xf32>
    %cst_101 = stablehlo.constant dense_resource<__elided__> : tensor<1x1x512xf32>
    %cst_102 = stablehlo.constant dense_resource<__elided__> : tensor<1x1x512xf32>
    %cst_103 = stablehlo.constant dense_resource<__elided__> : tensor<512x512xf32>
    %cst_104 = stablehlo.constant dense_resource<__elided__> : tensor<169x16xf32>
    %cst_105 = stablehlo.constant dense_resource<__elided__> : tensor<1x1x1536xf32>
    %cst_106 = stablehlo.constant dense_resource<__elided__> : tensor<512x1536xf32>
    %cst_107 = stablehlo.constant dense_resource<__elided__> : tensor<1x1x512xf32>
    %cst_108 = stablehlo.constant dense_resource<__elided__> : tensor<1x1x512xf32>
    %cst_109 = stablehlo.constant dense_resource<__elided__> : tensor<1x1x512xf32>
    %cst_110 = stablehlo.constant dense_resource<__elided__> : tensor<2048x512xf32>
    %cst_111 = stablehlo.constant dense_resource<__elided__> : tensor<1x1x2048xf32>
    %cst_112 = stablehlo.constant dense_resource<__elided__> : tensor<512x2048xf32>
    %cst_113 = stablehlo.constant dense_resource<__elided__> : tensor<1x1x512xf32>
    %cst_114 = stablehlo.constant dense_resource<__elided__> : tensor<1x1x512xf32>
    %cst_115 = stablehlo.constant dense_resource<__elided__> : tensor<1x1x512xf32>
    %cst_116 = stablehlo.constant dense_resource<__elided__> : tensor<512x512xf32>
    %cst_117 = stablehlo.constant dense_resource<__elided__> : tensor<169x16xf32>
    %cst_118 = stablehlo.constant dense_resource<__elided__> : tensor<1x1x1536xf32>
    %cst_119 = stablehlo.constant dense_resource<__elided__> : tensor<512x1536xf32>
    %cst_120 = stablehlo.constant dense_resource<__elided__> : tensor<1x1x512xf32>
    %cst_121 = stablehlo.constant dense_resource<__elided__> : tensor<1x1x512xf32>
    %cst_122 = stablehlo.constant dense_resource<__elided__> : tensor<1x1x512xf32>
    %cst_123 = stablehlo.constant dense_resource<__elided__> : tensor<2048x512xf32>
    %cst_124 = stablehlo.constant dense_resource<__elided__> : tensor<1x1x2048xf32>
    %cst_125 = stablehlo.constant dense_resource<__elided__> : tensor<512x2048xf32>
    %cst_126 = stablehlo.constant dense_resource<__elided__> : tensor<1x1x512xf32>
    %cst_127 = stablehlo.constant dense_resource<__elided__> : tensor<1x1x512xf32>
    %cst_128 = stablehlo.constant dense_resource<__elided__> : tensor<1x1x512xf32>
    %cst_129 = stablehlo.constant dense_resource<__elided__> : tensor<512x512xf32>
    %cst_130 = stablehlo.constant dense_resource<__elided__> : tensor<169x16xf32>
    %cst_131 = stablehlo.constant dense_resource<__elided__> : tensor<1x1x1536xf32>
    %cst_132 = stablehlo.constant dense_resource<__elided__> : tensor<512x1536xf32>
    %cst_133 = stablehlo.constant dense_resource<__elided__> : tensor<1x1x512xf32>
    %cst_134 = stablehlo.constant dense_resource<__elided__> : tensor<1x1x512xf32>
    %cst_135 = stablehlo.constant dense_resource<__elided__> : tensor<1x1x512xf32>
    %cst_136 = stablehlo.constant dense_resource<__elided__> : tensor<2048x512xf32>
    %cst_137 = stablehlo.constant dense_resource<__elided__> : tensor<1x1x2048xf32>
    %cst_138 = stablehlo.constant dense_resource<__elided__> : tensor<512x2048xf32>
    %cst_139 = stablehlo.constant dense_resource<__elided__> : tensor<1x1x512xf32>
    %cst_140 = stablehlo.constant dense_resource<__elided__> : tensor<1x1x512xf32>
    %cst_141 = stablehlo.constant dense_resource<__elided__> : tensor<1x1x512xf32>
    %cst_142 = stablehlo.constant dense_resource<__elided__> : tensor<512x512xf32>
    %cst_143 = stablehlo.constant dense_resource<__elided__> : tensor<169x16xf32>
    %cst_144 = stablehlo.constant dense_resource<__elided__> : tensor<1x1x1536xf32>
    %cst_145 = stablehlo.constant dense_resource<__elided__> : tensor<512x1536xf32>
    %cst_146 = stablehlo.constant dense_resource<__elided__> : tensor<1x1x512xf32>
    %cst_147 = stablehlo.constant dense_resource<__elided__> : tensor<1x1x512xf32>
    %cst_148 = stablehlo.constant dense_resource<__elided__> : tensor<1x1x512xf32>
    %cst_149 = stablehlo.constant dense_resource<__elided__> : tensor<2048x512xf32>
    %cst_150 = stablehlo.constant dense_resource<__elided__> : tensor<1x1x2048xf32>
    %cst_151 = stablehlo.constant dense_resource<__elided__> : tensor<512x2048xf32>
    %cst_152 = stablehlo.constant dense_resource<__elided__> : tensor<1x1x512xf32>
    %cst_153 = stablehlo.constant dense_resource<__elided__> : tensor<1x1x512xf32>
    %cst_154 = stablehlo.constant dense_resource<__elided__> : tensor<1x1x512xf32>
    %cst_155 = stablehlo.constant dense_resource<__elided__> : tensor<512x512xf32>
    %cst_156 = stablehlo.constant dense_resource<__elided__> : tensor<169x16xf32>
    %cst_157 = stablehlo.constant dense_resource<__elided__> : tensor<1x1x1536xf32>
    %cst_158 = stablehlo.constant dense_resource<__elided__> : tensor<512x1536xf32>
    %cst_159 = stablehlo.constant dense_resource<__elided__> : tensor<1x1x512xf32>
    %cst_160 = stablehlo.constant dense_resource<__elided__> : tensor<1x1x512xf32>
    %cst_161 = stablehlo.constant dense_resource<__elided__> : tensor<1x1x512xf32>
    %cst_162 = stablehlo.constant dense_resource<__elided__> : tensor<2048x512xf32>
    %cst_163 = stablehlo.constant dense_resource<__elided__> : tensor<1x1x2048xf32>
    %cst_164 = stablehlo.constant dense_resource<__elided__> : tensor<512x2048xf32>
    %cst_165 = stablehlo.constant dense_resource<__elided__> : tensor<1x1x512xf32>
    %cst_166 = stablehlo.constant dense_resource<__elided__> : tensor<1x1x512xf32>
    %cst_167 = stablehlo.constant dense_resource<__elided__> : tensor<1x1x512xf32>
    %cst_168 = stablehlo.constant dense_resource<__elided__> : tensor<512x512xf32>
    %cst_169 = stablehlo.constant dense_resource<__elided__> : tensor<169x16xf32>
    %cst_170 = stablehlo.constant dense_resource<__elided__> : tensor<1x1x1536xf32>
    %cst_171 = stablehlo.constant dense_resource<__elided__> : tensor<512x1536xf32>
    %cst_172 = stablehlo.constant dense_resource<__elided__> : tensor<1x1x512xf32>
    %cst_173 = stablehlo.constant dense_resource<__elided__> : tensor<1x1x512xf32>
    %cst_174 = stablehlo.constant dense_resource<__elided__> : tensor<1x1x512xf32>
    %cst_175 = stablehlo.constant dense_resource<__elided__> : tensor<2048x512xf32>
    %cst_176 = stablehlo.constant dense_resource<__elided__> : tensor<1x1x2048xf32>
    %cst_177 = stablehlo.constant dense_resource<__elided__> : tensor<512x2048xf32>
    %cst_178 = stablehlo.constant dense_resource<__elided__> : tensor<1x1x512xf32>
    %cst_179 = stablehlo.constant dense_resource<__elided__> : tensor<1x1x512xf32>
    %cst_180 = stablehlo.constant dense_resource<__elided__> : tensor<1x1x512xf32>
    %cst_181 = stablehlo.constant dense_resource<__elided__> : tensor<512x512xf32>
    %cst_182 = stablehlo.constant dense_resource<__elided__> : tensor<169x16xf32>
    %cst_183 = stablehlo.constant dense_resource<__elided__> : tensor<1x1x1536xf32>
    %cst_184 = stablehlo.constant dense_resource<__elided__> : tensor<512x1536xf32>
    %cst_185 = stablehlo.constant dense_resource<__elided__> : tensor<1x1x512xf32>
    %cst_186 = stablehlo.constant dense_resource<__elided__> : tensor<1x1x512xf32>
    %cst_187 = stablehlo.constant dense_resource<__elided__> : tensor<1x1x512xf32>
    %cst_188 = stablehlo.constant dense_resource<__elided__> : tensor<2048x512xf32>
    %cst_189 = stablehlo.constant dense_resource<__elided__> : tensor<1x1x2048xf32>
    %cst_190 = stablehlo.constant dense_resource<__elided__> : tensor<512x2048xf32>
    %cst_191 = stablehlo.constant dense_resource<__elided__> : tensor<1x1x512xf32>
    %cst_192 = stablehlo.constant dense_resource<__elided__> : tensor<1x1x512xf32>
    %cst_193 = stablehlo.constant dense_resource<__elided__> : tensor<1x1x512xf32>
    %cst_194 = stablehlo.constant dense_resource<__elided__> : tensor<512x512xf32>
    %cst_195 = stablehlo.constant dense_resource<__elided__> : tensor<169x16xf32>
    %cst_196 = stablehlo.constant dense_resource<__elided__> : tensor<1x1x1536xf32>
    %cst_197 = stablehlo.constant dense_resource<__elided__> : tensor<512x1536xf32>
    %cst_198 = stablehlo.constant dense_resource<__elided__> : tensor<1x1x512xf32>
    %cst_199 = stablehlo.constant dense_resource<__elided__> : tensor<1x1x512xf32>
    %cst_200 = stablehlo.constant dense_resource<__elided__> : tensor<1x1x512xf32>
    %cst_201 = stablehlo.constant dense_resource<__elided__> : tensor<2048x512xf32>
    %cst_202 = stablehlo.constant dense_resource<__elided__> : tensor<1x1x2048xf32>
    %cst_203 = stablehlo.constant dense_resource<__elided__> : tensor<512x2048xf32>
    %cst_204 = stablehlo.constant dense_resource<__elided__> : tensor<1x1x512xf32>
    %cst_205 = stablehlo.constant dense_resource<__elided__> : tensor<1x1x512xf32>
    %cst_206 = stablehlo.constant dense_resource<__elided__> : tensor<1x1x512xf32>
    %cst_207 = stablehlo.constant dense_resource<__elided__> : tensor<512x512xf32>
    %cst_208 = stablehlo.constant dense_resource<__elided__> : tensor<169x16xf32>
    %cst_209 = stablehlo.constant dense_resource<__elided__> : tensor<1x1x1536xf32>
    %cst_210 = stablehlo.constant dense_resource<__elided__> : tensor<512x1536xf32>
    %cst_211 = stablehlo.constant dense_resource<__elided__> : tensor<1x1x512xf32>
    %cst_212 = stablehlo.constant dense_resource<__elided__> : tensor<1x1x512xf32>
    %cst_213 = stablehlo.constant dense_resource<__elided__> : tensor<1x1x512xf32>
    %cst_214 = stablehlo.constant dense_resource<__elided__> : tensor<2048x512xf32>
    %cst_215 = stablehlo.constant dense_resource<__elided__> : tensor<1x1x2048xf32>
    %cst_216 = stablehlo.constant dense_resource<__elided__> : tensor<512x2048xf32>
    %cst_217 = stablehlo.constant dense_resource<__elided__> : tensor<1x1x512xf32>
    %cst_218 = stablehlo.constant dense_resource<__elided__> : tensor<1x1x512xf32>
    %cst_219 = stablehlo.constant dense_resource<__elided__> : tensor<1x1x512xf32>
    %cst_220 = stablehlo.constant dense_resource<__elided__> : tensor<512x512xf32>
    %cst_221 = stablehlo.constant dense_resource<__elided__> : tensor<169x16xf32>
    %cst_222 = stablehlo.constant dense_resource<__elided__> : tensor<1x1x1536xf32>
    %cst_223 = stablehlo.constant dense_resource<__elided__> : tensor<512x1536xf32>
    %cst_224 = stablehlo.constant dense_resource<__elided__> : tensor<1x1x512xf32>
    %cst_225 = stablehlo.constant dense_resource<__elided__> : tensor<1x1x512xf32>
    %cst_226 = stablehlo.constant dense_resource<__elided__> : tensor<1x1x512xf32>
    %cst_227 = stablehlo.constant dense_resource<__elided__> : tensor<2048x512xf32>
    %cst_228 = stablehlo.constant dense_resource<__elided__> : tensor<1x1x2048xf32>
    %cst_229 = stablehlo.constant dense_resource<__elided__> : tensor<512x2048xf32>
    %cst_230 = stablehlo.constant dense_resource<__elided__> : tensor<1x1x512xf32>
    %cst_231 = stablehlo.constant dense_resource<__elided__> : tensor<1x1x512xf32>
    %cst_232 = stablehlo.constant dense_resource<__elided__> : tensor<1x1x512xf32>
    %cst_233 = stablehlo.constant dense_resource<__elided__> : tensor<512x512xf32>
    %cst_234 = stablehlo.constant dense_resource<__elided__> : tensor<169x16xf32>
    %cst_235 = stablehlo.constant dense_resource<__elided__> : tensor<1x1x1536xf32>
    %cst_236 = stablehlo.constant dense_resource<__elided__> : tensor<512x1536xf32>
    %cst_237 = stablehlo.constant dense_resource<__elided__> : tensor<1x1x512xf32>
    %cst_238 = stablehlo.constant dense_resource<__elided__> : tensor<1x1x512xf32>
    %cst_239 = stablehlo.constant dense_resource<__elided__> : tensor<1x1x512xf32>
    %cst_240 = stablehlo.constant dense_resource<__elided__> : tensor<2048x512xf32>
    %cst_241 = stablehlo.constant dense_resource<__elided__> : tensor<1x1x2048xf32>
    %cst_242 = stablehlo.constant dense_resource<__elided__> : tensor<512x2048xf32>
    %cst_243 = stablehlo.constant dense_resource<__elided__> : tensor<1x1x512xf32>
    %cst_244 = stablehlo.constant dense_resource<__elided__> : tensor<1x1x512xf32>
    %cst_245 = stablehlo.constant dense_resource<__elided__> : tensor<1x1x512xf32>
    %cst_246 = stablehlo.constant dense_resource<__elided__> : tensor<512x512xf32>
    %cst_247 = stablehlo.constant dense_resource<__elided__> : tensor<169x16xf32>
    %cst_248 = stablehlo.constant dense_resource<__elided__> : tensor<1x1x1536xf32>
    %cst_249 = stablehlo.constant dense_resource<__elided__> : tensor<512x1536xf32>
    %cst_250 = stablehlo.constant dense_resource<__elided__> : tensor<1x1x512xf32>
    %cst_251 = stablehlo.constant dense_resource<__elided__> : tensor<1x1x512xf32>
    %cst_252 = stablehlo.constant dense_resource<__elided__> : tensor<1x1x512xf32>
    %cst_253 = stablehlo.constant dense_resource<__elided__> : tensor<2048x512xf32>
    %cst_254 = stablehlo.constant dense_resource<__elided__> : tensor<1x1x2048xf32>
    %cst_255 = stablehlo.constant dense_resource<__elided__> : tensor<512x2048xf32>
    %cst_256 = stablehlo.constant dense_resource<__elided__> : tensor<1x1x512xf32>
    %cst_257 = stablehlo.constant dense_resource<__elided__> : tensor<1x1x512xf32>
    %cst_258 = stablehlo.constant dense_resource<__elided__> : tensor<1x1x512xf32>
    %cst_259 = stablehlo.constant dense_resource<__elided__> : tensor<512x512xf32>
    %cst_260 = stablehlo.constant dense_resource<__elided__> : tensor<169x16xf32>
    %cst_261 = stablehlo.constant dense_resource<__elided__> : tensor<1x1x1536xf32>
    %cst_262 = stablehlo.constant dense_resource<__elided__> : tensor<512x1536xf32>
    %cst_263 = stablehlo.constant dense_resource<__elided__> : tensor<1x1x512xf32>
    %cst_264 = stablehlo.constant dense_resource<__elided__> : tensor<1x1x512xf32>
    %cst_265 = stablehlo.constant dense_resource<__elided__> : tensor<1x1x512xf32>
    %cst_266 = stablehlo.constant dense_resource<__elided__> : tensor<2048x512xf32>
    %cst_267 = stablehlo.constant dense<4.471500e-02> : tensor<1x196x2048xf32>
    %cst_268 = stablehlo.constant dense<0.797884583> : tensor<1x196x2048xf32>
    %cst_269 = stablehlo.constant dense<1.000000e+00> : tensor<1x196x2048xf32>
    %cst_270 = stablehlo.constant dense<5.000000e-01> : tensor<1x196x2048xf32>
    %cst_271 = stablehlo.constant dense_resource<__elided__> : tensor<1x1x2048xf32>
    %cst_272 = stablehlo.constant dense_resource<__elided__> : tensor<512x2048xf32>
    %cst_273 = stablehlo.constant dense_resource<__elided__> : tensor<1x1x512xf32>
    %cst_274 = stablehlo.constant dense_resource<__elided__> : tensor<1x1x512xf32>
    %cst_275 = stablehlo.constant dense_resource<__elided__> : tensor<1x1x512xf32>
    %cst_276 = stablehlo.constant dense_resource<__elided__> : tensor<512x512xf32>
    %cst_277 = stablehlo.constant dense_resource<__elided__> : tensor<169x16xf32>
    %cst_278 = stablehlo.constant dense<0.176776692> : tensor<4x16x49x32xf32>
    %cst_279 = stablehlo.constant dense_resource<__elided__> : tensor<1x1x1536xf32>
    %cst_280 = stablehlo.constant dense_resource<__elided__> : tensor<512x1536xf32>
    %cst_281 = stablehlo.constant dense_resource<__elided__> : tensor<1x1x512xf32>
    %cst_282 = stablehlo.constant dense_resource<__elided__> : tensor<1x1x512xf32>
    %cst_283 = stablehlo.constant dense<5.120000e+02> : tensor<1x196xf32>
    %cst_284 = stablehlo.constant dense_resource<__elided__> : tensor<1024x512xf32>
    %cst_285 = stablehlo.constant dense_resource<__elided__> : tensor<1x1x1024xf32>
    %cst_286 = stablehlo.constant dense_resource<__elided__> : tensor<1x1x1024xf32>
    %cst_287 = stablehlo.constant dense<9.99999997E-7> : tensor<1x196x1xf32>
    %cst_288 = stablehlo.constant dense<0.000000e+00> : tensor<1x196xf32>
    %cst_289 = stablehlo.constant dense<1.024000e+03> : tensor<1x196xf32>
    %c_290 = stablehlo.constant dense<1> : tensor<14xi32>
    %c_291 = stablehlo.constant dense<2> : tensor<14xi32>
    %c_292 = stablehlo.constant dense<0> : tensor<14xi32>
    %cst_293 = stablehlo.constant dense_resource<__elided__> : tensor<1x1x256xf32>
    %cst_294 = stablehlo.constant dense_resource<__elided__> : tensor<1024x256xf32>
    %cst_295 = stablehlo.constant dense_resource<__elided__> : tensor<1x1x1024xf32>
    %cst_296 = stablehlo.constant dense_resource<__elided__> : tensor<256x1024xf32>
    %cst_297 = stablehlo.constant dense_resource<__elided__> : tensor<1x1x256xf32>
    %cst_298 = stablehlo.constant dense_resource<__elided__> : tensor<1x1x256xf32>
    %cst_299 = stablehlo.constant dense_resource<__elided__> : tensor<1x1x256xf32>
    %cst_300 = stablehlo.constant dense_resource<__elided__> : tensor<256x256xf32>
    %cst_301 = stablehlo.constant dense_resource<__elided__> : tensor<169x8xf32>
    %cst_302 = stablehlo.constant dense_resource<__elided__> : tensor<1x1x768xf32>
    %cst_303 = stablehlo.constant dense_resource<__elided__> : tensor<256x768xf32>
    %cst_304 = stablehlo.constant dense_resource<__elided__> : tensor<1x1x256xf32>
    %cst_305 = stablehlo.constant dense_resource<__elided__> : tensor<1x1x256xf32>
    %cst_306 = stablehlo.constant dense_resource<__elided__> : tensor<1x1x256xf32>
    %cst_307 = stablehlo.constant dense_resource<__elided__> : tensor<1024x256xf32>
    %cst_308 = stablehlo.constant dense<4.471500e-02> : tensor<1x784x1024xf32>
    %cst_309 = stablehlo.constant dense<0.797884583> : tensor<1x784x1024xf32>
    %cst_310 = stablehlo.constant dense<1.000000e+00> : tensor<1x784x1024xf32>
    %cst_311 = stablehlo.constant dense<5.000000e-01> : tensor<1x784x1024xf32>
    %cst_312 = stablehlo.constant dense_resource<__elided__> : tensor<1x1x1024xf32>
    %cst_313 = stablehlo.constant dense_resource<__elided__> : tensor<256x1024xf32>
    %cst_314 = stablehlo.constant dense_resource<__elided__> : tensor<1x1x256xf32>
    %cst_315 = stablehlo.constant dense_resource<__elided__> : tensor<1x1x256xf32>
    %cst_316 = stablehlo.constant dense_resource<__elided__> : tensor<1x1x256xf32>
    %cst_317 = stablehlo.constant dense_resource<__elided__> : tensor<256x256xf32>
    %cst_318 = stablehlo.constant dense_resource<__elided__> : tensor<169x8xf32>
    %cst_319 = stablehlo.constant dense<0.176776692> : tensor<16x8x49x32xf32>
    %cst_320 = stablehlo.constant dense_resource<__elided__> : tensor<1x1x768xf32>
    %cst_321 = stablehlo.constant dense_resource<__elided__> : tensor<256x768xf32>
    %cst_322 = stablehlo.constant dense_resource<__elided__> : tensor<1x1x256xf32>
    %cst_323 = stablehlo.constant dense_resource<__elided__> : tensor<1x1x256xf32>
    %cst_324 = stablehlo.constant dense<2.560000e+02> : tensor<1x784xf32>
    %cst_325 = stablehlo.constant dense_resource<__elided__> : tensor<512x256xf32>
    %cst_326 = stablehlo.constant dense_resource<__elided__> : tensor<1x1x512xf32>
    %cst_327 = stablehlo.constant dense_resource<__elided__> : tensor<1x1x512xf32>
    %cst_328 = stablehlo.constant dense<9.99999997E-7> : tensor<1x784x1xf32>
    %cst_329 = stablehlo.constant dense<0.000000e+00> : tensor<1x784xf32>
    %cst_330 = stablehlo.constant dense<5.120000e+02> : tensor<1x784xf32>
    %c_331 = stablehlo.constant dense<1> : tensor<28xi32>
    %c_332 = stablehlo.constant dense<2> : tensor<28xi32>
    %c_333 = stablehlo.constant dense<0> : tensor<28xi32>
    %cst_334 = stablehlo.constant dense<"…"> : tensor<1x1x128xf32>
    %cst_335 = stablehlo.constant dense_resource<__elided__> : tensor<512x128xf32>
    %cst_336 = stablehlo.constant dense_resource<__elided__> : tensor<1x1x512xf32>
    %cst_337 = stablehlo.constant dense_resource<__elided__> : tensor<128x512xf32>
    %cst_338 = stablehlo.constant dense<"…"> : tensor<1x1x128xf32>
    %cst_339 = stablehlo.constant dense<"…"> : tensor<1x1x128xf32>
    %cst_340 = stablehlo.constant dense<"…"> : tensor<1x1x128xf32>
    %cst_341 = stablehlo.constant dense_resource<__elided__> : tensor<128x128xf32>
    %cst_342 = stablehlo.constant dense_resource<__elided__> : tensor<169x4xf32>
    %cst_343 = stablehlo.constant dense_resource<__elided__> : tensor<1x1x384xf32>
    %cst_344 = stablehlo.constant dense_resource<__elided__> : tensor<128x384xf32>
    %cst_345 = stablehlo.constant dense<"…"> : tensor<1x1x128xf32>
    %cst_346 = stablehlo.constant dense<"…"> : tensor<1x1x128xf32>
    %cst_347 = stablehlo.constant dense<"…"> : tensor<1x1x128xf32>
    %cst_348 = stablehlo.constant dense_resource<__elided__> : tensor<512x128xf32>
    %cst_349 = stablehlo.constant dense<4.471500e-02> : tensor<1x3136x512xf32>
    %cst_350 = stablehlo.constant dense<0.797884583> : tensor<1x3136x512xf32>
    %cst_351 = stablehlo.constant dense<1.000000e+00> : tensor<1x3136x512xf32>
    %cst_352 = stablehlo.constant dense<5.000000e-01> : tensor<1x3136x512xf32>
    %cst_353 = stablehlo.constant dense_resource<__elided__> : tensor<1x1x512xf32>
    %cst_354 = stablehlo.constant dense_resource<__elided__> : tensor<128x512xf32>
    %cst_355 = stablehlo.constant dense<"…"> : tensor<1x1x128xf32>
    %cst_356 = stablehlo.constant dense<"…"> : tensor<1x1x128xf32>
    %cst_357 = stablehlo.constant dense<"…"> : tensor<1x1x128xf32>
    %cst_358 = stablehlo.constant dense_resource<__elided__> : tensor<128x128xf32>
    %cst_359 = stablehlo.constant dense<0xFF800000> : tensor<f32>
    %c_360 = stablehlo.constant dense<169> : tensor<2401xi32>
    %c_361 = stablehlo.constant dense<0> : tensor<2401xi32>
    %c_362 = stablehlo.constant dense_resource<__elided__> : tensor<2401xi32>
    %cst_363 = stablehlo.constant dense_resource<__elided__> : tensor<169x4xf32>
    %cst_364 = stablehlo.constant dense<0.176776692> : tensor<64x4x49x32xf32>
    %cst_365 = stablehlo.constant dense_resource<__elided__> : tensor<1x1x384xf32>
    %cst_366 = stablehlo.constant dense_resource<__elided__> : tensor<128x384xf32>
    %cst_367 = stablehlo.constant dense<"…"> : tensor<1x1x128xf32>
    %cst_368 = stablehlo.constant dense<"…"> : tensor<1x1x128xf32>
    %cst_369 = stablehlo.constant dense<"…"> : tensor<1x1x128xf32>
    %cst_370 = stablehlo.constant dense<"…"> : tensor<1x1x128xf32>
    %cst_371 = stablehlo.constant dense<9.99999997E-7> : tensor<1x3136x1xf32>
    %cst_372 = stablehlo.constant dense<0.000000e+00> : tensor<1x3136xf32>
    %cst_373 = stablehlo.constant dense<1.280000e+02> : tensor<1x3136xf32>
    %cst_374 = stablehlo.constant dense<0.000000e+00> : tensor<f32>
    %cst_375 = stablehlo.constant dense<"…"> : tensor<1x1x1x128xf32>
    %cst_376 = stablehlo.constant dense_resource<__elided__> : tensor<4x4x3x128xf32>
    %0 = stablehlo.convolution(%arg0, %cst_376) dim_numbers = [b, 0, 1, f]x[0, 1, i, o]->[b, 0, 1, f], window = {stride = [4, 4], pad = [[0, 0], [0, 0]], lhs_dilate = [1, 1], rhs_dilate = [1, 1], reverse = [false, false]} {batch_group_count = 1 : i64, feature_group_count = 1 : i64, precision_config = [#stablehlo<precision DEFAULT>, #stablehlo<precision DEFAULT>]} : (tensor<1x224x224x3xf32>, tensor<4x4x3x128xf32>) -> tensor<1x56x56x128xf32>
    %1 = stablehlo.reshape %cst_375 : (tensor<1x1x1x128xf32>) -> tensor<1x128xf32>
    %2 = stablehlo.broadcast_in_dim %1, dims = [0, 3] : (tensor<1x128xf32>) -> tensor<1x56x56x128xf32>
    %3 = stablehlo.add %0, %2 : tensor<1x56x56x128xf32>
    %4 = stablehlo.reshape %3 : (tensor<1x56x56x128xf32>) -> tensor<1x3136x128xf32>
    %5 = stablehlo.reduce(%4 init: %cst_374) applies stablehlo.add across dimensions = [2] : (tensor<1x3136x128xf32>, tensor<f32>) -> tensor<1x3136xf32>
    %6 = stablehlo.divide %5, %cst_373 : tensor<1x3136xf32>
    %7 = stablehlo.broadcast_in_dim %6, dims = [0, 1] : (tensor<1x3136xf32>) -> tensor<1x3136x1xf32>
    %8 = stablehlo.reshape %7 : (tensor<1x3136x1xf32>) -> tensor<1x3136xf32>
    %9 = stablehlo.broadcast_in_dim %8, dims = [0, 1] : (tensor<1x3136xf32>) -> tensor<1x3136x128xf32>
    %10 = stablehlo.subtract %4, %9 : tensor<1x3136x128xf32>
    %11 = stablehlo.multiply %4, %4 : tensor<1x3136x128xf32>
    %12 = stablehlo.reduce(%11 init: %cst_374) applies stablehlo.add across dimensions = [2] : (tensor<1x3136x128xf32>, tensor<f32>) -> tensor<1x3136xf32>
    %13 = stablehlo.divide %12, %cst_373 : tensor<1x3136xf32>
    %14 = stablehlo.multiply %6, %6 : tensor<1x3136xf32>
    %15 = stablehlo.subtract %13, %14 : tensor<1x3136xf32>
    %16 = stablehlo.maximum %cst_372, %15 : tensor<1x3136xf32>
    %17 = stablehlo.broadcast_in_dim %16, dims = [0, 1] : (tensor<1x3136xf32>) -> tensor<1x3136x1xf32>
    %18 = stablehlo.add %17, %cst_371 : tensor<1x3136x1xf32>
    %19 = stablehlo.rsqrt %18 : tensor<1x3136x1xf32>
    %20 = stablehlo.reshape %19 : (tensor<1x3136x1xf32>) -> tensor<1x3136xf32>
    %21 = stablehlo.broadcast_in_dim %20, dims = [0, 1] : (tensor<1x3136xf32>) -> tensor<1x3136x128xf32>
    %22 = stablehlo.reshape %cst_370 : (tensor<1x1x128xf32>) -> tensor<1x128xf32>
    %23 = stablehlo.broadcast_in_dim %22, dims = [0, 2] : (tensor<1x128xf32>) -> tensor<1x3136x128xf32>
    %24 = stablehlo.multiply %21, %23 : tensor<1x3136x128xf32>
    %25 = stablehlo.multiply %10, %24 : tensor<1x3136x128xf32>
    %26 = stablehlo.reshape %cst_369 : (tensor<1x1x128xf32>) -> tensor<1x128xf32>
    %27 = stablehlo.broadcast_in_dim %26, dims = [0, 2] : (tensor<1x128xf32>) -> tensor<1x3136x128xf32>
    %28 = stablehlo.add %25, %27 : tensor<1x3136x128xf32>
    %29 = stablehlo.reduce(%28 init: %cst_374) applies stablehlo.add across dimensions = [2] : (tensor<1x3136x128xf32>, tensor<f32>) -> tensor<1x3136xf32>
    %30 = stablehlo.divide %29, %cst_373 : tensor<1x3136xf32>
    %31 = stablehlo.broadcast_in_dim %30, dims = [0, 1] : (tensor<1x3136xf32>) -> tensor<1x3136x1xf32>
    %32 = stablehlo.reshape %31 : (tensor<1x3136x1xf32>) -> tensor<1x3136xf32>
    %33 = stablehlo.broadcast_in_dim %32, dims = [0, 1] : (tensor<1x3136xf32>) -> tensor<1x3136x128xf32>
    %34 = stablehlo.subtract %28, %33 : tensor<1x3136x128xf32>
    %35 = stablehlo.multiply %28, %28 : tensor<1x3136x128xf32>
    %36 = stablehlo.reduce(%35 init: %cst_374) applies stablehlo.add across dimensions = [2] : (tensor<1x3136x128xf32>, tensor<f32>) -> tensor<1x3136xf32>
    %37 = stablehlo.divide %36, %cst_373 : tensor<1x3136xf32>
    %38 = stablehlo.multiply %30, %30 : tensor<1x3136xf32>
    %39 = stablehlo.subtract %37, %38 : tensor<1x3136xf32>
    %40 = stablehlo.maximum %cst_372, %39 : tensor<1x3136xf32>
    %41 = stablehlo.broadcast_in_dim %40, dims = [0, 1] : (tensor<1x3136xf32>) -> tensor<1x3136x1xf32>
    %42 = stablehlo.add %41, %cst_371 : tensor<1x3136x1xf32>
    %43 = stablehlo.rsqrt %42 : tensor<1x3136x1xf32>
    %44 = stablehlo.reshape %43 : (tensor<1x3136x1xf32>) -> tensor<1x3136xf32>
    %45 = stablehlo.broadcast_in_dim %44, dims = [0, 1] : (tensor<1x3136xf32>) -> tensor<1x3136x128xf32>
    %46 = stablehlo.reshape %cst_368 : (tensor<1x1x128xf32>) -> tensor<1x128xf32>
    %47 = stablehlo.broadcast_in_dim %46, dims = [0, 2] : (tensor<1x128xf32>) -> tensor<1x3136x128xf32>
    %48 = stablehlo.multiply %45, %47 : tensor<1x3136x128xf32>
    %49 = stablehlo.multiply %34, %48 : tensor<1x3136x128xf32>
    %50 = stablehlo.reshape %cst_367 : (tensor<1x1x128xf32>) -> tensor<1x128xf32>
    %51 = stablehlo.broadcast_in_dim %50, dims = [0, 2] : (tensor<1x128xf32>) -> tensor<1x3136x128xf32>
    %52 = stablehlo.add %49, %51 : tensor<1x3136x128xf32>
    %53 = stablehlo.reshape %52 : (tensor<1x3136x128xf32>) -> tensor<1x8x7x8x7x128xf32>
    %54 = stablehlo.transpose %53, dims = [0, 1, 3, 2, 4, 5] {result_layout = dense<[5, 4, 2, 3, 1, 0]> : tensor<6xindex>, xla_shape = "f32[1,8,8,7,7,128]{5,4,2,3,1,0}"} : (tensor<1x8x7x8x7x128xf32>) -> tensor<1x8x8x7x7x128xf32>
    %55 = stablehlo.reshape %54 : (tensor<1x8x8x7x7x128xf32>) -> tensor<64x49x128xf32>
    %56 = stablehlo.dot_general %55, %cst_366, contracting_dims = [2] x [0], precision = [DEFAULT, DEFAULT] : (tensor<64x49x128xf32>, tensor<128x384xf32>) -> tensor<64x49x384xf32>
    %57 = stablehlo.reshape %cst_365 : (tensor<1x1x384xf32>) -> tensor<384xf32>
    %58 = stablehlo.broadcast_in_dim %57, dims = [2] : (tensor<384xf32>) -> tensor<64x49x384xf32>
    %59 = stablehlo.add %56, %58 : tensor<64x49x384xf32>
    %60 = stablehlo.reshape %59 : (tensor<64x49x384xf32>) -> tensor<64x49x3x4x32xf32>
    %61 = stablehlo.transpose %60, dims = [2, 0, 3, 1, 4] {result_layout = dense<[4, 2, 0, 3, 1]> : tensor<5xindex>, xla_shape = "f32[3,64,4,49,32]{4,2,0,3,1}"} : (tensor<64x49x3x4x32xf32>) -> tensor<3x64x4x49x32xf32>
    %62 = stablehlo.slice %61 [0:1, 0:64, 0:4, 0:49, 0:32] : (tensor<3x64x4x49x32xf32>) -> tensor<1x64x4x49x32xf32>
    %63 = stablehlo.reshape %62 : (tensor<1x64x4x49x32xf32>) -> tensor<64x4x49x32xf32>
    %64 = stablehlo.multiply %63, %cst_364 : tensor<64x4x49x32xf32>
    %65 = stablehlo.slice %61 [1:2, 0:64, 0:4, 0:49, 0:32] : (tensor<3x64x4x49x32xf32>) -> tensor<1x64x4x49x32xf32>
    %66 = stablehlo.reshape %65 : (tensor<1x64x4x49x32xf32>) -> tensor<64x4x49x32xf32>
    %67 = stablehlo.transpose %66, dims = [0, 1, 3, 2] {result_layout = dense<[2, 3, 1, 0]> : tensor<4xindex>, xla_shape = "f32[64,4,32,49]{2,3,1,0}"} : (tensor<64x4x49x32xf32>) -> tensor<64x4x32x49xf32>
    %68 = stablehlo.dot_general %64, %67, batching_dims = [0, 1] x [0, 1], contracting_dims = [3] x [2], precision = [DEFAULT, DEFAULT] : (tensor<64x4x49x32xf32>, tensor<64x4x32x49xf32>) -> tensor<64x4x49x49xf32>
    %69 = stablehlo.compare  LT, %c_362, %c_361 : (tensor<2401xi32>, tensor<2401xi32>) -> tensor<2401xi1>
    %70 = stablehlo.add %c_362, %c_360 : tensor<2401xi32>
    %71 = stablehlo.select %69, %70, %c_362 : tensor<2401xi1>, tensor<2401xi32>
    %72 = stablehlo.broadcast_in_dim %71, dims = [0] : (tensor<2401xi32>) -> tensor<2401x1xi32>
    %73 = "stablehlo.gather"(%cst_363, %72) <{dimension_numbers = #stablehlo.gather<offset_dims = [1], collapsed_slice_dims = [0], start_index_map = [0], index_vector_dim = 1>, indices_are_sorted = false, slice_sizes = array<i64: 1, 4>}> : (tensor<169x4xf32>, tensor<2401x1xi32>) -> tensor<2401x4xf32>
    %74 = stablehlo.reshape %73 : (tensor<2401x4xf32>) -> tensor<49x49x4xf32>
    %75 = stablehlo.transpose %74, dims = [2, 0, 1] {result_layout = dense<[0, 2, 1]> : tensor<3xindex>, xla_shape = "f32[4,49,49]{0,2,1}"} : (tensor<49x49x4xf32>) -> tensor<4x49x49xf32>
    %76 = stablehlo.broadcast_in_dim %75, dims = [1, 2, 3] : (tensor<4x49x49xf32>) -> tensor<1x4x49x49xf32>
    %77 = stablehlo.reshape %76 : (tensor<1x4x49x49xf32>) -> tensor<4x49x49xf32>
    %78 = stablehlo.broadcast_in_dim %77, dims = [1, 2, 3] : (tensor<4x49x49xf32>) -> tensor<64x4x49x49xf32>
    %79 = stablehlo.add %68, %78 : tensor<64x4x49x49xf32>
    %80 = stablehlo.reduce(%79 init: %cst_359) applies stablehlo.maximum across dimensions = [3] : (tensor<64x4x49x49xf32>, tensor<f32>) -> tensor<64x4x49xf32>
    %81 = stablehlo.broadcast_in_dim %80, dims = [0, 1, 2] : (tensor<64x4x49xf32>) -> tensor<64x4x49x1xf32>
    %82 = stablehlo.reshape %81 : (tensor<64x4x49x1xf32>) -> tensor<64x4x49xf32>
    %83 = stablehlo.broadcast_in_dim %82, dims = [0, 1, 2] : (tensor<64x4x49xf32>) -> tensor<64x4x49x49xf32>
    %84 = stablehlo.subtract %79, %83 : tensor<64x4x49x49xf32>
    %85 = stablehlo.exponential %84 : tensor<64x4x49x49xf32>
    %86 = stablehlo.reduce(%85 init: %cst_374) applies stablehlo.add across dimensions = [3] : (tensor<64x4x49x49xf32>, tensor<f32>) -> tensor<64x4x49xf32>
    %87 = stablehlo.broadcast_in_dim %86, dims = [0, 1, 2] : (tensor<64x4x49xf32>) -> tensor<64x4x49x1xf32>
    %88 = stablehlo.reshape %87 : (tensor<64x4x49x1xf32>) -> tensor<64x4x49xf32>
    %89 = stablehlo.broadcast_in_dim %88, dims = [0, 1, 2] : (tensor<64x4x49xf32>) -> tensor<64x4x49x49xf32>
    %90 = stablehlo.divide %85, %89 : tensor<64x4x49x49xf32>
    %91 = stablehlo.slice %61 [2:3, 0:64, 0:4, 0:49, 0:32] : (tensor<3x64x4x49x32xf32>) -> tensor<1x64x4x49x32xf32>
    %92 = stablehlo.reshape %91 : (tensor<1x64x4x49x32xf32>) -> tensor<64x4x49x32xf32>
    %93 = stablehlo.dot_general %90, %92, batching_dims = [0, 1] x [0, 1], contracting_dims = [3] x [2], precision = [DEFAULT, DEFAULT] : (tensor<64x4x49x49xf32>, tensor<64x4x49x32xf32>) -> tensor<64x4x49x32xf32>
    %94 = stablehlo.transpose %93, dims = [0, 2, 1, 3] {result_layout = dense<[3, 1, 2, 0]> : tensor<4xindex>, xla_shape = "f32[64,49,4,32]{3,1,2,0}"} : (tensor<64x4x49x32xf32>) -> tensor<64x49x4x32xf32>
    %95 = stablehlo.reshape %94 : (tensor<64x49x4x32xf32>) -> tensor<64x49x128xf32>
    %96 = stablehlo.dot_general %95, %cst_358, contracting_dims = [2] x [0], precision = [DEFAULT, DEFAULT] : (tensor<64x49x128xf32>, tensor<128x128xf32>) -> tensor<64x49x128xf32>
    %97 = stablehlo.reshape %cst_357 : (tensor<1x1x128xf32>) -> tensor<128xf32>
    %98 = stablehlo.broadcast_in_dim %97, dims = [2] : (tensor<128xf32>) -> tensor<64x49x128xf32>
    %99 = stablehlo.add %96, %98 : tensor<64x49x128xf32>
    %100 = stablehlo.reshape %99 : (tensor<64x49x128xf32>) -> tensor<1x8x8x7x7x128xf32>
    %101 = stablehlo.transpose %100, dims = [0, 1, 3, 2, 4, 5] {result_layout = dense<[5, 4, 2, 3, 1, 0]> : tensor<6xindex>, xla_shape = "f32[1,8,7,8,7,128]{5,4,2,3,1,0}"} : (tensor<1x8x8x7x7x128xf32>) -> tensor<1x8x7x8x7x128xf32>
    %102 = stablehlo.reshape %101 : (tensor<1x8x7x8x7x128xf32>) -> tensor<1x3136x128xf32>
    %103 = stablehlo.add %28, %102 : tensor<1x3136x128xf32>
    %104 = stablehlo.reduce(%103 init: %cst_374) applies stablehlo.add across dimensions = [2] : (tensor<1x3136x128xf32>, tensor<f32>) -> tensor<1x3136xf32>
    %105 = stablehlo.divide %104, %cst_373 : tensor<1x3136xf32>
    %106 = stablehlo.broadcast_in_dim %105, dims = [0, 1] : (tensor<1x3136xf32>) -> tensor<1x3136x1xf32>
    %107 = stablehlo.reshape %106 : (tensor<1x3136x1xf32>) -> tensor<1x3136xf32>
    %108 = stablehlo.broadcast_in_dim %107, dims = [0, 1] : (tensor<1x3136xf32>) -> tensor<1x3136x128xf32>
    %109 = stablehlo.subtract %103, %108 : tensor<1x3136x128xf32>
    %110 = stablehlo.multiply %103, %103 : tensor<1x3136x128xf32>
    %111 = stablehlo.reduce(%110 init: %cst_374) applies stablehlo.add across dimensions = [2] : (tensor<1x3136x128xf32>, tensor<f32>) -> tensor<1x3136xf32>
    %112 = stablehlo.divide %111, %cst_373 : tensor<1x3136xf32>
    %113 = stablehlo.multiply %105, %105 : tensor<1x3136xf32>
    %114 = stablehlo.subtract %112, %113 : tensor<1x3136xf32>
    %115 = stablehlo.maximum %cst_372, %114 : tensor<1x3136xf32>
    %116 = stablehlo.broadcast_in_dim %115, dims = [0, 1] : (tensor<1x3136xf32>) -> tensor<1x3136x1xf32>
    %117 = stablehlo.add %116, %cst_371 : tensor<1x3136x1xf32>
    %118 = stablehlo.rsqrt %117 : tensor<1x3136x1xf32>
    %119 = stablehlo.reshape %118 : (tensor<1x3136x1xf32>) -> tensor<1x3136xf32>
    %120 = stablehlo.broadcast_in_dim %119, dims = [0, 1] : (tensor<1x3136xf32>) -> tensor<1x3136x128xf32>
    %121 = stablehlo.reshape %cst_356 : (tensor<1x1x128xf32>) -> tensor<1x128xf32>
    %122 = stablehlo.broadcast_in_dim %121, dims = [0, 2] : (tensor<1x128xf32>) -> tensor<1x3136x128xf32>
    %123 = stablehlo.multiply %120, %122 : tensor<1x3136x128xf32>
    %124 = stablehlo.multiply %109, %123 : tensor<1x3136x128xf32>
    %125 = stablehlo.reshape %cst_355 : (tensor<1x1x128xf32>) -> tensor<1x128xf32>
    %126 = stablehlo.broadcast_in_dim %125, dims = [0, 2] : (tensor<1x128xf32>) -> tensor<1x3136x128xf32>
    %127 = stablehlo.add %124, %126 : tensor<1x3136x128xf32>
    %128 = stablehlo.dot_general %127, %cst_354, contracting_dims = [2] x [0], precision = [DEFAULT, DEFAULT] : (tensor<1x3136x128xf32>, tensor<128x512xf32>) -> tensor<1x3136x512xf32>
    %129 = stablehlo.reshape %cst_353 : (tensor<1x1x512xf32>) -> tensor<1x512xf32>
    %130 = stablehlo.broadcast_in_dim %129, dims = [0, 2] : (tensor<1x512xf32>) -> tensor<1x3136x512xf32>
    %131 = stablehlo.add %128, %130 : tensor<1x3136x512xf32>
    %132 = stablehlo.multiply %131, %131 : tensor<1x3136x512xf32>
    %133 = stablehlo.multiply %132, %131 : tensor<1x3136x512xf32>
    %134 = stablehlo.multiply %cst_349, %133 : tensor<1x3136x512xf32>
    %135 = stablehlo.add %131, %134 : tensor<1x3136x512xf32>
    %136 = stablehlo.multiply %cst_350, %135 : tensor<1x3136x512xf32>
    %137 = stablehlo.tanh %136 : tensor<1x3136x512xf32>
    %138 = stablehlo.add %cst_351, %137 : tensor<1x3136x512xf32>
    %139 = stablehlo.multiply %cst_352, %138 : tensor<1x3136x512xf32>
    %140 = stablehlo.multiply %131, %139 : tensor<1x3136x512xf32>
    %141 = stablehlo.dot_general %140, %cst_348, contracting_dims = [2] x [0], precision = [DEFAULT, DEFAULT] : (tensor<1x3136x512xf32>, tensor<512x128xf32>) -> tensor<1x3136x128xf32>
    %142 = stablehlo.reshape %cst_347 : (tensor<1x1x128xf32>) -> tensor<1x128xf32>
    %143 = stablehlo.broadcast_in_dim %142, dims = [0, 2] : (tensor<1x128xf32>) -> tensor<1x3136x128xf32>
    %144 = stablehlo.add %141, %143 : tensor<1x3136x128xf32>
    %145 = stablehlo.add %103, %144 : tensor<1x3136x128xf32>
    %146 = stablehlo.reduce(%145 init: %cst_374) applies stablehlo.add across dimensions = [2] : (tensor<1x3136x128xf32>, tensor<f32>) -> tensor<1x3136xf32>
    %147 = stablehlo.divide %146, %cst_373 : tensor<1x3136xf32>
    %148 = stablehlo.broadcast_in_dim %147, dims = [0, 1] : (tensor<1x3136xf32>) -> tensor<1x3136x1xf32>
    %149 = stablehlo.reshape %148 : (tensor<1x3136x1xf32>) -> tensor<1x3136xf32>
    %150 = stablehlo.broadcast_in_dim %149, dims = [0, 1] : (tensor<1x3136xf32>) -> tensor<1x3136x128xf32>
    %151 = stablehlo.subtract %145, %150 : tensor<1x3136x128xf32>
    %152 = stablehlo.multiply %145, %145 : tensor<1x3136x128xf32>
    %153 = stablehlo.reduce(%152 init: %cst_374) applies stablehlo.add across dimensions = [2] : (tensor<1x3136x128xf32>, tensor<f32>) -> tensor<1x3136xf32>
    %154 = stablehlo.divide %153, %cst_373 : tensor<1x3136xf32>
    %155 = stablehlo.multiply %147, %147 : tensor<1x3136xf32>
    %156 = stablehlo.subtract %154, %155 : tensor<1x3136xf32>
    %157 = stablehlo.maximum %cst_372, %156 : tensor<1x3136xf32>
    %158 = stablehlo.broadcast_in_dim %157, dims = [0, 1] : (tensor<1x3136xf32>) -> tensor<1x3136x1xf32>
    %159 = stablehlo.add %158, %cst_371 : tensor<1x3136x1xf32>
    %160 = stablehlo.rsqrt %159 : tensor<1x3136x1xf32>
    %161 = stablehlo.reshape %160 : (tensor<1x3136x1xf32>) -> tensor<1x3136xf32>
    %162 = stablehlo.broadcast_in_dim %161, dims = [0, 1] : (tensor<1x3136xf32>) -> tensor<1x3136x128xf32>
    %163 = stablehlo.reshape %cst_346 : (tensor<1x1x128xf32>) -> tensor<1x128xf32>
    %164 = stablehlo.broadcast_in_dim %163, dims = [0, 2] : (tensor<1x128xf32>) -> tensor<1x3136x128xf32>
    %165 = stablehlo.multiply %162, %164 : tensor<1x3136x128xf32>
    %166 = stablehlo.multiply %151, %165 : tensor<1x3136x128xf32>
    %167 = stablehlo.reshape %cst_345 : (tensor<1x1x128xf32>) -> tensor<1x128xf32>
    %168 = stablehlo.broadcast_in_dim %167, dims = [0, 2] : (tensor<1x128xf32>) -> tensor<1x3136x128xf32>
    %169 = stablehlo.add %166, %168 : tensor<1x3136x128xf32>
    %170 = stablehlo.reshape %169 : (tensor<1x3136x128xf32>) -> tensor<1x56x56x128xf32>
    %171 = stablehlo.slice %170 [0:1, 3:56, 0:56, 0:128] : (tensor<1x56x56x128xf32>) -> tensor<1x53x56x128xf32>
    %172 = stablehlo.slice %170 [0:1, 0:3, 0:56, 0:128] : (tensor<1x56x56x128xf32>) -> tensor<1x3x56x128xf32>
    %173 = stablehlo.concatenate %171, %172, dim = 1 : (tensor<1x53x56x128xf32>, tensor<1x3x56x128xf32>) -> tensor<1x56x56x128xf32>
    %174 = stablehlo.slice %173 [0:1, 0:56, 3:56, 0:128] : (tensor<1x56x56x128xf32>) -> tensor<1x56x53x128xf32>
    %175 = stablehlo.slice %173 [0:1, 0:56, 0:3, 0:128] : (tensor<1x56x56x128xf32>) -> tensor<1x56x3x128xf32>
    %176 = stablehlo.concatenate %174, %175, dim = 2 : (tensor<1x56x53x128xf32>, tensor<1x56x3x128xf32>) -> tensor<1x56x56x128xf32>
    %177 = stablehlo.reshape %176 : (tensor<1x56x56x128xf32>) -> tensor<1x8x7x8x7x128xf32>
    %178 = stablehlo.transpose %177, dims = [0, 1, 3, 2, 4, 5] {result_layout = dense<[5, 4, 2, 3, 1, 0]> : tensor<6xindex>, xla_shape = "f32[1,8,8,7,7,128]{5,4,2,3,1,0}"} : (tensor<1x8x7x8x7x128xf32>) -> tensor<1x8x8x7x7x128xf32>
    %179 = stablehlo.reshape %178 : (tensor<1x8x8x7x7x128xf32>) -> tensor<64x49x128xf32>
    %180 = stablehlo.dot_general %179, %cst_344, contracting_dims = [2] x [0], precision = [DEFAULT, DEFAULT] : (tensor<64x49x128xf32>, tensor<128x384xf32>) -> tensor<64x49x384xf32>
    %181 = stablehlo.reshape %cst_343 : (tensor<1x1x384xf32>) -> tensor<384xf32>
    %182 = stablehlo.broadcast_in_dim %181, dims = [2] : (tensor<384xf32>) -> tensor<64x49x384xf32>
    %183 = stablehlo.add %180, %182 : tensor<64x49x384xf32>
    %184 = stablehlo.reshape %183 : (tensor<64x49x384xf32>) -> tensor<64x49x3x4x32xf32>
    %185 = stablehlo.transpose %184, dims = [2, 0, 3, 1, 4] {result_layout = dense<[4, 2, 0, 3, 1]> : tensor<5xindex>, xla_shape = "f32[3,64,4,49,32]{4,2,0,3,1}"} : (tensor<64x49x3x4x32xf32>) -> tensor<3x64x4x49x32xf32>
    %186 = stablehlo.slice %185 [0:1, 0:64, 0:4, 0:49, 0:32] : (tensor<3x64x4x49x32xf32>) -> tensor<1x64x4x49x32xf32>
    %187 = stablehlo.reshape %186 : (tensor<1x64x4x49x32xf32>) -> tensor<64x4x49x32xf32>
    %188 = stablehlo.multiply %187, %cst_364 : tensor<64x4x49x32xf32>
    %189 = stablehlo.slice %185 [1:2, 0:64, 0:4, 0:49, 0:32] : (tensor<3x64x4x49x32xf32>) -> tensor<1x64x4x49x32xf32>
    %190 = stablehlo.reshape %189 : (tensor<1x64x4x49x32xf32>) -> tensor<64x4x49x32xf32>
    %191 = stablehlo.transpose %190, dims = [0, 1, 3, 2] {result_layout = dense<[2, 3, 1, 0]> : tensor<4xindex>, xla_shape = "f32[64,4,32,49]{2,3,1,0}"} : (tensor<64x4x49x32xf32>) -> tensor<64x4x32x49xf32>
    %192 = stablehlo.dot_general %188, %191, batching_dims = [0, 1] x [0, 1], contracting_dims = [3] x [2], precision = [DEFAULT, DEFAULT] : (tensor<64x4x49x32xf32>, tensor<64x4x32x49xf32>) -> tensor<64x4x49x49xf32>
    %193 = stablehlo.compare  LT, %c_362, %c_361 : (tensor<2401xi32>, tensor<2401xi32>) -> tensor<2401xi1>
    %194 = stablehlo.add %c_362, %c_360 : tensor<2401xi32>
    %195 = stablehlo.select %193, %194, %c_362 : tensor<2401xi1>, tensor<2401xi32>
    %196 = stablehlo.broadcast_in_dim %195, dims = [0] : (tensor<2401xi32>) -> tensor<2401x1xi32>
    %197 = "stablehlo.gather"(%cst_342, %196) <{dimension_numbers = #stablehlo.gather<offset_dims = [1], collapsed_slice_dims = [0], start_index_map = [0], index_vector_dim = 1>, indices_are_sorted = false, slice_sizes = array<i64: 1, 4>}> : (tensor<169x4xf32>, tensor<2401x1xi32>) -> tensor<2401x4xf32>
    %198 = stablehlo.reshape %197 : (tensor<2401x4xf32>) -> tensor<49x49x4xf32>
    %199 = stablehlo.transpose %198, dims = [2, 0, 1] {result_layout = dense<[0, 2, 1]> : tensor<3xindex>, xla_shape = "f32[4,49,49]{0,2,1}"} : (tensor<49x49x4xf32>) -> tensor<4x49x49xf32>
    %200 = stablehlo.broadcast_in_dim %199, dims = [1, 2, 3] : (tensor<4x49x49xf32>) -> tensor<1x4x49x49xf32>
    %201 = stablehlo.reshape %200 : (tensor<1x4x49x49xf32>) -> tensor<4x49x49xf32>
    %202 = stablehlo.broadcast_in_dim %201, dims = [1, 2, 3] : (tensor<4x49x49xf32>) -> tensor<64x4x49x49xf32>
    %203 = stablehlo.add %192, %202 : tensor<64x4x49x49xf32>
    %204 = stablehlo.reduce(%203 init: %cst_359) applies stablehlo.maximum across dimensions = [3] : (tensor<64x4x49x49xf32>, tensor<f32>) -> tensor<64x4x49xf32>
    %205 = stablehlo.broadcast_in_dim %204, dims = [0, 1, 2] : (tensor<64x4x49xf32>) -> tensor<64x4x49x1xf32>
    %206 = stablehlo.reshape %205 : (tensor<64x4x49x1xf32>) -> tensor<64x4x49xf32>
    %207 = stablehlo.broadcast_in_dim %206, dims = [0, 1, 2] : (tensor<64x4x49xf32>) -> tensor<64x4x49x49xf32>
    %208 = stablehlo.subtract %203, %207 : tensor<64x4x49x49xf32>
    %209 = stablehlo.exponential %208 : tensor<64x4x49x49xf32>
    %210 = stablehlo.reduce(%209 init: %cst_374) applies stablehlo.add across dimensions = [3] : (tensor<64x4x49x49xf32>, tensor<f32>) -> tensor<64x4x49xf32>
    %211 = stablehlo.broadcast_in_dim %210, dims = [0, 1, 2] : (tensor<64x4x49xf32>) -> tensor<64x4x49x1xf32>
    %212 = stablehlo.reshape %211 : (tensor<64x4x49x1xf32>) -> tensor<64x4x49xf32>
    %213 = stablehlo.broadcast_in_dim %212, dims = [0, 1, 2] : (tensor<64x4x49xf32>) -> tensor<64x4x49x49xf32>
    %214 = stablehlo.divide %209, %213 : tensor<64x4x49x49xf32>
    %215 = stablehlo.slice %185 [2:3, 0:64, 0:4, 0:49, 0:32] : (tensor<3x64x4x49x32xf32>) -> tensor<1x64x4x49x32xf32>
    %216 = stablehlo.reshape %215 : (tensor<1x64x4x49x32xf32>) -> tensor<64x4x49x32xf32>
    %217 = stablehlo.dot_general %214, %216, batching_dims = [0, 1] x [0, 1], contracting_dims = [3] x [2], precision = [DEFAULT, DEFAULT] : (tensor<64x4x49x49xf32>, tensor<64x4x49x32xf32>) -> tensor<64x4x49x32xf32>
    %218 = stablehlo.transpose %217, dims = [0, 2, 1, 3] {result_layout = dense<[3, 1, 2, 0]> : tensor<4xindex>, xla_shape = "f32[64,49,4,32]{3,1,2,0}"} : (tensor<64x4x49x32xf32>) -> tensor<64x49x4x32xf32>
    %219 = stablehlo.reshape %218 : (tensor<64x49x4x32xf32>) -> tensor<64x49x128xf32>
    %220 = stablehlo.dot_general %219, %cst_341, contracting_dims = [2] x [0], precision = [DEFAULT, DEFAULT] : (tensor<64x49x128xf32>, tensor<128x128xf32>) -> tensor<64x49x128xf32>
    %221 = stablehlo.reshape %cst_340 : (tensor<1x1x128xf32>) -> tensor<128xf32>
    %222 = stablehlo.broadcast_in_dim %221, dims = [2] : (tensor<128xf32>) -> tensor<64x49x128xf32>
    %223 = stablehlo.add %220, %222 : tensor<64x49x128xf32>
    %224 = stablehlo.reshape %223 : (tensor<64x49x128xf32>) -> tensor<1x8x8x7x7x128xf32>
    %225 = stablehlo.transpose %224, dims = [0, 1, 3, 2, 4, 5] {result_layout = dense<[5, 4, 2, 3, 1, 0]> : tensor<6xindex>, xla_shape = "f32[1,8,7,8,7,128]{5,4,2,3,1,0}"} : (tensor<1x8x8x7x7x128xf32>) -> tensor<1x8x7x8x7x128xf32>
    %226 = stablehlo.reshape %225 : (tensor<1x8x7x8x7x128xf32>) -> tensor<1x56x56x128xf32>
    %227 = stablehlo.slice %226 [0:1, 53:56, 0:56, 0:128] : (tensor<1x56x56x128xf32>) -> tensor<1x3x56x128xf32>
    %228 = stablehlo.slice %226 [0:1, 0:53, 0:56, 0:128] : (tensor<1x56x56x128xf32>) -> tensor<1x53x56x128xf32>
    %229 = stablehlo.concatenate %227, %228, dim = 1 : (tensor<1x3x56x128xf32>, tensor<1x53x56x128xf32>) -> tensor<1x56x56x128xf32>
    %230 = stablehlo.slice %229 [0:1, 0:56, 53:56, 0:128] : (tensor<1x56x56x128xf32>) -> tensor<1x56x3x128xf32>
    %231 = stablehlo.slice %229 [0:1, 0:56, 0:53, 0:128] : (tensor<1x56x56x128xf32>) -> tensor<1x56x53x128xf32>
    %232 = stablehlo.concatenate %230, %231, dim = 2 : (tensor<1x56x3x128xf32>, tensor<1x56x53x128xf32>) -> tensor<1x56x56x128xf32>
    %233 = stablehlo.reshape %232 : (tensor<1x56x56x128xf32>) -> tensor<1x3136x128xf32>
    %234 = stablehlo.add %145, %233 : tensor<1x3136x128xf32>
    %235 = stablehlo.reduce(%234 init: %cst_374) applies stablehlo.add across dimensions = [2] : (tensor<1x3136x128xf32>, tensor<f32>) -> tensor<1x3136xf32>
    %236 = stablehlo.divide %235, %cst_373 : tensor<1x3136xf32>
    %237 = stablehlo.broadcast_in_dim %236, dims = [0, 1] : (tensor<1x3136xf32>) -> tensor<1x3136x1xf32>
    %238 = stablehlo.reshape %237 : (tensor<1x3136x1xf32>) -> tensor<1x3136xf32>
    %239 = stablehlo.broadcast_in_dim %238, dims = [0, 1] : (tensor<1x3136xf32>) -> tensor<1x3136x128xf32>
    %240 = stablehlo.subtract %234, %239 : tensor<1x3136x128xf32>
    %241 = stablehlo.multiply %234, %234 : tensor<1x3136x128xf32>
    %242 = stablehlo.reduce(%241 init: %cst_374) applies stablehlo.add across dimensions = [2] : (tensor<1x3136x128xf32>, tensor<f32>) -> tensor<1x3136xf32>
    %243 = stablehlo.divide %242, %cst_373 : tensor<1x3136xf32>
    %244 = stablehlo.multiply %236, %236 : tensor<1x3136xf32>
    %245 = stablehlo.subtract %243, %244 : tensor<1x3136xf32>
    %246 = stablehlo.maximum %cst_372, %245 : tensor<1x3136xf32>
    %247 = stablehlo.broadcast_in_dim %246, dims = [0, 1] : (tensor<1x3136xf32>) -> tensor<1x3136x1xf32>
    %248 = stablehlo.add %247, %cst_371 : tensor<1x3136x1xf32>
    %249 = stablehlo.rsqrt %248 : tensor<1x3136x1xf32>
    %250 = stablehlo.reshape %249 : (tensor<1x3136x1xf32>) -> tensor<1x3136xf32>
    %251 = stablehlo.broadcast_in_dim %250, dims = [0, 1] : (tensor<1x3136xf32>) -> tensor<1x3136x128xf32>
    %252 = stablehlo.reshape %cst_339 : (tensor<1x1x128xf32>) -> tensor<1x128xf32>
    %253 = stablehlo.broadcast_in_dim %252, dims = [0, 2] : (tensor<1x128xf32>) -> tensor<1x3136x128xf32>
    %254 = stablehlo.multiply %251, %253 : tensor<1x3136x128xf32>
    %255 = stablehlo.multiply %240, %254 : tensor<1x3136x128xf32>
    %256 = stablehlo.reshape %cst_338 : (tensor<1x1x128xf32>) -> tensor<1x128xf32>
    %257 = stablehlo.broadcast_in_dim %256, dims = [0, 2] : (tensor<1x128xf32>) -> tensor<1x3136x128xf32>
    %258 = stablehlo.add %255, %257 : tensor<1x3136x128xf32>
    %259 = stablehlo.dot_general %258, %cst_337, contracting_dims = [2] x [0], precision = [DEFAULT, DEFAULT] : (tensor<1x3136x128xf32>, tensor<128x512xf32>) -> tensor<1x3136x512xf32>
    %260 = stablehlo.reshape %cst_336 : (tensor<1x1x512xf32>) -> tensor<1x512xf32>
    %261 = stablehlo.broadcast_in_dim %260, dims = [0, 2] : (tensor<1x512xf32>) -> tensor<1x3136x512xf32>
    %262 = stablehlo.add %259, %261 : tensor<1x3136x512xf32>
    %263 = stablehlo.multiply %262, %262 : tensor<1x3136x512xf32>
    %264 = stablehlo.multiply %263, %262 : tensor<1x3136x512xf32>
    %265 = stablehlo.multiply %cst_349, %264 : tensor<1x3136x512xf32>
    %266 = stablehlo.add %262, %265 : tensor<1x3136x512xf32>
    %267 = stablehlo.multiply %cst_350, %266 : tensor<1x3136x512xf32>
    %268 = stablehlo.tanh %267 : tensor<1x3136x512xf32>
    %269 = stablehlo.add %cst_351, %268 : tensor<1x3136x512xf32>
    %270 = stablehlo.multiply %cst_352, %269 : tensor<1x3136x512xf32>
    %271 = stablehlo.multiply %262, %270 : tensor<1x3136x512xf32>
    %272 = stablehlo.dot_general %271, %cst_335, contracting_dims = [2] x [0], precision = [DEFAULT, DEFAULT] : (tensor<1x3136x512xf32>, tensor<512x128xf32>) -> tensor<1x3136x128xf32>
    %273 = stablehlo.reshape %cst_334 : (tensor<1x1x128xf32>) -> tensor<1x128xf32>
    %274 = stablehlo.broadcast_in_dim %273, dims = [0, 2] : (tensor<1x128xf32>) -> tensor<1x3136x128xf32>
    %275 = stablehlo.add %272, %274 : tensor<1x3136x128xf32>
    %276 = stablehlo.add %234, %275 : tensor<1x3136x128xf32>
    %277 = stablehlo.reshape %276 : (tensor<1x3136x128xf32>) -> tensor<1x56x56x128xf32>
    %278 = stablehlo.iota dim = 0 : tensor<28xi32>
    %279 = stablehlo.multiply %c_332, %278 : tensor<28xi32>
    %280 = stablehlo.add %c_333, %279 : tensor<28xi32>
    %281 = stablehlo.broadcast_in_dim %280, dims = [0] : (tensor<28xi32>) -> tensor<28x28x1xi32>
    %282 = stablehlo.iota dim = 0 : tensor<28xi32>
    %283 = stablehlo.multiply %c_332, %282 : tensor<28xi32>
    %284 = stablehlo.add %c_333, %283 : tensor<28xi32>
    %285 = stablehlo.broadcast_in_dim %284, dims = [1] : (tensor<28xi32>) -> tensor<28x28x1xi32>
    %286 = stablehlo.concatenate %281, %285, dim = 2 : (tensor<28x28x1xi32>, tensor<28x28x1xi32>) -> tensor<28x28x2xi32>
    %287 = "stablehlo.gather"(%277, %286) <{dimension_numbers = #stablehlo.gather<offset_dims = [0, 3], collapsed_slice_dims = [1, 2], start_index_map = [1, 2], index_vector_dim = 2>, indices_are_sorted = true, slice_sizes = array<i64: 1, 1, 1, 128>}> : (tensor<1x56x56x128xf32>, tensor<28x28x2xi32>) -> tensor<1x28x28x128xf32>
    %288 = stablehlo.iota dim = 0 : tensor<28xi32>
    %289 = stablehlo.multiply %c_332, %288 : tensor<28xi32>
    %290 = stablehlo.add %c_331, %289 : tensor<28xi32>
    %291 = stablehlo.broadcast_in_dim %290, dims = [0] : (tensor<28xi32>) -> tensor<28x28x1xi32>
    %292 = stablehlo.iota dim = 0 : tensor<28xi32>
    %293 = stablehlo.multiply %c_332, %292 : tensor<28xi32>
    %294 = stablehlo.add %c_333, %293 : tensor<28xi32>
    %295 = stablehlo.broadcast_in_dim %294, dims = [1] : (tensor<28xi32>) -> tensor<28x28x1xi32>
    %296 = stablehlo.concatenate %291, %295, dim = 2 : (tensor<28x28x1xi32>, tensor<28x28x1xi32>) -> tensor<28x28x2xi32>
    %297 = "stablehlo.gather"(%277, %296) <{dimension_numbers = #stablehlo.gather<offset_dims = [0, 3], collapsed_slice_dims = [1, 2], start_index_map = [1, 2], index_vector_dim = 2>, indices_are_sorted = true, slice_sizes = array<i64: 1, 1, 1, 128>}> : (tensor<1x56x56x128xf32>, tensor<28x28x2xi32>) -> tensor<1x28x28x128xf32>
    %298 = stablehlo.iota dim = 0 : tensor<28xi32>
    %299 = stablehlo.multiply %c_332, %298 : tensor<28xi32>
    %300 = stablehlo.add %c_333, %299 : tensor<28xi32>
    %301 = stablehlo.broadcast_in_dim %300, dims = [0] : (tensor<28xi32>) -> tensor<28x28x1xi32>
    %302 = stablehlo.iota dim = 0 : tensor<28xi32>
    %303 = stablehlo.multiply %c_332, %302 : tensor<28xi32>
    %304 = stablehlo.add %c_331, %303 : tensor<28xi32>
    %305 = stablehlo.broadcast_in_dim %304, dims = [1] : (tensor<28xi32>) -> tensor<28x28x1xi32>
    %306 = stablehlo.concatenate %301, %305, dim = 2 : (tensor<28x28x1xi32>, tensor<28x28x1xi32>) -> tensor<28x28x2xi32>
    %307 = "stablehlo.gather"(%277, %306) <{dimension_numbers = #stablehlo.gather<offset_dims = [0, 3], collapsed_slice_dims = [1, 2], start_index_map = [1, 2], index_vector_dim = 2>, indices_are_sorted = true, slice_sizes = array<i64: 1, 1, 1, 128>}> : (tensor<1x56x56x128xf32>, tensor<28x28x2xi32>) -> tensor<1x28x28x128xf32>
    %308 = stablehlo.iota dim = 0 : tensor<28xi32>
    %309 = stablehlo.multiply %c_332, %308 : tensor<28xi32>
    %310 = stablehlo.add %c_331, %309 : tensor<28xi32>
    %311 = stablehlo.broadcast_in_dim %310, dims = [0] : (tensor<28xi32>) -> tensor<28x28x1xi32>
    %312 = stablehlo.iota dim = 0 : tensor<28xi32>
    %313 = stablehlo.multiply %c_332, %312 : tensor<28xi32>
    %314 = stablehlo.add %c_331, %313 : tensor<28xi32>
    %315 = stablehlo.broadcast_in_dim %314, dims = [1] : (tensor<28xi32>) -> tensor<28x28x1xi32>
    %316 = stablehlo.concatenate %311, %315, dim = 2 : (tensor<28x28x1xi32>, tensor<28x28x1xi32>) -> tensor<28x28x2xi32>
    %317 = "stablehlo.gather"(%277, %316) <{dimension_numbers = #stablehlo.gather<offset_dims = [0, 3], collapsed_slice_dims = [1, 2], start_index_map = [1, 2], index_vector_dim = 2>, indices_are_sorted = true, slice_sizes = array<i64: 1, 1, 1, 128>}> : (tensor<1x56x56x128xf32>, tensor<28x28x2xi32>) -> tensor<1x28x28x128xf32>
    %318 = stablehlo.concatenate %287, %297, %307, %317, dim = 3 : (tensor<1x28x28x128xf32>, tensor<1x28x28x128xf32>, tensor<1x28x28x128xf32>, tensor<1x28x28x128xf32>) -> tensor<1x28x28x512xf32>
    %319 = stablehlo.reshape %318 : (tensor<1x28x28x512xf32>) -> tensor<1x784x512xf32>
    %320 = stablehlo.reduce(%319 init: %cst_374) applies stablehlo.add across dimensions = [2] : (tensor<1x784x512xf32>, tensor<f32>) -> tensor<1x784xf32>
    %321 = stablehlo.divide %320, %cst_330 : tensor<1x784xf32>
    %322 = stablehlo.broadcast_in_dim %321, dims = [0, 1] : (tensor<1x784xf32>) -> tensor<1x784x1xf32>
    %323 = stablehlo.reshape %322 : (tensor<1x784x1xf32>) -> tensor<1x784xf32>
    %324 = stablehlo.broadcast_in_dim %323, dims = [0, 1] : (tensor<1x784xf32>) -> tensor<1x784x512xf32>
    %325 = stablehlo.subtract %319, %324 : tensor<1x784x512xf32>
    %326 = stablehlo.multiply %319, %319 : tensor<1x784x512xf32>
    %327 = stablehlo.reduce(%326 init: %cst_374) applies stablehlo.add across dimensions = [2] : (tensor<1x784x512xf32>, tensor<f32>) -> tensor<1x784xf32>
    %328 = stablehlo.divide %327, %cst_330 : tensor<1x784xf32>
    %329 = stablehlo.multiply %321, %321 : tensor<1x784xf32>
    %330 = stablehlo.subtract %328, %329 : tensor<1x784xf32>
    %331 = stablehlo.maximum %cst_329, %330 : tensor<1x784xf32>
    %332 = stablehlo.broadcast_in_dim %331, dims = [0, 1] : (tensor<1x784xf32>) -> tensor<1x784x1xf32>
    %333 = stablehlo.add %332, %cst_328 : tensor<1x784x1xf32>
    %334 = stablehlo.rsqrt %333 : tensor<1x784x1xf32>
    %335 = stablehlo.reshape %334 : (tensor<1x784x1xf32>) -> tensor<1x784xf32>
    %336 = stablehlo.broadcast_in_dim %335, dims = [0, 1] : (tensor<1x784xf32>) -> tensor<1x784x512xf32>
    %337 = stablehlo.reshape %cst_327 : (tensor<1x1x512xf32>) -> tensor<1x512xf32>
    %338 = stablehlo.broadcast_in_dim %337, dims = [0, 2] : (tensor<1x512xf32>) -> tensor<1x784x512xf32>
    %339 = stablehlo.multiply %336, %338 : tensor<1x784x512xf32>
    %340 = stablehlo.multiply %325, %339 : tensor<1x784x512xf32>
    %341 = stablehlo.reshape %cst_326 : (tensor<1x1x512xf32>) -> tensor<1x512xf32>
    %342 = stablehlo.broadcast_in_dim %341, dims = [0, 2] : (tensor<1x512xf32>) -> tensor<1x784x512xf32>
    %343 = stablehlo.add %340, %342 : tensor<1x784x512xf32>
    %344 = stablehlo.dot_general %343, %cst_325, contracting_dims = [2] x [0], precision = [DEFAULT, DEFAULT] : (tensor<1x784x512xf32>, tensor<512x256xf32>) -> tensor<1x784x256xf32>
    %345 = stablehlo.reduce(%344 init: %cst_374) applies stablehlo.add across dimensions = [2] : (tensor<1x784x256xf32>, tensor<f32>) -> tensor<1x784xf32>
    %346 = stablehlo.divide %345, %cst_324 : tensor<1x784xf32>
    %347 = stablehlo.broadcast_in_dim %346, dims = [0, 1] : (tensor<1x784xf32>) -> tensor<1x784x1xf32>
    %348 = stablehlo.reshape %347 : (tensor<1x784x1xf32>) -> tensor<1x784xf32>
    %349 = stablehlo.broadcast_in_dim %348, dims = [0, 1] : (tensor<1x784xf32>) -> tensor<1x784x256xf32>
    %350 = stablehlo.subtract %344, %349 : tensor<1x784x256xf32>
    %351 = stablehlo.multiply %344, %344 : tensor<1x784x256xf32>
    %352 = stablehlo.reduce(%351 init: %cst_374) applies stablehlo.add across dimensions = [2] : (tensor<1x784x256xf32>, tensor<f32>) -> tensor<1x784xf32>
    %353 = stablehlo.divide %352, %cst_324 : tensor<1x784xf32>
    %354 = stablehlo.multiply %346, %346 : tensor<1x784xf32>
    %355 = stablehlo.subtract %353, %354 : tensor<1x784xf32>
    %356 = stablehlo.maximum %cst_329, %355 : tensor<1x784xf32>
    %357 = stablehlo.broadcast_in_dim %356, dims = [0, 1] : (tensor<1x784xf32>) -> tensor<1x784x1xf32>
    %358 = stablehlo.add %357, %cst_328 : tensor<1x784x1xf32>
    %359 = stablehlo.rsqrt %358 : tensor<1x784x1xf32>
    %360 = stablehlo.reshape %359 : (tensor<1x784x1xf32>) -> tensor<1x784xf32>
    %361 = stablehlo.broadcast_in_dim %360, dims = [0, 1] : (tensor<1x784xf32>) -> tensor<1x784x256xf32>
    %362 = stablehlo.reshape %cst_323 : (tensor<1x1x256xf32>) -> tensor<1x256xf32>
    %363 = stablehlo.broadcast_in_dim %362, dims = [0, 2] : (tensor<1x256xf32>) -> tensor<1x784x256xf32>
    %364 = stablehlo.multiply %361, %363 : tensor<1x784x256xf32>
    %365 = stablehlo.multiply %350, %364 : tensor<1x784x256xf32>
    %366 = stablehlo.reshape %cst_322 : (tensor<1x1x256xf32>) -> tensor<1x256xf32>
    %367 = stablehlo.broadcast_in_dim %366, dims = [0, 2] : (tensor<1x256xf32>) -> tensor<1x784x256xf32>
    %368 = stablehlo.add %365, %367 : tensor<1x784x256xf32>
    %369 = stablehlo.reshape %368 : (tensor<1x784x256xf32>) -> tensor<1x4x7x4x7x256xf32>
    %370 = stablehlo.transpose %369, dims = [0, 1, 3, 2, 4, 5] {result_layout = dense<[5, 4, 2, 3, 1, 0]> : tensor<6xindex>, xla_shape = "f32[1,4,4,7,7,256]{5,4,2,3,1,0}"} : (tensor<1x4x7x4x7x256xf32>) -> tensor<1x4x4x7x7x256xf32>
    %371 = stablehlo.reshape %370 : (tensor<1x4x4x7x7x256xf32>) -> tensor<16x49x256xf32>
    %372 = stablehlo.dot_general %371, %cst_321, contracting_dims = [2] x [0], precision = [DEFAULT, DEFAULT] : (tensor<16x49x256xf32>, tensor<256x768xf32>) -> tensor<16x49x768xf32>
    %373 = stablehlo.reshape %cst_320 : (tensor<1x1x768xf32>) -> tensor<768xf32>
    %374 = stablehlo.broadcast_in_dim %373, dims = [2] : (tensor<768xf32>) -> tensor<16x49x768xf32>
    %375 = stablehlo.add %372, %374 : tensor<16x49x768xf32>
    %376 = stablehlo.reshape %375 : (tensor<16x49x768xf32>) -> tensor<16x49x3x8x32xf32>
    %377 = stablehlo.transpose %376, dims = [2, 0, 3, 1, 4] {result_layout = dense<[4, 2, 0, 3, 1]> : tensor<5xindex>, xla_shape = "f32[3,16,8,49,32]{4,2,0,3,1}"} : (tensor<16x49x3x8x32xf32>) -> tensor<3x16x8x49x32xf32>
    %378 = stablehlo.slice %377 [0:1, 0:16, 0:8, 0:49, 0:32] : (tensor<3x16x8x49x32xf32>) -> tensor<1x16x8x49x32xf32>
    %379 = stablehlo.reshape %378 : (tensor<1x16x8x49x32xf32>) -> tensor<16x8x49x32xf32>
    %380 = stablehlo.multiply %379, %cst_319 : tensor<16x8x49x32xf32>
    %381 = stablehlo.slice %377 [1:2, 0:16, 0:8, 0:49, 0:32] : (tensor<3x16x8x49x32xf32>) -> tensor<1x16x8x49x32xf32>
    %382 = stablehlo.reshape %381 : (tensor<1x16x8x49x32xf32>) -> tensor<16x8x49x32xf32>
    %383 = stablehlo.transpose %382, dims = [0, 1, 3, 2] {result_layout = dense<[2, 3, 1, 0]> : tensor<4xindex>, xla_shape = "f32[16,8,32,49]{2,3,1,0}"} : (tensor<16x8x49x32xf32>) -> tensor<16x8x32x49xf32>
    %384 = stablehlo.dot_general %380, %383, batching_dims = [0, 1] x [0, 1], contracting_dims = [3] x [2], precision = [DEFAULT, DEFAULT] : (tensor<16x8x49x32xf32>, tensor<16x8x32x49xf32>) -> tensor<16x8x49x49xf32>
    %385 = stablehlo.compare  LT, %c_362, %c_361 : (tensor<2401xi32>, tensor<2401xi32>) -> tensor<2401xi1>
    %386 = stablehlo.add %c_362, %c_360 : tensor<2401xi32>
    %387 = stablehlo.select %385, %386, %c_362 : tensor<2401xi1>, tensor<2401xi32>
    %388 = stablehlo.broadcast_in_dim %387, dims = [0] : (tensor<2401xi32>) -> tensor<2401x1xi32>
    %389 = "stablehlo.gather"(%cst_318, %388) <{dimension_numbers = #stablehlo.gather<offset_dims = [1], collapsed_slice_dims = [0], start_index_map = [0], index_vector_dim = 1>, indices_are_sorted = false, slice_sizes = array<i64: 1, 8>}> : (tensor<169x8xf32>, tensor<2401x1xi32>) -> tensor<2401x8xf32>
    %390 = stablehlo.reshape %389 : (tensor<2401x8xf32>) -> tensor<49x49x8xf32>
    %391 = stablehlo.transpose %390, dims = [2, 0, 1] {result_layout = dense<[0, 2, 1]> : tensor<3xindex>, xla_shape = "f32[8,49,49]{0,2,1}"} : (tensor<49x49x8xf32>) -> tensor<8x49x49xf32>
    %392 = stablehlo.broadcast_in_dim %391, dims = [1, 2, 3] : (tensor<8x49x49xf32>) -> tensor<1x8x49x49xf32>
    %393 = stablehlo.reshape %392 : (tensor<1x8x49x49xf32>) -> tensor<8x49x49xf32>
    %394 = stablehlo.broadcast_in_dim %393, dims = [1, 2, 3] : (tensor<8x49x49xf32>) -> tensor<16x8x49x49xf32>
    %395 = stablehlo.add %384, %394 : tensor<16x8x49x49xf32>
    %396 = stablehlo.reduce(%395 init: %cst_359) applies stablehlo.maximum across dimensions = [3] : (tensor<16x8x49x49xf32>, tensor<f32>) -> tensor<16x8x49xf32>
    %397 = stablehlo.broadcast_in_dim %396, dims = [0, 1, 2] : (tensor<16x8x49xf32>) -> tensor<16x8x49x1xf32>
    %398 = stablehlo.reshape %397 : (tensor<16x8x49x1xf32>) -> tensor<16x8x49xf32>
    %399 = stablehlo.broadcast_in_dim %398, dims = [0, 1, 2] : (tensor<16x8x49xf32>) -> tensor<16x8x49x49xf32>
    %400 = stablehlo.subtract %395, %399 : tensor<16x8x49x49xf32>
    %401 = stablehlo.exponential %400 : tensor<16x8x49x49xf32>
    %402 = stablehlo.reduce(%401 init: %cst_374) applies stablehlo.add across dimensions = [3] : (tensor<16x8x49x49xf32>, tensor<f32>) -> tensor<16x8x49xf32>
    %403 = stablehlo.broadcast_in_dim %402, dims = [0, 1, 2] : (tensor<16x8x49xf32>) -> tensor<16x8x49x1xf32>
    %404 = stablehlo.reshape %403 : (tensor<16x8x49x1xf32>) -> tensor<16x8x49xf32>
    %405 = stablehlo.broadcast_in_dim %404, dims = [0, 1, 2] : (tensor<16x8x49xf32>) -> tensor<16x8x49x49xf32>
    %406 = stablehlo.divide %401, %405 : tensor<16x8x49x49xf32>
    %407 = stablehlo.slice %377 [2:3, 0:16, 0:8, 0:49, 0:32] : (tensor<3x16x8x49x32xf32>) -> tensor<1x16x8x49x32xf32>
    %408 = stablehlo.reshape %407 : (tensor<1x16x8x49x32xf32>) -> tensor<16x8x49x32xf32>
    %409 = stablehlo.dot_general %406, %408, batching_dims = [0, 1] x [0, 1], contracting_dims = [3] x [2], precision = [DEFAULT, DEFAULT] : (tensor<16x8x49x49xf32>, tensor<16x8x49x32xf32>) -> tensor<16x8x49x32xf32>
    %410 = stablehlo.transpose %409, dims = [0, 2, 1, 3] {result_layout = dense<[3, 1, 2, 0]> : tensor<4xindex>, xla_shape = "f32[16,49,8,32]{3,1,2,0}"} : (tensor<16x8x49x32xf32>) -> tensor<16x49x8x32xf32>
    %411 = stablehlo.reshape %410 : (tensor<16x49x8x32xf32>) -> tensor<16x49x256xf32>
    %412 = stablehlo.dot_general %411, %cst_317, contracting_dims = [2] x [0], precision = [DEFAULT, DEFAULT] : (tensor<16x49x256xf32>, tensor<256x256xf32>) -> tensor<16x49x256xf32>
    %413 = stablehlo.reshape %cst_316 : (tensor<1x1x256xf32>) -> tensor<256xf32>
    %414 = stablehlo.broadcast_in_dim %413, dims = [2] : (tensor<256xf32>) -> tensor<16x49x256xf32>
    %415 = stablehlo.add %412, %414 : tensor<16x49x256xf32>
    %416 = stablehlo.reshape %415 : (tensor<16x49x256xf32>) -> tensor<1x4x4x7x7x256xf32>
    %417 = stablehlo.transpose %416, dims = [0, 1, 3, 2, 4, 5] {result_layout = dense<[5, 4, 2, 3, 1, 0]> : tensor<6xindex>, xla_shape = "f32[1,4,7,4,7,256]{5,4,2,3,1,0}"} : (tensor<1x4x4x7x7x256xf32>) -> tensor<1x4x7x4x7x256xf32>
    %418 = stablehlo.reshape %417 : (tensor<1x4x7x4x7x256xf32>) -> tensor<1x784x256xf32>
    %419 = stablehlo.add %344, %418 : tensor<1x784x256xf32>
    %420 = stablehlo.reduce(%419 init: %cst_374) applies stablehlo.add across dimensions = [2] : (tensor<1x784x256xf32>, tensor<f32>) -> tensor<1x784xf32>
    %421 = stablehlo.divide %420, %cst_324 : tensor<1x784xf32>
    %422 = stablehlo.broadcast_in_dim %421, dims = [0, 1] : (tensor<1x784xf32>) -> tensor<1x784x1xf32>
    %423 = stablehlo.reshape %422 : (tensor<1x784x1xf32>) -> tensor<1x784xf32>
    %424 = stablehlo.broadcast_in_dim %423, dims = [0, 1] : (tensor<1x784xf32>) -> tensor<1x784x256xf32>
    %425 = stablehlo.subtract %419, %424 : tensor<1x784x256xf32>
    %426 = stablehlo.multiply %419, %419 : tensor<1x784x256xf32>
    %427 = stablehlo.reduce(%426 init: %cst_374) applies stablehlo.add across dimensions = [2] : (tensor<1x784x256xf32>, tensor<f32>) -> tensor<1x784xf32>
    %428 = stablehlo.divide %427, %cst_324 : tensor<1x784xf32>
    %429 = stablehlo.multiply %421, %421 : tensor<1x784xf32>
    %430 = stablehlo.subtract %428, %429 : tensor<1x784xf32>
    %431 = stablehlo.maximum %cst_329, %430 : tensor<1x784xf32>
    %432 = stablehlo.broadcast_in_dim %431, dims = [0, 1] : (tensor<1x784xf32>) -> tensor<1x784x1xf32>
    %433 = stablehlo.add %432, %cst_328 : tensor<1x784x1xf32>
    %434 = stablehlo.rsqrt %433 : tensor<1x784x1xf32>
    %435 = stablehlo.reshape %434 : (tensor<1x784x1xf32>) -> tensor<1x784xf32>
    %436 = stablehlo.broadcast_in_dim %435, dims = [0, 1] : (tensor<1x784xf32>) -> tensor<1x784x256xf32>
    %437 = stablehlo.reshape %cst_315 : (tensor<1x1x256xf32>) -> tensor<1x256xf32>
    %438 = stablehlo.broadcast_in_dim %437, dims = [0, 2] : (tensor<1x256xf32>) -> tensor<1x784x256xf32>
    %439 = stablehlo.multiply %436, %438 : tensor<1x784x256xf32>
    %440 = stablehlo.multiply %425, %439 : tensor<1x784x256xf32>
    %441 = stablehlo.reshape %cst_314 : (tensor<1x1x256xf32>) -> tensor<1x256xf32>
    %442 = stablehlo.broadcast_in_dim %441, dims = [0, 2] : (tensor<1x256xf32>) -> tensor<1x784x256xf32>
    %443 = stablehlo.add %440, %442 : tensor<1x784x256xf32>
    %444 = stablehlo.dot_general %443, %cst_313, contracting_dims = [2] x [0], precision = [DEFAULT, DEFAULT] : (tensor<1x784x256xf32>, tensor<256x1024xf32>) -> tensor<1x784x1024xf32>
    %445 = stablehlo.reshape %cst_312 : (tensor<1x1x1024xf32>) -> tensor<1x1024xf32>
    %446 = stablehlo.broadcast_in_dim %445, dims = [0, 2] : (tensor<1x1024xf32>) -> tensor<1x784x1024xf32>
    %447 = stablehlo.add %444, %446 : tensor<1x784x1024xf32>
    %448 = stablehlo.multiply %447, %447 : tensor<1x784x1024xf32>
    %449 = stablehlo.multiply %448, %447 : tensor<1x784x1024xf32>
    %450 = stablehlo.multiply %cst_308, %449 : tensor<1x784x1024xf32>
    %451 = stablehlo.add %447, %450 : tensor<1x784x1024xf32>
    %452 = stablehlo.multiply %cst_309, %451 : tensor<1x784x1024xf32>
    %453 = stablehlo.tanh %452 : tensor<1x784x1024xf32>
    %454 = stablehlo.add %cst_310, %453 : tensor<1x784x1024xf32>
    %455 = stablehlo.multiply %cst_311, %454 : tensor<1x784x1024xf32>
    %456 = stablehlo.multiply %447, %455 : tensor<1x784x1024xf32>
    %457 = stablehlo.dot_general %456, %cst_307, contracting_dims = [2] x [0], precision = [DEFAULT, DEFAULT] : (tensor<1x784x1024xf32>, tensor<1024x256xf32>) -> tensor<1x784x256xf32>
    %458 = stablehlo.reshape %cst_306 : (tensor<1x1x256xf32>) -> tensor<1x256xf32>
    %459 = stablehlo.broadcast_in_dim %458, dims = [0, 2] : (tensor<1x256xf32>) -> tensor<1x784x256xf32>
    %460 = stablehlo.add %457, %459 : tensor<1x784x256xf32>
    %461 = stablehlo.add %419, %460 : tensor<1x784x256xf32>
    %462 = stablehlo.reduce(%461 init: %cst_374) applies stablehlo.add across dimensions = [2] : (tensor<1x784x256xf32>, tensor<f32>) -> tensor<1x784xf32>
    %463 = stablehlo.divide %462, %cst_324 : tensor<1x784xf32>
    %464 = stablehlo.broadcast_in_dim %463, dims = [0, 1] : (tensor<1x784xf32>) -> tensor<1x784x1xf32>
    %465 = stablehlo.reshape %464 : (tensor<1x784x1xf32>) -> tensor<1x784xf32>
    %466 = stablehlo.broadcast_in_dim %465, dims = [0, 1] : (tensor<1x784xf32>) -> tensor<1x784x256xf32>
    %467 = stablehlo.subtract %461, %466 : tensor<1x784x256xf32>
    %468 = stablehlo.multiply %461, %461 : tensor<1x784x256xf32>
    %469 = stablehlo.reduce(%468 init: %cst_374) applies stablehlo.add across dimensions = [2] : (tensor<1x784x256xf32>, tensor<f32>) -> tensor<1x784xf32>
    %470 = stablehlo.divide %469, %cst_324 : tensor<1x784xf32>
    %471 = stablehlo.multiply %463, %463 : tensor<1x784xf32>
    %472 = stablehlo.subtract %470, %471 : tensor<1x784xf32>
    %473 = stablehlo.maximum %cst_329, %472 : tensor<1x784xf32>
    %474 = stablehlo.broadcast_in_dim %473, dims = [0, 1] : (tensor<1x784xf32>) -> tensor<1x784x1xf32>
    %475 = stablehlo.add %474, %cst_328 : tensor<1x784x1xf32>
    %476 = stablehlo.rsqrt %475 : tensor<1x784x1xf32>
    %477 = stablehlo.reshape %476 : (tensor<1x784x1xf32>) -> tensor<1x784xf32>
    %478 = stablehlo.broadcast_in_dim %477, dims = [0, 1] : (tensor<1x784xf32>) -> tensor<1x784x256xf32>
    %479 = stablehlo.reshape %cst_305 : (tensor<1x1x256xf32>) -> tensor<1x256xf32>
    %480 = stablehlo.broadcast_in_dim %479, dims = [0, 2] : (tensor<1x256xf32>) -> tensor<1x784x256xf32>
    %481 = stablehlo.multiply %478, %480 : tensor<1x784x256xf32>
    %482 = stablehlo.multiply %467, %481 : tensor<1x784x256xf32>
    %483 = stablehlo.reshape %cst_304 : (tensor<1x1x256xf32>) -> tensor<1x256xf32>
    %484 = stablehlo.broadcast_in_dim %483, dims = [0, 2] : (tensor<1x256xf32>) -> tensor<1x784x256xf32>
    %485 = stablehlo.add %482, %484 : tensor<1x784x256xf32>
    %486 = stablehlo.reshape %485 : (tensor<1x784x256xf32>) -> tensor<1x28x28x256xf32>
    %487 = stablehlo.slice %486 [0:1, 3:28, 0:28, 0:256] : (tensor<1x28x28x256xf32>) -> tensor<1x25x28x256xf32>
    %488 = stablehlo.slice %486 [0:1, 0:3, 0:28, 0:256] : (tensor<1x28x28x256xf32>) -> tensor<1x3x28x256xf32>
    %489 = stablehlo.concatenate %487, %488, dim = 1 : (tensor<1x25x28x256xf32>, tensor<1x3x28x256xf32>) -> tensor<1x28x28x256xf32>
    %490 = stablehlo.slice %489 [0:1, 0:28, 3:28, 0:256] : (tensor<1x28x28x256xf32>) -> tensor<1x28x25x256xf32>
    %491 = stablehlo.slice %489 [0:1, 0:28, 0:3, 0:256] : (tensor<1x28x28x256xf32>) -> tensor<1x28x3x256xf32>
    %492 = stablehlo.concatenate %490, %491, dim = 2 : (tensor<1x28x25x256xf32>, tensor<1x28x3x256xf32>) -> tensor<1x28x28x256xf32>
    %493 = stablehlo.reshape %492 : (tensor<1x28x28x256xf32>) -> tensor<1x4x7x4x7x256xf32>
    %494 = stablehlo.transpose %493, dims = [0, 1, 3, 2, 4, 5] {result_layout = dense<[5, 4, 2, 3, 1, 0]> : tensor<6xindex>, xla_shape = "f32[1,4,4,7,7,256]{5,4,2,3,1,0}"} : (tensor<1x4x7x4x7x256xf32>) -> tensor<1x4x4x7x7x256xf32>
    %495 = stablehlo.reshape %494 : (tensor<1x4x4x7x7x256xf32>) -> tensor<16x49x256xf32>
    %496 = stablehlo.dot_general %495, %cst_303, contracting_dims = [2] x [0], precision = [DEFAULT, DEFAULT] : (tensor<16x49x256xf32>, tensor<256x768xf32>) -> tensor<16x49x768xf32>
    %497 = stablehlo.reshape %cst_302 : (tensor<1x1x768xf32>) -> tensor<768xf32>
    %498 = stablehlo.broadcast_in_dim %497, dims = [2] : (tensor<768xf32>) -> tensor<16x49x768xf32>
    %499 = stablehlo.add %496, %498 : tensor<16x49x768xf32>
    %500 = stablehlo.reshape %499 : (tensor<16x49x768xf32>) -> tensor<16x49x3x8x32xf32>
    %501 = stablehlo.transpose %500, dims = [2, 0, 3, 1, 4] {result_layout = dense<[4, 2, 0, 3, 1]> : tensor<5xindex>, xla_shape = "f32[3,16,8,49,32]{4,2,0,3,1}"} : (tensor<16x49x3x8x32xf32>) -> tensor<3x16x8x49x32xf32>
    %502 = stablehlo.slice %501 [0:1, 0:16, 0:8, 0:49, 0:32] : (tensor<3x16x8x49x32xf32>) -> tensor<1x16x8x49x32xf32>
    %503 = stablehlo.reshape %502 : (tensor<1x16x8x49x32xf32>) -> tensor<16x8x49x32xf32>
    %504 = stablehlo.multiply %503, %cst_319 : tensor<16x8x49x32xf32>
    %505 = stablehlo.slice %501 [1:2, 0:16, 0:8, 0:49, 0:32] : (tensor<3x16x8x49x32xf32>) -> tensor<1x16x8x49x32xf32>
    %506 = stablehlo.reshape %505 : (tensor<1x16x8x49x32xf32>) -> tensor<16x8x49x32xf32>
    %507 = stablehlo.transpose %506, dims = [0, 1, 3, 2] {result_layout = dense<[2, 3, 1, 0]> : tensor<4xindex>, xla_shape = "f32[16,8,32,49]{2,3,1,0}"} : (tensor<16x8x49x32xf32>) -> tensor<16x8x32x49xf32>
    %508 = stablehlo.dot_general %504, %507, batching_dims = [0, 1] x [0, 1], contracting_dims = [3] x [2], precision = [DEFAULT, DEFAULT] : (tensor<16x8x49x32xf32>, tensor<16x8x32x49xf32>) -> tensor<16x8x49x49xf32>
    %509 = stablehlo.compare  LT, %c_362, %c_361 : (tensor<2401xi32>, tensor<2401xi32>) -> tensor<2401xi1>
    %510 = stablehlo.add %c_362, %c_360 : tensor<2401xi32>
    %511 = stablehlo.select %509, %510, %c_362 : tensor<2401xi1>, tensor<2401xi32>
    %512 = stablehlo.broadcast_in_dim %511, dims = [0] : (tensor<2401xi32>) -> tensor<2401x1xi32>
    %513 = "stablehlo.gather"(%cst_301, %512) <{dimension_numbers = #stablehlo.gather<offset_dims = [1], collapsed_slice_dims = [0], start_index_map = [0], index_vector_dim = 1>, indices_are_sorted = false, slice_sizes = array<i64: 1, 8>}> : (tensor<169x8xf32>, tensor<2401x1xi32>) -> tensor<2401x8xf32>
    %514 = stablehlo.reshape %513 : (tensor<2401x8xf32>) -> tensor<49x49x8xf32>
    %515 = stablehlo.transpose %514, dims = [2, 0, 1] {result_layout = dense<[0, 2, 1]> : tensor<3xindex>, xla_shape = "f32[8,49,49]{0,2,1}"} : (tensor<49x49x8xf32>) -> tensor<8x49x49xf32>
    %516 = stablehlo.broadcast_in_dim %515, dims = [1, 2, 3] : (tensor<8x49x49xf32>) -> tensor<1x8x49x49xf32>
    %517 = stablehlo.reshape %516 : (tensor<1x8x49x49xf32>) -> tensor<8x49x49xf32>
    %518 = stablehlo.broadcast_in_dim %517, dims = [1, 2, 3] : (tensor<8x49x49xf32>) -> tensor<16x8x49x49xf32>
    %519 = stablehlo.add %508, %518 : tensor<16x8x49x49xf32>
    %520 = stablehlo.reduce(%519 init: %cst_359) applies stablehlo.maximum across dimensions = [3] : (tensor<16x8x49x49xf32>, tensor<f32>) -> tensor<16x8x49xf32>
    %521 = stablehlo.broadcast_in_dim %520, dims = [0, 1, 2] : (tensor<16x8x49xf32>) -> tensor<16x8x49x1xf32>
    %522 = stablehlo.reshape %521 : (tensor<16x8x49x1xf32>) -> tensor<16x8x49xf32>
    %523 = stablehlo.broadcast_in_dim %522, dims = [0, 1, 2] : (tensor<16x8x49xf32>) -> tensor<16x8x49x49xf32>
    %524 = stablehlo.subtract %519, %523 : tensor<16x8x49x49xf32>
    %525 = stablehlo.exponential %524 : tensor<16x8x49x49xf32>
    %526 = stablehlo.reduce(%525 init: %cst_374) applies stablehlo.add across dimensions = [3] : (tensor<16x8x49x49xf32>, tensor<f32>) -> tensor<16x8x49xf32>
    %527 = stablehlo.broadcast_in_dim %526, dims = [0, 1, 2] : (tensor<16x8x49xf32>) -> tensor<16x8x49x1xf32>
    %528 = stablehlo.reshape %527 : (tensor<16x8x49x1xf32>) -> tensor<16x8x49xf32>
    %529 = stablehlo.broadcast_in_dim %528, dims = [0, 1, 2] : (tensor<16x8x49xf32>) -> tensor<16x8x49x49xf32>
    %530 = stablehlo.divide %525, %529 : tensor<16x8x49x49xf32>
    %531 = stablehlo.slice %501 [2:3, 0:16, 0:8, 0:49, 0:32] : (tensor<3x16x8x49x32xf32>) -> tensor<1x16x8x49x32xf32>
    %532 = stablehlo.reshape %531 : (tensor<1x16x8x49x32xf32>) -> tensor<16x8x49x32xf32>
    %533 = stablehlo.dot_general %530, %532, batching_dims = [0, 1] x [0, 1], contracting_dims = [3] x [2], precision = [DEFAULT, DEFAULT] : (tensor<16x8x49x49xf32>, tensor<16x8x49x32xf32>) -> tensor<16x8x49x32xf32>
    %534 = stablehlo.transpose %533, dims = [0, 2, 1, 3] {result_layout = dense<[3, 1, 2, 0]> : tensor<4xindex>, xla_shape = "f32[16,49,8,32]{3,1,2,0}"} : (tensor<16x8x49x32xf32>) -> tensor<16x49x8x32xf32>
    %535 = stablehlo.reshape %534 : (tensor<16x49x8x32xf32>) -> tensor<16x49x256xf32>
    %536 = stablehlo.dot_general %535, %cst_300, contracting_dims = [2] x [0], precision = [DEFAULT, DEFAULT] : (tensor<16x49x256xf32>, tensor<256x256xf32>) -> tensor<16x49x256xf32>
    %537 = stablehlo.reshape %cst_299 : (tensor<1x1x256xf32>) -> tensor<256xf32>
    %538 = stablehlo.broadcast_in_dim %537, dims = [2] : (tensor<256xf32>) -> tensor<16x49x256xf32>
    %539 = stablehlo.add %536, %538 : tensor<16x49x256xf32>
    %540 = stablehlo.reshape %539 : (tensor<16x49x256xf32>) -> tensor<1x4x4x7x7x256xf32>
    %541 = stablehlo.transpose %540, dims = [0, 1, 3, 2, 4, 5] {result_layout = dense<[5, 4, 2, 3, 1, 0]> : tensor<6xindex>, xla_shape = "f32[1,4,7,4,7,256]{5,4,2,3,1,0}"} : (tensor<1x4x4x7x7x256xf32>) -> tensor<1x4x7x4x7x256xf32>
    %542 = stablehlo.reshape %541 : (tensor<1x4x7x4x7x256xf32>) -> tensor<1x28x28x256xf32>
    %543 = stablehlo.slice %542 [0:1, 25:28, 0:28, 0:256] : (tensor<1x28x28x256xf32>) -> tensor<1x3x28x256xf32>
    %544 = stablehlo.slice %542 [0:1, 0:25, 0:28, 0:256] : (tensor<1x28x28x256xf32>) -> tensor<1x25x28x256xf32>
    %545 = stablehlo.concatenate %543, %544, dim = 1 : (tensor<1x3x28x256xf32>, tensor<1x25x28x256xf32>) -> tensor<1x28x28x256xf32>
    %546 = stablehlo.slice %545 [0:1, 0:28, 25:28, 0:256] : (tensor<1x28x28x256xf32>) -> tensor<1x28x3x256xf32>
    %547 = stablehlo.slice %545 [0:1, 0:28, 0:25, 0:256] : (tensor<1x28x28x256xf32>) -> tensor<1x28x25x256xf32>
    %548 = stablehlo.concatenate %546, %547, dim = 2 : (tensor<1x28x3x256xf32>, tensor<1x28x25x256xf32>) -> tensor<1x28x28x256xf32>
    %549 = stablehlo.reshape %548 : (tensor<1x28x28x256xf32>) -> tensor<1x784x256xf32>
    %550 = stablehlo.add %461, %549 : tensor<1x784x256xf32>
    %551 = stablehlo.reduce(%550 init: %cst_374) applies stablehlo.add across dimensions = [2] : (tensor<1x784x256xf32>, tensor<f32>) -> tensor<1x784xf32>
    %552 = stablehlo.divide %551, %cst_324 : tensor<1x784xf32>
    %553 = stablehlo.broadcast_in_dim %552, dims = [0, 1] : (tensor<1x784xf32>) -> tensor<1x784x1xf32>
    %554 = stablehlo.reshape %553 : (tensor<1x784x1xf32>) -> tensor<1x784xf32>
    %555 = stablehlo.broadcast_in_dim %554, dims = [0, 1] : (tensor<1x784xf32>) -> tensor<1x784x256xf32>
    %556 = stablehlo.subtract %550, %555 : tensor<1x784x256xf32>
    %557 = stablehlo.multiply %550, %550 : tensor<1x784x256xf32>
    %558 = stablehlo.reduce(%557 init: %cst_374) applies stablehlo.add across dimensions = [2] : (tensor<1x784x256xf32>, tensor<f32>) -> tensor<1x784xf32>
    %559 = stablehlo.divide %558, %cst_324 : tensor<1x784xf32>
    %560 = stablehlo.multiply %552, %552 : tensor<1x784xf32>
    %561 = stablehlo.subtract %559, %560 : tensor<1x784xf32>
    %562 = stablehlo.maximum %cst_329, %561 : tensor<1x784xf32>
    %563 = stablehlo.broadcast_in_dim %562, dims = [0, 1] : (tensor<1x784xf32>) -> tensor<1x784x1xf32>
    %564 = stablehlo.add %563, %cst_328 : tensor<1x784x1xf32>
    %565 = stablehlo.rsqrt %564 : tensor<1x784x1xf32>
    %566 = stablehlo.reshape %565 : (tensor<1x784x1xf32>) -> tensor<1x784xf32>
    %567 = stablehlo.broadcast_in_dim %566, dims = [0, 1] : (tensor<1x784xf32>) -> tensor<1x784x256xf32>
    %568 = stablehlo.reshape %cst_298 : (tensor<1x1x256xf32>) -> tensor<1x256xf32>
    %569 = stablehlo.broadcast_in_dim %568, dims = [0, 2] : (tensor<1x256xf32>) -> tensor<1x784x256xf32>
    %570 = stablehlo.multiply %567, %569 : tensor<1x784x256xf32>
    %571 = stablehlo.multiply %556, %570 : tensor<1x784x256xf32>
    %572 = stablehlo.reshape %cst_297 : (tensor<1x1x256xf32>) -> tensor<1x256xf32>
    %573 = stablehlo.broadcast_in_dim %572, dims = [0, 2] : (tensor<1x256xf32>) -> tensor<1x784x256xf32>
    %574 = stablehlo.add %571, %573 : tensor<1x784x256xf32>
    %575 = stablehlo.dot_general %574, %cst_296, contracting_dims = [2] x [0], precision = [DEFAULT, DEFAULT] : (tensor<1x784x256xf32>, tensor<256x1024xf32>) -> tensor<1x784x1024xf32>
    %576 = stablehlo.reshape %cst_295 : (tensor<1x1x1024xf32>) -> tensor<1x1024xf32>
    %577 = stablehlo.broadcast_in_dim %576, dims = [0, 2] : (tensor<1x1024xf32>) -> tensor<1x784x1024xf32>
    %578 = stablehlo.add %575, %577 : tensor<1x784x1024xf32>
    %579 = stablehlo.multiply %578, %578 : tensor<1x784x1024xf32>
    %580 = stablehlo.multiply %579, %578 : tensor<1x784x1024xf32>
    %581 = stablehlo.multiply %cst_308, %580 : tensor<1x784x1024xf32>
    %582 = stablehlo.add %578, %581 : tensor<1x784x1024xf32>
    %583 = stablehlo.multiply %cst_309, %582 : tensor<1x784x1024xf32>
    %584 = stablehlo.tanh %583 : tensor<1x784x1024xf32>
    %585 = stablehlo.add %cst_310, %584 : tensor<1x784x1024xf32>
    %586 = stablehlo.multiply %cst_311, %585 : tensor<1x784x1024xf32>
    %587 = stablehlo.multiply %578, %586 : tensor<1x784x1024xf32>
    %588 = stablehlo.dot_general %587, %cst_294, contracting_dims = [2] x [0], precision = [DEFAULT, DEFAULT] : (tensor<1x784x1024xf32>, tensor<1024x256xf32>) -> tensor<1x784x256xf32>
    %589 = stablehlo.reshape %cst_293 : (tensor<1x1x256xf32>) -> tensor<1x256xf32>
    %590 = stablehlo.broadcast_in_dim %589, dims = [0, 2] : (tensor<1x256xf32>) -> tensor<1x784x256xf32>
    %591 = stablehlo.add %588, %590 : tensor<1x784x256xf32>
    %592 = stablehlo.add %550, %591 : tensor<1x784x256xf32>
    %593 = stablehlo.reshape %592 : (tensor<1x784x256xf32>) -> tensor<1x28x28x256xf32>
    %594 = stablehlo.iota dim = 0 : tensor<14xi32>
    %595 = stablehlo.multiply %c_291, %594 : tensor<14xi32>
    %596 = stablehlo.add %c_292, %595 : tensor<14xi32>
    %597 = stablehlo.broadcast_in_dim %596, dims = [0] : (tensor<14xi32>) -> tensor<14x14x1xi32>
    %598 = stablehlo.iota dim = 0 : tensor<14xi32>
    %599 = stablehlo.multiply %c_291, %598 : tensor<14xi32>
    %600 = stablehlo.add %c_292, %599 : tensor<14xi32>
    %601 = stablehlo.broadcast_in_dim %600, dims = [1] : (tensor<14xi32>) -> tensor<14x14x1xi32>
    %602 = stablehlo.concatenate %597, %601, dim = 2 : (tensor<14x14x1xi32>, tensor<14x14x1xi32>) -> tensor<14x14x2xi32>
    %603 = "stablehlo.gather"(%593, %602) <{dimension_numbers = #stablehlo.gather<offset_dims = [0, 3], collapsed_slice_dims = [1, 2], start_index_map = [1, 2], index_vector_dim = 2>, indices_are_sorted = true, slice_sizes = array<i64: 1, 1, 1, 256>}> : (tensor<1x28x28x256xf32>, tensor<14x14x2xi32>) -> tensor<1x14x14x256xf32>
    %604 = stablehlo.iota dim = 0 : tensor<14xi32>
    %605 = stablehlo.multiply %c_291, %604 : tensor<14xi32>
    %606 = stablehlo.add %c_290, %605 : tensor<14xi32>
    %607 = stablehlo.broadcast_in_dim %606, dims = [0] : (tensor<14xi32>) -> tensor<14x14x1xi32>
    %608 = stablehlo.iota dim = 0 : tensor<14xi32>
    %609 = stablehlo.multiply %c_291, %608 : tensor<14xi32>
    %610 = stablehlo.add %c_292, %609 : tensor<14xi32>
    %611 = stablehlo.broadcast_in_dim %610, dims = [1] : (tensor<14xi32>) -> tensor<14x14x1xi32>
    %612 = stablehlo.concatenate %607, %611, dim = 2 : (tensor<14x14x1xi32>, tensor<14x14x1xi32>) -> tensor<14x14x2xi32>
    %613 = "stablehlo.gather"(%593, %612) <{dimension_numbers = #stablehlo.gather<offset_dims = [0, 3], collapsed_slice_dims = [1, 2], start_index_map = [1, 2], index_vector_dim = 2>, indices_are_sorted = true, slice_sizes = array<i64: 1, 1, 1, 256>}> : (tensor<1x28x28x256xf32>, tensor<14x14x2xi32>) -> tensor<1x14x14x256xf32>
    %614 = stablehlo.iota dim = 0 : tensor<14xi32>
    %615 = stablehlo.multiply %c_291, %614 : tensor<14xi32>
    %616 = stablehlo.add %c_292, %615 : tensor<14xi32>
    %617 = stablehlo.broadcast_in_dim %616, dims = [0] : (tensor<14xi32>) -> tensor<14x14x1xi32>
    %618 = stablehlo.iota dim = 0 : tensor<14xi32>
    %619 = stablehlo.multiply %c_291, %618 : tensor<14xi32>
    %620 = stablehlo.add %c_290, %619 : tensor<14xi32>
    %621 = stablehlo.broadcast_in_dim %620, dims = [1] : (tensor<14xi32>) -> tensor<14x14x1xi32>
    %622 = stablehlo.concatenate %617, %621, dim = 2 : (tensor<14x14x1xi32>, tensor<14x14x1xi32>) -> tensor<14x14x2xi32>
    %623 = "stablehlo.gather"(%593, %622) <{dimension_numbers = #stablehlo.gather<offset_dims = [0, 3], collapsed_slice_dims = [1, 2], start_index_map = [1, 2], index_vector_dim = 2>, indices_are_sorted = true, slice_sizes = array<i64: 1, 1, 1, 256>}> : (tensor<1x28x28x256xf32>, tensor<14x14x2xi32>) -> tensor<1x14x14x256xf32>
    %624 = stablehlo.iota dim = 0 : tensor<14xi32>
    %625 = stablehlo.multiply %c_291, %624 : tensor<14xi32>
    %626 = stablehlo.add %c_290, %625 : tensor<14xi32>
    %627 = stablehlo.broadcast_in_dim %626, dims = [0] : (tensor<14xi32>) -> tensor<14x14x1xi32>
    %628 = stablehlo.iota dim = 0 : tensor<14xi32>
    %629 = stablehlo.multiply %c_291, %628 : tensor<14xi32>
    %630 = stablehlo.add %c_290, %629 : tensor<14xi32>
    %631 = stablehlo.broadcast_in_dim %630, dims = [1] : (tensor<14xi32>) -> tensor<14x14x1xi32>
    %632 = stablehlo.concatenate %627, %631, dim = 2 : (tensor<14x14x1xi32>, tensor<14x14x1xi32>) -> tensor<14x14x2xi32>
    %633 = "stablehlo.gather"(%593, %632) <{dimension_numbers = #stablehlo.gather<offset_dims = [0, 3], collapsed_slice_dims = [1, 2], start_index_map = [1, 2], index_vector_dim = 2>, indices_are_sorted = true, slice_sizes = array<i64: 1, 1, 1, 256>}> : (tensor<1x28x28x256xf32>, tensor<14x14x2xi32>) -> tensor<1x14x14x256xf32>
    %634 = stablehlo.concatenate %603, %613, %623, %633, dim = 3 : (tensor<1x14x14x256xf32>, tensor<1x14x14x256xf32>, tensor<1x14x14x256xf32>, tensor<1x14x14x256xf32>) -> tensor<1x14x14x1024xf32>
    %635 = stablehlo.reshape %634 : (tensor<1x14x14x1024xf32>) -> tensor<1x196x1024xf32>
    %636 = stablehlo.reduce(%635 init: %cst_374) applies stablehlo.add across dimensions = [2] : (tensor<1x196x1024xf32>, tensor<f32>) -> tensor<1x196xf32>
    %637 = stablehlo.divide %636, %cst_289 : tensor<1x196xf32>
    %638 = stablehlo.broadcast_in_dim %637, dims = [0, 1] : (tensor<1x196xf32>) -> tensor<1x196x1xf32>
    %639 = stablehlo.reshape %638 : (tensor<1x196x1xf32>) -> tensor<1x196xf32>
    %640 = stablehlo.broadcast_in_dim %639, dims = [0, 1] : (tensor<1x196xf32>) -> tensor<1x196x1024xf32>
    %641 = stablehlo.subtract %635, %640 : tensor<1x196x1024xf32>
    %642 = stablehlo.multiply %635, %635 : tensor<1x196x1024xf32>
    %643 = stablehlo.reduce(%642 init: %cst_374) applies stablehlo.add across dimensions = [2] : (tensor<1x196x1024xf32>, tensor<f32>) -> tensor<1x196xf32>
    %644 = stablehlo.divide %643, %cst_289 : tensor<1x196xf32>
    %645 = stablehlo.multiply %637, %637 : tensor<1x196xf32>
    %646 = stablehlo.subtract %644, %645 : tensor<1x196xf32>
    %647 = stablehlo.maximum %cst_288, %646 : tensor<1x196xf32>
    %648 = stablehlo.broadcast_in_dim %647, dims = [0, 1] : (tensor<1x196xf32>) -> tensor<1x196x1xf32>
    %649 = stablehlo.add %648, %cst_287 : tensor<1x196x1xf32>
    %650 = stablehlo.rsqrt %649 : tensor<1x196x1xf32>
    %651 = stablehlo.reshape %650 : (tensor<1x196x1xf32>) -> tensor<1x196xf32>
    %652 = stablehlo.broadcast_in_dim %651, dims = [0, 1] : (tensor<1x196xf32>) -> tensor<1x196x1024xf32>
    %653 = stablehlo.reshape %cst_286 : (tensor<1x1x1024xf32>) -> tensor<1x1024xf32>
    %654 = stablehlo.broadcast_in_dim %653, dims = [0, 2] : (tensor<1x1024xf32>) -> tensor<1x196x1024xf32>
    %655 = stablehlo.multiply %652, %654 : tensor<1x196x1024xf32>
    %656 = stablehlo.multiply %641, %655 : tensor<1x196x1024xf32>
    %657 = stablehlo.reshape %cst_285 : (tensor<1x1x1024xf32>) -> tensor<1x1024xf32>
    %658 = stablehlo.broadcast_in_dim %657, dims = [0, 2] : (tensor<1x1024xf32>) -> tensor<1x196x1024xf32>
    %659 = stablehlo.add %656, %658 : tensor<1x196x1024xf32>
    %660 = stablehlo.dot_general %659, %cst_284, contracting_dims = [2] x [0], precision = [DEFAULT, DEFAULT] : (tensor<1x196x1024xf32>, tensor<1024x512xf32>) -> tensor<1x196x512xf32>
    %661 = stablehlo.reduce(%660 init: %cst_374) applies stablehlo.add across dimensions = [2] : (tensor<1x196x512xf32>, tensor<f32>) -> tensor<1x196xf32>
    %662 = stablehlo.divide %661, %cst_283 : tensor<1x196xf32>
    %663 = stablehlo.broadcast_in_dim %662, dims = [0, 1] : (tensor<1x196xf32>) -> tensor<1x196x1xf32>
    %664 = stablehlo.reshape %663 : (tensor<1x196x1xf32>) -> tensor<1x196xf32>
    %665 = stablehlo.broadcast_in_dim %664, dims = [0, 1] : (tensor<1x196xf32>) -> tensor<1x196x512xf32>
    %666 = stablehlo.subtract %660, %665 : tensor<1x196x512xf32>
    %667 = stablehlo.multiply %660, %660 : tensor<1x196x512xf32>
    %668 = stablehlo.reduce(%667 init: %cst_374) applies stablehlo.add across dimensions = [2] : (tensor<1x196x512xf32>, tensor<f32>) -> tensor<1x196xf32>
    %669 = stablehlo.divide %668, %cst_283 : tensor<1x196xf32>
    %670 = stablehlo.multiply %662, %662 : tensor<1x196xf32>
    %671 = stablehlo.subtract %669, %670 : tensor<1x196xf32>
    %672 = stablehlo.maximum %cst_288, %671 : tensor<1x196xf32>
    %673 = stablehlo.broadcast_in_dim %672, dims = [0, 1] : (tensor<1x196xf32>) -> tensor<1x196x1xf32>
    %674 = stablehlo.add %673, %cst_287 : tensor<1x196x1xf32>
    %675 = stablehlo.rsqrt %674 : tensor<1x196x1xf32>
    %676 = stablehlo.reshape %675 : (tensor<1x196x1xf32>) -> tensor<1x196xf32>
    %677 = stablehlo.broadcast_in_dim %676, dims = [0, 1] : (tensor<1x196xf32>) -> tensor<1x196x512xf32>
    %678 = stablehlo.reshape %cst_282 : (tensor<1x1x512xf32>) -> tensor<1x512xf32>
    %679 = stablehlo.broadcast_in_dim %678, dims = [0, 2] : (tensor<1x512xf32>) -> tensor<1x196x512xf32>
    %680 = stablehlo.multiply %677, %679 : tensor<1x196x512xf32>
    %681 = stablehlo.multiply %666, %680 : tensor<1x196x512xf32>
    %682 = stablehlo.reshape %cst_281 : (tensor<1x1x512xf32>) -> tensor<1x512xf32>
    %683 = stablehlo.broadcast_in_dim %682, dims = [0, 2] : (tensor<1x512xf32>) -> tensor<1x196x512xf32>
    %684 = stablehlo.add %681, %683 : tensor<1x196x512xf32>
    %685 = stablehlo.reshape %684 : (tensor<1x196x512xf32>) -> tensor<1x2x7x2x7x512xf32>
    %686 = stablehlo.transpose %685, dims = [0, 1, 3, 2, 4, 5] {result_layout = dense<[5, 4, 2, 3, 1, 0]> : tensor<6xindex>, xla_shape = "f32[1,2,2,7,7,512]{5,4,2,3,1,0}"} : (tensor<1x2x7x2x7x512xf32>) -> tensor<1x2x2x7x7x512xf32>
    %687 = stablehlo.reshape %686 : (tensor<1x2x2x7x7x512xf32>) -> tensor<4x49x512xf32>
    %688 = stablehlo.dot_general %687, %cst_280, contracting_dims = [2] x [0], precision = [DEFAULT, DEFAULT] : (tensor<4x49x512xf32>, tensor<512x1536xf32>) -> tensor<4x49x1536xf32>
    %689 = stablehlo.reshape %cst_279 : (tensor<1x1x1536xf32>) -> tensor<1536xf32>
    %690 = stablehlo.broadcast_in_dim %689, dims = [2] : (tensor<1536xf32>) -> tensor<4x49x1536xf32>
    %691 = stablehlo.add %688, %690 : tensor<4x49x1536xf32>
    %692 = stablehlo.reshape %691 : (tensor<4x49x1536xf32>) -> tensor<4x49x3x16x32xf32>
    %693 = stablehlo.transpose %692, dims = [2, 0, 3, 1, 4] {result_layout = dense<[4, 2, 0, 3, 1]> : tensor<5xindex>, xla_shape = "f32[3,4,16,49,32]{4,2,0,3,1}"} : (tensor<4x49x3x16x32xf32>) -> tensor<3x4x16x49x32xf32>
    %694 = stablehlo.slice %693 [0:1, 0:4, 0:16, 0:49, 0:32] : (tensor<3x4x16x49x32xf32>) -> tensor<1x4x16x49x32xf32>
    %695 = stablehlo.reshape %694 : (tensor<1x4x16x49x32xf32>) -> tensor<4x16x49x32xf32>
    %696 = stablehlo.multiply %695, %cst_278 : tensor<4x16x49x32xf32>
    %697 = stablehlo.slice %693 [1:2, 0:4, 0:16, 0:49, 0:32] : (tensor<3x4x16x49x32xf32>) -> tensor<1x4x16x49x32xf32>
    %698 = stablehlo.reshape %697 : (tensor<1x4x16x49x32xf32>) -> tensor<4x16x49x32xf32>
    %699 = stablehlo.transpose %698, dims = [0, 1, 3, 2] {result_layout = dense<[2, 3, 1, 0]> : tensor<4xindex>, xla_shape = "f32[4,16,32,49]{2,3,1,0}"} : (tensor<4x16x49x32xf32>) -> tensor<4x16x32x49xf32>
    %700 = stablehlo.dot_general %696, %699, batching_dims = [0, 1] x [0, 1], contracting_dims = [3] x [2], precision = [DEFAULT, DEFAULT] : (tensor<4x16x49x32xf32>, tensor<4x16x32x49xf32>) -> tensor<4x16x49x49xf32>
    %701 = stablehlo.compare  LT, %c_362, %c_361 : (tensor<2401xi32>, tensor<2401xi32>) -> tensor<2401xi1>
    %702 = stablehlo.add %c_362, %c_360 : tensor<2401xi32>
    %703 = stablehlo.select %701, %702, %c_362 : tensor<2401xi1>, tensor<2401xi32>
    %704 = stablehlo.broadcast_in_dim %703, dims = [0] : (tensor<2401xi32>) -> tensor<2401x1xi32>
    %705 = "stablehlo.gather"(%cst_277, %704) <{dimension_numbers = #stablehlo.gather<offset_dims = [1], collapsed_slice_dims = [0], start_index_map = [0], index_vector_dim = 1>, indices_are_sorted = false, slice_sizes = array<i64: 1, 16>}> : (tensor<169x16xf32>, tensor<2401x1xi32>) -> tensor<2401x16xf32>
    %706 = stablehlo.reshape %705 : (tensor<2401x16xf32>) -> tensor<49x49x16xf32>
    %707 = stablehlo.transpose %706, dims = [2, 0, 1] {result_layout = dense<[0, 2, 1]> : tensor<3xindex>, xla_shape = "f32[16,49,49]{0,2,1}"} : (tensor<49x49x16xf32>) -> tensor<16x49x49xf32>
    %708 = stablehlo.broadcast_in_dim %707, dims = [1, 2, 3] : (tensor<16x49x49xf32>) -> tensor<1x16x49x49xf32>
    %709 = stablehlo.reshape %708 : (tensor<1x16x49x49xf32>) -> tensor<16x49x49xf32>
    %710 = stablehlo.broadcast_in_dim %709, dims = [1, 2, 3] : (tensor<16x49x49xf32>) -> tensor<4x16x49x49xf32>
    %711 = stablehlo.add %700, %710 : tensor<4x16x49x49xf32>
    %712 = stablehlo.reduce(%711 init: %cst_359) applies stablehlo.maximum across dimensions = [3] : (tensor<4x16x49x49xf32>, tensor<f32>) -> tensor<4x16x49xf32>
    %713 = stablehlo.broadcast_in_dim %712, dims = [0, 1, 2] : (tensor<4x16x49xf32>) -> tensor<4x16x49x1xf32>
    %714 = stablehlo.reshape %713 : (tensor<4x16x49x1xf32>) -> tensor<4x16x49xf32>
    %715 = stablehlo.broadcast_in_dim %714, dims = [0, 1, 2] : (tensor<4x16x49xf32>) -> tensor<4x16x49x49xf32>
    %716 = stablehlo.subtract %711, %715 : tensor<4x16x49x49xf32>
    %717 = stablehlo.exponential %716 : tensor<4x16x49x49xf32>
    %718 = stablehlo.reduce(%717 init: %cst_374) applies stablehlo.add across dimensions = [3] : (tensor<4x16x49x49xf32>, tensor<f32>) -> tensor<4x16x49xf32>
    %719 = stablehlo.broadcast_in_dim %718, dims = [0, 1, 2] : (tensor<4x16x49xf32>) -> tensor<4x16x49x1xf32>
    %720 = stablehlo.reshape %719 : (tensor<4x16x49x1xf32>) -> tensor<4x16x49xf32>
    %721 = stablehlo.broadcast_in_dim %720, dims = [0, 1, 2] : (tensor<4x16x49xf32>) -> tensor<4x16x49x49xf32>
    %722 = stablehlo.divide %717, %721 : tensor<4x16x49x49xf32>
    %723 = stablehlo.slice %693 [2:3, 0:4, 0:16, 0:49, 0:32] : (tensor<3x4x16x49x32xf32>) -> tensor<1x4x16x49x32xf32>
    %724 = stablehlo.reshape %723 : (tensor<1x4x16x49x32xf32>) -> tensor<4x16x49x32xf32>
    %725 = stablehlo.dot_general %722, %724, batching_dims = [0, 1] x [0, 1], contracting_dims = [3] x [2], precision = [DEFAULT, DEFAULT] : (tensor<4x16x49x49xf32>, tensor<4x16x49x32xf32>) -> tensor<4x16x49x32xf32>
    %726 = stablehlo.transpose %725, dims = [0, 2, 1, 3] {result_layout = dense<[3, 1, 2, 0]> : tensor<4xindex>, xla_shape = "f32[4,49,16,32]{3,1,2,0}"} : (tensor<4x16x49x32xf32>) -> tensor<4x49x16x32xf32>
    %727 = stablehlo.reshape %726 : (tensor<4x49x16x32xf32>) -> tensor<4x49x512xf32>
    %728 = stablehlo.dot_general %727, %cst_276, contracting_dims = [2] x [0], precision = [DEFAULT, DEFAULT] : (tensor<4x49x512xf32>, tensor<512x512xf32>) -> tensor<4x49x512xf32>
    %729 = stablehlo.reshape %cst_275 : (tensor<1x1x512xf32>) -> tensor<512xf32>
    %730 = stablehlo.broadcast_in_dim %729, dims = [2] : (tensor<512xf32>) -> tensor<4x49x512xf32>
    %731 = stablehlo.add %728, %730 : tensor<4x49x512xf32>
    %732 = stablehlo.reshape %731 : (tensor<4x49x512xf32>) -> tensor<1x2x2x7x7x512xf32>
    %733 = stablehlo.transpose %732, dims = [0, 1, 3, 2, 4, 5] {result_layout = dense<[5, 4, 2, 3, 1, 0]> : tensor<6xindex>, xla_shape = "f32[1,2,7,2,7,512]{5,4,2,3,1,0}"} : (tensor<1x2x2x7x7x512xf32>) -> tensor<1x2x7x2x7x512xf32>
    %734 = stablehlo.reshape %733 : (tensor<1x2x7x2x7x512xf32>) -> tensor<1x196x512xf32>
    %735 = stablehlo.add %660, %734 : tensor<1x196x512xf32>
    %736 = stablehlo.reduce(%735 init: %cst_374) applies stablehlo.add across dimensions = [2] : (tensor<1x196x512xf32>, tensor<f32>) -> tensor<1x196xf32>
    %737 = stablehlo.divide %736, %cst_283 : tensor<1x196xf32>
    %738 = stablehlo.broadcast_in_dim %737, dims = [0, 1] : (tensor<1x196xf32>) -> tensor<1x196x1xf32>
    %739 = stablehlo.reshape %738 : (tensor<1x196x1xf32>) -> tensor<1x196xf32>
    %740 = stablehlo.broadcast_in_dim %739, dims = [0, 1] : (tensor<1x196xf32>) -> tensor<1x196x512xf32>
    %741 = stablehlo.subtract %735, %740 : tensor<1x196x512xf32>
    %742 = stablehlo.multiply %735, %735 : tensor<1x196x512xf32>
    %743 = stablehlo.reduce(%742 init: %cst_374) applies stablehlo.add across dimensions = [2] : (tensor<1x196x512xf32>, tensor<f32>) -> tensor<1x196xf32>
    %744 = stablehlo.divide %743, %cst_283 : tensor<1x196xf32>
    %745 = stablehlo.multiply %737, %737 : tensor<1x196xf32>
    %746 = stablehlo.subtract %744, %745 : tensor<1x196xf32>
    %747 = stablehlo.maximum %cst_288, %746 : tensor<1x196xf32>
    %748 = stablehlo.broadcast_in_dim %747, dims = [0, 1] : (tensor<1x196xf32>) -> tensor<1x196x1xf32>
    %749 = stablehlo.add %748, %cst_287 : tensor<1x196x1xf32>
    %750 = stablehlo.rsqrt %749 : tensor<1x196x1xf32>
    %751 = stablehlo.reshape %750 : (tensor<1x196x1xf32>) -> tensor<1x196xf32>
    %752 = stablehlo.broadcast_in_dim %751, dims = [0, 1] : (tensor<1x196xf32>) -> tensor<1x196x512xf32>
    %753 = stablehlo.reshape %cst_274 : (tensor<1x1x512xf32>) -> tensor<1x512xf32>
    %754 = stablehlo.broadcast_in_dim %753, dims = [0, 2] : (tensor<1x512xf32>) -> tensor<1x196x512xf32>
    %755 = stablehlo.multiply %752, %754 : tensor<1x196x512xf32>
    %756 = stablehlo.multiply %741, %755 : tensor<1x196x512xf32>
    %757 = stablehlo.reshape %cst_273 : (tensor<1x1x512xf32>) -> tensor<1x512xf32>
    %758 = stablehlo.broadcast_in_dim %757, dims = [0, 2] : (tensor<1x512xf32>) -> tensor<1x196x512xf32>
    %759 = stablehlo.add %756, %758 : tensor<1x196x512xf32>
    %760 = stablehlo.dot_general %759, %cst_272, contracting_dims = [2] x [0], precision = [DEFAULT, DEFAULT] : (tensor<1x196x512xf32>, tensor<512x2048xf32>) -> tensor<1x196x2048xf32>
    %761 = stablehlo.reshape %cst_271 : (tensor<1x1x2048xf32>) -> tensor<1x2048xf32>
    %762 = stablehlo.broadcast_in_dim %761, dims = [0, 2] : (tensor<1x2048xf32>) -> tensor<1x196x2048xf32>
    %763 = stablehlo.add %760, %762 : tensor<1x196x2048xf32>
    %764 = stablehlo.multiply %763, %763 : tensor<1x196x2048xf32>
    %765 = stablehlo.multiply %764, %763 : tensor<1x196x2048xf32>
    %766 = stablehlo.multiply %cst_267, %765 : tensor<1x196x2048xf32>
    %767 = stablehlo.add %763, %766 : tensor<1x196x2048xf32>
    %768 = stablehlo.multiply %cst_268, %767 : tensor<1x196x2048xf32>
    %769 = stablehlo.tanh %768 : tensor<1x196x2048xf32>
    %770 = stablehlo.add %cst_269, %769 : tensor<1x196x2048xf32>
    %771 = stablehlo.multiply %cst_270, %770 : tensor<1x196x2048xf32>
    %772 = stablehlo.multiply %763, %771 : tensor<1x196x2048xf32>
    %773 = stablehlo.dot_general %772, %cst_266, contracting_dims = [2] x [0], precision = [DEFAULT, DEFAULT] : (tensor<1x196x2048xf32>, tensor<2048x512xf32>) -> tensor<1x196x512xf32>
    %774 = stablehlo.reshape %cst_265 : (tensor<1x1x512xf32>) -> tensor<1x512xf32>
    %775 = stablehlo.broadcast_in_dim %774, dims = [0, 2] : (tensor<1x512xf32>) -> tensor<1x196x512xf32>
    %776 = stablehlo.add %773, %775 : tensor<1x196x512xf32>
    %777 = stablehlo.add %735, %776 : tensor<1x196x512xf32>
    %778 = stablehlo.reduce(%777 init: %cst_374) applies stablehlo.add across dimensions = [2] : (tensor<1x196x512xf32>, tensor<f32>) -> tensor<1x196xf32>
    %779 = stablehlo.divide %778, %cst_283 : tensor<1x196xf32>
    %780 = stablehlo.broadcast_in_dim %779, dims = [0, 1] : (tensor<1x196xf32>) -> tensor<1x196x1xf32>
    %781 = stablehlo.reshape %780 : (tensor<1x196x1xf32>) -> tensor<1x196xf32>
    %782 = stablehlo.broadcast_in_dim %781, dims = [0, 1] : (tensor<1x196xf32>) -> tensor<1x196x512xf32>
    %783 = stablehlo.subtract %777, %782 : tensor<1x196x512xf32>
    %784 = stablehlo.multiply %777, %777 : tensor<1x196x512xf32>
    %785 = stablehlo.reduce(%784 init: %cst_374) applies stablehlo.add across dimensions = [2] : (tensor<1x196x512xf32>, tensor<f32>) -> tensor<1x196xf32>
    %786 = stablehlo.divide %785, %cst_283 : tensor<1x196xf32>
    %787 = stablehlo.multiply %779, %779 : tensor<1x196xf32>
    %788 = stablehlo.subtract %786, %787 : tensor<1x196xf32>
    %789 = stablehlo.maximum %cst_288, %788 : tensor<1x196xf32>
    %790 = stablehlo.broadcast_in_dim %789, dims = [0, 1] : (tensor<1x196xf32>) -> tensor<1x196x1xf32>
    %791 = stablehlo.add %790, %cst_287 : tensor<1x196x1xf32>
    %792 = stablehlo.rsqrt %791 : tensor<1x196x1xf32>
    %793 = stablehlo.reshape %792 : (tensor<1x196x1xf32>) -> tensor<1x196xf32>
    %794 = stablehlo.broadcast_in_dim %793, dims = [0, 1] : (tensor<1x196xf32>) -> tensor<1x196x512xf32>
    %795 = stablehlo.reshape %cst_264 : (tensor<1x1x512xf32>) -> tensor<1x512xf32>
    %796 = stablehlo.broadcast_in_dim %795, dims = [0, 2] : (tensor<1x512xf32>) -> tensor<1x196x512xf32>
    %797 = stablehlo.multiply %794, %796 : tensor<1x196x512xf32>
    %798 = stablehlo.multiply %783, %797 : tensor<1x196x512xf32>
    %799 = stablehlo.reshape %cst_263 : (tensor<1x1x512xf32>) -> tensor<1x512xf32>
    %800 = stablehlo.broadcast_in_dim %799, dims = [0, 2] : (tensor<1x512xf32>) -> tensor<1x196x512xf32>
    %801 = stablehlo.add %798, %800 : tensor<1x196x512xf32>
    %802 = stablehlo.reshape %801 : (tensor<1x196x512xf32>) -> tensor<1x14x14x512xf32>
    %803 = stablehlo.slice %802 [0:1, 3:14, 0:14, 0:512] : (tensor<1x14x14x512xf32>) -> tensor<1x11x14x512xf32>
    %804 = stablehlo.slice %802 [0:1, 0:3, 0:14, 0:512] : (tensor<1x14x14x512xf32>) -> tensor<1x3x14x512xf32>
    %805 = stablehlo.concatenate %803, %804, dim = 1 : (tensor<1x11x14x512xf32>, tensor<1x3x14x512xf32>) -> tensor<1x14x14x512xf32>
    %806 = stablehlo.slice %805 [0:1, 0:14, 3:14, 0:512] : (tensor<1x14x14x512xf32>) -> tensor<1x14x11x512xf32>
    %807 = stablehlo.slice %805 [0:1, 0:14, 0:3, 0:512] : (tensor<1x14x14x512xf32>) -> tensor<1x14x3x512xf32>
    %808 = stablehlo.concatenate %806, %807, dim = 2 : (tensor<1x14x11x512xf32>, tensor<1x14x3x512xf32>) -> tensor<1x14x14x512xf32>
    %809 = stablehlo.reshape %808 : (tensor<1x14x14x512xf32>) -> tensor<1x2x7x2x7x512xf32>
    %810 = stablehlo.transpose %809, dims = [0, 1, 3, 2, 4, 5] {result_layout = dense<[5, 4, 2, 3, 1, 0]> : tensor<6xindex>, xla_shape = "f32[1,2,2,7,7,512]{5,4,2,3,1,0}"} : (tensor<1x2x7x2x7x512xf32>) -> tensor<1x2x2x7x7x512xf32>
    %811 = stablehlo.reshape %810 : (tensor<1x2x2x7x7x512xf32>) -> tensor<4x49x512xf32>
    %812 = stablehlo.dot_general %811, %cst_262, contracting_dims = [2] x [0], precision = [DEFAULT, DEFAULT] : (tensor<4x49x512xf32>, tensor<512x1536xf32>) -> tensor<4x49x1536xf32>
    %813 = stablehlo.reshape %cst_261 : (tensor<1x1x1536xf32>) -> tensor<1536xf32>
    %814 = stablehlo.broadcast_in_dim %813, dims = [2] : (tensor<1536xf32>) -> tensor<4x49x1536xf32>
    %815 = stablehlo.add %812, %814 : tensor<4x49x1536xf32>
    %816 = stablehlo.reshape %815 : (tensor<4x49x1536xf32>) -> tensor<4x49x3x16x32xf32>
    %817 = stablehlo.transpose %816, dims = [2, 0, 3, 1, 4] {result_layout = dense<[4, 2, 0, 3, 1]> : tensor<5xindex>, xla_shape = "f32[3,4,16,49,32]{4,2,0,3,1}"} : (tensor<4x49x3x16x32xf32>) -> tensor<3x4x16x49x32xf32>
    %818 = stablehlo.slice %817 [0:1, 0:4, 0:16, 0:49, 0:32] : (tensor<3x4x16x49x32xf32>) -> tensor<1x4x16x49x32xf32>
    %819 = stablehlo.reshape %818 : (tensor<1x4x16x49x32xf32>) -> tensor<4x16x49x32xf32>
    %820 = stablehlo.multiply %819, %cst_278 : tensor<4x16x49x32xf32>
    %821 = stablehlo.slice %817 [1:2, 0:4, 0:16, 0:49, 0:32] : (tensor<3x4x16x49x32xf32>) -> tensor<1x4x16x49x32xf32>
    %822 = stablehlo.reshape %821 : (tensor<1x4x16x49x32xf32>) -> tensor<4x16x49x32xf32>
    %823 = stablehlo.transpose %822, dims = [0, 1, 3, 2] {result_layout = dense<[2, 3, 1, 0]> : tensor<4xindex>, xla_shape = "f32[4,16,32,49]{2,3,1,0}"} : (tensor<4x16x49x32xf32>) -> tensor<4x16x32x49xf32>
    %824 = stablehlo.dot_general %820, %823, batching_dims = [0, 1] x [0, 1], contracting_dims = [3] x [2], precision = [DEFAULT, DEFAULT] : (tensor<4x16x49x32xf32>, tensor<4x16x32x49xf32>) -> tensor<4x16x49x49xf32>
    %825 = stablehlo.compare  LT, %c_362, %c_361 : (tensor<2401xi32>, tensor<2401xi32>) -> tensor<2401xi1>
    %826 = stablehlo.add %c_362, %c_360 : tensor<2401xi32>
    %827 = stablehlo.select %825, %826, %c_362 : tensor<2401xi1>, tensor<2401xi32>
    %828 = stablehlo.broadcast_in_dim %827, dims = [0] : (tensor<2401xi32>) -> tensor<2401x1xi32>
    %829 = "stablehlo.gather"(%cst_260, %828) <{dimension_numbers = #stablehlo.gather<offset_dims = [1], collapsed_slice_dims = [0], start_index_map = [0], index_vector_dim = 1>, indices_are_sorted = false, slice_sizes = array<i64: 1, 16>}> : (tensor<169x16xf32>, tensor<2401x1xi32>) -> tensor<2401x16xf32>
    %830 = stablehlo.reshape %829 : (tensor<2401x16xf32>) -> tensor<49x49x16xf32>
    %831 = stablehlo.transpose %830, dims = [2, 0, 1] {result_layout = dense<[0, 2, 1]> : tensor<3xindex>, xla_shape = "f32[16,49,49]{0,2,1}"} : (tensor<49x49x16xf32>) -> tensor<16x49x49xf32>
    %832 = stablehlo.broadcast_in_dim %831, dims = [1, 2, 3] : (tensor<16x49x49xf32>) -> tensor<1x16x49x49xf32>
    %833 = stablehlo.reshape %832 : (tensor<1x16x49x49xf32>) -> tensor<16x49x49xf32>
    %834 = stablehlo.broadcast_in_dim %833, dims = [1, 2, 3] : (tensor<16x49x49xf32>) -> tensor<4x16x49x49xf32>
    %835 = stablehlo.add %824, %834 : tensor<4x16x49x49xf32>
    %836 = stablehlo.reduce(%835 init: %cst_359) applies stablehlo.maximum across dimensions = [3] : (tensor<4x16x49x49xf32>, tensor<f32>) -> tensor<4x16x49xf32>
    %837 = stablehlo.broadcast_in_dim %836, dims = [0, 1, 2] : (tensor<4x16x49xf32>) -> tensor<4x16x49x1xf32>
    %838 = stablehlo.reshape %837 : (tensor<4x16x49x1xf32>) -> tensor<4x16x49xf32>
    %839 = stablehlo.broadcast_in_dim %838, dims = [0, 1, 2] : (tensor<4x16x49xf32>) -> tensor<4x16x49x49xf32>
    %840 = stablehlo.subtract %835, %839 : tensor<4x16x49x49xf32>
    %841 = stablehlo.exponential %840 : tensor<4x16x49x49xf32>
    %842 = stablehlo.reduce(%841 init: %cst_374) applies stablehlo.add across dimensions = [3] : (tensor<4x16x49x49xf32>, tensor<f32>) -> tensor<4x16x49xf32>
    %843 = stablehlo.broadcast_in_dim %842, dims = [0, 1, 2] : (tensor<4x16x49xf32>) -> tensor<4x16x49x1xf32>
    %844 = stablehlo.reshape %843 : (tensor<4x16x49x1xf32>) -> tensor<4x16x49xf32>
    %845 = stablehlo.broadcast_in_dim %844, dims = [0, 1, 2] : (tensor<4x16x49xf32>) -> tensor<4x16x49x49xf32>
    %846 = stablehlo.divide %841, %845 : tensor<4x16x49x49xf32>
    %847 = stablehlo.slice %817 [2:3, 0:4, 0:16, 0:49, 0:32] : (tensor<3x4x16x49x32xf32>) -> tensor<1x4x16x49x32xf32>
    %848 = stablehlo.reshape %847 : (tensor<1x4x16x49x32xf32>) -> tensor<4x16x49x32xf32>
    %849 = stablehlo.dot_general %846, %848, batching_dims = [0, 1] x [0, 1], contracting_dims = [3] x [2], precision = [DEFAULT, DEFAULT] : (tensor<4x16x49x49xf32>, tensor<4x16x49x32xf32>) -> tensor<4x16x49x32xf32>
    %850 = stablehlo.transpose %849, dims = [0, 2, 1, 3] {result_layout = dense<[3, 1, 2, 0]> : tensor<4xindex>, xla_shape = "f32[4,49,16,32]{3,1,2,0}"} : (tensor<4x16x49x32xf32>) -> tensor<4x49x16x32xf32>
    %851 = stablehlo.reshape %850 : (tensor<4x49x16x32xf32>) -> tensor<4x49x512xf32>
    %852 = stablehlo.dot_general %851, %cst_259, contracting_dims = [2] x [0], precision = [DEFAULT, DEFAULT] : (tensor<4x49x512xf32>, tensor<512x512xf32>) -> tensor<4x49x512xf32>
    %853 = stablehlo.reshape %cst_258 : (tensor<1x1x512xf32>) -> tensor<512xf32>
    %854 = stablehlo.broadcast_in_dim %853, dims = [2] : (tensor<512xf32>) -> tensor<4x49x512xf32>
    %855 = stablehlo.add %852, %854 : tensor<4x49x512xf32>
    %856 = stablehlo.reshape %855 : (tensor<4x49x512xf32>) -> tensor<1x2x2x7x7x512xf32>
    %857 = stablehlo.transpose %856, dims = [0, 1, 3, 2, 4, 5] {result_layout = dense<[5, 4, 2, 3, 1, 0]> : tensor<6xindex>, xla_shape = "f32[1,2,7,2,7,512]{5,4,2,3,1,0}"} : (tensor<1x2x2x7x7x512xf32>) -> tensor<1x2x7x2x7x512xf32>
    %858 = stablehlo.reshape %857 : (tensor<1x2x7x2x7x512xf32>) -> tensor<1x14x14x512xf32>
    %859 = stablehlo.slice %858 [0:1, 11:14, 0:14, 0:512] : (tensor<1x14x14x512xf32>) -> tensor<1x3x14x512xf32>
    %860 = stablehlo.slice %858 [0:1, 0:11, 0:14, 0:512] : (tensor<1x14x14x512xf32>) -> tensor<1x11x14x512xf32>
    %861 = stablehlo.concatenate %859, %860, dim = 1 : (tensor<1x3x14x512xf32>, tensor<1x11x14x512xf32>) -> tensor<1x14x14x512xf32>
    %862 = stablehlo.slice %861 [0:1, 0:14, 11:14, 0:512] : (tensor<1x14x14x512xf32>) -> tensor<1x14x3x512xf32>
    %863 = stablehlo.slice %861 [0:1, 0:14, 0:11, 0:512] : (tensor<1x14x14x512xf32>) -> tensor<1x14x11x512xf32>
    %864 = stablehlo.concatenate %862, %863, dim = 2 : (tensor<1x14x3x512xf32>, tensor<1x14x11x512xf32>) -> tensor<1x14x14x512xf32>
    %865 = stablehlo.reshape %864 : (tensor<1x14x14x512xf32>) -> tensor<1x196x512xf32>
    %866 = stablehlo.add %777, %865 : tensor<1x196x512xf32>
    %867 = stablehlo.reduce(%866 init: %cst_374) applies stablehlo.add across dimensions = [2] : (tensor<1x196x512xf32>, tensor<f32>) -> tensor<1x196xf32>
    %868 = stablehlo.divide %867, %cst_283 : tensor<1x196xf32>
    %869 = stablehlo.broadcast_in_dim %868, dims = [0, 1] : (tensor<1x196xf32>) -> tensor<1x196x1xf32>
    %870 = stablehlo.reshape %869 : (tensor<1x196x1xf32>) -> tensor<1x196xf32>
    %871 = stablehlo.broadcast_in_dim %870, dims = [0, 1] : (tensor<1x196xf32>) -> tensor<1x196x512xf32>
    %872 = stablehlo.subtract %866, %871 : tensor<1x196x512xf32>
    %873 = stablehlo.multiply %866, %866 : tensor<1x196x512xf32>
    %874 = stablehlo.reduce(%873 init: %cst_374) applies stablehlo.add across dimensions = [2] : (tensor<1x196x512xf32>, tensor<f32>) -> tensor<1x196xf32>
    %875 = stablehlo.divide %874, %cst_283 : tensor<1x196xf32>
    %876 = stablehlo.multiply %868, %868 : tensor<1x196xf32>
    %877 = stablehlo.subtract %875, %876 : tensor<1x196xf32>
    %878 = stablehlo.maximum %cst_288, %877 : tensor<1x196xf32>
    %879 = stablehlo.broadcast_in_dim %878, dims = [0, 1] : (tensor<1x196xf32>) -> tensor<1x196x1xf32>
    %880 = stablehlo.add %879, %cst_287 : tensor<1x196x1xf32>
    %881 = stablehlo.rsqrt %880 : tensor<1x196x1xf32>
    %882 = stablehlo.reshape %881 : (tensor<1x196x1xf32>) -> tensor<1x196xf32>
    %883 = stablehlo.broadcast_in_dim %882, dims = [0, 1] : (tensor<1x196xf32>) -> tensor<1x196x512xf32>
    %884 = stablehlo.reshape %cst_257 : (tensor<1x1x512xf32>) -> tensor<1x512xf32>
    %885 = stablehlo.broadcast_in_dim %884, dims = [0, 2] : (tensor<1x512xf32>) -> tensor<1x196x512xf32>
    %886 = stablehlo.multiply %883, %885 : tensor<1x196x512xf32>
    %887 = stablehlo.multiply %872, %886 : tensor<1x196x512xf32>
    %888 = stablehlo.reshape %cst_256 : (tensor<1x1x512xf32>) -> tensor<1x512xf32>
    %889 = stablehlo.broadcast_in_dim %888, dims = [0, 2] : (tensor<1x512xf32>) -> tensor<1x196x512xf32>
    %890 = stablehlo.add %887, %889 : tensor<1x196x512xf32>
    %891 = stablehlo.dot_general %890, %cst_255, contracting_dims = [2] x [0], precision = [DEFAULT, DEFAULT] : (tensor<1x196x512xf32>, tensor<512x2048xf32>) -> tensor<1x196x2048xf32>
    %892 = stablehlo.reshape %cst_254 : (tensor<1x1x2048xf32>) -> tensor<1x2048xf32>
    %893 = stablehlo.broadcast_in_dim %892, dims = [0, 2] : (tensor<1x2048xf32>) -> tensor<1x196x2048xf32>
    %894 = stablehlo.add %891, %893 : tensor<1x196x2048xf32>
    %895 = stablehlo.multiply %894, %894 : tensor<1x196x2048xf32>
    %896 = stablehlo.multiply %895, %894 : tensor<1x196x2048xf32>
    %897 = stablehlo.multiply %cst_267, %896 : tensor<1x196x2048xf32>
    %898 = stablehlo.add %894, %897 : tensor<1x196x2048xf32>
    %899 = stablehlo.multiply %cst_268, %898 : tensor<1x196x2048xf32>
    %900 = stablehlo.tanh %899 : tensor<1x196x2048xf32>
    %901 = stablehlo.add %cst_269, %900 : tensor<1x196x2048xf32>
    %902 = stablehlo.multiply %cst_270, %901 : tensor<1x196x2048xf32>
    %903 = stablehlo.multiply %894, %902 : tensor<1x196x2048xf32>
    %904 = stablehlo.dot_general %903, %cst_253, contracting_dims = [2] x [0], precision = [DEFAULT, DEFAULT] : (tensor<1x196x2048xf32>, tensor<2048x512xf32>) -> tensor<1x196x512xf32>
    %905 = stablehlo.reshape %cst_252 : (tensor<1x1x512xf32>) -> tensor<1x512xf32>
    %906 = stablehlo.broadcast_in_dim %905, dims = [0, 2] : (tensor<1x512xf32>) -> tensor<1x196x512xf32>
    %907 = stablehlo.add %904, %906 : tensor<1x196x512xf32>
    %908 = stablehlo.add %866, %907 : tensor<1x196x512xf32>
    %909 = stablehlo.reduce(%908 init: %cst_374) applies stablehlo.add across dimensions = [2] : (tensor<1x196x512xf32>, tensor<f32>) -> tensor<1x196xf32>
    %910 = stablehlo.divide %909, %cst_283 : tensor<1x196xf32>
    %911 = stablehlo.broadcast_in_dim %910, dims = [0, 1] : (tensor<1x196xf32>) -> tensor<1x196x1xf32>
    %912 = stablehlo.reshape %911 : (tensor<1x196x1xf32>) -> tensor<1x196xf32>
    %913 = stablehlo.broadcast_in_dim %912, dims = [0, 1] : (tensor<1x196xf32>) -> tensor<1x196x512xf32>
    %914 = stablehlo.subtract %908, %913 : tensor<1x196x512xf32>
    %915 = stablehlo.multiply %908, %908 : tensor<1x196x512xf32>
    %916 = stablehlo.reduce(%915 init: %cst_374) applies stablehlo.add across dimensions = [2] : (tensor<1x196x512xf32>, tensor<f32>) -> tensor<1x196xf32>
    %917 = stablehlo.divide %916, %cst_283 : tensor<1x196xf32>
    %918 = stablehlo.multiply %910, %910 : tensor<1x196xf32>
    %919 = stablehlo.subtract %917, %918 : tensor<1x196xf32>
    %920 = stablehlo.maximum %cst_288, %919 : tensor<1x196xf32>
    %921 = stablehlo.broadcast_in_dim %920, dims = [0, 1] : (tensor<1x196xf32>) -> tensor<1x196x1xf32>
    %922 = stablehlo.add %921, %cst_287 : tensor<1x196x1xf32>
    %923 = stablehlo.rsqrt %922 : tensor<1x196x1xf32>
    %924 = stablehlo.reshape %923 : (tensor<1x196x1xf32>) -> tensor<1x196xf32>
    %925 = stablehlo.broadcast_in_dim %924, dims = [0, 1] : (tensor<1x196xf32>) -> tensor<1x196x512xf32>
    %926 = stablehlo.reshape %cst_251 : (tensor<1x1x512xf32>) -> tensor<1x512xf32>
    %927 = stablehlo.broadcast_in_dim %926, dims = [0, 2] : (tensor<1x512xf32>) -> tensor<1x196x512xf32>
    %928 = stablehlo.multiply %925, %927 : tensor<1x196x512xf32>
    %929 = stablehlo.multiply %914, %928 : tensor<1x196x512xf32>
    %930 = stablehlo.reshape %cst_250 : (tensor<1x1x512xf32>) -> tensor<1x512xf32>
    %931 = stablehlo.broadcast_in_dim %930, dims = [0, 2] : (tensor<1x512xf32>) -> tensor<1x196x512xf32>
    %932 = stablehlo.add %929, %931 : tensor<1x196x512xf32>
    %933 = stablehlo.reshape %932 : (tensor<1x196x512xf32>) -> tensor<1x2x7x2x7x512xf32>
    %934 = stablehlo.transpose %933, dims = [0, 1, 3, 2, 4, 5] {result_layout = dense<[5, 4, 2, 3, 1, 0]> : tensor<6xindex>, xla_shape = "f32[1,2,2,7,7,512]{5,4,2,3,1,0}"} : (tensor<1x2x7x2x7x512xf32>) -> tensor<1x2x2x7x7x512xf32>
    %935 = stablehlo.reshape %934 : (tensor<1x2x2x7x7x512xf32>) -> tensor<4x49x512xf32>
    %936 = stablehlo.dot_general %935, %cst_249, contracting_dims = [2] x [0], precision = [DEFAULT, DEFAULT] : (tensor<4x49x512xf32>, tensor<512x1536xf32>) -> tensor<4x49x1536xf32>
    %937 = stablehlo.reshape %cst_248 : (tensor<1x1x1536xf32>) -> tensor<1536xf32>
    %938 = stablehlo.broadcast_in_dim %937, dims = [2] : (tensor<1536xf32>) -> tensor<4x49x1536xf32>
    %939 = stablehlo.add %936, %938 : tensor<4x49x1536xf32>
    %940 = stablehlo.reshape %939 : (tensor<4x49x1536xf32>) -> tensor<4x49x3x16x32xf32>
    %941 = stablehlo.transpose %940, dims = [2, 0, 3, 1, 4] {result_layout = dense<[4, 2, 0, 3, 1]> : tensor<5xindex>, xla_shape = "f32[3,4,16,49,32]{4,2,0,3,1}"} : (tensor<4x49x3x16x32xf32>) -> tensor<3x4x16x49x32xf32>
    %942 = stablehlo.slice %941 [0:1, 0:4, 0:16, 0:49, 0:32] : (tensor<3x4x16x49x32xf32>) -> tensor<1x4x16x49x32xf32>
    %943 = stablehlo.reshape %942 : (tensor<1x4x16x49x32xf32>) -> tensor<4x16x49x32xf32>
    %944 = stablehlo.multiply %943, %cst_278 : tensor<4x16x49x32xf32>
    %945 = stablehlo.slice %941 [1:2, 0:4, 0:16, 0:49, 0:32] : (tensor<3x4x16x49x32xf32>) -> tensor<1x4x16x49x32xf32>
    %946 = stablehlo.reshape %945 : (tensor<1x4x16x49x32xf32>) -> tensor<4x16x49x32xf32>
    %947 = stablehlo.transpose %946, dims = [0, 1, 3, 2] {result_layout = dense<[2, 3, 1, 0]> : tensor<4xindex>, xla_shape = "f32[4,16,32,49]{2,3,1,0}"} : (tensor<4x16x49x32xf32>) -> tensor<4x16x32x49xf32>
    %948 = stablehlo.dot_general %944, %947, batching_dims = [0, 1] x [0, 1], contracting_dims = [3] x [2], precision = [DEFAULT, DEFAULT] : (tensor<4x16x49x32xf32>, tensor<4x16x32x49xf32>) -> tensor<4x16x49x49xf32>
    %949 = stablehlo.compare  LT, %c_362, %c_361 : (tensor<2401xi32>, tensor<2401xi32>) -> tensor<2401xi1>
    %950 = stablehlo.add %c_362, %c_360 : tensor<2401xi32>
    %951 = stablehlo.select %949, %950, %c_362 : tensor<2401xi1>, tensor<2401xi32>
    %952 = stablehlo.broadcast_in_dim %951, dims = [0] : (tensor<2401xi32>) -> tensor<2401x1xi32>
    %953 = "stablehlo.gather"(%cst_247, %952) <{dimension_numbers = #stablehlo.gather<offset_dims = [1], collapsed_slice_dims = [0], start_index_map = [0], index_vector_dim = 1>, indices_are_sorted = false, slice_sizes = array<i64: 1, 16>}> : (tensor<169x16xf32>, tensor<2401x1xi32>) -> tensor<2401x16xf32>
    %954 = stablehlo.reshape %953 : (tensor<2401x16xf32>) -> tensor<49x49x16xf32>
    %955 = stablehlo.transpose %954, dims = [2, 0, 1] {result_layout = dense<[0, 2, 1]> : tensor<3xindex>, xla_shape = "f32[16,49,49]{0,2,1}"} : (tensor<49x49x16xf32>) -> tensor<16x49x49xf32>
    %956 = stablehlo.broadcast_in_dim %955, dims = [1, 2, 3] : (tensor<16x49x49xf32>) -> tensor<1x16x49x49xf32>
    %957 = stablehlo.reshape %956 : (tensor<1x16x49x49xf32>) -> tensor<16x49x49xf32>
    %958 = stablehlo.broadcast_in_dim %957, dims = [1, 2, 3] : (tensor<16x49x49xf32>) -> tensor<4x16x49x49xf32>
    %959 = stablehlo.add %948, %958 : tensor<4x16x49x49xf32>
    %960 = stablehlo.reduce(%959 init: %cst_359) applies stablehlo.maximum across dimensions = [3] : (tensor<4x16x49x49xf32>, tensor<f32>) -> tensor<4x16x49xf32>
    %961 = stablehlo.broadcast_in_dim %960, dims = [0, 1, 2] : (tensor<4x16x49xf32>) -> tensor<4x16x49x1xf32>
    %962 = stablehlo.reshape %961 : (tensor<4x16x49x1xf32>) -> tensor<4x16x49xf32>
    %963 = stablehlo.broadcast_in_dim %962, dims = [0, 1, 2] : (tensor<4x16x49xf32>) -> tensor<4x16x49x49xf32>
    %964 = stablehlo.subtract %959, %963 : tensor<4x16x49x49xf32>
    %965 = stablehlo.exponential %964 : tensor<4x16x49x49xf32>
    %966 = stablehlo.reduce(%965 init: %cst_374) applies stablehlo.add across dimensions = [3] : (tensor<4x16x49x49xf32>, tensor<f32>) -> tensor<4x16x49xf32>
    %967 = stablehlo.broadcast_in_dim %966, dims = [0, 1, 2] : (tensor<4x16x49xf32>) -> tensor<4x16x49x1xf32>
    %968 = stablehlo.reshape %967 : (tensor<4x16x49x1xf32>) -> tensor<4x16x49xf32>
    %969 = stablehlo.broadcast_in_dim %968, dims = [0, 1, 2] : (tensor<4x16x49xf32>) -> tensor<4x16x49x49xf32>
    %970 = stablehlo.divide %965, %969 : tensor<4x16x49x49xf32>
    %971 = stablehlo.slice %941 [2:3, 0:4, 0:16, 0:49, 0:32] : (tensor<3x4x16x49x32xf32>) -> tensor<1x4x16x49x32xf32>
    %972 = stablehlo.reshape %971 : (tensor<1x4x16x49x32xf32>) -> tensor<4x16x49x32xf32>
    %973 = stablehlo.dot_general %970, %972, batching_dims = [0, 1] x [0, 1], contracting_dims = [3] x [2], precision = [DEFAULT, DEFAULT] : (tensor<4x16x49x49xf32>, tensor<4x16x49x32xf32>) -> tensor<4x16x49x32xf32>
    %974 = stablehlo.transpose %973, dims = [0, 2, 1, 3] {result_layout = dense<[3, 1, 2, 0]> : tensor<4xindex>, xla_shape = "f32[4,49,16,32]{3,1,2,0}"} : (tensor<4x16x49x32xf32>) -> tensor<4x49x16x32xf32>
    %975 = stablehlo.reshape %974 : (tensor<4x49x16x32xf32>) -> tensor<4x49x512xf32>
    %976 = stablehlo.dot_general %975, %cst_246, contracting_dims = [2] x [0], precision = [DEFAULT, DEFAULT] : (tensor<4x49x512xf32>, tensor<512x512xf32>) -> tensor<4x49x512xf32>
    %977 = stablehlo.reshape %cst_245 : (tensor<1x1x512xf32>) -> tensor<512xf32>
    %978 = stablehlo.broadcast_in_dim %977, dims = [2] : (tensor<512xf32>) -> tensor<4x49x512xf32>
    %979 = stablehlo.add %976, %978 : tensor<4x49x512xf32>
    %980 = stablehlo.reshape %979 : (tensor<4x49x512xf32>) -> tensor<1x2x2x7x7x512xf32>
    %981 = stablehlo.transpose %980, dims = [0, 1, 3, 2, 4, 5] {result_layout = dense<[5, 4, 2, 3, 1, 0]> : tensor<6xindex>, xla_shape = "f32[1,2,7,2,7,512]{5,4,2,3,1,0}"} : (tensor<1x2x2x7x7x512xf32>) -> tensor<1x2x7x2x7x512xf32>
    %982 = stablehlo.reshape %981 : (tensor<1x2x7x2x7x512xf32>) -> tensor<1x196x512xf32>
    %983 = stablehlo.add %908, %982 : tensor<1x196x512xf32>
    %984 = stablehlo.reduce(%983 init: %cst_374) applies stablehlo.add across dimensions = [2] : (tensor<1x196x512xf32>, tensor<f32>) -> tensor<1x196xf32>
    %985 = stablehlo.divide %984, %cst_283 : tensor<1x196xf32>
    %986 = stablehlo.broadcast_in_dim %985, dims = [0, 1] : (tensor<1x196xf32>) -> tensor<1x196x1xf32>
    %987 = stablehlo.reshape %986 : (tensor<1x196x1xf32>) -> tensor<1x196xf32>
    %988 = stablehlo.broadcast_in_dim %987, dims = [0, 1] : (tensor<1x196xf32>) -> tensor<1x196x512xf32>
    %989 = stablehlo.subtract %983, %988 : tensor<1x196x512xf32>
    %990 = stablehlo.multiply %983, %983 : tensor<1x196x512xf32>
    %991 = stablehlo.reduce(%990 init: %cst_374) applies stablehlo.add across dimensions = [2] : (tensor<1x196x512xf32>, tensor<f32>) -> tensor<1x196xf32>
    %992 = stablehlo.divide %991, %cst_283 : tensor<1x196xf32>
    %993 = stablehlo.multiply %985, %985 : tensor<1x196xf32>
    %994 = stablehlo.subtract %992, %993 : tensor<1x196xf32>
    %995 = stablehlo.maximum %cst_288, %994 : tensor<1x196xf32>
    %996 = stablehlo.broadcast_in_dim %995, dims = [0, 1] : (tensor<1x196xf32>) -> tensor<1x196x1xf32>
    %997 = stablehlo.add %996, %cst_287 : tensor<1x196x1xf32>
    %998 = stablehlo.rsqrt %997 : tensor<1x196x1xf32>
    %999 = stablehlo.reshape %998 : (tensor<1x196x1xf32>) -> tensor<1x196xf32>
    %1000 = stablehlo.broadcast_in_dim %999, dims = [0, 1] : (tensor<1x196xf32>) -> tensor<1x196x512xf32>
    %1001 = stablehlo.reshape %cst_244 : (tensor<1x1x512xf32>) -> tensor<1x512xf32>
    %1002 = stablehlo.broadcast_in_dim %1001, dims = [0, 2] : (tensor<1x512xf32>) -> tensor<1x196x512xf32>
    %1003 = stablehlo.multiply %1000, %1002 : tensor<1x196x512xf32>
    %1004 = stablehlo.multiply %989, %1003 : tensor<1x196x512xf32>
    %1005 = stablehlo.reshape %cst_243 : (tensor<1x1x512xf32>) -> tensor<1x512xf32>
    %1006 = stablehlo.broadcast_in_dim %1005, dims = [0, 2] : (tensor<1x512xf32>) -> tensor<1x196x512xf32>
    %1007 = stablehlo.add %1004, %1006 : tensor<1x196x512xf32>
    %1008 = stablehlo.dot_general %1007, %cst_242, contracting_dims = [2] x [0], precision = [DEFAULT, DEFAULT] : (tensor<1x196x512xf32>, tensor<512x2048xf32>) -> tensor<1x196x2048xf32>
    %1009 = stablehlo.reshape %cst_241 : (tensor<1x1x2048xf32>) -> tensor<1x2048xf32>
    %1010 = stablehlo.broadcast_in_dim %1009, dims = [0, 2] : (tensor<1x2048xf32>) -> tensor<1x196x2048xf32>
    %1011 = stablehlo.add %1008, %1010 : tensor<1x196x2048xf32>
    %1012 = stablehlo.multiply %1011, %1011 : tensor<1x196x2048xf32>
    %1013 = stablehlo.multiply %1012, %1011 : tensor<1x196x2048xf32>
    %1014 = stablehlo.multiply %cst_267, %1013 : tensor<1x196x2048xf32>
    %1015 = stablehlo.add %1011, %1014 : tensor<1x196x2048xf32>
    %1016 = stablehlo.multiply %cst_268, %1015 : tensor<1x196x2048xf32>
    %1017 = stablehlo.tanh %1016 : tensor<1x196x2048xf32>
    %1018 = stablehlo.add %cst_269, %1017 : tensor<1x196x2048xf32>
    %1019 = stablehlo.multiply %cst_270, %1018 : tensor<1x196x2048xf32>
    %1020 = stablehlo.multiply %1011, %1019 : tensor<1x196x2048xf32>
    %1021 = stablehlo.dot_general %1020, %cst_240, contracting_dims = [2] x [0], precision = [DEFAULT, DEFAULT] : (tensor<1x196x2048xf32>, tensor<2048x512xf32>) -> tensor<1x196x512xf32>
    %1022 = stablehlo.reshape %cst_239 : (tensor<1x1x512xf32>) -> tensor<1x512xf32>
    %1023 = stablehlo.broadcast_in_dim %1022, dims = [0, 2] : (tensor<1x512xf32>) -> tensor<1x196x512xf32>
    %1024 = stablehlo.add %1021, %1023 : tensor<1x196x512xf32>
    %1025 = stablehlo.add %983, %1024 : tensor<1x196x512xf32>
    %1026 = stablehlo.reduce(%1025 init: %cst_374) applies stablehlo.add across dimensions = [2] : (tensor<1x196x512xf32>, tensor<f32>) -> tensor<1x196xf32>
    %1027 = stablehlo.divide %1026, %cst_283 : tensor<1x196xf32>
    %1028 = stablehlo.broadcast_in_dim %1027, dims = [0, 1] : (tensor<1x196xf32>) -> tensor<1x196x1xf32>
    %1029 = stablehlo.reshape %1028 : (tensor<1x196x1xf32>) -> tensor<1x196xf32>
    %1030 = stablehlo.broadcast_in_dim %1029, dims = [0, 1] : (tensor<1x196xf32>) -> tensor<1x196x512xf32>
    %1031 = stablehlo.subtract %1025, %1030 : tensor<1x196x512xf32>
    %1032 = stablehlo.multiply %1025, %1025 : tensor<1x196x512xf32>
    %1033 = stablehlo.reduce(%1032 init: %cst_374) applies stablehlo.add across dimensions = [2] : (tensor<1x196x512xf32>, tensor<f32>) -> tensor<1x196xf32>
    %1034 = stablehlo.divide %1033, %cst_283 : tensor<1x196xf32>
    %1035 = stablehlo.multiply %1027, %1027 : tensor<1x196xf32>
    %1036 = stablehlo.subtract %1034, %1035 : tensor<1x196xf32>
    %1037 = stablehlo.maximum %cst_288, %1036 : tensor<1x196xf32>
    %1038 = stablehlo.broadcast_in_dim %1037, dims = [0, 1] : (tensor<1x196xf32>) -> tensor<1x196x1xf32>
    %1039 = stablehlo.add %1038, %cst_287 : tensor<1x196x1xf32>
    %1040 = stablehlo.rsqrt %1039 : tensor<1x196x1xf32>
    %1041 = stablehlo.reshape %1040 : (tensor<1x196x1xf32>) -> tensor<1x196xf32>
    %1042 = stablehlo.broadcast_in_dim %1041, dims = [0, 1] : (tensor<1x196xf32>) -> tensor<1x196x512xf32>
    %1043 = stablehlo.reshape %cst_238 : (tensor<1x1x512xf32>) -> tensor<1x512xf32>
    %1044 = stablehlo.broadcast_in_dim %1043, dims = [0, 2] : (tensor<1x512xf32>) -> tensor<1x196x512xf32>
    %1045 = stablehlo.multiply %1042, %1044 : tensor<1x196x512xf32>
    %1046 = stablehlo.multiply %1031, %1045 : tensor<1x196x512xf32>
    %1047 = stablehlo.reshape %cst_237 : (tensor<1x1x512xf32>) -> tensor<1x512xf32>
    %1048 = stablehlo.broadcast_in_dim %1047, dims = [0, 2] : (tensor<1x512xf32>) -> tensor<1x196x512xf32>
    %1049 = stablehlo.add %1046, %1048 : tensor<1x196x512xf32>
    %1050 = stablehlo.reshape %1049 : (tensor<1x196x512xf32>) -> tensor<1x14x14x512xf32>
    %1051 = stablehlo.slice %1050 [0:1, 3:14, 0:14, 0:512] : (tensor<1x14x14x512xf32>) -> tensor<1x11x14x512xf32>
    %1052 = stablehlo.slice %1050 [0:1, 0:3, 0:14, 0:512] : (tensor<1x14x14x512xf32>) -> tensor<1x3x14x512xf32>
    %1053 = stablehlo.concatenate %1051, %1052, dim = 1 : (tensor<1x11x14x512xf32>, tensor<1x3x14x512xf32>) -> tensor<1x14x14x512xf32>
    %1054 = stablehlo.slice %1053 [0:1, 0:14, 3:14, 0:512] : (tensor<1x14x14x512xf32>) -> tensor<1x14x11x512xf32>
    %1055 = stablehlo.slice %1053 [0:1, 0:14, 0:3, 0:512] : (tensor<1x14x14x512xf32>) -> tensor<1x14x3x512xf32>
    %1056 = stablehlo.concatenate %1054, %1055, dim = 2 : (tensor<1x14x11x512xf32>, tensor<1x14x3x512xf32>) -> tensor<1x14x14x512xf32>
    %1057 = stablehlo.reshape %1056 : (tensor<1x14x14x512xf32>) -> tensor<1x2x7x2x7x512xf32>
    %1058 = stablehlo.transpose %1057, dims = [0, 1, 3, 2, 4, 5] {result_layout = dense<[5, 4, 2, 3, 1, 0]> : tensor<6xindex>, xla_shape = "f32[1,2,2,7,7,512]{5,4,2,3,1,0}"} : (tensor<1x2x7x2x7x512xf32>) -> tensor<1x2x2x7x7x512xf32>
    %1059 = stablehlo.reshape %1058 : (tensor<1x2x2x7x7x512xf32>) -> tensor<4x49x512xf32>
    %1060 = stablehlo.dot_general %1059, %cst_236, contracting_dims = [2] x [0], precision = [DEFAULT, DEFAULT] : (tensor<4x49x512xf32>, tensor<512x1536xf32>) -> tensor<4x49x1536xf32>
    %1061 = stablehlo.reshape %cst_235 : (tensor<1x1x1536xf32>) -> tensor<1536xf32>
    %1062 = stablehlo.broadcast_in_dim %1061, dims = [2] : (tensor<1536xf32>) -> tensor<4x49x1536xf32>
    %1063 = stablehlo.add %1060, %1062 : tensor<4x49x1536xf32>
    %1064 = stablehlo.reshape %1063 : (tensor<4x49x1536xf32>) -> tensor<4x49x3x16x32xf32>
    %1065 = stablehlo.transpose %1064, dims = [2, 0, 3, 1, 4] {result_layout = dense<[4, 2, 0, 3, 1]> : tensor<5xindex>, xla_shape = "f32[3,4,16,49,32]{4,2,0,3,1}"} : (tensor<4x49x3x16x32xf32>) -> tensor<3x4x16x49x32xf32>
    %1066 = stablehlo.slice %1065 [0:1, 0:4, 0:16, 0:49, 0:32] : (tensor<3x4x16x49x32xf32>) -> tensor<1x4x16x49x32xf32>
    %1067 = stablehlo.reshape %1066 : (tensor<1x4x16x49x32xf32>) -> tensor<4x16x49x32xf32>
    %1068 = stablehlo.multiply %1067, %cst_278 : tensor<4x16x49x32xf32>
    %1069 = stablehlo.slice %1065 [1:2, 0:4, 0:16, 0:49, 0:32] : (tensor<3x4x16x49x32xf32>) -> tensor<1x4x16x49x32xf32>
    %1070 = stablehlo.reshape %1069 : (tensor<1x4x16x49x32xf32>) -> tensor<4x16x49x32xf32>
    %1071 = stablehlo.transpose %1070, dims = [0, 1, 3, 2] {result_layout = dense<[2, 3, 1, 0]> : tensor<4xindex>, xla_shape = "f32[4,16,32,49]{2,3,1,0}"} : (tensor<4x16x49x32xf32>) -> tensor<4x16x32x49xf32>
    %1072 = stablehlo.dot_general %1068, %1071, batching_dims = [0, 1] x [0, 1], contracting_dims = [3] x [2], precision = [DEFAULT, DEFAULT] : (tensor<4x16x49x32xf32>, tensor<4x16x32x49xf32>) -> tensor<4x16x49x49xf32>
    %1073 = stablehlo.compare  LT, %c_362, %c_361 : (tensor<2401xi32>, tensor<2401xi32>) -> tensor<2401xi1>
    %1074 = stablehlo.add %c_362, %c_360 : tensor<2401xi32>
    %1075 = stablehlo.select %1073, %1074, %c_362 : tensor<2401xi1>, tensor<2401xi32>
    %1076 = stablehlo.broadcast_in_dim %1075, dims = [0] : (tensor<2401xi32>) -> tensor<2401x1xi32>
    %1077 = "stablehlo.gather"(%cst_234, %1076) <{dimension_numbers = #stablehlo.gather<offset_dims = [1], collapsed_slice_dims = [0], start_index_map = [0], index_vector_dim = 1>, indices_are_sorted = false, slice_sizes = array<i64: 1, 16>}> : (tensor<169x16xf32>, tensor<2401x1xi32>) -> tensor<2401x16xf32>
    %1078 = stablehlo.reshape %1077 : (tensor<2401x16xf32>) -> tensor<49x49x16xf32>
    %1079 = stablehlo.transpose %1078, dims = [2, 0, 1] {result_layout = dense<[0, 2, 1]> : tensor<3xindex>, xla_shape = "f32[16,49,49]{0,2,1}"} : (tensor<49x49x16xf32>) -> tensor<16x49x49xf32>
    %1080 = stablehlo.broadcast_in_dim %1079, dims = [1, 2, 3] : (tensor<16x49x49xf32>) -> tensor<1x16x49x49xf32>
    %1081 = stablehlo.reshape %1080 : (tensor<1x16x49x49xf32>) -> tensor<16x49x49xf32>
    %1082 = stablehlo.broadcast_in_dim %1081, dims = [1, 2, 3] : (tensor<16x49x49xf32>) -> tensor<4x16x49x49xf32>
    %1083 = stablehlo.add %1072, %1082 : tensor<4x16x49x49xf32>
    %1084 = stablehlo.reduce(%1083 init: %cst_359) applies stablehlo.maximum across dimensions = [3] : (tensor<4x16x49x49xf32>, tensor<f32>) -> tensor<4x16x49xf32>
    %1085 = stablehlo.broadcast_in_dim %1084, dims = [0, 1, 2] : (tensor<4x16x49xf32>) -> tensor<4x16x49x1xf32>
    %1086 = stablehlo.reshape %1085 : (tensor<4x16x49x1xf32>) -> tensor<4x16x49xf32>
    %1087 = stablehlo.broadcast_in_dim %1086, dims = [0, 1, 2] : (tensor<4x16x49xf32>) -> tensor<4x16x49x49xf32>
    %1088 = stablehlo.subtract %1083, %1087 : tensor<4x16x49x49xf32>
    %1089 = stablehlo.exponential %1088 : tensor<4x16x49x49xf32>
    %1090 = stablehlo.reduce(%1089 init: %cst_374) applies stablehlo.add across dimensions = [3] : (tensor<4x16x49x49xf32>, tensor<f32>) -> tensor<4x16x49xf32>
    %1091 = stablehlo.broadcast_in_dim %1090, dims = [0, 1, 2] : (tensor<4x16x49xf32>) -> tensor<4x16x49x1xf32>
    %1092 = stablehlo.reshape %1091 : (tensor<4x16x49x1xf32>) -> tensor<4x16x49xf32>
    %1093 = stablehlo.broadcast_in_dim %1092, dims = [0, 1, 2] : (tensor<4x16x49xf32>) -> tensor<4x16x49x49xf32>
    %1094 = stablehlo.divide %1089, %1093 : tensor<4x16x49x49xf32>
    %1095 = stablehlo.slice %1065 [2:3, 0:4, 0:16, 0:49, 0:32] : (tensor<3x4x16x49x32xf32>) -> tensor<1x4x16x49x32xf32>
    %1096 = stablehlo.reshape %1095 : (tensor<1x4x16x49x32xf32>) -> tensor<4x16x49x32xf32>
    %1097 = stablehlo.dot_general %1094, %1096, batching_dims = [0, 1] x [0, 1], contracting_dims = [3] x [2], precision = [DEFAULT, DEFAULT] : (tensor<4x16x49x49xf32>, tensor<4x16x49x32xf32>) -> tensor<4x16x49x32xf32>
    %1098 = stablehlo.transpose %1097, dims = [0, 2, 1, 3] {result_layout = dense<[3, 1, 2, 0]> : tensor<4xindex>, xla_shape = "f32[4,49,16,32]{3,1,2,0}"} : (tensor<4x16x49x32xf32>) -> tensor<4x49x16x32xf32>
    %1099 = stablehlo.reshape %1098 : (tensor<4x49x16x32xf32>) -> tensor<4x49x512xf32>
    %1100 = stablehlo.dot_general %1099, %cst_233, contracting_dims = [2] x [0], precision = [DEFAULT, DEFAULT] : (tensor<4x49x512xf32>, tensor<512x512xf32>) -> tensor<4x49x512xf32>
    %1101 = stablehlo.reshape %cst_232 : (tensor<1x1x512xf32>) -> tensor<512xf32>
    %1102 = stablehlo.broadcast_in_dim %1101, dims = [2] : (tensor<512xf32>) -> tensor<4x49x512xf32>
    %1103 = stablehlo.add %1100, %1102 : tensor<4x49x512xf32>
    %1104 = stablehlo.reshape %1103 : (tensor<4x49x512xf32>) -> tensor<1x2x2x7x7x512xf32>
    %1105 = stablehlo.transpose %1104, dims = [0, 1, 3, 2, 4, 5] {result_layout = dense<[5, 4, 2, 3, 1, 0]> : tensor<6xindex>, xla_shape = "f32[1,2,7,2,7,512]{5,4,2,3,1,0}"} : (tensor<1x2x2x7x7x512xf32>) -> tensor<1x2x7x2x7x512xf32>
    %1106 = stablehlo.reshape %1105 : (tensor<1x2x7x2x7x512xf32>) -> tensor<1x14x14x512xf32>
    %1107 = stablehlo.slice %1106 [0:1, 11:14, 0:14, 0:512] : (tensor<1x14x14x512xf32>) -> tensor<1x3x14x512xf32>
    %1108 = stablehlo.slice %1106 [0:1, 0:11, 0:14, 0:512] : (tensor<1x14x14x512xf32>) -> tensor<1x11x14x512xf32>
    %1109 = stablehlo.concatenate %1107, %1108, dim = 1 : (tensor<1x3x14x512xf32>, tensor<1x11x14x512xf32>) -> tensor<1x14x14x512xf32>
    %1110 = stablehlo.slice %1109 [0:1, 0:14, 11:14, 0:512] : (tensor<1x14x14x512xf32>) -> tensor<1x14x3x512xf32>
    %1111 = stablehlo.slice %1109 [0:1, 0:14, 0:11, 0:512] : (tensor<1x14x14x512xf32>) -> tensor<1x14x11x512xf32>
    %1112 = stablehlo.concatenate %1110, %1111, dim = 2 : (tensor<1x14x3x512xf32>, tensor<1x14x11x512xf32>) -> tensor<1x14x14x512xf32>
    %1113 = stablehlo.reshape %1112 : (tensor<1x14x14x512xf32>) -> tensor<1x196x512xf32>
    %1114 = stablehlo.add %1025, %1113 : tensor<1x196x512xf32>
    %1115 = stablehlo.reduce(%1114 init: %cst_374) applies stablehlo.add across dimensions = [2] : (tensor<1x196x512xf32>, tensor<f32>) -> tensor<1x196xf32>
    %1116 = stablehlo.divide %1115, %cst_283 : tensor<1x196xf32>
    %1117 = stablehlo.broadcast_in_dim %1116, dims = [0, 1] : (tensor<1x196xf32>) -> tensor<1x196x1xf32>
    %1118 = stablehlo.reshape %1117 : (tensor<1x196x1xf32>) -> tensor<1x196xf32>
    %1119 = stablehlo.broadcast_in_dim %1118, dims = [0, 1] : (tensor<1x196xf32>) -> tensor<1x196x512xf32>
    %1120 = stablehlo.subtract %1114, %1119 : tensor<1x196x512xf32>
    %1121 = stablehlo.multiply %1114, %1114 : tensor<1x196x512xf32>
    %1122 = stablehlo.reduce(%1121 init: %cst_374) applies stablehlo.add across dimensions = [2] : (tensor<1x196x512xf32>, tensor<f32>) -> tensor<1x196xf32>
    %1123 = stablehlo.divide %1122, %cst_283 : tensor<1x196xf32>
    %1124 = stablehlo.multiply %1116, %1116 : tensor<1x196xf32>
    %1125 = stablehlo.subtract %1123, %1124 : tensor<1x196xf32>
    %1126 = stablehlo.maximum %cst_288, %1125 : tensor<1x196xf32>
    %1127 = stablehlo.broadcast_in_dim %1126, dims = [0, 1] : (tensor<1x196xf32>) -> tensor<1x196x1xf32>
    %1128 = stablehlo.add %1127, %cst_287 : tensor<1x196x1xf32>
    %1129 = stablehlo.rsqrt %1128 : tensor<1x196x1xf32>
    %1130 = stablehlo.reshape %1129 : (tensor<1x196x1xf32>) -> tensor<1x196xf32>
    %1131 = stablehlo.broadcast_in_dim %1130, dims = [0, 1] : (tensor<1x196xf32>) -> tensor<1x196x512xf32>
    %1132 = stablehlo.reshape %cst_231 : (tensor<1x1x512xf32>) -> tensor<1x512xf32>
    %1133 = stablehlo.broadcast_in_dim %1132, dims = [0, 2] : (tensor<1x512xf32>) -> tensor<1x196x512xf32>
    %1134 = stablehlo.multiply %1131, %1133 : tensor<1x196x512xf32>
    %1135 = stablehlo.multiply %1120, %1134 : tensor<1x196x512xf32>
    %1136 = stablehlo.reshape %cst_230 : (tensor<1x1x512xf32>) -> tensor<1x512xf32>
    %1137 = stablehlo.broadcast_in_dim %1136, dims = [0, 2] : (tensor<1x512xf32>) -> tensor<1x196x512xf32>
    %1138 = stablehlo.add %1135, %1137 : tensor<1x196x512xf32>
    %1139 = stablehlo.dot_general %1138, %cst_229, contracting_dims = [2] x [0], precision = [DEFAULT, DEFAULT] : (tensor<1x196x512xf32>, tensor<512x2048xf32>) -> tensor<1x196x2048xf32>
    %1140 = stablehlo.reshape %cst_228 : (tensor<1x1x2048xf32>) -> tensor<1x2048xf32>
    %1141 = stablehlo.broadcast_in_dim %1140, dims = [0, 2] : (tensor<1x2048xf32>) -> tensor<1x196x2048xf32>
    %1142 = stablehlo.add %1139, %1141 : tensor<1x196x2048xf32>
    %1143 = stablehlo.multiply %1142, %1142 : tensor<1x196x2048xf32>
    %1144 = stablehlo.multiply %1143, %1142 : tensor<1x196x2048xf32>
    %1145 = stablehlo.multiply %cst_267, %1144 : tensor<1x196x2048xf32>
    %1146 = stablehlo.add %1142, %1145 : tensor<1x196x2048xf32>
    %1147 = stablehlo.multiply %cst_268, %1146 : tensor<1x196x2048xf32>
    %1148 = stablehlo.tanh %1147 : tensor<1x196x2048xf32>
    %1149 = stablehlo.add %cst_269, %1148 : tensor<1x196x2048xf32>
    %1150 = stablehlo.multiply %cst_270, %1149 : tensor<1x196x2048xf32>
    %1151 = stablehlo.multiply %1142, %1150 : tensor<1x196x2048xf32>
    %1152 = stablehlo.dot_general %1151, %cst_227, contracting_dims = [2] x [0], precision = [DEFAULT, DEFAULT] : (tensor<1x196x2048xf32>, tensor<2048x512xf32>) -> tensor<1x196x512xf32>
    %1153 = stablehlo.reshape %cst_226 : (tensor<1x1x512xf32>) -> tensor<1x512xf32>
    %1154 = stablehlo.broadcast_in_dim %1153, dims = [0, 2] : (tensor<1x512xf32>) -> tensor<1x196x512xf32>
    %1155 = stablehlo.add %1152, %1154 : tensor<1x196x512xf32>
    %1156 = stablehlo.add %1114, %1155 : tensor<1x196x512xf32>
    %1157 = stablehlo.reduce(%1156 init: %cst_374) applies stablehlo.add across dimensions = [2] : (tensor<1x196x512xf32>, tensor<f32>) -> tensor<1x196xf32>
    %1158 = stablehlo.divide %1157, %cst_283 : tensor<1x196xf32>
    %1159 = stablehlo.broadcast_in_dim %1158, dims = [0, 1] : (tensor<1x196xf32>) -> tensor<1x196x1xf32>
    %1160 = stablehlo.reshape %1159 : (tensor<1x196x1xf32>) -> tensor<1x196xf32>
    %1161 = stablehlo.broadcast_in_dim %1160, dims = [0, 1] : (tensor<1x196xf32>) -> tensor<1x196x512xf32>
    %1162 = stablehlo.subtract %1156, %1161 : tensor<1x196x512xf32>
    %1163 = stablehlo.multiply %1156, %1156 : tensor<1x196x512xf32>
    %1164 = stablehlo.reduce(%1163 init: %cst_374) applies stablehlo.add across dimensions = [2] : (tensor<1x196x512xf32>, tensor<f32>) -> tensor<1x196xf32>
    %1165 = stablehlo.divide %1164, %cst_283 : tensor<1x196xf32>
    %1166 = stablehlo.multiply %1158, %1158 : tensor<1x196xf32>
    %1167 = stablehlo.subtract %1165, %1166 : tensor<1x196xf32>
    %1168 = stablehlo.maximum %cst_288, %1167 : tensor<1x196xf32>
    %1169 = stablehlo.broadcast_in_dim %1168, dims = [0, 1] : (tensor<1x196xf32>) -> tensor<1x196x1xf32>
    %1170 = stablehlo.add %1169, %cst_287 : tensor<1x196x1xf32>
    %1171 = stablehlo.rsqrt %1170 : tensor<1x196x1xf32>
    %1172 = stablehlo.reshape %1171 : (tensor<1x196x1xf32>) -> tensor<1x196xf32>
    %1173 = stablehlo.broadcast_in_dim %1172, dims = [0, 1] : (tensor<1x196xf32>) -> tensor<1x196x512xf32>
    %1174 = stablehlo.reshape %cst_225 : (tensor<1x1x512xf32>) -> tensor<1x512xf32>
    %1175 = stablehlo.broadcast_in_dim %1174, dims = [0, 2] : (tensor<1x512xf32>) -> tensor<1x196x512xf32>
    %1176 = stablehlo.multiply %1173, %1175 : tensor<1x196x512xf32>
    %1177 = stablehlo.multiply %1162, %1176 : tensor<1x196x512xf32>
    %1178 = stablehlo.reshape %cst_224 : (tensor<1x1x512xf32>) -> tensor<1x512xf32>
    %1179 = stablehlo.broadcast_in_dim %1178, dims = [0, 2] : (tensor<1x512xf32>) -> tensor<1x196x512xf32>
    %1180 = stablehlo.add %1177, %1179 : tensor<1x196x512xf32>
    %1181 = stablehlo.reshape %1180 : (tensor<1x196x512xf32>) -> tensor<1x2x7x2x7x512xf32>
    %1182 = stablehlo.transpose %1181, dims = [0, 1, 3, 2, 4, 5] {result_layout = dense<[5, 4, 2, 3, 1, 0]> : tensor<6xindex>, xla_shape = "f32[1,2,2,7,7,512]{5,4,2,3,1,0}"} : (tensor<1x2x7x2x7x512xf32>) -> tensor<1x2x2x7x7x512xf32>
    %1183 = stablehlo.reshape %1182 : (tensor<1x2x2x7x7x512xf32>) -> tensor<4x49x512xf32>
    %1184 = stablehlo.dot_general %1183, %cst_223, contracting_dims = [2] x [0], precision = [DEFAULT, DEFAULT] : (tensor<4x49x512xf32>, tensor<512x1536xf32>) -> tensor<4x49x1536xf32>
    %1185 = stablehlo.reshape %cst_222 : (tensor<1x1x1536xf32>) -> tensor<1536xf32>
    %1186 = stablehlo.broadcast_in_dim %1185, dims = [2] : (tensor<1536xf32>) -> tensor<4x49x1536xf32>
    %1187 = stablehlo.add %1184, %1186 : tensor<4x49x1536xf32>
    %1188 = stablehlo.reshape %1187 : (tensor<4x49x1536xf32>) -> tensor<4x49x3x16x32xf32>
    %1189 = stablehlo.transpose %1188, dims = [2, 0, 3, 1, 4] {result_layout = dense<[4, 2, 0, 3, 1]> : tensor<5xindex>, xla_shape = "f32[3,4,16,49,32]{4,2,0,3,1}"} : (tensor<4x49x3x16x32xf32>) -> tensor<3x4x16x49x32xf32>
    %1190 = stablehlo.slice %1189 [0:1, 0:4, 0:16, 0:49, 0:32] : (tensor<3x4x16x49x32xf32>) -> tensor<1x4x16x49x32xf32>
    %1191 = stablehlo.reshape %1190 : (tensor<1x4x16x49x32xf32>) -> tensor<4x16x49x32xf32>
    %1192 = stablehlo.multiply %1191, %cst_278 : tensor<4x16x49x32xf32>
    %1193 = stablehlo.slice %1189 [1:2, 0:4, 0:16, 0:49, 0:32] : (tensor<3x4x16x49x32xf32>) -> tensor<1x4x16x49x32xf32>
    %1194 = stablehlo.reshape %1193 : (tensor<1x4x16x49x32xf32>) -> tensor<4x16x49x32xf32>
…
    %2755 = stablehlo.multiply %cst_270, %2754 : tensor<1x196x2048xf32>
    %2756 = stablehlo.multiply %2747, %2755 : tensor<1x196x2048xf32>
    %2757 = stablehlo.dot_general %2756, %cst_58, contracting_dims = [2] x [0], precision = [DEFAULT, DEFAULT] : (tensor<1x196x2048xf32>, tensor<2048x512xf32>) -> tensor<1x196x512xf32>
    %2758 = stablehlo.reshape %cst_57 : (tensor<1x1x512xf32>) -> tensor<1x512xf32>
    %2759 = stablehlo.broadcast_in_dim %2758, dims = [0, 2] : (tensor<1x512xf32>) -> tensor<1x196x512xf32>
    %2760 = stablehlo.add %2757, %2759 : tensor<1x196x512xf32>
    %2761 = stablehlo.add %2719, %2760 : tensor<1x196x512xf32>
    %2762 = stablehlo.reduce(%2761 init: %cst_374) applies stablehlo.add across dimensions = [2] : (tensor<1x196x512xf32>, tensor<f32>) -> tensor<1x196xf32>
    %2763 = stablehlo.divide %2762, %cst_283 : tensor<1x196xf32>
    %2764 = stablehlo.broadcast_in_dim %2763, dims = [0, 1] : (tensor<1x196xf32>) -> tensor<1x196x1xf32>
    %2765 = stablehlo.reshape %2764 : (tensor<1x196x1xf32>) -> tensor<1x196xf32>
    %2766 = stablehlo.broadcast_in_dim %2765, dims = [0, 1] : (tensor<1x196xf32>) -> tensor<1x196x512xf32>
    %2767 = stablehlo.subtract %2761, %2766 : tensor<1x196x512xf32>
    %2768 = stablehlo.multiply %2761, %2761 : tensor<1x196x512xf32>
    %2769 = stablehlo.reduce(%2768 init: %cst_374) applies stablehlo.add across dimensions = [2] : (tensor<1x196x512xf32>, tensor<f32>) -> tensor<1x196xf32>
    %2770 = stablehlo.divide %2769, %cst_283 : tensor<1x196xf32>
    %2771 = stablehlo.multiply %2763, %2763 : tensor<1x196xf32>
    %2772 = stablehlo.subtract %2770, %2771 : tensor<1x196xf32>
    %2773 = stablehlo.maximum %cst_288, %2772 : tensor<1x196xf32>
    %2774 = stablehlo.broadcast_in_dim %2773, dims = [0, 1] : (tensor<1x196xf32>) -> tensor<1x196x1xf32>
    %2775 = stablehlo.add %2774, %cst_287 : tensor<1x196x1xf32>
    %2776 = stablehlo.rsqrt %2775 : tensor<1x196x1xf32>
    %2777 = stablehlo.reshape %2776 : (tensor<1x196x1xf32>) -> tensor<1x196xf32>
    %2778 = stablehlo.broadcast_in_dim %2777, dims = [0, 1] : (tensor<1x196xf32>) -> tensor<1x196x512xf32>
    %2779 = stablehlo.reshape %cst_56 : (tensor<1x1x512xf32>) -> tensor<1x512xf32>
    %2780 = stablehlo.broadcast_in_dim %2779, dims = [0, 2] : (tensor<1x512xf32>) -> tensor<1x196x512xf32>
    %2781 = stablehlo.multiply %2778, %2780 : tensor<1x196x512xf32>
    %2782 = stablehlo.multiply %2767, %2781 : tensor<1x196x512xf32>
    %2783 = stablehlo.reshape %cst_55 : (tensor<1x1x512xf32>) -> tensor<1x512xf32>
    %2784 = stablehlo.broadcast_in_dim %2783, dims = [0, 2] : (tensor<1x512xf32>) -> tensor<1x196x512xf32>
    %2785 = stablehlo.add %2782, %2784 : tensor<1x196x512xf32>
    %2786 = stablehlo.reshape %2785 : (tensor<1x196x512xf32>) -> tensor<1x14x14x512xf32>
    %2787 = stablehlo.slice %2786 [0:1, 3:14, 0:14, 0:512] : (tensor<1x14x14x512xf32>) -> tensor<1x11x14x512xf32>
    %2788 = stablehlo.slice %2786 [0:1, 0:3, 0:14, 0:512] : (tensor<1x14x14x512xf32>) -> tensor<1x3x14x512xf32>
    %2789 = stablehlo.concatenate %2787, %2788, dim = 1 : (tensor<1x11x14x512xf32>, tensor<1x3x14x512xf32>) -> tensor<1x14x14x512xf32>
    %2790 = stablehlo.slice %2789 [0:1, 0:14, 3:14, 0:512] : (tensor<1x14x14x512xf32>) -> tensor<1x14x11x512xf32>
    %2791 = stablehlo.slice %2789 [0:1, 0:14, 0:3, 0:512] : (tensor<1x14x14x512xf32>) -> tensor<1x14x3x512xf32>
    %2792 = stablehlo.concatenate %2790, %2791, dim = 2 : (tensor<1x14x11x512xf32>, tensor<1x14x3x512xf32>) -> tensor<1x14x14x512xf32>
    %2793 = stablehlo.reshape %2792 : (tensor<1x14x14x512xf32>) -> tensor<1x2x7x2x7x512xf32>
    %2794 = stablehlo.transpose %2793, dims = [0, 1, 3, 2, 4, 5] {result_layout = dense<[5, 4, 2, 3, 1, 0]> : tensor<6xindex>, xla_shape = "f32[1,2,2,7,7,512]{5,4,2,3,1,0}"} : (tensor<1x2x7x2x7x512xf32>) -> tensor<1x2x2x7x7x512xf32>
    %2795 = stablehlo.reshape %2794 : (tensor<1x2x2x7x7x512xf32>) -> tensor<4x49x512xf32>
    %2796 = stablehlo.dot_general %2795, %cst_54, contracting_dims = [2] x [0], precision = [DEFAULT, DEFAULT] : (tensor<4x49x512xf32>, tensor<512x1536xf32>) -> tensor<4x49x1536xf32>
    %2797 = stablehlo.reshape %cst_53 : (tensor<1x1x1536xf32>) -> tensor<1536xf32>
    %2798 = stablehlo.broadcast_in_dim %2797, dims = [2] : (tensor<1536xf32>) -> tensor<4x49x1536xf32>
    %2799 = stablehlo.add %2796, %2798 : tensor<4x49x1536xf32>
    %2800 = stablehlo.reshape %2799 : (tensor<4x49x1536xf32>) -> tensor<4x49x3x16x32xf32>
    %2801 = stablehlo.transpose %2800, dims = [2, 0, 3, 1, 4] {result_layout = dense<[4, 2, 0, 3, 1]> : tensor<5xindex>, xla_shape = "f32[3,4,16,49,32]{4,2,0,3,1}"} : (tensor<4x49x3x16x32xf32>) -> tensor<3x4x16x49x32xf32>
    %2802 = stablehlo.slice %2801 [0:1, 0:4, 0:16, 0:49, 0:32] : (tensor<3x4x16x49x32xf32>) -> tensor<1x4x16x49x32xf32>
    %2803 = stablehlo.reshape %2802 : (tensor<1x4x16x49x32xf32>) -> tensor<4x16x49x32xf32>
    %2804 = stablehlo.multiply %2803, %cst_278 : tensor<4x16x49x32xf32>
    %2805 = stablehlo.slice %2801 [1:2, 0:4, 0:16, 0:49, 0:32] : (tensor<3x4x16x49x32xf32>) -> tensor<1x4x16x49x32xf32>
    %2806 = stablehlo.reshape %2805 : (tensor<1x4x16x49x32xf32>) -> tensor<4x16x49x32xf32>
    %2807 = stablehlo.transpose %2806, dims = [0, 1, 3, 2] {result_layout = dense<[2, 3, 1, 0]> : tensor<4xindex>, xla_shape = "f32[4,16,32,49]{2,3,1,0}"} : (tensor<4x16x49x32xf32>) -> tensor<4x16x32x49xf32>
    %2808 = stablehlo.dot_general %2804, %2807, batching_dims = [0, 1] x [0, 1], contracting_dims = [3] x [2], precision = [DEFAULT, DEFAULT] : (tensor<4x16x49x32xf32>, tensor<4x16x32x49xf32>) -> tensor<4x16x49x49xf32>
    %2809 = stablehlo.compare  LT, %c_362, %c_361 : (tensor<2401xi32>, tensor<2401xi32>) -> tensor<2401xi1>
    %2810 = stablehlo.add %c_362, %c_360 : tensor<2401xi32>
    %2811 = stablehlo.select %2809, %2810, %c_362 : tensor<2401xi1>, tensor<2401xi32>
    %2812 = stablehlo.broadcast_in_dim %2811, dims = [0] : (tensor<2401xi32>) -> tensor<2401x1xi32>
    %2813 = "stablehlo.gather"(%cst_52, %2812) <{dimension_numbers = #stablehlo.gather<offset_dims = [1], collapsed_slice_dims = [0], start_index_map = [0], index_vector_dim = 1>, indices_are_sorted = false, slice_sizes = array<i64: 1, 16>}> : (tensor<169x16xf32>, tensor<2401x1xi32>) -> tensor<2401x16xf32>
    %2814 = stablehlo.reshape %2813 : (tensor<2401x16xf32>) -> tensor<49x49x16xf32>
    %2815 = stablehlo.transpose %2814, dims = [2, 0, 1] {result_layout = dense<[0, 2, 1]> : tensor<3xindex>, xla_shape = "f32[16,49,49]{0,2,1}"} : (tensor<49x49x16xf32>) -> tensor<16x49x49xf32>
    %2816 = stablehlo.broadcast_in_dim %2815, dims = [1, 2, 3] : (tensor<16x49x49xf32>) -> tensor<1x16x49x49xf32>
    %2817 = stablehlo.reshape %2816 : (tensor<1x16x49x49xf32>) -> tensor<16x49x49xf32>
    %2818 = stablehlo.broadcast_in_dim %2817, dims = [1, 2, 3] : (tensor<16x49x49xf32>) -> tensor<4x16x49x49xf32>
    %2819 = stablehlo.add %2808, %2818 : tensor<4x16x49x49xf32>
    %2820 = stablehlo.reduce(%2819 init: %cst_359) applies stablehlo.maximum across dimensions = [3] : (tensor<4x16x49x49xf32>, tensor<f32>) -> tensor<4x16x49xf32>
    %2821 = stablehlo.broadcast_in_dim %2820, dims = [0, 1, 2] : (tensor<4x16x49xf32>) -> tensor<4x16x49x1xf32>
    %2822 = stablehlo.reshape %2821 : (tensor<4x16x49x1xf32>) -> tensor<4x16x49xf32>
    %2823 = stablehlo.broadcast_in_dim %2822, dims = [0, 1, 2] : (tensor<4x16x49xf32>) -> tensor<4x16x49x49xf32>
    %2824 = stablehlo.subtract %2819, %2823 : tensor<4x16x49x49xf32>
    %2825 = stablehlo.exponential %2824 : tensor<4x16x49x49xf32>
    %2826 = stablehlo.reduce(%2825 init: %cst_374) applies stablehlo.add across dimensions = [3] : (tensor<4x16x49x49xf32>, tensor<f32>) -> tensor<4x16x49xf32>
    %2827 = stablehlo.broadcast_in_dim %2826, dims = [0, 1, 2] : (tensor<4x16x49xf32>) -> tensor<4x16x49x1xf32>
    %2828 = stablehlo.reshape %2827 : (tensor<4x16x49x1xf32>) -> tensor<4x16x49xf32>
    %2829 = stablehlo.broadcast_in_dim %2828, dims = [0, 1, 2] : (tensor<4x16x49xf32>) -> tensor<4x16x49x49xf32>
    %2830 = stablehlo.divide %2825, %2829 : tensor<4x16x49x49xf32>
    %2831 = stablehlo.slice %2801 [2:3, 0:4, 0:16, 0:49, 0:32] : (tensor<3x4x16x49x32xf32>) -> tensor<1x4x16x49x32xf32>
    %2832 = stablehlo.reshape %2831 : (tensor<1x4x16x49x32xf32>) -> tensor<4x16x49x32xf32>
    %2833 = stablehlo.dot_general %2830, %2832, batching_dims = [0, 1] x [0, 1], contracting_dims = [3] x [2], precision = [DEFAULT, DEFAULT] : (tensor<4x16x49x49xf32>, tensor<4x16x49x32xf32>) -> tensor<4x16x49x32xf32>
    %2834 = stablehlo.transpose %2833, dims = [0, 2, 1, 3] {result_layout = dense<[3, 1, 2, 0]> : tensor<4xindex>, xla_shape = "f32[4,49,16,32]{3,1,2,0}"} : (tensor<4x16x49x32xf32>) -> tensor<4x49x16x32xf32>
    %2835 = stablehlo.reshape %2834 : (tensor<4x49x16x32xf32>) -> tensor<4x49x512xf32>
    %2836 = stablehlo.dot_general %2835, %cst_51, contracting_dims = [2] x [0], precision = [DEFAULT, DEFAULT] : (tensor<4x49x512xf32>, tensor<512x512xf32>) -> tensor<4x49x512xf32>
    %2837 = stablehlo.reshape %cst_50 : (tensor<1x1x512xf32>) -> tensor<512xf32>
    %2838 = stablehlo.broadcast_in_dim %2837, dims = [2] : (tensor<512xf32>) -> tensor<4x49x512xf32>
    %2839 = stablehlo.add %2836, %2838 : tensor<4x49x512xf32>
    %2840 = stablehlo.reshape %2839 : (tensor<4x49x512xf32>) -> tensor<1x2x2x7x7x512xf32>
    %2841 = stablehlo.transpose %2840, dims = [0, 1, 3, 2, 4, 5] {result_layout = dense<[5, 4, 2, 3, 1, 0]> : tensor<6xindex>, xla_shape = "f32[1,2,7,2,7,512]{5,4,2,3,1,0}"} : (tensor<1x2x2x7x7x512xf32>) -> tensor<1x2x7x2x7x512xf32>
    %2842 = stablehlo.reshape %2841 : (tensor<1x2x7x2x7x512xf32>) -> tensor<1x14x14x512xf32>
    %2843 = stablehlo.slice %2842 [0:1, 11:14, 0:14, 0:512] : (tensor<1x14x14x512xf32>) -> tensor<1x3x14x512xf32>
    %2844 = stablehlo.slice %2842 [0:1, 0:11, 0:14, 0:512] : (tensor<1x14x14x512xf32>) -> tensor<1x11x14x512xf32>
    %2845 = stablehlo.concatenate %2843, %2844, dim = 1 : (tensor<1x3x14x512xf32>, tensor<1x11x14x512xf32>) -> tensor<1x14x14x512xf32>
    %2846 = stablehlo.slice %2845 [0:1, 0:14, 11:14, 0:512] : (tensor<1x14x14x512xf32>) -> tensor<1x14x3x512xf32>
    %2847 = stablehlo.slice %2845 [0:1, 0:14, 0:11, 0:512] : (tensor<1x14x14x512xf32>) -> tensor<1x14x11x512xf32>
    %2848 = stablehlo.concatenate %2846, %2847, dim = 2 : (tensor<1x14x3x512xf32>, tensor<1x14x11x512xf32>) -> tensor<1x14x14x512xf32>
    %2849 = stablehlo.reshape %2848 : (tensor<1x14x14x512xf32>) -> tensor<1x196x512xf32>
    %2850 = stablehlo.add %2761, %2849 : tensor<1x196x512xf32>
    %2851 = stablehlo.reduce(%2850 init: %cst_374) applies stablehlo.add across dimensions = [2] : (tensor<1x196x512xf32>, tensor<f32>) -> tensor<1x196xf32>
    %2852 = stablehlo.divide %2851, %cst_283 : tensor<1x196xf32>
    %2853 = stablehlo.broadcast_in_dim %2852, dims = [0, 1] : (tensor<1x196xf32>) -> tensor<1x196x1xf32>
    %2854 = stablehlo.reshape %2853 : (tensor<1x196x1xf32>) -> tensor<1x196xf32>
    %2855 = stablehlo.broadcast_in_dim %2854, dims = [0, 1] : (tensor<1x196xf32>) -> tensor<1x196x512xf32>
    %2856 = stablehlo.subtract %2850, %2855 : tensor<1x196x512xf32>
    %2857 = stablehlo.multiply %2850, %2850 : tensor<1x196x512xf32>
    %2858 = stablehlo.reduce(%2857 init: %cst_374) applies stablehlo.add across dimensions = [2] : (tensor<1x196x512xf32>, tensor<f32>) -> tensor<1x196xf32>
    %2859 = stablehlo.divide %2858, %cst_283 : tensor<1x196xf32>
    %2860 = stablehlo.multiply %2852, %2852 : tensor<1x196xf32>
    %2861 = stablehlo.subtract %2859, %2860 : tensor<1x196xf32>
    %2862 = stablehlo.maximum %cst_288, %2861 : tensor<1x196xf32>
    %2863 = stablehlo.broadcast_in_dim %2862, dims = [0, 1] : (tensor<1x196xf32>) -> tensor<1x196x1xf32>
    %2864 = stablehlo.add %2863, %cst_287 : tensor<1x196x1xf32>
    %2865 = stablehlo.rsqrt %2864 : tensor<1x196x1xf32>
    %2866 = stablehlo.reshape %2865 : (tensor<1x196x1xf32>) -> tensor<1x196xf32>
    %2867 = stablehlo.broadcast_in_dim %2866, dims = [0, 1] : (tensor<1x196xf32>) -> tensor<1x196x512xf32>
    %2868 = stablehlo.reshape %cst_49 : (tensor<1x1x512xf32>) -> tensor<1x512xf32>
    %2869 = stablehlo.broadcast_in_dim %2868, dims = [0, 2] : (tensor<1x512xf32>) -> tensor<1x196x512xf32>
    %2870 = stablehlo.multiply %2867, %2869 : tensor<1x196x512xf32>
    %2871 = stablehlo.multiply %2856, %2870 : tensor<1x196x512xf32>
    %2872 = stablehlo.reshape %cst_48 : (tensor<1x1x512xf32>) -> tensor<1x512xf32>
    %2873 = stablehlo.broadcast_in_dim %2872, dims = [0, 2] : (tensor<1x512xf32>) -> tensor<1x196x512xf32>
    %2874 = stablehlo.add %2871, %2873 : tensor<1x196x512xf32>
    %2875 = stablehlo.dot_general %2874, %cst_47, contracting_dims = [2] x [0], precision = [DEFAULT, DEFAULT] : (tensor<1x196x512xf32>, tensor<512x2048xf32>) -> tensor<1x196x2048xf32>
    %2876 = stablehlo.reshape %cst_46 : (tensor<1x1x2048xf32>) -> tensor<1x2048xf32>
    %2877 = stablehlo.broadcast_in_dim %2876, dims = [0, 2] : (tensor<1x2048xf32>) -> tensor<1x196x2048xf32>
    %2878 = stablehlo.add %2875, %2877 : tensor<1x196x2048xf32>
    %2879 = stablehlo.multiply %2878, %2878 : tensor<1x196x2048xf32>
    %2880 = stablehlo.multiply %2879, %2878 : tensor<1x196x2048xf32>
    %2881 = stablehlo.multiply %cst_267, %2880 : tensor<1x196x2048xf32>
    %2882 = stablehlo.add %2878, %2881 : tensor<1x196x2048xf32>
    %2883 = stablehlo.multiply %cst_268, %2882 : tensor<1x196x2048xf32>
    %2884 = stablehlo.tanh %2883 : tensor<1x196x2048xf32>
    %2885 = stablehlo.add %cst_269, %2884 : tensor<1x196x2048xf32>
    %2886 = stablehlo.multiply %cst_270, %2885 : tensor<1x196x2048xf32>
    %2887 = stablehlo.multiply %2878, %2886 : tensor<1x196x2048xf32>
    %2888 = stablehlo.dot_general %2887, %cst_45, contracting_dims = [2] x [0], precision = [DEFAULT, DEFAULT] : (tensor<1x196x2048xf32>, tensor<2048x512xf32>) -> tensor<1x196x512xf32>
    %2889 = stablehlo.reshape %cst_44 : (tensor<1x1x512xf32>) -> tensor<1x512xf32>
    %2890 = stablehlo.broadcast_in_dim %2889, dims = [0, 2] : (tensor<1x512xf32>) -> tensor<1x196x512xf32>
    %2891 = stablehlo.add %2888, %2890 : tensor<1x196x512xf32>
    %2892 = stablehlo.add %2850, %2891 : tensor<1x196x512xf32>
    %2893 = stablehlo.reshape %2892 : (tensor<1x196x512xf32>) -> tensor<1x14x14x512xf32>
    %2894 = stablehlo.iota dim = 0 : tensor<7xi32>
    %2895 = stablehlo.multiply %c_42, %2894 : tensor<7xi32>
    %2896 = stablehlo.add %c_43, %2895 : tensor<7xi32>
    %2897 = stablehlo.broadcast_in_dim %2896, dims = [0] : (tensor<7xi32>) -> tensor<7x7x1xi32>
    %2898 = stablehlo.iota dim = 0 : tensor<7xi32>
    %2899 = stablehlo.multiply %c_42, %2898 : tensor<7xi32>
    %2900 = stablehlo.add %c_43, %2899 : tensor<7xi32>
    %2901 = stablehlo.broadcast_in_dim %2900, dims = [1] : (tensor<7xi32>) -> tensor<7x7x1xi32>
    %2902 = stablehlo.concatenate %2897, %2901, dim = 2 : (tensor<7x7x1xi32>, tensor<7x7x1xi32>) -> tensor<7x7x2xi32>
    %2903 = "stablehlo.gather"(%2893, %2902) <{dimension_numbers = #stablehlo.gather<offset_dims = [0, 3], collapsed_slice_dims = [1, 2], start_index_map = [1, 2], index_vector_dim = 2>, indices_are_sorted = true, slice_sizes = array<i64: 1, 1, 1, 512>}> : (tensor<1x14x14x512xf32>, tensor<7x7x2xi32>) -> tensor<1x7x7x512xf32>
    %2904 = stablehlo.iota dim = 0 : tensor<7xi32>
    %2905 = stablehlo.multiply %c_42, %2904 : tensor<7xi32>
    %2906 = stablehlo.add %c, %2905 : tensor<7xi32>
    %2907 = stablehlo.broadcast_in_dim %2906, dims = [0] : (tensor<7xi32>) -> tensor<7x7x1xi32>
    %2908 = stablehlo.iota dim = 0 : tensor<7xi32>
    %2909 = stablehlo.multiply %c_42, %2908 : tensor<7xi32>
    %2910 = stablehlo.add %c_43, %2909 : tensor<7xi32>
    %2911 = stablehlo.broadcast_in_dim %2910, dims = [1] : (tensor<7xi32>) -> tensor<7x7x1xi32>
    %2912 = stablehlo.concatenate %2907, %2911, dim = 2 : (tensor<7x7x1xi32>, tensor<7x7x1xi32>) -> tensor<7x7x2xi32>
    %2913 = "stablehlo.gather"(%2893, %2912) <{dimension_numbers = #stablehlo.gather<offset_dims = [0, 3], collapsed_slice_dims = [1, 2], start_index_map = [1, 2], index_vector_dim = 2>, indices_are_sorted = true, slice_sizes = array<i64: 1, 1, 1, 512>}> : (tensor<1x14x14x512xf32>, tensor<7x7x2xi32>) -> tensor<1x7x7x512xf32>
    %2914 = stablehlo.iota dim = 0 : tensor<7xi32>
    %2915 = stablehlo.multiply %c_42, %2914 : tensor<7xi32>
    %2916 = stablehlo.add %c_43, %2915 : tensor<7xi32>
    %2917 = stablehlo.broadcast_in_dim %2916, dims = [0] : (tensor<7xi32>) -> tensor<7x7x1xi32>
    %2918 = stablehlo.iota dim = 0 : tensor<7xi32>
    %2919 = stablehlo.multiply %c_42, %2918 : tensor<7xi32>
    %2920 = stablehlo.add %c, %2919 : tensor<7xi32>
    %2921 = stablehlo.broadcast_in_dim %2920, dims = [1] : (tensor<7xi32>) -> tensor<7x7x1xi32>
    %2922 = stablehlo.concatenate %2917, %2921, dim = 2 : (tensor<7x7x1xi32>, tensor<7x7x1xi32>) -> tensor<7x7x2xi32>
    %2923 = "stablehlo.gather"(%2893, %2922) <{dimension_numbers = #stablehlo.gather<offset_dims = [0, 3], collapsed_slice_dims = [1, 2], start_index_map = [1, 2], index_vector_dim = 2>, indices_are_sorted = true, slice_sizes = array<i64: 1, 1, 1, 512>}> : (tensor<1x14x14x512xf32>, tensor<7x7x2xi32>) -> tensor<1x7x7x512xf32>
    %2924 = stablehlo.iota dim = 0 : tensor<7xi32>
    %2925 = stablehlo.multiply %c_42, %2924 : tensor<7xi32>
    %2926 = stablehlo.add %c, %2925 : tensor<7xi32>
    %2927 = stablehlo.broadcast_in_dim %2926, dims = [0] : (tensor<7xi32>) -> tensor<7x7x1xi32>
    %2928 = stablehlo.iota dim = 0 : tensor<7xi32>
    %2929 = stablehlo.multiply %c_42, %2928 : tensor<7xi32>
    %2930 = stablehlo.add %c, %2929 : tensor<7xi32>
    %2931 = stablehlo.broadcast_in_dim %2930, dims = [1] : (tensor<7xi32>) -> tensor<7x7x1xi32>
    %2932 = stablehlo.concatenate %2927, %2931, dim = 2 : (tensor<7x7x1xi32>, tensor<7x7x1xi32>) -> tensor<7x7x2xi32>
    %2933 = "stablehlo.gather"(%2893, %2932) <{dimension_numbers = #stablehlo.gather<offset_dims = [0, 3], collapsed_slice_dims = [1, 2], start_index_map = [1, 2], index_vector_dim = 2>, indices_are_sorted = true, slice_sizes = array<i64: 1, 1, 1, 512>}> : (tensor<1x14x14x512xf32>, tensor<7x7x2xi32>) -> tensor<1x7x7x512xf32>
    %2934 = stablehlo.concatenate %2903, %2913, %2923, %2933, dim = 3 : (tensor<1x7x7x512xf32>, tensor<1x7x7x512xf32>, tensor<1x7x7x512xf32>, tensor<1x7x7x512xf32>) -> tensor<1x7x7x2048xf32>
    %2935 = stablehlo.reshape %2934 : (tensor<1x7x7x2048xf32>) -> tensor<1x49x2048xf32>
    %2936 = stablehlo.reduce(%2935 init: %cst_374) applies stablehlo.add across dimensions = [2] : (tensor<1x49x2048xf32>, tensor<f32>) -> tensor<1x49xf32>
    %2937 = stablehlo.divide %2936, %cst_41 : tensor<1x49xf32>
    %2938 = stablehlo.broadcast_in_dim %2937, dims = [0, 1] : (tensor<1x49xf32>) -> tensor<1x49x1xf32>
    %2939 = stablehlo.reshape %2938 : (tensor<1x49x1xf32>) -> tensor<1x49xf32>
    %2940 = stablehlo.broadcast_in_dim %2939, dims = [0, 1] : (tensor<1x49xf32>) -> tensor<1x49x2048xf32>
    %2941 = stablehlo.subtract %2935, %2940 : tensor<1x49x2048xf32>
    %2942 = stablehlo.multiply %2935, %2935 : tensor<1x49x2048xf32>
    %2943 = stablehlo.reduce(%2942 init: %cst_374) applies stablehlo.add across dimensions = [2] : (tensor<1x49x2048xf32>, tensor<f32>) -> tensor<1x49xf32>
    %2944 = stablehlo.divide %2943, %cst_41 : tensor<1x49xf32>
    %2945 = stablehlo.multiply %2937, %2937 : tensor<1x49xf32>
    %2946 = stablehlo.subtract %2944, %2945 : tensor<1x49xf32>
    %2947 = stablehlo.maximum %cst_40, %2946 : tensor<1x49xf32>
    %2948 = stablehlo.broadcast_in_dim %2947, dims = [0, 1] : (tensor<1x49xf32>) -> tensor<1x49x1xf32>
    %2949 = stablehlo.add %2948, %cst_39 : tensor<1x49x1xf32>
    %2950 = stablehlo.rsqrt %2949 : tensor<1x49x1xf32>
    %2951 = stablehlo.reshape %2950 : (tensor<1x49x1xf32>) -> tensor<1x49xf32>
    %2952 = stablehlo.broadcast_in_dim %2951, dims = [0, 1] : (tensor<1x49xf32>) -> tensor<1x49x2048xf32>
    %2953 = stablehlo.reshape %cst_38 : (tensor<1x1x2048xf32>) -> tensor<1x2048xf32>
    %2954 = stablehlo.broadcast_in_dim %2953, dims = [0, 2] : (tensor<1x2048xf32>) -> tensor<1x49x2048xf32>
    %2955 = stablehlo.multiply %2952, %2954 : tensor<1x49x2048xf32>
    %2956 = stablehlo.multiply %2941, %2955 : tensor<1x49x2048xf32>
    %2957 = stablehlo.reshape %cst_37 : (tensor<1x1x2048xf32>) -> tensor<1x2048xf32>
    %2958 = stablehlo.broadcast_in_dim %2957, dims = [0, 2] : (tensor<1x2048xf32>) -> tensor<1x49x2048xf32>
    %2959 = stablehlo.add %2956, %2958 : tensor<1x49x2048xf32>
    %2960 = stablehlo.dot_general %2959, %cst_36, contracting_dims = [2] x [0], precision = [DEFAULT, DEFAULT] : (tensor<1x49x2048xf32>, tensor<2048x1024xf32>) -> tensor<1x49x1024xf32>
    %2961 = stablehlo.reduce(%2960 init: %cst_374) applies stablehlo.add across dimensions = [2] : (tensor<1x49x1024xf32>, tensor<f32>) -> tensor<1x49xf32>
    %2962 = stablehlo.divide %2961, %cst_35 : tensor<1x49xf32>
    %2963 = stablehlo.broadcast_in_dim %2962, dims = [0, 1] : (tensor<1x49xf32>) -> tensor<1x49x1xf32>
    %2964 = stablehlo.reshape %2963 : (tensor<1x49x1xf32>) -> tensor<1x49xf32>
    %2965 = stablehlo.broadcast_in_dim %2964, dims = [0, 1] : (tensor<1x49xf32>) -> tensor<1x49x1024xf32>
    %2966 = stablehlo.subtract %2960, %2965 : tensor<1x49x1024xf32>
    %2967 = stablehlo.multiply %2960, %2960 : tensor<1x49x1024xf32>
    %2968 = stablehlo.reduce(%2967 init: %cst_374) applies stablehlo.add across dimensions = [2] : (tensor<1x49x1024xf32>, tensor<f32>) -> tensor<1x49xf32>
    %2969 = stablehlo.divide %2968, %cst_35 : tensor<1x49xf32>
    %2970 = stablehlo.multiply %2962, %2962 : tensor<1x49xf32>
    %2971 = stablehlo.subtract %2969, %2970 : tensor<1x49xf32>
    %2972 = stablehlo.maximum %cst_40, %2971 : tensor<1x49xf32>
    %2973 = stablehlo.broadcast_in_dim %2972, dims = [0, 1] : (tensor<1x49xf32>) -> tensor<1x49x1xf32>
    %2974 = stablehlo.add %2973, %cst_39 : tensor<1x49x1xf32>
    %2975 = stablehlo.rsqrt %2974 : tensor<1x49x1xf32>
    %2976 = stablehlo.reshape %2975 : (tensor<1x49x1xf32>) -> tensor<1x49xf32>
    %2977 = stablehlo.broadcast_in_dim %2976, dims = [0, 1] : (tensor<1x49xf32>) -> tensor<1x49x1024xf32>
    %2978 = stablehlo.reshape %cst_34 : (tensor<1x1x1024xf32>) -> tensor<1x1024xf32>
    %2979 = stablehlo.broadcast_in_dim %2978, dims = [0, 2] : (tensor<1x1024xf32>) -> tensor<1x49x1024xf32>
    %2980 = stablehlo.multiply %2977, %2979 : tensor<1x49x1024xf32>
    %2981 = stablehlo.multiply %2966, %2980 : tensor<1x49x1024xf32>
    %2982 = stablehlo.reshape %cst_33 : (tensor<1x1x1024xf32>) -> tensor<1x1024xf32>
    %2983 = stablehlo.broadcast_in_dim %2982, dims = [0, 2] : (tensor<1x1024xf32>) -> tensor<1x49x1024xf32>
    %2984 = stablehlo.add %2981, %2983 : tensor<1x49x1024xf32>
    %2985 = stablehlo.reshape %2984 : (tensor<1x49x1024xf32>) -> tensor<1x1x7x1x7x1024xf32>
    %2986 = stablehlo.transpose %2985, dims = [0, 1, 3, 2, 4, 5] {result_layout = dense<[5, 4, 2, 3, 1, 0]> : tensor<6xindex>, xla_shape = "f32[1,1,1,7,7,1024]{5,4,2,3,1,0}"} : (tensor<1x1x7x1x7x1024xf32>) -> tensor<1x1x1x7x7x1024xf32>
    %2987 = stablehlo.reshape %2986 : (tensor<1x1x1x7x7x1024xf32>) -> tensor<1x49x1024xf32>
    %2988 = stablehlo.dot_general %2987, %cst_32, contracting_dims = [2] x [0], precision = [DEFAULT, DEFAULT] : (tensor<1x49x1024xf32>, tensor<1024x3072xf32>) -> tensor<1x49x3072xf32>
    %2989 = stablehlo.reshape %cst_31 : (tensor<1x1x3072xf32>) -> tensor<1x3072xf32>
    %2990 = stablehlo.broadcast_in_dim %2989, dims = [0, 2] : (tensor<1x3072xf32>) -> tensor<1x49x3072xf32>
    %2991 = stablehlo.add %2988, %2990 : tensor<1x49x3072xf32>
    %2992 = stablehlo.reshape %2991 : (tensor<1x49x3072xf32>) -> tensor<1x49x3x32x32xf32>
    %2993 = stablehlo.transpose %2992, dims = [2, 0, 3, 1, 4] {result_layout = dense<[4, 2, 0, 3, 1]> : tensor<5xindex>, xla_shape = "f32[3,1,32,49,32]{4,2,0,3,1}"} : (tensor<1x49x3x32x32xf32>) -> tensor<3x1x32x49x32xf32>
    %2994 = stablehlo.slice %2993 [0:1, 0:1, 0:32, 0:49, 0:32] : (tensor<3x1x32x49x32xf32>) -> tensor<1x1x32x49x32xf32>
    %2995 = stablehlo.reshape %2994 : (tensor<1x1x32x49x32xf32>) -> tensor<1x32x49x32xf32>
    %2996 = stablehlo.multiply %2995, %cst_30 : tensor<1x32x49x32xf32>
    %2997 = stablehlo.reshape %2996 : (tensor<1x32x49x32xf32>) -> tensor<32x49x32xf32>
    %2998 = stablehlo.slice %2993 [1:2, 0:1, 0:32, 0:49, 0:32] : (tensor<3x1x32x49x32xf32>) -> tensor<1x1x32x49x32xf32>
    %2999 = stablehlo.reshape %2998 : (tensor<1x1x32x49x32xf32>) -> tensor<1x32x49x32xf32>
    %3000 = stablehlo.transpose %2999, dims = [0, 1, 3, 2] {result_layout = dense<[2, 3, 1, 0]> : tensor<4xindex>, xla_shape = "f32[1,32,32,49]{2,3,1,0}"} : (tensor<1x32x49x32xf32>) -> tensor<1x32x32x49xf32>
    %3001 = stablehlo.dot_general %2997, %3000, batching_dims = [0] x [1], contracting_dims = [2] x [2], precision = [DEFAULT, DEFAULT] : (tensor<32x49x32xf32>, tensor<1x32x32x49xf32>) -> tensor<32x49x1x49xf32>
    %3002 = stablehlo.transpose %3001, dims = [2, 0, 1, 3] {result_layout = dense<[3, 0, 2, 1]> : tensor<4xindex>, xla_shape = "f32[1,32,49,49]{3,0,2,1}"} : (tensor<32x49x1x49xf32>) -> tensor<1x32x49x49xf32>
    %3003 = stablehlo.compare  LT, %c_362, %c_361 : (tensor<2401xi32>, tensor<2401xi32>) -> tensor<2401xi1>
    %3004 = stablehlo.add %c_362, %c_360 : tensor<2401xi32>
    %3005 = stablehlo.select %3003, %3004, %c_362 : tensor<2401xi1>, tensor<2401xi32>
    %3006 = stablehlo.broadcast_in_dim %3005, dims = [0] : (tensor<2401xi32>) -> tensor<2401x1xi32>
    %3007 = "stablehlo.gather"(%cst_29, %3006) <{dimension_numbers = #stablehlo.gather<offset_dims = [1], collapsed_slice_dims = [0], start_index_map = [0], index_vector_dim = 1>, indices_are_sorted = false, slice_sizes = array<i64: 1, 32>}> : (tensor<169x32xf32>, tensor<2401x1xi32>) -> tensor<2401x32xf32>
    %3008 = stablehlo.reshape %3007 : (tensor<2401x32xf32>) -> tensor<49x49x32xf32>
    %3009 = stablehlo.transpose %3008, dims = [2, 0, 1] {result_layout = dense<[0, 2, 1]> : tensor<3xindex>, xla_shape = "f32[32,49,49]{0,2,1}"} : (tensor<49x49x32xf32>) -> tensor<32x49x49xf32>
    %3010 = stablehlo.broadcast_in_dim %3009, dims = [1, 2, 3] : (tensor<32x49x49xf32>) -> tensor<1x32x49x49xf32>
    %3011 = stablehlo.add %3002, %3010 {result_layout = dense<[3, 0, 2, 1]> : tensor<4xindex>, xla_shape = "f32[1,32,49,49]{3,0,2,1}"} : tensor<1x32x49x49xf32>
    %3012 = stablehlo.reduce(%3011 init: %cst_359) applies stablehlo.maximum across dimensions = [3] : (tensor<1x32x49x49xf32>, tensor<f32>) -> tensor<1x32x49xf32>
    %3013 = stablehlo.broadcast_in_dim %3012, dims = [0, 1, 2] : (tensor<1x32x49xf32>) -> tensor<1x32x49x1xf32>
    %3014 = stablehlo.reshape %3013 : (tensor<1x32x49x1xf32>) -> tensor<1x32x49xf32>
    %3015 = stablehlo.broadcast_in_dim %3014, dims = [0, 1, 2] : (tensor<1x32x49xf32>) -> tensor<1x32x49x49xf32>
    %3016 = stablehlo.subtract %3011, %3015 {result_layout = dense<[3, 0, 2, 1]> : tensor<4xindex>, xla_shape = "f32[1,32,49,49]{3,0,2,1}"} : tensor<1x32x49x49xf32>
    %3017 = stablehlo.exponential %3016 {result_layout = dense<[3, 0, 2, 1]> : tensor<4xindex>, xla_shape = "f32[1,32,49,49]{3,0,2,1}"} : tensor<1x32x49x49xf32>
    %3018 = stablehlo.reduce(%3017 init: %cst_374) applies stablehlo.add across dimensions = [3] : (tensor<1x32x49x49xf32>, tensor<f32>) -> tensor<1x32x49xf32>
    %3019 = stablehlo.broadcast_in_dim %3018, dims = [0, 1, 2] : (tensor<1x32x49xf32>) -> tensor<1x32x49x1xf32>
    %3020 = stablehlo.reshape %3019 : (tensor<1x32x49x1xf32>) -> tensor<1x32x49xf32>
    %3021 = stablehlo.broadcast_in_dim %3020, dims = [0, 1, 2] : (tensor<1x32x49xf32>) -> tensor<1x32x49x49xf32>
    %3022 = stablehlo.divide %3017, %3021 {result_layout = dense<[3, 0, 2, 1]> : tensor<4xindex>, xla_shape = "f32[1,32,49,49]{3,0,2,1}"} : tensor<1x32x49x49xf32>
    %3023 = stablehlo.reshape %3022 : (tensor<1x32x49x49xf32>) -> tensor<32x49x49xf32>
    %3024 = stablehlo.slice %2993 [2:3, 0:1, 0:32, 0:49, 0:32] : (tensor<3x1x32x49x32xf32>) -> tensor<1x1x32x49x32xf32>
    %3025 = stablehlo.reshape %3024 : (tensor<1x1x32x49x32xf32>) -> tensor<1x32x49x32xf32>
    %3026 = stablehlo.dot_general %3023, %3025, batching_dims = [0] x [1], contracting_dims = [2] x [2], precision = [DEFAULT, DEFAULT] : (tensor<32x49x49xf32>, tensor<1x32x49x32xf32>) -> tensor<32x49x1x32xf32>
    %3027 = stablehlo.transpose %3026, dims = [2, 0, 1, 3] {result_layout = dense<[3, 0, 2, 1]> : tensor<4xindex>, xla_shape = "f32[1,32,49,32]{3,0,2,1}"} : (tensor<32x49x1x32xf32>) -> tensor<1x32x49x32xf32>
    %3028 = stablehlo.transpose %3027, dims = [0, 2, 1, 3] {result_layout = dense<[3, 0, 1, 2]> : tensor<4xindex>, xla_shape = "f32[1,49,32,32]{3,0,1,2}"} : (tensor<1x32x49x32xf32>) -> tensor<1x49x32x32xf32>
    %3029 = stablehlo.reshape %3028 : (tensor<1x49x32x32xf32>) -> tensor<1x49x1024xf32>
    %3030 = stablehlo.dot_general %3029, %cst_28, contracting_dims = [2] x [0], precision = [DEFAULT, DEFAULT] : (tensor<1x49x1024xf32>, tensor<1024x1024xf32>) -> tensor<1x49x1024xf32>
    %3031 = stablehlo.reshape %cst_27 : (tensor<1x1x1024xf32>) -> tensor<1x1024xf32>
    %3032 = stablehlo.broadcast_in_dim %3031, dims = [0, 2] : (tensor<1x1024xf32>) -> tensor<1x49x1024xf32>
    %3033 = stablehlo.add %3030, %3032 : tensor<1x49x1024xf32>
    %3034 = stablehlo.reshape %3033 : (tensor<1x49x1024xf32>) -> tensor<1x1x1x7x7x1024xf32>
    %3035 = stablehlo.transpose %3034, dims = [0, 1, 3, 2, 4, 5] {result_layout = dense<[5, 4, 2, 3, 1, 0]> : tensor<6xindex>, xla_shape = "f32[1,1,7,1,7,1024]{5,4,2,3,1,0}"} : (tensor<1x1x1x7x7x1024xf32>) -> tensor<1x1x7x1x7x1024xf32>
    %3036 = stablehlo.reshape %3035 : (tensor<1x1x7x1x7x1024xf32>) -> tensor<1x49x1024xf32>
    %3037 = stablehlo.add %2960, %3036 : tensor<1x49x1024xf32>
    %3038 = stablehlo.reduce(%3037 init: %cst_374) applies stablehlo.add across dimensions = [2] : (tensor<1x49x1024xf32>, tensor<f32>) -> tensor<1x49xf32>
    %3039 = stablehlo.divide %3038, %cst_35 : tensor<1x49xf32>
    %3040 = stablehlo.broadcast_in_dim %3039, dims = [0, 1] : (tensor<1x49xf32>) -> tensor<1x49x1xf32>
    %3041 = stablehlo.reshape %3040 : (tensor<1x49x1xf32>) -> tensor<1x49xf32>
    %3042 = stablehlo.broadcast_in_dim %3041, dims = [0, 1] : (tensor<1x49xf32>) -> tensor<1x49x1024xf32>
    %3043 = stablehlo.subtract %3037, %3042 : tensor<1x49x1024xf32>
    %3044 = stablehlo.multiply %3037, %3037 : tensor<1x49x1024xf32>
    %3045 = stablehlo.reduce(%3044 init: %cst_374) applies stablehlo.add across dimensions = [2] : (tensor<1x49x1024xf32>, tensor<f32>) -> tensor<1x49xf32>
    %3046 = stablehlo.divide %3045, %cst_35 : tensor<1x49xf32>
    %3047 = stablehlo.multiply %3039, %3039 : tensor<1x49xf32>
    %3048 = stablehlo.subtract %3046, %3047 : tensor<1x49xf32>
    %3049 = stablehlo.maximum %cst_40, %3048 : tensor<1x49xf32>
    %3050 = stablehlo.broadcast_in_dim %3049, dims = [0, 1] : (tensor<1x49xf32>) -> tensor<1x49x1xf32>
    %3051 = stablehlo.add %3050, %cst_39 : tensor<1x49x1xf32>
    %3052 = stablehlo.rsqrt %3051 : tensor<1x49x1xf32>
    %3053 = stablehlo.reshape %3052 : (tensor<1x49x1xf32>) -> tensor<1x49xf32>
    %3054 = stablehlo.broadcast_in_dim %3053, dims = [0, 1] : (tensor<1x49xf32>) -> tensor<1x49x1024xf32>
    %3055 = stablehlo.reshape %cst_26 : (tensor<1x1x1024xf32>) -> tensor<1x1024xf32>
    %3056 = stablehlo.broadcast_in_dim %3055, dims = [0, 2] : (tensor<1x1024xf32>) -> tensor<1x49x1024xf32>
    %3057 = stablehlo.multiply %3054, %3056 : tensor<1x49x1024xf32>
    %3058 = stablehlo.multiply %3043, %3057 : tensor<1x49x1024xf32>
    %3059 = stablehlo.reshape %cst_25 : (tensor<1x1x1024xf32>) -> tensor<1x1024xf32>
    %3060 = stablehlo.broadcast_in_dim %3059, dims = [0, 2] : (tensor<1x1024xf32>) -> tensor<1x49x1024xf32>
    %3061 = stablehlo.add %3058, %3060 : tensor<1x49x1024xf32>
    %3062 = stablehlo.dot_general %3061, %cst_24, contracting_dims = [2] x [0], precision = [DEFAULT, DEFAULT] : (tensor<1x49x1024xf32>, tensor<1024x4096xf32>) -> tensor<1x49x4096xf32>
    %3063 = stablehlo.reshape %cst_23 : (tensor<1x1x4096xf32>) -> tensor<1x4096xf32>
    %3064 = stablehlo.broadcast_in_dim %3063, dims = [0, 2] : (tensor<1x4096xf32>) -> tensor<1x49x4096xf32>
    %3065 = stablehlo.add %3062, %3064 : tensor<1x49x4096xf32>
    %3066 = stablehlo.multiply %3065, %3065 : tensor<1x49x4096xf32>
    %3067 = stablehlo.multiply %3066, %3065 : tensor<1x49x4096xf32>
    %3068 = stablehlo.multiply %cst_19, %3067 : tensor<1x49x4096xf32>
    %3069 = stablehlo.add %3065, %3068 : tensor<1x49x4096xf32>
    %3070 = stablehlo.multiply %cst_20, %3069 : tensor<1x49x4096xf32>
    %3071 = stablehlo.tanh %3070 : tensor<1x49x4096xf32>
    %3072 = stablehlo.add %cst_21, %3071 : tensor<1x49x4096xf32>
    %3073 = stablehlo.multiply %cst_22, %3072 : tensor<1x49x4096xf32>
    %3074 = stablehlo.multiply %3065, %3073 : tensor<1x49x4096xf32>
    %3075 = stablehlo.dot_general %3074, %cst_18, contracting_dims = [2] x [0], precision = [DEFAULT, DEFAULT] : (tensor<1x49x4096xf32>, tensor<4096x1024xf32>) -> tensor<1x49x1024xf32>
    %3076 = stablehlo.reshape %cst_17 : (tensor<1x1x1024xf32>) -> tensor<1x1024xf32>
    %3077 = stablehlo.broadcast_in_dim %3076, dims = [0, 2] : (tensor<1x1024xf32>) -> tensor<1x49x1024xf32>
    %3078 = stablehlo.add %3075, %3077 : tensor<1x49x1024xf32>
    %3079 = stablehlo.add %3037, %3078 : tensor<1x49x1024xf32>
    %3080 = stablehlo.reduce(%3079 init: %cst_374) applies stablehlo.add across dimensions = [2] : (tensor<1x49x1024xf32>, tensor<f32>) -> tensor<1x49xf32>
    %3081 = stablehlo.divide %3080, %cst_35 : tensor<1x49xf32>
    %3082 = stablehlo.broadcast_in_dim %3081, dims = [0, 1] : (tensor<1x49xf32>) -> tensor<1x49x1xf32>
    %3083 = stablehlo.reshape %3082 : (tensor<1x49x1xf32>) -> tensor<1x49xf32>
    %3084 = stablehlo.broadcast_in_dim %3083, dims = [0, 1] : (tensor<1x49xf32>) -> tensor<1x49x1024xf32>
    %3085 = stablehlo.subtract %3079, %3084 : tensor<1x49x1024xf32>
    %3086 = stablehlo.multiply %3079, %3079 : tensor<1x49x1024xf32>
    %3087 = stablehlo.reduce(%3086 init: %cst_374) applies stablehlo.add across dimensions = [2] : (tensor<1x49x1024xf32>, tensor<f32>) -> tensor<1x49xf32>
    %3088 = stablehlo.divide %3087, %cst_35 : tensor<1x49xf32>
    %3089 = stablehlo.multiply %3081, %3081 : tensor<1x49xf32>
    %3090 = stablehlo.subtract %3088, %3089 : tensor<1x49xf32>
    %3091 = stablehlo.maximum %cst_40, %3090 : tensor<1x49xf32>
    %3092 = stablehlo.broadcast_in_dim %3091, dims = [0, 1] : (tensor<1x49xf32>) -> tensor<1x49x1xf32>
    %3093 = stablehlo.add %3092, %cst_39 : tensor<1x49x1xf32>
    %3094 = stablehlo.rsqrt %3093 : tensor<1x49x1xf32>
    %3095 = stablehlo.reshape %3094 : (tensor<1x49x1xf32>) -> tensor<1x49xf32>
    %3096 = stablehlo.broadcast_in_dim %3095, dims = [0, 1] : (tensor<1x49xf32>) -> tensor<1x49x1024xf32>
    %3097 = stablehlo.reshape %cst_16 : (tensor<1x1x1024xf32>) -> tensor<1x1024xf32>
    %3098 = stablehlo.broadcast_in_dim %3097, dims = [0, 2] : (tensor<1x1024xf32>) -> tensor<1x49x1024xf32>
    %3099 = stablehlo.multiply %3096, %3098 : tensor<1x49x1024xf32>
    %3100 = stablehlo.multiply %3085, %3099 : tensor<1x49x1024xf32>
    %3101 = stablehlo.reshape %cst_15 : (tensor<1x1x1024xf32>) -> tensor<1x1024xf32>
    %3102 = stablehlo.broadcast_in_dim %3101, dims = [0, 2] : (tensor<1x1024xf32>) -> tensor<1x49x1024xf32>
    %3103 = stablehlo.add %3100, %3102 : tensor<1x49x1024xf32>
    %3104 = stablehlo.reshape %3103 : (tensor<1x49x1024xf32>) -> tensor<1x7x7x1024xf32>
    %3105 = stablehlo.slice %3104 [0:1, 3:7, 0:7, 0:1024] : (tensor<1x7x7x1024xf32>) -> tensor<1x4x7x1024xf32>
    %3106 = stablehlo.slice %3104 [0:1, 0:3, 0:7, 0:1024] : (tensor<1x7x7x1024xf32>) -> tensor<1x3x7x1024xf32>
    %3107 = stablehlo.concatenate %3105, %3106, dim = 1 : (tensor<1x4x7x1024xf32>, tensor<1x3x7x1024xf32>) -> tensor<1x7x7x1024xf32>
    %3108 = stablehlo.slice %3107 [0:1, 0:7, 3:7, 0:1024] : (tensor<1x7x7x1024xf32>) -> tensor<1x7x4x1024xf32>
    %3109 = stablehlo.slice %3107 [0:1, 0:7, 0:3, 0:1024] : (tensor<1x7x7x1024xf32>) -> tensor<1x7x3x1024xf32>
    %3110 = stablehlo.concatenate %3108, %3109, dim = 2 : (tensor<1x7x4x1024xf32>, tensor<1x7x3x1024xf32>) -> tensor<1x7x7x1024xf32>
    %3111 = stablehlo.reshape %3110 : (tensor<1x7x7x1024xf32>) -> tensor<1x1x7x1x7x1024xf32>
    %3112 = stablehlo.transpose %3111, dims = [0, 1, 3, 2, 4, 5] {result_layout = dense<[5, 4, 2, 3, 1, 0]> : tensor<6xindex>, xla_shape = "f32[1,1,1,7,7,1024]{5,4,2,3,1,0}"} : (tensor<1x1x7x1x7x1024xf32>) -> tensor<1x1x1x7x7x1024xf32>
    %3113 = stablehlo.reshape %3112 : (tensor<1x1x1x7x7x1024xf32>) -> tensor<1x49x1024xf32>
    %3114 = stablehlo.dot_general %3113, %cst_14, contracting_dims = [2] x [0], precision = [DEFAULT, DEFAULT] : (tensor<1x49x1024xf32>, tensor<1024x3072xf32>) -> tensor<1x49x3072xf32>
    %3115 = stablehlo.reshape %cst_13 : (tensor<1x1x3072xf32>) -> tensor<1x3072xf32>
    %3116 = stablehlo.broadcast_in_dim %3115, dims = [0, 2] : (tensor<1x3072xf32>) -> tensor<1x49x3072xf32>
    %3117 = stablehlo.add %3114, %3116 : tensor<1x49x3072xf32>
    %3118 = stablehlo.reshape %3117 : (tensor<1x49x3072xf32>) -> tensor<1x49x3x32x32xf32>
    %3119 = stablehlo.transpose %3118, dims = [2, 0, 3, 1, 4] {result_layout = dense<[4, 2, 0, 3, 1]> : tensor<5xindex>, xla_shape = "f32[3,1,32,49,32]{4,2,0,3,1}"} : (tensor<1x49x3x32x32xf32>) -> tensor<3x1x32x49x32xf32>
    %3120 = stablehlo.slice %3119 [0:1, 0:1, 0:32, 0:49, 0:32] : (tensor<3x1x32x49x32xf32>) -> tensor<1x1x32x49x32xf32>
    %3121 = stablehlo.reshape %3120 : (tensor<1x1x32x49x32xf32>) -> tensor<1x32x49x32xf32>
    %3122 = stablehlo.multiply %3121, %cst_30 : tensor<1x32x49x32xf32>
    %3123 = stablehlo.reshape %3122 : (tensor<1x32x49x32xf32>) -> tensor<32x49x32xf32>
    %3124 = stablehlo.slice %3119 [1:2, 0:1, 0:32, 0:49, 0:32] : (tensor<3x1x32x49x32xf32>) -> tensor<1x1x32x49x32xf32>
    %3125 = stablehlo.reshape %3124 : (tensor<1x1x32x49x32xf32>) -> tensor<1x32x49x32xf32>
    %3126 = stablehlo.transpose %3125, dims = [0, 1, 3, 2] {result_layout = dense<[2, 3, 1, 0]> : tensor<4xindex>, xla_shape = "f32[1,32,32,49]{2,3,1,0}"} : (tensor<1x32x49x32xf32>) -> tensor<1x32x32x49xf32>
    %3127 = stablehlo.dot_general %3123, %3126, batching_dims = [0] x [1], contracting_dims = [2] x [2], precision = [DEFAULT, DEFAULT] : (tensor<32x49x32xf32>, tensor<1x32x32x49xf32>) -> tensor<32x49x1x49xf32>
    %3128 = stablehlo.transpose %3127, dims = [2, 0, 1, 3] {result_layout = dense<[3, 0, 2, 1]> : tensor<4xindex>, xla_shape = "f32[1,32,49,49]{3,0,2,1}"} : (tensor<32x49x1x49xf32>) -> tensor<1x32x49x49xf32>
    %3129 = stablehlo.compare  LT, %c_362, %c_361 : (tensor<2401xi32>, tensor<2401xi32>) -> tensor<2401xi1>
    %3130 = stablehlo.add %c_362, %c_360 : tensor<2401xi32>
    %3131 = stablehlo.select %3129, %3130, %c_362 : tensor<2401xi1>, tensor<2401xi32>
    %3132 = stablehlo.broadcast_in_dim %3131, dims = [0] : (tensor<2401xi32>) -> tensor<2401x1xi32>
    %3133 = "stablehlo.gather"(%cst_12, %3132) <{dimension_numbers = #stablehlo.gather<offset_dims = [1], collapsed_slice_dims = [0], start_index_map = [0], index_vector_dim = 1>, indices_are_sorted = false, slice_sizes = array<i64: 1, 32>}> : (tensor<169x32xf32>, tensor<2401x1xi32>) -> tensor<2401x32xf32>
    %3134 = stablehlo.reshape %3133 : (tensor<2401x32xf32>) -> tensor<49x49x32xf32>
    %3135 = stablehlo.transpose %3134, dims = [2, 0, 1] {result_layout = dense<[0, 2, 1]> : tensor<3xindex>, xla_shape = "f32[32,49,49]{0,2,1}"} : (tensor<49x49x32xf32>) -> tensor<32x49x49xf32>
    %3136 = stablehlo.broadcast_in_dim %3135, dims = [1, 2, 3] : (tensor<32x49x49xf32>) -> tensor<1x32x49x49xf32>
    %3137 = stablehlo.add %3128, %3136 {result_layout = dense<[3, 0, 2, 1]> : tensor<4xindex>, xla_shape = "f32[1,32,49,49]{3,0,2,1}"} : tensor<1x32x49x49xf32>
    %3138 = stablehlo.reduce(%3137 init: %cst_359) applies stablehlo.maximum across dimensions = [3] : (tensor<1x32x49x49xf32>, tensor<f32>) -> tensor<1x32x49xf32>
    %3139 = stablehlo.broadcast_in_dim %3138, dims = [0, 1, 2] : (tensor<1x32x49xf32>) -> tensor<1x32x49x1xf32>
    %3140 = stablehlo.reshape %3139 : (tensor<1x32x49x1xf32>) -> tensor<1x32x49xf32>
    %3141 = stablehlo.broadcast_in_dim %3140, dims = [0, 1, 2] : (tensor<1x32x49xf32>) -> tensor<1x32x49x49xf32>
    %3142 = stablehlo.subtract %3137, %3141 {result_layout = dense<[3, 0, 2, 1]> : tensor<4xindex>, xla_shape = "f32[1,32,49,49]{3,0,2,1}"} : tensor<1x32x49x49xf32>
    %3143 = stablehlo.exponential %3142 {result_layout = dense<[3, 0, 2, 1]> : tensor<4xindex>, xla_shape = "f32[1,32,49,49]{3,0,2,1}"} : tensor<1x32x49x49xf32>
    %3144 = stablehlo.reduce(%3143 init: %cst_374) applies stablehlo.add across dimensions = [3] : (tensor<1x32x49x49xf32>, tensor<f32>) -> tensor<1x32x49xf32>
    %3145 = stablehlo.broadcast_in_dim %3144, dims = [0, 1, 2] : (tensor<1x32x49xf32>) -> tensor<1x32x49x1xf32>
    %3146 = stablehlo.reshape %3145 : (tensor<1x32x49x1xf32>) -> tensor<1x32x49xf32>
    %3147 = stablehlo.broadcast_in_dim %3146, dims = [0, 1, 2] : (tensor<1x32x49xf32>) -> tensor<1x32x49x49xf32>
    %3148 = stablehlo.divide %3143, %3147 {result_layout = dense<[3, 0, 2, 1]> : tensor<4xindex>, xla_shape = "f32[1,32,49,49]{3,0,2,1}"} : tensor<1x32x49x49xf32>
    %3149 = stablehlo.reshape %3148 : (tensor<1x32x49x49xf32>) -> tensor<32x49x49xf32>
    %3150 = stablehlo.slice %3119 [2:3, 0:1, 0:32, 0:49, 0:32] : (tensor<3x1x32x49x32xf32>) -> tensor<1x1x32x49x32xf32>
    %3151 = stablehlo.reshape %3150 : (tensor<1x1x32x49x32xf32>) -> tensor<1x32x49x32xf32>
    %3152 = stablehlo.dot_general %3149, %3151, batching_dims = [0] x [1], contracting_dims = [2] x [2], precision = [DEFAULT, DEFAULT] : (tensor<32x49x49xf32>, tensor<1x32x49x32xf32>) -> tensor<32x49x1x32xf32>
    %3153 = stablehlo.transpose %3152, dims = [2, 0, 1, 3] {result_layout = dense<[3, 0, 2, 1]> : tensor<4xindex>, xla_shape = "f32[1,32,49,32]{3,0,2,1}"} : (tensor<32x49x1x32xf32>) -> tensor<1x32x49x32xf32>
    %3154 = stablehlo.transpose %3153, dims = [0, 2, 1, 3] {result_layout = dense<[3, 0, 1, 2]> : tensor<4xindex>, xla_shape = "f32[1,49,32,32]{3,0,1,2}"} : (tensor<1x32x49x32xf32>) -> tensor<1x49x32x32xf32>
    %3155 = stablehlo.reshape %3154 : (tensor<1x49x32x32xf32>) -> tensor<1x49x1024xf32>
    %3156 = stablehlo.dot_general %3155, %cst_11, contracting_dims = [2] x [0], precision = [DEFAULT, DEFAULT] : (tensor<1x49x1024xf32>, tensor<1024x1024xf32>) -> tensor<1x49x1024xf32>
    %3157 = stablehlo.reshape %cst_10 : (tensor<1x1x1024xf32>) -> tensor<1x1024xf32>
    %3158 = stablehlo.broadcast_in_dim %3157, dims = [0, 2] : (tensor<1x1024xf32>) -> tensor<1x49x1024xf32>
    %3159 = stablehlo.add %3156, %3158 : tensor<1x49x1024xf32>
    %3160 = stablehlo.reshape %3159 : (tensor<1x49x1024xf32>) -> tensor<1x1x1x7x7x1024xf32>
    %3161 = stablehlo.transpose %3160, dims = [0, 1, 3, 2, 4, 5] {result_layout = dense<[5, 4, 2, 3, 1, 0]> : tensor<6xindex>, xla_shape = "f32[1,1,7,1,7,1024]{5,4,2,3,1,0}"} : (tensor<1x1x1x7x7x1024xf32>) -> tensor<1x1x7x1x7x1024xf32>
    %3162 = stablehlo.reshape %3161 : (tensor<1x1x7x1x7x1024xf32>) -> tensor<1x7x7x1024xf32>
    %3163 = stablehlo.slice %3162 [0:1, 4:7, 0:7, 0:1024] : (tensor<1x7x7x1024xf32>) -> tensor<1x3x7x1024xf32>
    %3164 = stablehlo.slice %3162 [0:1, 0:4, 0:7, 0:1024] : (tensor<1x7x7x1024xf32>) -> tensor<1x4x7x1024xf32>
    %3165 = stablehlo.concatenate %3163, %3164, dim = 1 : (tensor<1x3x7x1024xf32>, tensor<1x4x7x1024xf32>) -> tensor<1x7x7x1024xf32>
    %3166 = stablehlo.slice %3165 [0:1, 0:7, 4:7, 0:1024] : (tensor<1x7x7x1024xf32>) -> tensor<1x7x3x1024xf32>
    %3167 = stablehlo.slice %3165 [0:1, 0:7, 0:4, 0:1024] : (tensor<1x7x7x1024xf32>) -> tensor<1x7x4x1024xf32>
    %3168 = stablehlo.concatenate %3166, %3167, dim = 2 : (tensor<1x7x3x1024xf32>, tensor<1x7x4x1024xf32>) -> tensor<1x7x7x1024xf32>
    %3169 = stablehlo.reshape %3168 : (tensor<1x7x7x1024xf32>) -> tensor<1x49x1024xf32>
    %3170 = stablehlo.add %3079, %3169 : tensor<1x49x1024xf32>
    %3171 = stablehlo.reduce(%3170 init: %cst_374) applies stablehlo.add across dimensions = [2] : (tensor<1x49x1024xf32>, tensor<f32>) -> tensor<1x49xf32>
    %3172 = stablehlo.divide %3171, %cst_35 : tensor<1x49xf32>
    %3173 = stablehlo.broadcast_in_dim %3172, dims = [0, 1] : (tensor<1x49xf32>) -> tensor<1x49x1xf32>
    %3174 = stablehlo.reshape %3173 : (tensor<1x49x1xf32>) -> tensor<1x49xf32>
    %3175 = stablehlo.broadcast_in_dim %3174, dims = [0, 1] : (tensor<1x49xf32>) -> tensor<1x49x1024xf32>
    %3176 = stablehlo.subtract %3170, %3175 : tensor<1x49x1024xf32>
    %3177 = stablehlo.multiply %3170, %3170 : tensor<1x49x1024xf32>
    %3178 = stablehlo.reduce(%3177 init: %cst_374) applies stablehlo.add across dimensions = [2] : (tensor<1x49x1024xf32>, tensor<f32>) -> tensor<1x49xf32>
    %3179 = stablehlo.divide %3178, %cst_35 : tensor<1x49xf32>
    %3180 = stablehlo.multiply %3172, %3172 : tensor<1x49xf32>
    %3181 = stablehlo.subtract %3179, %3180 : tensor<1x49xf32>
    %3182 = stablehlo.maximum %cst_40, %3181 : tensor<1x49xf32>
    %3183 = stablehlo.broadcast_in_dim %3182, dims = [0, 1] : (tensor<1x49xf32>) -> tensor<1x49x1xf32>
    %3184 = stablehlo.add %3183, %cst_39 : tensor<1x49x1xf32>
    %3185 = stablehlo.rsqrt %3184 : tensor<1x49x1xf32>
    %3186 = stablehlo.reshape %3185 : (tensor<1x49x1xf32>) -> tensor<1x49xf32>
    %3187 = stablehlo.broadcast_in_dim %3186, dims = [0, 1] : (tensor<1x49xf32>) -> tensor<1x49x1024xf32>
    %3188 = stablehlo.reshape %cst_9 : (tensor<1x1x1024xf32>) -> tensor<1x1024xf32>
    %3189 = stablehlo.broadcast_in_dim %3188, dims = [0, 2] : (tensor<1x1024xf32>) -> tensor<1x49x1024xf32>
    %3190 = stablehlo.multiply %3187, %3189 : tensor<1x49x1024xf32>
    %3191 = stablehlo.multiply %3176, %3190 : tensor<1x49x1024xf32>
    %3192 = stablehlo.reshape %cst_8 : (tensor<1x1x1024xf32>) -> tensor<1x1024xf32>
    %3193 = stablehlo.broadcast_in_dim %3192, dims = [0, 2] : (tensor<1x1024xf32>) -> tensor<1x49x1024xf32>
    %3194 = stablehlo.add %3191, %3193 : tensor<1x49x1024xf32>
    %3195 = stablehlo.dot_general %3194, %cst_7, contracting_dims = [2] x [0], precision = [DEFAULT, DEFAULT] : (tensor<1x49x1024xf32>, tensor<1024x4096xf32>) -> tensor<1x49x4096xf32>
    %3196 = stablehlo.reshape %cst_6 : (tensor<1x1x4096xf32>) -> tensor<1x4096xf32>
    %3197 = stablehlo.broadcast_in_dim %3196, dims = [0, 2] : (tensor<1x4096xf32>) -> tensor<1x49x4096xf32>
    %3198 = stablehlo.add %3195, %3197 : tensor<1x49x4096xf32>
    %3199 = stablehlo.multiply %3198, %3198 : tensor<1x49x4096xf32>
    %3200 = stablehlo.multiply %3199, %3198 : tensor<1x49x4096xf32>
    %3201 = stablehlo.multiply %cst_19, %3200 : tensor<1x49x4096xf32>
    %3202 = stablehlo.add %3198, %3201 : tensor<1x49x4096xf32>
    %3203 = stablehlo.multiply %cst_20, %3202 : tensor<1x49x4096xf32>
    %3204 = stablehlo.tanh %3203 : tensor<1x49x4096xf32>
    %3205 = stablehlo.add %cst_21, %3204 : tensor<1x49x4096xf32>
    %3206 = stablehlo.multiply %cst_22, %3205 : tensor<1x49x4096xf32>
    %3207 = stablehlo.multiply %3198, %3206 : tensor<1x49x4096xf32>
    %3208 = stablehlo.dot_general %3207, %cst_5, contracting_dims = [2] x [0], precision = [DEFAULT, DEFAULT] : (tensor<1x49x4096xf32>, tensor<4096x1024xf32>) -> tensor<1x49x1024xf32>
    %3209 = stablehlo.reshape %cst_4 : (tensor<1x1x1024xf32>) -> tensor<1x1024xf32>
    %3210 = stablehlo.broadcast_in_dim %3209, dims = [0, 2] : (tensor<1x1024xf32>) -> tensor<1x49x1024xf32>
    %3211 = stablehlo.add %3208, %3210 : tensor<1x49x1024xf32>
    %3212 = stablehlo.add %3170, %3211 : tensor<1x49x1024xf32>
    %3213 = stablehlo.reduce(%3212 init: %cst_374) applies stablehlo.add across dimensions = [2] : (tensor<1x49x1024xf32>, tensor<f32>) -> tensor<1x49xf32>
    %3214 = stablehlo.divide %3213, %cst_35 : tensor<1x49xf32>
    %3215 = stablehlo.broadcast_in_dim %3214, dims = [0, 1] : (tensor<1x49xf32>) -> tensor<1x49x1xf32>
    %3216 = stablehlo.reshape %3215 : (tensor<1x49x1xf32>) -> tensor<1x49xf32>
    %3217 = stablehlo.broadcast_in_dim %3216, dims = [0, 1] : (tensor<1x49xf32>) -> tensor<1x49x1024xf32>
    %3218 = stablehlo.subtract %3212, %3217 : tensor<1x49x1024xf32>
    %3219 = stablehlo.multiply %3212, %3212 : tensor<1x49x1024xf32>
    %3220 = stablehlo.reduce(%3219 init: %cst_374) applies stablehlo.add across dimensions = [2] : (tensor<1x49x1024xf32>, tensor<f32>) -> tensor<1x49xf32>
    %3221 = stablehlo.divide %3220, %cst_35 : tensor<1x49xf32>
    %3222 = stablehlo.multiply %3214, %3214 : tensor<1x49xf32>
    %3223 = stablehlo.subtract %3221, %3222 : tensor<1x49xf32>
    %3224 = stablehlo.maximum %cst_40, %3223 : tensor<1x49xf32>
    %3225 = stablehlo.broadcast_in_dim %3224, dims = [0, 1] : (tensor<1x49xf32>) -> tensor<1x49x1xf32>
    %3226 = stablehlo.add %3225, %cst_39 : tensor<1x49x1xf32>
    %3227 = stablehlo.rsqrt %3226 : tensor<1x49x1xf32>
    %3228 = stablehlo.reshape %3227 : (tensor<1x49x1xf32>) -> tensor<1x49xf32>
    %3229 = stablehlo.broadcast_in_dim %3228, dims = [0, 1] : (tensor<1x49xf32>) -> tensor<1x49x1024xf32>
    %3230 = stablehlo.reshape %cst_3 : (tensor<1x1x1024xf32>) -> tensor<1x1024xf32>
    %3231 = stablehlo.broadcast_in_dim %3230, dims = [0, 2] : (tensor<1x1024xf32>) -> tensor<1x49x1024xf32>
    %3232 = stablehlo.multiply %3229, %3231 : tensor<1x49x1024xf32>
    %3233 = stablehlo.multiply %3218, %3232 : tensor<1x49x1024xf32>
    %3234 = stablehlo.reshape %cst_2 : (tensor<1x1x1024xf32>) -> tensor<1x1024xf32>
    %3235 = stablehlo.broadcast_in_dim %3234, dims = [0, 2] : (tensor<1x1024xf32>) -> tensor<1x49x1024xf32>
    %3236 = stablehlo.add %3233, %3235 : tensor<1x49x1024xf32>
    %3237 = stablehlo.transpose %3236, dims = [0, 2, 1] {result_layout = dense<[1, 2, 0]> : tensor<3xindex>, xla_shape = "f32[1,1024,49]{1,2,0}"} : (tensor<1x49x1024xf32>) -> tensor<1x1024x49xf32>
    %3238 = stablehlo.reduce(%3237 init: %cst_374) applies stablehlo.add across dimensions = [2] : (tensor<1x1024x49xf32>, tensor<f32>) -> tensor<1x1024xf32>
    %3239 = stablehlo.divide %3238, %cst_1 : tensor<1x1024xf32>
    %3240 = stablehlo.dot %3239, %cst_0, precision = [DEFAULT, DEFAULT] : (tensor<1x1024xf32>, tensor<1024x1000xf32>) -> tensor<1x1000xf32>
    %3241 = stablehlo.add %3240, %cst : tensor<1x1000xf32>
    return %3241 : tensor<1x1000xf32>
  }
}


