module @gpt2_bs2 attributes {mhlo.num_partitions = 1 : i32, mhlo.num_replicas = 1 : i32} {
  func.func public @main(%arg0: tensor<2x6xi32> {mhlo.sharding = "{replicated}"}, %arg1: tensor<2x6xi32> {mhlo.sharding = "{replicated}"}) -> (tensor<2x20xi32> {jax.result_info = ""}) {
    %0 = stablehlo.constant dense<0> : tensor<1xi32>
    %1 = stablehlo.constant dense<768> : tensor<i32>
    %2 = stablehlo.constant dense<0x7FC00000> : tensor<f32>
    %3 = stablehlo.constant dense<true> : tensor<i1>
    %4 = stablehlo.constant dense<50257> : tensor<i32>
    %5 = stablehlo.constant dense<-1> : tensor<i32>
    %6 = stablehlo.constant dense<2> : tensor<i32>
    %7 = stablehlo.constant dense<5.000000e-01> : tensor<f32>
    %8 = stablehlo.constant dense<1.000000e+00> : tensor<f32>
    %9 = stablehlo.constant dense<0.797884583> : tensor<f32>
    %10 = stablehlo.constant dense<4.471500e-02> : tensor<f32>
    %11 = stablehlo.constant dense<0xFF800000> : tensor<f32>
    %12 = stablehlo.constant dense<6.400000e+01> : tensor<f32>
    %13 = stablehlo.constant dense<-3.40282347E+38> : tensor<f32>
    %14 = stablehlo.constant dense<6> : tensor<i32>
    %15 = stablehlo.constant dense<20> : tensor<i32>
    %16 = stablehlo.constant dense<1024> : tensor<i32>
    %17 = stablehlo.constant dense<9.99999974E-6> : tensor<f32>
    %18 = stablehlo.constant dense<7.680000e+02> : tensor<f32>
    %19 = stablehlo.constant dense<1> : tensor<i32>
    %20 = stablehlo.constant dense<0.000000e+00> : tensor<f32>
    %21 = stablehlo.constant dense<false> : tensor<i1>
    %22 = stablehlo.constant dense<0> : tensor<i32>
    %23 = stablehlo.constant dense_resource<__elided__> : tensor<50257x768xf16>
    %24 = stablehlo.constant dense_resource<__elided__> : tensor<1024x768xf16>
    %25 = stablehlo.constant dense_resource<__elided__> : tensor<768xf16>
    %26 = stablehlo.constant dense_resource<__elided__> : tensor<768xf16>
    %27 = stablehlo.constant dense_resource<__elided__> : tensor<2304x768xf16>
    %28 = stablehlo.constant dense_resource<__elided__> : tensor<2304xf16>
    %29 = stablehlo.constant dense_resource<__elided__> : tensor<768x768xf16>
    %30 = stablehlo.constant dense_resource<__elided__> : tensor<768xf16>
    %31 = stablehlo.constant dense_resource<__elided__> : tensor<768xf16>
    %32 = stablehlo.constant dense_resource<__elided__> : tensor<768xf16>
    %33 = stablehlo.constant dense_resource<__elided__> : tensor<3072x768xf16>
    %34 = stablehlo.constant dense_resource<__elided__> : tensor<3072xf16>
    %35 = stablehlo.constant dense_resource<__elided__> : tensor<768x3072xf16>
    %36 = stablehlo.constant dense_resource<__elided__> : tensor<768xf16>
    %37 = stablehlo.constant dense_resource<__elided__> : tensor<768xf16>
    %38 = stablehlo.constant dense_resource<__elided__> : tensor<768xf16>
    %39 = stablehlo.constant dense_resource<__elided__> : tensor<2304x768xf16>
    %40 = stablehlo.constant dense_resource<__elided__> : tensor<2304xf16>
    %41 = stablehlo.constant dense_resource<__elided__> : tensor<768x768xf16>
    %42 = stablehlo.constant dense_resource<__elided__> : tensor<768xf16>
    %43 = stablehlo.constant dense_resource<__elided__> : tensor<768xf16>
    %44 = stablehlo.constant dense_resource<__elided__> : tensor<768xf16>
    %45 = stablehlo.constant dense_resource<__elided__> : tensor<3072x768xf16>
    %46 = stablehlo.constant dense_resource<__elided__> : tensor<3072xf16>
    %47 = stablehlo.constant dense_resource<__elided__> : tensor<768x3072xf16>
    %48 = stablehlo.constant dense_resource<__elided__> : tensor<768xf16>
    %49 = stablehlo.constant dense_resource<__elided__> : tensor<768xf16>
    %50 = stablehlo.constant dense_resource<__elided__> : tensor<768xf16>
    %51 = stablehlo.constant dense_resource<__elided__> : tensor<2304x768xf16>
    %52 = stablehlo.constant dense_resource<__elided__> : tensor<2304xf16>
    %53 = stablehlo.constant dense_resource<__elided__> : tensor<768x768xf16>
    %54 = stablehlo.constant dense_resource<__elided__> : tensor<768xf16>
    %55 = stablehlo.constant dense_resource<__elided__> : tensor<768xf16>
    %56 = stablehlo.constant dense_resource<__elided__> : tensor<768xf16>
    %57 = stablehlo.constant dense_resource<__elided__> : tensor<3072x768xf16>
    %58 = stablehlo.constant dense_resource<__elided__> : tensor<3072xf16>
    %59 = stablehlo.constant dense_resource<__elided__> : tensor<768x3072xf16>
    %60 = stablehlo.constant dense_resource<__elided__> : tensor<768xf16>
    %61 = stablehlo.constant dense_resource<__elided__> : tensor<768xf16>
    %62 = stablehlo.constant dense_resource<__elided__> : tensor<768xf16>
    %63 = stablehlo.constant dense_resource<__elided__> : tensor<2304x768xf16>
    %64 = stablehlo.constant dense_resource<__elided__> : tensor<2304xf16>
    %65 = stablehlo.constant dense_resource<__elided__> : tensor<768x768xf16>
    %66 = stablehlo.constant dense_resource<__elided__> : tensor<768xf16>
    %67 = stablehlo.constant dense_resource<__elided__> : tensor<768xf16>
    %68 = stablehlo.constant dense_resource<__elided__> : tensor<768xf16>
    %69 = stablehlo.constant dense_resource<__elided__> : tensor<3072x768xf16>
    %70 = stablehlo.constant dense_resource<__elided__> : tensor<3072xf16>
    %71 = stablehlo.constant dense_resource<__elided__> : tensor<768x3072xf16>
    %72 = stablehlo.constant dense_resource<__elided__> : tensor<768xf16>
    %73 = stablehlo.constant dense_resource<__elided__> : tensor<768xf16>
    %74 = stablehlo.constant dense_resource<__elided__> : tensor<768xf16>
    %75 = stablehlo.constant dense_resource<__elided__> : tensor<2304x768xf16>
    %76 = stablehlo.constant dense_resource<__elided__> : tensor<2304xf16>
    %77 = stablehlo.constant dense_resource<__elided__> : tensor<768x768xf16>
    %78 = stablehlo.constant dense_resource<__elided__> : tensor<768xf16>
    %79 = stablehlo.constant dense_resource<__elided__> : tensor<768xf16>
    %80 = stablehlo.constant dense_resource<__elided__> : tensor<768xf16>
    %81 = stablehlo.constant dense_resource<__elided__> : tensor<3072x768xf16>
    %82 = stablehlo.constant dense_resource<__elided__> : tensor<3072xf16>
    %83 = stablehlo.constant dense_resource<__elided__> : tensor<768x3072xf16>
    %84 = stablehlo.constant dense_resource<__elided__> : tensor<768xf16>
    %85 = stablehlo.constant dense_resource<__elided__> : tensor<768xf16>
    %86 = stablehlo.constant dense_resource<__elided__> : tensor<768xf16>
    %87 = stablehlo.constant dense_resource<__elided__> : tensor<2304x768xf16>
    %88 = stablehlo.constant dense_resource<__elided__> : tensor<2304xf16>
    %89 = stablehlo.constant dense_resource<__elided__> : tensor<768x768xf16>
    %90 = stablehlo.constant dense_resource<__elided__> : tensor<768xf16>
    %91 = stablehlo.constant dense_resource<__elided__> : tensor<768xf16>
    %92 = stablehlo.constant dense_resource<__elided__> : tensor<768xf16>
    %93 = stablehlo.constant dense_resource<__elided__> : tensor<3072x768xf16>
    %94 = stablehlo.constant dense_resource<__elided__> : tensor<3072xf16>
    %95 = stablehlo.constant dense_resource<__elided__> : tensor<768x3072xf16>
    %96 = stablehlo.constant dense_resource<__elided__> : tensor<768xf16>
    %97 = stablehlo.constant dense_resource<__elided__> : tensor<768xf16>
    %98 = stablehlo.constant dense_resource<__elided__> : tensor<768xf16>
    %99 = stablehlo.constant dense_resource<__elided__> : tensor<2304x768xf16>
    %100 = stablehlo.constant dense_resource<__elided__> : tensor<2304xf16>
    %101 = stablehlo.constant dense_resource<__elided__> : tensor<768x768xf16>
    %102 = stablehlo.constant dense_resource<__elided__> : tensor<768xf16>
    %103 = stablehlo.constant dense_resource<__elided__> : tensor<768xf16>
    %104 = stablehlo.constant dense_resource<__elided__> : tensor<768xf16>
    %105 = stablehlo.constant dense_resource<__elided__> : tensor<3072x768xf16>
    %106 = stablehlo.constant dense_resource<__elided__> : tensor<3072xf16>
    %107 = stablehlo.constant dense_resource<__elided__> : tensor<768x3072xf16>
    %108 = stablehlo.constant dense_resource<__elided__> : tensor<768xf16>
    %109 = stablehlo.constant dense_resource<__elided__> : tensor<768xf16>
    %110 = stablehlo.constant dense_resource<__elided__> : tensor<768xf16>
    %111 = stablehlo.constant dense_resource<__elided__> : tensor<2304x768xf16>
    %112 = stablehlo.constant dense_resource<__elided__> : tensor<2304xf16>
    %113 = stablehlo.constant dense_resource<__elided__> : tensor<768x768xf16>
    %114 = stablehlo.constant dense_resource<__elided__> : tensor<768xf16>
    %115 = stablehlo.constant dense_resource<__elided__> : tensor<768xf16>
    %116 = stablehlo.constant dense_resource<__elided__> : tensor<768xf16>
    %117 = stablehlo.constant dense_resource<__elided__> : tensor<3072x768xf16>
    %118 = stablehlo.constant dense_resource<__elided__> : tensor<3072xf16>
    %119 = stablehlo.constant dense_resource<__elided__> : tensor<768x3072xf16>
    %120 = stablehlo.constant dense_resource<__elided__> : tensor<768xf16>
    %121 = stablehlo.constant dense_resource<__elided__> : tensor<768xf16>
    %122 = stablehlo.constant dense_resource<__elided__> : tensor<768xf16>
    %123 = stablehlo.constant dense_resource<__elided__> : tensor<2304x768xf16>
    %124 = stablehlo.constant dense_resource<__elided__> : tensor<2304xf16>
    %125 = stablehlo.constant dense_resource<__elided__> : tensor<768x768xf16>
    %126 = stablehlo.constant dense_resource<__elided__> : tensor<768xf16>
    %127 = stablehlo.constant dense_resource<__elided__> : tensor<768xf16>
    %128 = stablehlo.constant dense_resource<__elided__> : tensor<768xf16>
    %129 = stablehlo.constant dense_resource<__elided__> : tensor<3072x768xf16>
    %130 = stablehlo.constant dense_resource<__elided__> : tensor<3072xf16>
    %131 = stablehlo.constant dense_resource<__elided__> : tensor<768x3072xf16>
    %132 = stablehlo.constant dense_resource<__elided__> : tensor<768xf16>
    %133 = stablehlo.constant dense_resource<__elided__> : tensor<768xf16>
    %134 = stablehlo.constant dense_resource<__elided__> : tensor<768xf16>
    %135 = stablehlo.constant dense_resource<__elided__> : tensor<2304x768xf16>
    %136 = stablehlo.constant dense_resource<__elided__> : tensor<2304xf16>
    %137 = stablehlo.constant dense_resource<__elided__> : tensor<768x768xf16>
    %138 = stablehlo.constant dense_resource<__elided__> : tensor<768xf16>
    %139 = stablehlo.constant dense_resource<__elided__> : tensor<768xf16>
    %140 = stablehlo.constant dense_resource<__elided__> : tensor<768xf16>
    %141 = stablehlo.constant dense_resource<__elided__> : tensor<3072x768xf16>
    %142 = stablehlo.constant dense_resource<__elided__> : tensor<3072xf16>
    %143 = stablehlo.constant dense_resource<__elided__> : tensor<768x3072xf16>
    %144 = stablehlo.constant dense_resource<__elided__> : tensor<768xf16>
    %145 = stablehlo.constant dense_resource<__elided__> : tensor<768xf16>
    %146 = stablehlo.constant dense_resource<__elided__> : tensor<768xf16>
    %147 = stablehlo.constant dense_resource<__elided__> : tensor<2304x768xf16>
    %148 = stablehlo.constant dense_resource<__elided__> : tensor<2304xf16>
    %149 = stablehlo.constant dense_resource<__elided__> : tensor<768x768xf16>
    %150 = stablehlo.constant dense_resource<__elided__> : tensor<768xf16>
    %151 = stablehlo.constant dense_resource<__elided__> : tensor<768xf16>
    %152 = stablehlo.constant dense_resource<__elided__> : tensor<768xf16>
    %153 = stablehlo.constant dense_resource<__elided__> : tensor<3072x768xf16>
    %154 = stablehlo.constant dense_resource<__elided__> : tensor<3072xf16>
    %155 = stablehlo.constant dense_resource<__elided__> : tensor<768x3072xf16>
    %156 = stablehlo.constant dense_resource<__elided__> : tensor<768xf16>
    %157 = stablehlo.constant dense_resource<__elided__> : tensor<768xf16>
    %158 = stablehlo.constant dense_resource<__elided__> : tensor<768xf16>
    %159 = stablehlo.constant dense_resource<__elided__> : tensor<2304x768xf16>
    %160 = stablehlo.constant dense_resource<__elided__> : tensor<2304xf16>
    %161 = stablehlo.constant dense_resource<__elided__> : tensor<768x768xf16>
    %162 = stablehlo.constant dense_resource<__elided__> : tensor<768xf16>
    %163 = stablehlo.constant dense_resource<__elided__> : tensor<768xf16>
    %164 = stablehlo.constant dense_resource<__elided__> : tensor<768xf16>
    %165 = stablehlo.constant dense_resource<__elided__> : tensor<3072x768xf16>
    %166 = stablehlo.constant dense_resource<__elided__> : tensor<3072xf16>
    %167 = stablehlo.constant dense_resource<__elided__> : tensor<768x3072xf16>
    %168 = stablehlo.constant dense_resource<__elided__> : tensor<768xf16>
    %169 = stablehlo.constant dense_resource<__elided__> : tensor<768xf16>
    %170 = stablehlo.constant dense_resource<__elided__> : tensor<768xf16>
    %171 = stablehlo.constant dense<50256> : tensor<i32>
    %172 = stablehlo.broadcast_in_dim %171, dims = [] : (tensor<i32>) -> tensor<2x20xi32>
    %173 = stablehlo.dynamic_update_slice %172, %arg1, %22, %22 : (tensor<2x20xi32>, tensor<2x6xi32>, tensor<i32>, tensor<i32>) -> tensor<2x20xi32>
    %174 = stablehlo.broadcast_in_dim %21, dims = [] : (tensor<i1>) -> tensor<2xi1>
    %175 = stablehlo.broadcast_in_dim %20, dims = [] : (tensor<f32>) -> tensor<2x20x12x64xf32>
    %176 = stablehlo.broadcast_in_dim %20, dims = [] : (tensor<f32>) -> tensor<2x20x12x64xf32>
    %177 = stablehlo.broadcast_in_dim %20, dims = [] : (tensor<f32>) -> tensor<2x20x12x64xf32>
    %178 = stablehlo.broadcast_in_dim %20, dims = [] : (tensor<f32>) -> tensor<2x20x12x64xf32>
    %179 = stablehlo.broadcast_in_dim %20, dims = [] : (tensor<f32>) -> tensor<2x20x12x64xf32>
    %180 = stablehlo.broadcast_in_dim %20, dims = [] : (tensor<f32>) -> tensor<2x20x12x64xf32>
    %181 = stablehlo.broadcast_in_dim %20, dims = [] : (tensor<f32>) -> tensor<2x20x12x64xf32>
    %182 = stablehlo.broadcast_in_dim %20, dims = [] : (tensor<f32>) -> tensor<2x20x12x64xf32>
    %183 = stablehlo.broadcast_in_dim %20, dims = [] : (tensor<f32>) -> tensor<2x20x12x64xf32>
    %184 = stablehlo.broadcast_in_dim %20, dims = [] : (tensor<f32>) -> tensor<2x20x12x64xf32>
    %185 = stablehlo.broadcast_in_dim %20, dims = [] : (tensor<f32>) -> tensor<2x20x12x64xf32>
    %186 = stablehlo.broadcast_in_dim %20, dims = [] : (tensor<f32>) -> tensor<2x20x12x64xf32>
    %187 = stablehlo.broadcast_in_dim %20, dims = [] : (tensor<f32>) -> tensor<2x20x12x64xf32>
    %188 = stablehlo.broadcast_in_dim %20, dims = [] : (tensor<f32>) -> tensor<2x20x12x64xf32>
    %189 = stablehlo.broadcast_in_dim %20, dims = [] : (tensor<f32>) -> tensor<2x20x12x64xf32>
    %190 = stablehlo.broadcast_in_dim %20, dims = [] : (tensor<f32>) -> tensor<2x20x12x64xf32>
    %191 = stablehlo.broadcast_in_dim %20, dims = [] : (tensor<f32>) -> tensor<2x20x12x64xf32>
    %192 = stablehlo.broadcast_in_dim %20, dims = [] : (tensor<f32>) -> tensor<2x20x12x64xf32>
    %193 = stablehlo.broadcast_in_dim %20, dims = [] : (tensor<f32>) -> tensor<2x20x12x64xf32>
    %194 = stablehlo.broadcast_in_dim %20, dims = [] : (tensor<f32>) -> tensor<2x20x12x64xf32>
    %195 = stablehlo.broadcast_in_dim %20, dims = [] : (tensor<f32>) -> tensor<2x20x12x64xf32>
    %196 = stablehlo.broadcast_in_dim %20, dims = [] : (tensor<f32>) -> tensor<2x20x12x64xf32>
    %197 = stablehlo.broadcast_in_dim %20, dims = [] : (tensor<f32>) -> tensor<2x20x12x64xf32>
    %198 = stablehlo.broadcast_in_dim %20, dims = [] : (tensor<f32>) -> tensor<2x20x12x64xf32>
    %199 = stablehlo.broadcast_in_dim %19, dims = [] : (tensor<i32>) -> tensor<2x20xi32>
    %200 = stablehlo.slice %arg0 [0:2, 0:5:2] : (tensor<2x6xi32>) -> tensor<2x3xi32>
    %201 = stablehlo.slice %arg0 [0:2, 1:6:2] : (tensor<2x6xi32>) -> tensor<2x3xi32>
    %202 = stablehlo.add %200, %201 : tensor<2x3xi32>
    %203 = stablehlo.slice %202 [0:2, 0:2:2] : (tensor<2x3xi32>) -> tensor<2x1xi32>
    %204 = stablehlo.slice %202 [0:2, 1:3:2] : (tensor<2x3xi32>) -> tensor<2x1xi32>
    %205 = stablehlo.add %203, %204 : tensor<2x1xi32>
    %206 = stablehlo.slice %202 [0:2, 2:3:2] : (tensor<2x3xi32>) -> tensor<2x1xi32>
    %207 = stablehlo.add %205, %206 : tensor<2x1xi32>
    %208 = stablehlo.slice %202 [0:2, 0:1] : (tensor<2x3xi32>) -> tensor<2x1xi32>
    %209 = stablehlo.concatenate %208, %207, dim = 1 : (tensor<2x1xi32>, tensor<2x1xi32>) -> tensor<2x2xi32>
    %210 = stablehlo.pad %209, %22, low = [0, 0], high = [0, 0], interior = [0, 1] : (tensor<2x2xi32>, tensor<i32>) -> tensor<2x3xi32>
    %211 = stablehlo.pad %205, %22, low = [0, 1], high = [0, 1], interior = [0, 1] : (tensor<2x1xi32>, tensor<i32>) -> tensor<2x3xi32>
    %212 = stablehlo.add %210, %211 : tensor<2x3xi32>
    %213 = stablehlo.slice %212 [0:2, 0:2] : (tensor<2x3xi32>) -> tensor<2x2xi32>
    %214 = stablehlo.slice %arg0 [0:2, 2:6:2] : (tensor<2x6xi32>) -> tensor<2x2xi32>
    %215 = stablehlo.add %213, %214 : tensor<2x2xi32>
    %216 = stablehlo.slice %arg0 [0:2, 0:1] : (tensor<2x6xi32>) -> tensor<2x1xi32>
    %217 = stablehlo.concatenate %216, %215, dim = 1 : (tensor<2x1xi32>, tensor<2x2xi32>) -> tensor<2x3xi32>
    %218 = stablehlo.pad %217, %22, low = [0, 0], high = [0, 1], interior = [0, 1] : (tensor<2x3xi32>, tensor<i32>) -> tensor<2x6xi32>
    %219 = stablehlo.pad %212, %22, low = [0, 1], high = [0, 0], interior = [0, 1] : (tensor<2x3xi32>, tensor<i32>) -> tensor<2x6xi32>
    %220 = stablehlo.add %218, %219 : tensor<2x6xi32>
    %221 = stablehlo.broadcast_in_dim %19, dims = [] : (tensor<i32>) -> tensor<2x6xi32>
    %222 = stablehlo.subtract %220, %221 : tensor<2x6xi32>
    %223 = stablehlo.dynamic_update_slice %199, %arg0, %22, %22 : (tensor<2x20xi32>, tensor<2x6xi32>, tensor<i32>, tensor<i32>) -> tensor<2x20xi32>
    %224 = stablehlo.convert %23 : (tensor<50257x768xf16>) -> tensor<50257x768xf32>
    %225 = stablehlo.broadcast_in_dim %22, dims = [] : (tensor<i32>) -> tensor<2x6xi32>
    %226 = stablehlo.compare  LT, %arg1, %225,  SIGNED : (tensor<2x6xi32>, tensor<2x6xi32>) -> tensor<2x6xi1>
    %227 = stablehlo.broadcast_in_dim %4, dims = [] : (tensor<i32>) -> tensor<2x6xi32>
    %228 = stablehlo.add %arg1, %227 : tensor<2x6xi32>
    %229 = stablehlo.select %226, %228, %arg1 : tensor<2x6xi1>, tensor<2x6xi32>
    %230 = stablehlo.broadcast_in_dim %229, dims = [0, 1] : (tensor<2x6xi32>) -> tensor<2x6x1xi32>
    %231 = stablehlo.broadcast_in_dim %4, dims = [] : (tensor<i32>) -> tensor<1xi32>
    %232 = stablehlo.broadcast_in_dim %1, dims = [] : (tensor<i32>) -> tensor<1xi32>
    %233 = stablehlo.concatenate %231, %232, dim = 0 : (tensor<1xi32>, tensor<1xi32>) -> tensor<2xi32>
    %234 = stablehlo.broadcast_in_dim %22, dims = [] : (tensor<i32>) -> tensor<1xi32>
    %235 = stablehlo.compare  LT, %0, %234,  SIGNED : (tensor<1xi32>, tensor<1xi32>) -> tensor<1xi1>
    %236 = stablehlo.broadcast_in_dim %6, dims = [] : (tensor<i32>) -> tensor<1xi32>
    %237 = stablehlo.add %0, %236 : tensor<1xi32>
    %238 = stablehlo.select %235, %237, %0 : tensor<1xi1>, tensor<1xi32>
    %239 = stablehlo.broadcast_in_dim %238, dims = [0] : (tensor<1xi32>) -> tensor<1x1xi32>
    %240 = "stablehlo.gather"(%233, %239) {dimension_numbers = #stablehlo.gather<collapsed_slice_dims = [0], start_index_map = [0], index_vector_dim = 1>, indices_are_sorted = false, slice_sizes = array<i64: 1>} : (tensor<2xi32>, tensor<1x1xi32>) -> tensor<1xi32>
    %241 = stablehlo.broadcast_in_dim %19, dims = [] : (tensor<i32>) -> tensor<1xi32>
    %242 = stablehlo.broadcast_in_dim %1, dims = [] : (tensor<i32>) -> tensor<1xi32>
    %243 = stablehlo.concatenate %241, %242, dim = 0 : (tensor<1xi32>, tensor<1xi32>) -> tensor<2xi32>
    %244 = stablehlo.broadcast_in_dim %22, dims = [] : (tensor<i32>) -> tensor<1xi32>
    %245 = stablehlo.compare  LT, %0, %244,  SIGNED : (tensor<1xi32>, tensor<1xi32>) -> tensor<1xi1>
    %246 = stablehlo.broadcast_in_dim %6, dims = [] : (tensor<i32>) -> tensor<1xi32>
    %247 = stablehlo.add %0, %246 : tensor<1xi32>
    %248 = stablehlo.select %245, %247, %0 : tensor<1xi1>, tensor<1xi32>
    %249 = stablehlo.broadcast_in_dim %248, dims = [0] : (tensor<1xi32>) -> tensor<1x1xi32>
    %250 = "stablehlo.gather"(%243, %249) {dimension_numbers = #stablehlo.gather<collapsed_slice_dims = [0], start_index_map = [0], index_vector_dim = 1>, indices_are_sorted = false, slice_sizes = array<i64: 1>} : (tensor<2xi32>, tensor<1x1xi32>) -> tensor<1xi32>
    %251 = stablehlo.subtract %240, %250 : tensor<1xi32>
    %252 = stablehlo.broadcast_in_dim %22, dims = [] : (tensor<i32>) -> tensor<2x6x1xi32>
    %253 = stablehlo.compare  GE, %230, %252,  SIGNED : (tensor<2x6x1xi32>, tensor<2x6x1xi32>) -> tensor<2x6x1xi1>
    %254 = stablehlo.broadcast_in_dim %251, dims = [2] : (tensor<1xi32>) -> tensor<1x1x1xi32>
    %255 = stablehlo.broadcast_in_dim %254, dims = [0, 1, 2] : (tensor<1x1x1xi32>) -> tensor<2x6x1xi32>
    %256 = stablehlo.compare  LE, %230, %255,  SIGNED : (tensor<2x6x1xi32>, tensor<2x6x1xi32>) -> tensor<2x6x1xi1>
    %257 = stablehlo.and %253, %256 : tensor<2x6x1xi1>
    %258 = stablehlo.reduce(%257 init: %3) across dimensions = [2] : (tensor<2x6x1xi1>, tensor<i1>) -> tensor<2x6xi1>
     reducer(%arg2: tensor<i1>, %arg3: tensor<i1>)  {
      %2405 = stablehlo.and %arg2, %arg3 : tensor<i1>
      stablehlo.return %2405 : tensor<i1>
    }
    %259 = "stablehlo.gather"(%224, %230) {dimension_numbers = #stablehlo.gather<offset_dims = [2], collapsed_slice_dims = [0], start_index_map = [0], index_vector_dim = 2>, indices_are_sorted = false, slice_sizes = array<i64: 1, 768>} : (tensor<50257x768xf32>, tensor<2x6x1xi32>) -> tensor<2x6x768xf32>
    %260 = stablehlo.broadcast_in_dim %258, dims = [0, 1] : (tensor<2x6xi1>) -> tensor<2x6x768xi1>
    %261 = stablehlo.broadcast_in_dim %2, dims = [] : (tensor<f32>) -> tensor<2x6x768xf32>
    %262 = stablehlo.select %260, %259, %261 : tensor<2x6x768xi1>, tensor<2x6x768xf32>
    %263 = stablehlo.convert %24 : (tensor<1024x768xf16>) -> tensor<1024x768xf32>
    %264 = stablehlo.broadcast_in_dim %22, dims = [] : (tensor<i32>) -> tensor<2x6xi32>
    %265 = stablehlo.compare  LT, %222, %264,  SIGNED : (tensor<2x6xi32>, tensor<2x6xi32>) -> tensor<2x6xi1>
    %266 = stablehlo.broadcast_in_dim %16, dims = [] : (tensor<i32>) -> tensor<2x6xi32>
    %267 = stablehlo.add %222, %266 : tensor<2x6xi32>
    %268 = stablehlo.select %265, %267, %222 : tensor<2x6xi1>, tensor<2x6xi32>
    %269 = stablehlo.broadcast_in_dim %268, dims = [0, 1] : (tensor<2x6xi32>) -> tensor<2x6x1xi32>
    %270 = stablehlo.broadcast_in_dim %16, dims = [] : (tensor<i32>) -> tensor<1xi32>
    %271 = stablehlo.broadcast_in_dim %1, dims = [] : (tensor<i32>) -> tensor<1xi32>
    %272 = stablehlo.concatenate %270, %271, dim = 0 : (tensor<1xi32>, tensor<1xi32>) -> tensor<2xi32>
    %273 = stablehlo.broadcast_in_dim %22, dims = [] : (tensor<i32>) -> tensor<1xi32>
    %274 = stablehlo.compare  LT, %0, %273,  SIGNED : (tensor<1xi32>, tensor<1xi32>) -> tensor<1xi1>
    %275 = stablehlo.broadcast_in_dim %6, dims = [] : (tensor<i32>) -> tensor<1xi32>
    %276 = stablehlo.add %0, %275 : tensor<1xi32>
    %277 = stablehlo.select %274, %276, %0 : tensor<1xi1>, tensor<1xi32>
    %278 = stablehlo.broadcast_in_dim %277, dims = [0] : (tensor<1xi32>) -> tensor<1x1xi32>
    %279 = "stablehlo.gather"(%272, %278) {dimension_numbers = #stablehlo.gather<collapsed_slice_dims = [0], start_index_map = [0], index_vector_dim = 1>, indices_are_sorted = false, slice_sizes = array<i64: 1>} : (tensor<2xi32>, tensor<1x1xi32>) -> tensor<1xi32>
    %280 = stablehlo.broadcast_in_dim %19, dims = [] : (tensor<i32>) -> tensor<1xi32>
    %281 = stablehlo.broadcast_in_dim %1, dims = [] : (tensor<i32>) -> tensor<1xi32>
    %282 = stablehlo.concatenate %280, %281, dim = 0 : (tensor<1xi32>, tensor<1xi32>) -> tensor<2xi32>
    %283 = stablehlo.broadcast_in_dim %22, dims = [] : (tensor<i32>) -> tensor<1xi32>
    %284 = stablehlo.compare  LT, %0, %283,  SIGNED : (tensor<1xi32>, tensor<1xi32>) -> tensor<1xi1>
    %285 = stablehlo.broadcast_in_dim %6, dims = [] : (tensor<i32>) -> tensor<1xi32>
    %286 = stablehlo.add %0, %285 : tensor<1xi32>
    %287 = stablehlo.select %284, %286, %0 : tensor<1xi1>, tensor<1xi32>
    %288 = stablehlo.broadcast_in_dim %287, dims = [0] : (tensor<1xi32>) -> tensor<1x1xi32>
    %289 = "stablehlo.gather"(%282, %288) {dimension_numbers = #stablehlo.gather<collapsed_slice_dims = [0], start_index_map = [0], index_vector_dim = 1>, indices_are_sorted = false, slice_sizes = array<i64: 1>} : (tensor<2xi32>, tensor<1x1xi32>) -> tensor<1xi32>
    %290 = stablehlo.subtract %279, %289 : tensor<1xi32>
    %291 = stablehlo.broadcast_in_dim %22, dims = [] : (tensor<i32>) -> tensor<2x6x1xi32>
    %292 = stablehlo.compare  GE, %269, %291,  SIGNED : (tensor<2x6x1xi32>, tensor<2x6x1xi32>) -> tensor<2x6x1xi1>
    %293 = stablehlo.broadcast_in_dim %290, dims = [2] : (tensor<1xi32>) -> tensor<1x1x1xi32>
    %294 = stablehlo.broadcast_in_dim %293, dims = [0, 1, 2] : (tensor<1x1x1xi32>) -> tensor<2x6x1xi32>
    %295 = stablehlo.compare  LE, %269, %294,  SIGNED : (tensor<2x6x1xi32>, tensor<2x6x1xi32>) -> tensor<2x6x1xi1>
    %296 = stablehlo.and %292, %295 : tensor<2x6x1xi1>
    %297 = stablehlo.reduce(%296 init: %3) across dimensions = [2] : (tensor<2x6x1xi1>, tensor<i1>) -> tensor<2x6xi1>
     reducer(%arg2: tensor<i1>, %arg3: tensor<i1>)  {
      %2405 = stablehlo.and %arg2, %arg3 : tensor<i1>
      stablehlo.return %2405 : tensor<i1>
    }
    %298 = "stablehlo.gather"(%263, %269) {dimension_numbers = #stablehlo.gather<offset_dims = [2], collapsed_slice_dims = [0], start_index_map = [0], index_vector_dim = 2>, indices_are_sorted = false, slice_sizes = array<i64: 1, 768>} : (tensor<1024x768xf32>, tensor<2x6x1xi32>) -> tensor<2x6x768xf32>
    %299 = stablehlo.broadcast_in_dim %297, dims = [0, 1] : (tensor<2x6xi1>) -> tensor<2x6x768xi1>
    %300 = stablehlo.broadcast_in_dim %2, dims = [] : (tensor<f32>) -> tensor<2x6x768xf32>
    %301 = stablehlo.select %299, %298, %300 : tensor<2x6x768xi1>, tensor<2x6x768xf32>
    %302 = stablehlo.add %262, %301 : tensor<2x6x768xf32>
    %303 = stablehlo.multiply %302, %302 : tensor<2x6x768xf32>
    %304 = stablehlo.reduce(%302 init: %20) applies stablehlo.add across dimensions = [2] : (tensor<2x6x768xf32>, tensor<f32>) -> tensor<2x6xf32>
    %305 = stablehlo.broadcast_in_dim %18, dims = [] : (tensor<f32>) -> tensor<2x6xf32>
    %306 = stablehlo.divide %304, %305 : tensor<2x6xf32>
    %307 = stablehlo.reduce(%303 init: %20) applies stablehlo.add across dimensions = [2] : (tensor<2x6x768xf32>, tensor<f32>) -> tensor<2x6xf32>
    %308 = stablehlo.broadcast_in_dim %18, dims = [] : (tensor<f32>) -> tensor<2x6xf32>
    %309 = stablehlo.divide %307, %308 : tensor<2x6xf32>
    %310 = stablehlo.multiply %306, %306 : tensor<2x6xf32>
    %311 = stablehlo.subtract %309, %310 : tensor<2x6xf32>
    %312 = stablehlo.broadcast_in_dim %20, dims = [] : (tensor<f32>) -> tensor<2x6xf32>
    %313 = stablehlo.maximum %312, %311 : tensor<2x6xf32>
    %314 = stablehlo.broadcast_in_dim %306, dims = [0, 1] : (tensor<2x6xf32>) -> tensor<2x6x1xf32>
    %315 = stablehlo.broadcast_in_dim %313, dims = [0, 1] : (tensor<2x6xf32>) -> tensor<2x6x1xf32>
    %316 = stablehlo.broadcast_in_dim %314, dims = [0, 1, 2] : (tensor<2x6x1xf32>) -> tensor<2x6x768xf32>
    %317 = stablehlo.subtract %302, %316 : tensor<2x6x768xf32>
    %318 = stablehlo.broadcast_in_dim %17, dims = [] : (tensor<f32>) -> tensor<2x6x1xf32>
    %319 = stablehlo.add %315, %318 : tensor<2x6x1xf32>
    %320 = stablehlo.rsqrt %319 : tensor<2x6x1xf32>
    %321 = stablehlo.reshape %25 : (tensor<768xf16>) -> tensor<1x1x768xf16>
    %322 = stablehlo.convert %321 : (tensor<1x1x768xf16>) -> tensor<1x1x768xf32>
    %323 = stablehlo.broadcast_in_dim %320, dims = [0, 1, 2] : (tensor<2x6x1xf32>) -> tensor<2x6x768xf32>
    %324 = stablehlo.broadcast_in_dim %322, dims = [0, 1, 2] : (tensor<1x1x768xf32>) -> tensor<2x6x768xf32>
    %325 = stablehlo.multiply %323, %324 : tensor<2x6x768xf32>
    %326 = stablehlo.multiply %317, %325 : tensor<2x6x768xf32>
    %327 = stablehlo.reshape %26 : (tensor<768xf16>) -> tensor<1x1x768xf16>
    %328 = stablehlo.convert %327 : (tensor<1x1x768xf16>) -> tensor<1x1x768xf32>
    %329 = stablehlo.broadcast_in_dim %328, dims = [0, 1, 2] : (tensor<1x1x768xf32>) -> tensor<2x6x768xf32>
    %330 = stablehlo.add %326, %329 : tensor<2x6x768xf32>
    %331 = stablehlo.iota dim = 0 : tensor<1024xi32>
    %332 = stablehlo.broadcast_in_dim %331, dims = [1] : (tensor<1024xi32>) -> tensor<1x1024xi32>
    %333 = stablehlo.broadcast_in_dim %332, dims = [0, 1] : (tensor<1x1024xi32>) -> tensor<1x1024x1xi32>
    %334 = stablehlo.broadcast_in_dim %332, dims = [0, 2] : (tensor<1x1024xi32>) -> tensor<1x1x1024xi32>
    %335 = stablehlo.broadcast_in_dim %333, dims = [0, 1, 2] : (tensor<1x1024x1xi32>) -> tensor<1x1024x1024xi32>
    %336 = stablehlo.broadcast_in_dim %334, dims = [0, 1, 2] : (tensor<1x1x1024xi32>) -> tensor<1x1024x1024xi32>
    %337 = stablehlo.compare  GE, %335, %336,  SIGNED : (tensor<1x1024x1024xi32>, tensor<1x1024x1024xi32>) -> tensor<1x1024x1024xi1>
    %338 = stablehlo.broadcast_in_dim %337, dims = [0, 2, 3] : (tensor<1x1024x1024xi1>) -> tensor<1x1x1024x1024xi1>
    %339 = stablehlo.transpose %27, dims = [1, 0] : (tensor<2304x768xf16>) -> tensor<768x2304xf16>
    %340 = stablehlo.convert %339 : (tensor<768x2304xf16>) -> tensor<768x2304xf32>
    %341 = stablehlo.dot_general %330, %340, contracting_dims = [2] x [0], precision = [DEFAULT, DEFAULT] : (tensor<2x6x768xf32>, tensor<768x2304xf32>) -> tensor<2x6x2304xf32>
    %342 = stablehlo.convert %28 : (tensor<2304xf16>) -> tensor<2304xf32>
    %343 = stablehlo.broadcast_in_dim %342, dims = [2] : (tensor<2304xf32>) -> tensor<1x1x2304xf32>
    %344 = stablehlo.broadcast_in_dim %343, dims = [0, 1, 2] : (tensor<1x1x2304xf32>) -> tensor<2x6x2304xf32>
    %345 = stablehlo.add %341, %344 : tensor<2x6x2304xf32>
    %346 = stablehlo.slice %345 [0:2, 0:6, 0:768] : (tensor<2x6x2304xf32>) -> tensor<2x6x768xf32>
    %347 = stablehlo.slice %345 [0:2, 0:6, 768:1536] : (tensor<2x6x2304xf32>) -> tensor<2x6x768xf32>
    %348 = stablehlo.slice %345 [0:2, 0:6, 1536:2304] : (tensor<2x6x2304xf32>) -> tensor<2x6x768xf32>
    %349 = stablehlo.reshape %346 : (tensor<2x6x768xf32>) -> tensor<2x6x12x64xf32>
    %350 = stablehlo.reshape %347 : (tensor<2x6x768xf32>) -> tensor<2x6x12x64xf32>
    %351 = stablehlo.reshape %348 : (tensor<2x6x768xf32>) -> tensor<2x6x12x64xf32>
    %352 = stablehlo.compare  LT, %22, %22,  SIGNED : (tensor<i32>, tensor<i32>) -> tensor<i1>
    %353 = stablehlo.add %22, %16 : tensor<i32>
    %354 = stablehlo.select %352, %353, %22 : tensor<i1>, tensor<i32>
    %355 = stablehlo.dynamic_slice %338, %22, %22, %354, %22, sizes = [1, 1, 6, 20] : (tensor<1x1x1024x1024xi1>, tensor<i32>, tensor<i32>, tensor<i32>, tensor<i32>) -> tensor<1x1x6x20xi1>
    %356 = stablehlo.reshape %355 : (tensor<1x1x6x20xi1>) -> tensor<1x6x20xi1>
    %357 = stablehlo.broadcast_in_dim %356, dims = [1, 2, 3] : (tensor<1x6x20xi1>) -> tensor<2x1x6x20xi1>
    %358 = stablehlo.broadcast_in_dim %223, dims = [0, 3] : (tensor<2x20xi32>) -> tensor<2x1x1x20xi32>
    %359 = stablehlo.reshape %358 : (tensor<2x1x1x20xi32>) -> tensor<2x1x20xi32>
    %360 = stablehlo.broadcast_in_dim %359, dims = [0, 1, 3] : (tensor<2x1x20xi32>) -> tensor<2x1x6x20xi32>
    %361 = stablehlo.broadcast_in_dim %22, dims = [] : (tensor<i32>) -> tensor<2x1x6x20xi32>
    %362 = stablehlo.compare  NE, %360, %361,  SIGNED : (tensor<2x1x6x20xi32>, tensor<2x1x6x20xi32>) -> tensor<2x1x6x20xi1>
    %363 = stablehlo.and %362, %357 : tensor<2x1x6x20xi1>
    %364 = stablehlo.convert %363 : (tensor<2x1x6x20xi1>) -> tensor<2x1x6x20xf32>
    %365 = stablehlo.compare  LT, %22, %22,  SIGNED : (tensor<i32>, tensor<i32>) -> tensor<i1>
    %366 = stablehlo.add %22, %15 : tensor<i32>
    %367 = stablehlo.select %365, %366, %22 : tensor<i1>, tensor<i32>
    %368 = stablehlo.dynamic_update_slice %175, %350, %22, %367, %22, %22 : (tensor<2x20x12x64xf32>, tensor<2x6x12x64xf32>, tensor<i32>, tensor<i32>, tensor<i32>, tensor<i32>) -> tensor<2x20x12x64xf32>
    %369 = stablehlo.compare  LT, %22, %22,  SIGNED : (tensor<i32>, tensor<i32>) -> tensor<i1>
    %370 = stablehlo.add %22, %15 : tensor<i32>
    %371 = stablehlo.select %369, %370, %22 : tensor<i1>, tensor<i32>
    %372 = stablehlo.dynamic_update_slice %176, %351, %22, %371, %22, %22 : (tensor<2x20x12x64xf32>, tensor<2x6x12x64xf32>, tensor<i32>, tensor<i32>, tensor<i32>, tensor<i32>) -> tensor<2x20x12x64xf32>
    %373 = stablehlo.add %22, %14 : tensor<i32>
    %374 = stablehlo.iota dim = 0 : tensor<20xi32>
    %375 = stablehlo.add %22, %14 : tensor<i32>
    %376 = stablehlo.broadcast_in_dim %375, dims = [] : (tensor<i32>) -> tensor<20xi32>
    %377 = stablehlo.compare  LT, %374, %376,  SIGNED : (tensor<20xi32>, tensor<20xi32>) -> tensor<20xi1>
    %378 = stablehlo.broadcast_in_dim %377, dims = [3] : (tensor<20xi1>) -> tensor<2x1x6x20xi1>
    %379 = stablehlo.broadcast_in_dim %20, dims = [] : (tensor<f32>) -> tensor<2x1x6x20xf32>
    %380 = stablehlo.compare  NE, %364, %379,  FLOAT : (tensor<2x1x6x20xf32>, tensor<2x1x6x20xf32>) -> tensor<2x1x6x20xi1>
    %381 = stablehlo.and %378, %380 : tensor<2x1x6x20xi1>
    %382 = stablehlo.convert %381 : (tensor<2x1x6x20xi1>) -> tensor<2x1x6x20xf32>
    %383 = stablehlo.broadcast_in_dim %20, dims = [] : (tensor<f32>) -> tensor<2x1x6x20xf32>
    %384 = stablehlo.compare  GT, %382, %383,  FLOAT : (tensor<2x1x6x20xf32>, tensor<2x1x6x20xf32>) -> tensor<2x1x6x20xi1>
    %385 = stablehlo.broadcast_in_dim %20, dims = [] : (tensor<f32>) -> tensor<2x1x6x20xf32>
    %386 = stablehlo.convert %385 : tensor<2x1x6x20xf32>
    %387 = stablehlo.broadcast_in_dim %13, dims = [] : (tensor<f32>) -> tensor<2x1x6x20xf32>
    %388 = stablehlo.select %384, %386, %387 : tensor<2x1x6x20xi1>, tensor<2x1x6x20xf32>
    %389 = stablehlo.sqrt %12 : tensor<f32>
    %390 = stablehlo.convert %389 : tensor<f32>
    %391 = stablehlo.broadcast_in_dim %390, dims = [] : (tensor<f32>) -> tensor<2x6x12x64xf32>
    %392 = stablehlo.divide %349, %391 : tensor<2x6x12x64xf32>
    %393 = stablehlo.dot_general %392, %368, batching_dims = [0, 2] x [0, 2], contracting_dims = [3] x [3], precision = [DEFAULT, DEFAULT] : (tensor<2x6x12x64xf32>, tensor<2x20x12x64xf32>) -> tensor<2x12x6x20xf32>
    %394 = stablehlo.broadcast_in_dim %388, dims = [0, 1, 2, 3] : (tensor<2x1x6x20xf32>) -> tensor<2x12x6x20xf32>
    %395 = stablehlo.add %393, %394 : tensor<2x12x6x20xf32>
    %396 = stablehlo.reduce(%395 init: %11) applies stablehlo.maximum across dimensions = [3] : (tensor<2x12x6x20xf32>, tensor<f32>) -> tensor<2x12x6xf32>
    %397 = stablehlo.broadcast_in_dim %396, dims = [0, 1, 2] : (tensor<2x12x6xf32>) -> tensor<2x12x6x1xf32>
    %398 = stablehlo.broadcast_in_dim %397, dims = [0, 1, 2, 3] : (tensor<2x12x6x1xf32>) -> tensor<2x12x6x20xf32>
    %399 = stablehlo.subtract %395, %398 : tensor<2x12x6x20xf32>
    %400 = stablehlo.exponential %399 : tensor<2x12x6x20xf32>
    %401 = stablehlo.reduce(%400 init: %20) applies stablehlo.add across dimensions = [3] : (tensor<2x12x6x20xf32>, tensor<f32>) -> tensor<2x12x6xf32>
    %402 = stablehlo.broadcast_in_dim %401, dims = [0, 1, 2] : (tensor<2x12x6xf32>) -> tensor<2x12x6x1xf32>
    %403 = stablehlo.broadcast_in_dim %402, dims = [0, 1, 2, 3] : (tensor<2x12x6x1xf32>) -> tensor<2x12x6x20xf32>
    %404 = stablehlo.divide %400, %403 : tensor<2x12x6x20xf32>
    %405 = stablehlo.dot_general %372, %404, batching_dims = [0, 2] x [0, 1], contracting_dims = [1] x [3], precision = [DEFAULT, DEFAULT] : (tensor<2x20x12x64xf32>, tensor<2x12x6x20xf32>) -> tensor<2x12x64x6xf32>
    %406 = stablehlo.transpose %405, dims = [0, 3, 1, 2] : (tensor<2x12x64x6xf32>) -> tensor<2x6x12x64xf32>
    %407 = stablehlo.reshape %406 : (tensor<2x6x12x64xf32>) -> tensor<2x6x768xf32>
    %408 = stablehlo.transpose %29, dims = [1, 0] : (tensor<768x768xf16>) -> tensor<768x768xf16>
    %409 = stablehlo.convert %408 : (tensor<768x768xf16>) -> tensor<768x768xf32>
    %410 = stablehlo.dot_general %407, %409, contracting_dims = [2] x [0], precision = [DEFAULT, DEFAULT] : (tensor<2x6x768xf32>, tensor<768x768xf32>) -> tensor<2x6x768xf32>
    %411 = stablehlo.convert %30 : (tensor<768xf16>) -> tensor<768xf32>
    %412 = stablehlo.broadcast_in_dim %411, dims = [2] : (tensor<768xf32>) -> tensor<1x1x768xf32>
    %413 = stablehlo.broadcast_in_dim %412, dims = [0, 1, 2] : (tensor<1x1x768xf32>) -> tensor<2x6x768xf32>
    %414 = stablehlo.add %410, %413 : tensor<2x6x768xf32>
    %415 = stablehlo.add %414, %302 : tensor<2x6x768xf32>
    %416 = stablehlo.multiply %415, %415 : tensor<2x6x768xf32>
    %417 = stablehlo.reduce(%415 init: %20) applies stablehlo.add across dimensions = [2] : (tensor<2x6x768xf32>, tensor<f32>) -> tensor<2x6xf32>
    %418 = stablehlo.broadcast_in_dim %18, dims = [] : (tensor<f32>) -> tensor<2x6xf32>
    %419 = stablehlo.divide %417, %418 : tensor<2x6xf32>
    %420 = stablehlo.reduce(%416 init: %20) applies stablehlo.add across dimensions = [2] : (tensor<2x6x768xf32>, tensor<f32>) -> tensor<2x6xf32>
    %421 = stablehlo.broadcast_in_dim %18, dims = [] : (tensor<f32>) -> tensor<2x6xf32>
    %422 = stablehlo.divide %420, %421 : tensor<2x6xf32>
    %423 = stablehlo.multiply %419, %419 : tensor<2x6xf32>
    %424 = stablehlo.subtract %422, %423 : tensor<2x6xf32>
    %425 = stablehlo.broadcast_in_dim %20, dims = [] : (tensor<f32>) -> tensor<2x6xf32>
    %426 = stablehlo.maximum %425, %424 : tensor<2x6xf32>
    %427 = stablehlo.broadcast_in_dim %419, dims = [0, 1] : (tensor<2x6xf32>) -> tensor<2x6x1xf32>
    %428 = stablehlo.broadcast_in_dim %426, dims = [0, 1] : (tensor<2x6xf32>) -> tensor<2x6x1xf32>
    %429 = stablehlo.broadcast_in_dim %427, dims = [0, 1, 2] : (tensor<2x6x1xf32>) -> tensor<2x6x768xf32>
    %430 = stablehlo.subtract %415, %429 : tensor<2x6x768xf32>
    %431 = stablehlo.broadcast_in_dim %17, dims = [] : (tensor<f32>) -> tensor<2x6x1xf32>
    %432 = stablehlo.add %428, %431 : tensor<2x6x1xf32>
    %433 = stablehlo.rsqrt %432 : tensor<2x6x1xf32>
    %434 = stablehlo.reshape %31 : (tensor<768xf16>) -> tensor<1x1x768xf16>
    %435 = stablehlo.convert %434 : (tensor<1x1x768xf16>) -> tensor<1x1x768xf32>
    %436 = stablehlo.broadcast_in_dim %433, dims = [0, 1, 2] : (tensor<2x6x1xf32>) -> tensor<2x6x768xf32>
    %437 = stablehlo.broadcast_in_dim %435, dims = [0, 1, 2] : (tensor<1x1x768xf32>) -> tensor<2x6x768xf32>
    %438 = stablehlo.multiply %436, %437 : tensor<2x6x768xf32>
    %439 = stablehlo.multiply %430, %438 : tensor<2x6x768xf32>
    %440 = stablehlo.reshape %32 : (tensor<768xf16>) -> tensor<1x1x768xf16>
    %441 = stablehlo.convert %440 : (tensor<1x1x768xf16>) -> tensor<1x1x768xf32>
    %442 = stablehlo.broadcast_in_dim %441, dims = [0, 1, 2] : (tensor<1x1x768xf32>) -> tensor<2x6x768xf32>
    %443 = stablehlo.add %439, %442 : tensor<2x6x768xf32>
    %444 = stablehlo.transpose %33, dims = [1, 0] : (tensor<3072x768xf16>) -> tensor<768x3072xf16>
    %445 = stablehlo.convert %444 : (tensor<768x3072xf16>) -> tensor<768x3072xf32>
    %446 = stablehlo.dot_general %443, %445, contracting_dims = [2] x [0], precision = [DEFAULT, DEFAULT] : (tensor<2x6x768xf32>, tensor<768x3072xf32>) -> tensor<2x6x3072xf32>
    %447 = stablehlo.convert %34 : (tensor<3072xf16>) -> tensor<3072xf32>
    %448 = stablehlo.broadcast_in_dim %447, dims = [2] : (tensor<3072xf32>) -> tensor<1x1x3072xf32>
    %449 = stablehlo.broadcast_in_dim %448, dims = [0, 1, 2] : (tensor<1x1x3072xf32>) -> tensor<2x6x3072xf32>
    %450 = stablehlo.add %446, %449 : tensor<2x6x3072xf32>
    %451 = stablehlo.multiply %450, %450 : tensor<2x6x3072xf32>
    %452 = stablehlo.multiply %450, %451 : tensor<2x6x3072xf32>
    %453 = stablehlo.broadcast_in_dim %10, dims = [] : (tensor<f32>) -> tensor<2x6x3072xf32>
    %454 = stablehlo.multiply %453, %452 : tensor<2x6x3072xf32>
    %455 = stablehlo.add %450, %454 : tensor<2x6x3072xf32>
    %456 = stablehlo.broadcast_in_dim %9, dims = [] : (tensor<f32>) -> tensor<2x6x3072xf32>
    %457 = stablehlo.multiply %456, %455 : tensor<2x6x3072xf32>
    %458 = stablehlo.tanh %457 : tensor<2x6x3072xf32>
    %459 = stablehlo.broadcast_in_dim %8, dims = [] : (tensor<f32>) -> tensor<2x6x3072xf32>
    %460 = stablehlo.add %459, %458 : tensor<2x6x3072xf32>
    %461 = stablehlo.broadcast_in_dim %7, dims = [] : (tensor<f32>) -> tensor<2x6x3072xf32>
    %462 = stablehlo.multiply %461, %460 : tensor<2x6x3072xf32>
    %463 = stablehlo.multiply %450, %462 : tensor<2x6x3072xf32>
    %464 = stablehlo.transpose %35, dims = [1, 0] : (tensor<768x3072xf16>) -> tensor<3072x768xf16>
    %465 = stablehlo.convert %464 : (tensor<3072x768xf16>) -> tensor<3072x768xf32>
    %466 = stablehlo.dot_general %463, %465, contracting_dims = [2] x [0], precision = [DEFAULT, DEFAULT] : (tensor<2x6x3072xf32>, tensor<3072x768xf32>) -> tensor<2x6x768xf32>
    %467 = stablehlo.convert %36 : (tensor<768xf16>) -> tensor<768xf32>
    %468 = stablehlo.broadcast_in_dim %467, dims = [2] : (tensor<768xf32>) -> tensor<1x1x768xf32>
    %469 = stablehlo.broadcast_in_dim %468, dims = [0, 1, 2] : (tensor<1x1x768xf32>) -> tensor<2x6x768xf32>
    %470 = stablehlo.add %466, %469 : tensor<2x6x768xf32>
    %471 = stablehlo.add %415, %470 : tensor<2x6x768xf32>
    %472 = stablehlo.multiply %471, %471 : tensor<2x6x768xf32>
    %473 = stablehlo.reduce(%471 init: %20) applies stablehlo.add across dimensions = [2] : (tensor<2x6x768xf32>, tensor<f32>) -> tensor<2x6xf32>
    %474 = stablehlo.broadcast_in_dim %18, dims = [] : (tensor<f32>) -> tensor<2x6xf32>
    %475 = stablehlo.divide %473, %474 : tensor<2x6xf32>
    %476 = stablehlo.reduce(%472 init: %20) applies stablehlo.add across dimensions = [2] : (tensor<2x6x768xf32>, tensor<f32>) -> tensor<2x6xf32>
    %477 = stablehlo.broadcast_in_dim %18, dims = [] : (tensor<f32>) -> tensor<2x6xf32>
    %478 = stablehlo.divide %476, %477 : tensor<2x6xf32>
    %479 = stablehlo.multiply %475, %475 : tensor<2x6xf32>
    %480 = stablehlo.subtract %478, %479 : tensor<2x6xf32>
    %481 = stablehlo.broadcast_in_dim %20, dims = [] : (tensor<f32>) -> tensor<2x6xf32>
    %482 = stablehlo.maximum %481, %480 : tensor<2x6xf32>
    %483 = stablehlo.broadcast_in_dim %475, dims = [0, 1] : (tensor<2x6xf32>) -> tensor<2x6x1xf32>
    %484 = stablehlo.broadcast_in_dim %482, dims = [0, 1] : (tensor<2x6xf32>) -> tensor<2x6x1xf32>
    %485 = stablehlo.broadcast_in_dim %483, dims = [0, 1, 2] : (tensor<2x6x1xf32>) -> tensor<2x6x768xf32>
    %486 = stablehlo.subtract %471, %485 : tensor<2x6x768xf32>
    %487 = stablehlo.broadcast_in_dim %17, dims = [] : (tensor<f32>) -> tensor<2x6x1xf32>
    %488 = stablehlo.add %484, %487 : tensor<2x6x1xf32>
    %489 = stablehlo.rsqrt %488 : tensor<2x6x1xf32>
    %490 = stablehlo.reshape %37 : (tensor<768xf16>) -> tensor<1x1x768xf16>
    %491 = stablehlo.convert %490 : (tensor<1x1x768xf16>) -> tensor<1x1x768xf32>
    %492 = stablehlo.broadcast_in_dim %489, dims = [0, 1, 2] : (tensor<2x6x1xf32>) -> tensor<2x6x768xf32>
    %493 = stablehlo.broadcast_in_dim %491, dims = [0, 1, 2] : (tensor<1x1x768xf32>) -> tensor<2x6x768xf32>
    %494 = stablehlo.multiply %492, %493 : tensor<2x6x768xf32>
    %495 = stablehlo.multiply %486, %494 : tensor<2x6x768xf32>
    %496 = stablehlo.reshape %38 : (tensor<768xf16>) -> tensor<1x1x768xf16>
    %497 = stablehlo.convert %496 : (tensor<1x1x768xf16>) -> tensor<1x1x768xf32>
    %498 = stablehlo.broadcast_in_dim %497, dims = [0, 1, 2] : (tensor<1x1x768xf32>) -> tensor<2x6x768xf32>
    %499 = stablehlo.add %495, %498 : tensor<2x6x768xf32>
    %500 = stablehlo.iota dim = 0 : tensor<1024xi32>
    %501 = stablehlo.broadcast_in_dim %500, dims = [1] : (tensor<1024xi32>) -> tensor<1x1024xi32>
    %502 = stablehlo.broadcast_in_dim %501, dims = [0, 1] : (tensor<1x1024xi32>) -> tensor<1x1024x1xi32>
    %503 = stablehlo.broadcast_in_dim %501, dims = [0, 2] : (tensor<1x1024xi32>) -> tensor<1x1x1024xi32>
    %504 = stablehlo.broadcast_in_dim %502, dims = [0, 1, 2] : (tensor<1x1024x1xi32>) -> tensor<1x1024x1024xi32>
    %505 = stablehlo.broadcast_in_dim %503, dims = [0, 1, 2] : (tensor<1x1x1024xi32>) -> tensor<1x1024x1024xi32>
    %506 = stablehlo.compare  GE, %504, %505,  SIGNED : (tensor<1x1024x1024xi32>, tensor<1x1024x1024xi32>) -> tensor<1x1024x1024xi1>
    %507 = stablehlo.broadcast_in_dim %506, dims = [0, 2, 3] : (tensor<1x1024x1024xi1>) -> tensor<1x1x1024x1024xi1>
    %508 = stablehlo.transpose %39, dims = [1, 0] : (tensor<2304x768xf16>) -> tensor<768x2304xf16>
    %509 = stablehlo.convert %508 : (tensor<768x2304xf16>) -> tensor<768x2304xf32>
    %510 = stablehlo.dot_general %499, %509, contracting_dims = [2] x [0], precision = [DEFAULT, DEFAULT] : (tensor<2x6x768xf32>, tensor<768x2304xf32>) -> tensor<2x6x2304xf32>
    %511 = stablehlo.convert %40 : (tensor<2304xf16>) -> tensor<2304xf32>
    %512 = stablehlo.broadcast_in_dim %511, dims = [2] : (tensor<2304xf32>) -> tensor<1x1x2304xf32>
    %513 = stablehlo.broadcast_in_dim %512, dims = [0, 1, 2] : (tensor<1x1x2304xf32>) -> tensor<2x6x2304xf32>
    %514 = stablehlo.add %510, %513 : tensor<2x6x2304xf32>
    %515 = stablehlo.slice %514 [0:2, 0:6, 0:768] : (tensor<2x6x2304xf32>) -> tensor<2x6x768xf32>
    %516 = stablehlo.slice %514 [0:2, 0:6, 768:1536] : (tensor<2x6x2304xf32>) -> tensor<2x6x768xf32>
    %517 = stablehlo.slice %514 [0:2, 0:6, 1536:2304] : (tensor<2x6x2304xf32>) -> tensor<2x6x768xf32>
    %518 = stablehlo.reshape %515 : (tensor<2x6x768xf32>) -> tensor<2x6x12x64xf32>
    %519 = stablehlo.reshape %516 : (tensor<2x6x768xf32>) -> tensor<2x6x12x64xf32>
    %520 = stablehlo.reshape %517 : (tensor<2x6x768xf32>) -> tensor<2x6x12x64xf32>
    %521 = stablehlo.compare  LT, %22, %22,  SIGNED : (tensor<i32>, tensor<i32>) -> tensor<i1>
    %522 = stablehlo.add %22, %16 : tensor<i32>
    %523 = stablehlo.select %521, %522, %22 : tensor<i1>, tensor<i32>
    %524 = stablehlo.dynamic_slice %507, %22, %22, %523, %22, sizes = [1, 1, 6, 20] : (tensor<1x1x1024x1024xi1>, tensor<i32>, tensor<i32>, tensor<i32>, tensor<i32>) -> tensor<1x1x6x20xi1>
    %525 = stablehlo.reshape %524 : (tensor<1x1x6x20xi1>) -> tensor<1x6x20xi1>
    %526 = stablehlo.broadcast_in_dim %525, dims = [1, 2, 3] : (tensor<1x6x20xi1>) -> tensor<2x1x6x20xi1>
    %527 = stablehlo.broadcast_in_dim %223, dims = [0, 3] : (tensor<2x20xi32>) -> tensor<2x1x1x20xi32>
    %528 = stablehlo.reshape %527 : (tensor<2x1x1x20xi32>) -> tensor<2x1x20xi32>
    %529 = stablehlo.broadcast_in_dim %528, dims = [0, 1, 3] : (tensor<2x1x20xi32>) -> tensor<2x1x6x20xi32>
    %530 = stablehlo.broadcast_in_dim %22, dims = [] : (tensor<i32>) -> tensor<2x1x6x20xi32>
    %531 = stablehlo.compare  NE, %529, %530,  SIGNED : (tensor<2x1x6x20xi32>, tensor<2x1x6x20xi32>) -> tensor<2x1x6x20xi1>
    %532 = stablehlo.and %531, %526 : tensor<2x1x6x20xi1>
    %533 = stablehlo.convert %532 : (tensor<2x1x6x20xi1>) -> tensor<2x1x6x20xf32>
    %534 = stablehlo.compare  LT, %22, %22,  SIGNED : (tensor<i32>, tensor<i32>) -> tensor<i1>
    %535 = stablehlo.add %22, %15 : tensor<i32>
    %536 = stablehlo.select %534, %535, %22 : tensor<i1>, tensor<i32>
    %537 = stablehlo.dynamic_update_slice %177, %519, %22, %536, %22, %22 : (tensor<2x20x12x64xf32>, tensor<2x6x12x64xf32>, tensor<i32>, tensor<i32>, tensor<i32>, tensor<i32>) -> tensor<2x20x12x64xf32>
    %538 = stablehlo.compare  LT, %22, %22,  SIGNED : (tensor<i32>, tensor<i32>) -> tensor<i1>
    %539 = stablehlo.add %22, %15 : tensor<i32>
    %540 = stablehlo.select %538, %539, %22 : tensor<i1>, tensor<i32>
    %541 = stablehlo.dynamic_update_slice %178, %520, %22, %540, %22, %22 : (tensor<2x20x12x64xf32>, tensor<2x6x12x64xf32>, tensor<i32>, tensor<i32>, tensor<i32>, tensor<i32>) -> tensor<2x20x12x64xf32>
    %542 = stablehlo.add %22, %14 : tensor<i32>
    %543 = stablehlo.iota dim = 0 : tensor<20xi32>
    %544 = stablehlo.add %22, %14 : tensor<i32>
    %545 = stablehlo.broadcast_in_dim %544, dims = [] : (tensor<i32>) -> tensor<20xi32>
    %546 = stablehlo.compare  LT, %543, %545,  SIGNED : (tensor<20xi32>, tensor<20xi32>) -> tensor<20xi1>
    %547 = stablehlo.broadcast_in_dim %546, dims = [3] : (tensor<20xi1>) -> tensor<2x1x6x20xi1>
    %548 = stablehlo.broadcast_in_dim %20, dims = [] : (tensor<f32>) -> tensor<2x1x6x20xf32>
    %549 = stablehlo.compare  NE, %533, %548,  FLOAT : (tensor<2x1x6x20xf32>, tensor<2x1x6x20xf32>) -> tensor<2x1x6x20xi1>
    %550 = stablehlo.and %547, %549 : tensor<2x1x6x20xi1>
    %551 = stablehlo.convert %550 : (tensor<2x1x6x20xi1>) -> tensor<2x1x6x20xf32>
    %552 = stablehlo.broadcast_in_dim %20, dims = [] : (tensor<f32>) -> tensor<2x1x6x20xf32>
    %553 = stablehlo.compare  GT, %551, %552,  FLOAT : (tensor<2x1x6x20xf32>, tensor<2x1x6x20xf32>) -> tensor<2x1x6x20xi1>
    %554 = stablehlo.broadcast_in_dim %20, dims = [] : (tensor<f32>) -> tensor<2x1x6x20xf32>
    %555 = stablehlo.convert %554 : tensor<2x1x6x20xf32>
    %556 = stablehlo.broadcast_in_dim %13, dims = [] : (tensor<f32>) -> tensor<2x1x6x20xf32>
    %557 = stablehlo.select %553, %555, %556 : tensor<2x1x6x20xi1>, tensor<2x1x6x20xf32>
    %558 = stablehlo.sqrt %12 : tensor<f32>
    %559 = stablehlo.convert %558 : tensor<f32>
    %560 = stablehlo.broadcast_in_dim %559, dims = [] : (tensor<f32>) -> tensor<2x6x12x64xf32>
    %561 = stablehlo.divide %518, %560 : tensor<2x6x12x64xf32>
    %562 = stablehlo.dot_general %561, %537, batching_dims = [0, 2] x [0, 2], contracting_dims = [3] x [3], precision = [DEFAULT, DEFAULT] : (tensor<2x6x12x64xf32>, tensor<2x20x12x64xf32>) -> tensor<2x12x6x20xf32>
    %563 = stablehlo.broadcast_in_dim %557, dims = [0, 1, 2, 3] : (tensor<2x1x6x20xf32>) -> tensor<2x12x6x20xf32>
    %564 = stablehlo.add %562, %563 : tensor<2x12x6x20xf32>
    %565 = stablehlo.reduce(%564 init: %11) applies stablehlo.maximum across dimensions = [3] : (tensor<2x12x6x20xf32>, tensor<f32>) -> tensor<2x12x6xf32>
    %566 = stablehlo.broadcast_in_dim %565, dims = [0, 1, 2] : (tensor<2x12x6xf32>) -> tensor<2x12x6x1xf32>
    %567 = stablehlo.broadcast_in_dim %566, dims = [0, 1, 2, 3] : (tensor<2x12x6x1xf32>) -> tensor<2x12x6x20xf32>
    %568 = stablehlo.subtract %564, %567 : tensor<2x12x6x20xf32>
    %569 = stablehlo.exponential %568 : tensor<2x12x6x20xf32>
    %570 = stablehlo.reduce(%569 init: %20) applies stablehlo.add across dimensions = [3] : (tensor<2x12x6x20xf32>, tensor<f32>) -> tensor<2x12x6xf32>
    %571 = stablehlo.broadcast_in_dim %570, dims = [0, 1, 2] : (tensor<2x12x6xf32>) -> tensor<2x12x6x1xf32>
    %572 = stablehlo.broadcast_in_dim %571, dims = [0, 1, 2, 3] : (tensor<2x12x6x1xf32>) -> tensor<2x12x6x20xf32>
    %573 = stablehlo.divide %569, %572 : tensor<2x12x6x20xf32>
    %574 = stablehlo.dot_general %541, %573, batching_dims = [0, 2] x [0, 1], contracting_dims = [1] x [3], precision = [DEFAULT, DEFAULT] : (tensor<2x20x12x64xf32>, tensor<2x12x6x20xf32>) -> tensor<2x12x64x6xf32>
    %575 = stablehlo.transpose %574, dims = [0, 3, 1, 2] : (tensor<2x12x64x6xf32>) -> tensor<2x6x12x64xf32>
    %576 = stablehlo.reshape %575 : (tensor<2x6x12x64xf32>) -> tensor<2x6x768xf32>
    %577 = stablehlo.transpose %41, dims = [1, 0] : (tensor<768x768xf16>) -> tensor<768x768xf16>
    %578 = stablehlo.convert %577 : (tensor<768x768xf16>) -> tensor<768x768xf32>
    %579 = stablehlo.dot_general %576, %578, contracting_dims = [2] x [0], precision = [DEFAULT, DEFAULT] : (tensor<2x6x768xf32>, tensor<768x768xf32>) -> tensor<2x6x768xf32>
    %580 = stablehlo.convert %42 : (tensor<768xf16>) -> tensor<768xf32>
    %581 = stablehlo.broadcast_in_dim %580, dims = [2] : (tensor<768xf32>) -> tensor<1x1x768xf32>
    %582 = stablehlo.broadcast_in_dim %581, dims = [0, 1, 2] : (tensor<1x1x768xf32>) -> tensor<2x6x768xf32>
    %583 = stablehlo.add %579, %582 : tensor<2x6x768xf32>
    %584 = stablehlo.add %583, %471 : tensor<2x6x768xf32>
    %585 = stablehlo.multiply %584, %584 : tensor<2x6x768xf32>
    %586 = stablehlo.reduce(%584 init: %20) applies stablehlo.add across dimensions = [2] : (tensor<2x6x768xf32>, tensor<f32>) -> tensor<2x6xf32>
    %587 = stablehlo.broadcast_in_dim %18, dims = [] : (tensor<f32>) -> tensor<2x6xf32>
    %588 = stablehlo.divide %586, %587 : tensor<2x6xf32>
    %589 = stablehlo.reduce(%585 init: %20) applies stablehlo.add across dimensions = [2] : (tensor<2x6x768xf32>, tensor<f32>) -> tensor<2x6xf32>
    %590 = stablehlo.broadcast_in_dim %18, dims = [] : (tensor<f32>) -> tensor<2x6xf32>
    %591 = stablehlo.divide %589, %590 : tensor<2x6xf32>
    %592 = stablehlo.multiply %588, %588 : tensor<2x6xf32>
    %593 = stablehlo.subtract %591, %592 : tensor<2x6xf32>
    %594 = stablehlo.broadcast_in_dim %20, dims = [] : (tensor<f32>) -> tensor<2x6xf32>
    %595 = stablehlo.maximum %594, %593 : tensor<2x6xf32>
    %596 = stablehlo.broadcast_in_dim %588, dims = [0, 1] : (tensor<2x6xf32>) -> tensor<2x6x1xf32>
    %597 = stablehlo.broadcast_in_dim %595, dims = [0, 1] : (tensor<2x6xf32>) -> tensor<2x6x1xf32>
    %598 = stablehlo.broadcast_in_dim %596, dims = [0, 1, 2] : (tensor<2x6x1xf32>) -> tensor<2x6x768xf32>
    %599 = stablehlo.subtract %584, %598 : tensor<2x6x768xf32>
    %600 = stablehlo.broadcast_in_dim %17, dims = [] : (tensor<f32>) -> tensor<2x6x1xf32>
    %601 = stablehlo.add %597, %600 : tensor<2x6x1xf32>
    %602 = stablehlo.rsqrt %601 : tensor<2x6x1xf32>
    %603 = stablehlo.reshape %43 : (tensor<768xf16>) -> tensor<1x1x768xf16>
    %604 = stablehlo.convert %603 : (tensor<1x1x768xf16>) -> tensor<1x1x768xf32>
    %605 = stablehlo.broadcast_in_dim %602, dims = [0, 1, 2] : (tensor<2x6x1xf32>) -> tensor<2x6x768xf32>
    %606 = stablehlo.broadcast_in_dim %604, dims = [0, 1, 2] : (tensor<1x1x768xf32>) -> tensor<2x6x768xf32>
    %607 = stablehlo.multiply %605, %606 : tensor<2x6x768xf32>
    %608 = stablehlo.multiply %599, %607 : tensor<2x6x768xf32>
    %609 = stablehlo.reshape %44 : (tensor<768xf16>) -> tensor<1x1x768xf16>
    %610 = stablehlo.convert %609 : (tensor<1x1x768xf16>) -> tensor<1x1x768xf32>
    %611 = stablehlo.broadcast_in_dim %610, dims = [0, 1, 2] : (tensor<1x1x768xf32>) -> tensor<2x6x768xf32>
    %612 = stablehlo.add %608, %611 : tensor<2x6x768xf32>
    %613 = stablehlo.transpose %45, dims = [1, 0] : (tensor<3072x768xf16>) -> tensor<768x3072xf16>
    %614 = stablehlo.convert %613 : (tensor<768x3072xf16>) -> tensor<768x3072xf32>
    %615 = stablehlo.dot_general %612, %614, contracting_dims = [2] x [0], precision = [DEFAULT, DEFAULT] : (tensor<2x6x768xf32>, tensor<768x3072xf32>) -> tensor<2x6x3072xf32>
    %616 = stablehlo.convert %46 : (tensor<3072xf16>) -> tensor<3072xf32>
    %617 = stablehlo.broadcast_in_dim %616, dims = [2] : (tensor<3072xf32>) -> tensor<1x1x3072xf32>
    %618 = stablehlo.broadcast_in_dim %617, dims = [0, 1, 2] : (tensor<1x1x3072xf32>) -> tensor<2x6x3072xf32>
    %619 = stablehlo.add %615, %618 : tensor<2x6x3072xf32>
    %620 = stablehlo.multiply %619, %619 : tensor<2x6x3072xf32>
    %621 = stablehlo.multiply %619, %620 : tensor<2x6x3072xf32>
    %622 = stablehlo.broadcast_in_dim %10, dims = [] : (tensor<f32>) -> tensor<2x6x3072xf32>
    %623 = stablehlo.multiply %622, %621 : tensor<2x6x3072xf32>
    %624 = stablehlo.add %619, %623 : tensor<2x6x3072xf32>
    %625 = stablehlo.broadcast_in_dim %9, dims = [] : (tensor<f32>) -> tensor<2x6x3072xf32>
    %626 = stablehlo.multiply %625, %624 : tensor<2x6x3072xf32>
    %627 = stablehlo.tanh %626 : tensor<2x6x3072xf32>
    %628 = stablehlo.broadcast_in_dim %8, dims = [] : (tensor<f32>) -> tensor<2x6x3072xf32>
    %629 = stablehlo.add %628, %627 : tensor<2x6x3072xf32>
    %630 = stablehlo.broadcast_in_dim %7, dims = [] : (tensor<f32>) -> tensor<2x6x3072xf32>
    %631 = stablehlo.multiply %630, %629 : tensor<2x6x3072xf32>
    %632 = stablehlo.multiply %619, %631 : tensor<2x6x3072xf32>
    %633 = stablehlo.transpose %47, dims = [1, 0] : (tensor<768x3072xf16>) -> tensor<3072x768xf16>
    %634 = stablehlo.convert %633 : (tensor<3072x768xf16>) -> tensor<3072x768xf32>
    %635 = stablehlo.dot_general %632, %634, contracting_dims = [2] x [0], precision = [DEFAULT, DEFAULT] : (tensor<2x6x3072xf32>, tensor<3072x768xf32>) -> tensor<2x6x768xf32>
    %636 = stablehlo.convert %48 : (tensor<768xf16>) -> tensor<768xf32>
    %637 = stablehlo.broadcast_in_dim %636, dims = [2] : (tensor<768xf32>) -> tensor<1x1x768xf32>
    %638 = stablehlo.broadcast_in_dim %637, dims = [0, 1, 2] : (tensor<1x1x768xf32>) -> tensor<2x6x768xf32>
    %639 = stablehlo.add %635, %638 : tensor<2x6x768xf32>
    %640 = stablehlo.add %584, %639 : tensor<2x6x768xf32>
    %641 = stablehlo.multiply %640, %640 : tensor<2x6x768xf32>
    %642 = stablehlo.reduce(%640 init: %20) applies stablehlo.add across dimensions = [2] : (tensor<2x6x768xf32>, tensor<f32>) -> tensor<2x6xf32>
    %643 = stablehlo.broadcast_in_dim %18, dims = [] : (tensor<f32>) -> tensor<2x6xf32>
    %644 = stablehlo.divide %642, %643 : tensor<2x6xf32>
    %645 = stablehlo.reduce(%641 init: %20) applies stablehlo.add across dimensions = [2] : (tensor<2x6x768xf32>, tensor<f32>) -> tensor<2x6xf32>
    %646 = stablehlo.broadcast_in_dim %18, dims = [] : (tensor<f32>) -> tensor<2x6xf32>
    %647 = stablehlo.divide %645, %646 : tensor<2x6xf32>
    %648 = stablehlo.multiply %644, %644 : tensor<2x6xf32>
    %649 = stablehlo.subtract %647, %648 : tensor<2x6xf32>
    %650 = stablehlo.broadcast_in_dim %20, dims = [] : (tensor<f32>) -> tensor<2x6xf32>
    %651 = stablehlo.maximum %650, %649 : tensor<2x6xf32>
    %652 = stablehlo.broadcast_in_dim %644, dims = [0, 1] : (tensor<2x6xf32>) -> tensor<2x6x1xf32>
    %653 = stablehlo.broadcast_in_dim %651, dims = [0, 1] : (tensor<2x6xf32>) -> tensor<2x6x1xf32>
    %654 = stablehlo.broadcast_in_dim %652, dims = [0, 1, 2] : (tensor<2x6x1xf32>) -> tensor<2x6x768xf32>
    %655 = stablehlo.subtract %640, %654 : tensor<2x6x768xf32>
    %656 = stablehlo.broadcast_in_dim %17, dims = [] : (tensor<f32>) -> tensor<2x6x1xf32>
    %657 = stablehlo.add %653, %656 : tensor<2x6x1xf32>
    %658 = stablehlo.rsqrt %657 : tensor<2x6x1xf32>
    %659 = stablehlo.reshape %49 : (tensor<768xf16>) -> tensor<1x1x768xf16>
    %660 = stablehlo.convert %659 : (tensor<1x1x768xf16>) -> tensor<1x1x768xf32>
    %661 = stablehlo.broadcast_in_dim %658, dims = [0, 1, 2] : (tensor<2x6x1xf32>) -> tensor<2x6x768xf32>
    %662 = stablehlo.broadcast_in_dim %660, dims = [0, 1, 2] : (tensor<1x1x768xf32>) -> tensor<2x6x768xf32>
    %663 = stablehlo.multiply %661, %662 : tensor<2x6x768xf32>
    %664 = stablehlo.multiply %655, %663 : tensor<2x6x768xf32>
    %665 = stablehlo.reshape %50 : (tensor<768xf16>) -> tensor<1x1x768xf16>
    %666 = stablehlo.convert %665 : (tensor<1x1x768xf16>) -> tensor<1x1x768xf32>
    %667 = stablehlo.broadcast_in_dim %666, dims = [0, 1, 2] : (tensor<1x1x768xf32>) -> tensor<2x6x768xf32>
    %668 = stablehlo.add %664, %667 : tensor<2x6x768xf32>
    %669 = stablehlo.iota dim = 0 : tensor<1024xi32>
    %670 = stablehlo.broadcast_in_dim %669, dims = [1] : (tensor<1024xi32>) -> tensor<1x1024xi32>
    %671 = stablehlo.broadcast_in_dim %670, dims = [0, 1] : (tensor<1x1024xi32>) -> tensor<1x1024x1xi32>
    %672 = stablehlo.broadcast_in_dim %670, dims = [0, 2] : (tensor<1x1024xi32>) -> tensor<1x1x1024xi32>
    %673 = stablehlo.broadcast_in_dim %671, dims = [0, 1, 2] : (tensor<1x1024x1xi32>) -> tensor<1x1024x1024xi32>
    %674 = stablehlo.broadcast_in_dim %672, dims = [0, 1, 2] : (tensor<1x1x1024xi32>) -> tensor<1x1024x1024xi32>
    %675 = stablehlo.compare  GE, %673, %674,  SIGNED : (tensor<1x1024x1024xi32>, tensor<1x1024x1024xi32>) -> tensor<1x1024x1024xi1>
    %676 = stablehlo.broadcast_in_dim %675, dims = [0, 2, 3] : (tensor<1x1024x1024xi1>) -> tensor<1x1x1024x1024xi1>
    %677 = stablehlo.transpose %51, dims = [1, 0] : (tensor<2304x768xf16>) -> tensor<768x2304xf16>
    %678 = stablehlo.convert %677 : (tensor<768x2304xf16>) -> tensor<768x2304xf32>
    %679 = stablehlo.dot_general %668, %678, contracting_dims = [2] x [0], precision = [DEFAULT, DEFAULT] : (tensor<2x6x768xf32>, tensor<768x2304xf32>) -> tensor<2x6x2304xf32>
    %680 = stablehlo.convert %52 : (tensor<2304xf16>) -> tensor<2304xf32>
    %681 = stablehlo.broadcast_in_dim %680, dims = [2] : (tensor<2304xf32>) -> tensor<1x1x2304xf32>
    %682 = stablehlo.broadcast_in_dim %681, dims = [0, 1, 2] : (tensor<1x1x2304xf32>) -> tensor<2x6x2304xf32>
    %683 = stablehlo.add %679, %682 : tensor<2x6x2304xf32>
    %684 = stablehlo.slice %683 [0:2, 0:6, 0:768] : (tensor<2x6x2304xf32>) -> tensor<2x6x768xf32>
    %685 = stablehlo.slice %683 [0:2, 0:6, 768:1536] : (tensor<2x6x2304xf32>) -> tensor<2x6x768xf32>
    %686 = stablehlo.slice %683 [0:2, 0:6, 1536:2304] : (tensor<2x6x2304xf32>) -> tensor<2x6x768xf32>
    %687 = stablehlo.reshape %684 : (tensor<2x6x768xf32>) -> tensor<2x6x12x64xf32>
    %688 = stablehlo.reshape %685 : (tensor<2x6x768xf32>) -> tensor<2x6x12x64xf32>
    %689 = stablehlo.reshape %686 : (tensor<2x6x768xf32>) -> tensor<2x6x12x64xf32>
    %690 = stablehlo.compare  LT, %22, %22,  SIGNED : (tensor<i32>, tensor<i32>) -> tensor<i1>
    %691 = stablehlo.add %22, %16 : tensor<i32>
    %692 = stablehlo.select %690, %691, %22 : tensor<i1>, tensor<i32>
    %693 = stablehlo.dynamic_slice %676, %22, %22, %692, %22, sizes = [1, 1, 6, 20] : (tensor<1x1x1024x1024xi1>, tensor<i32>, tensor<i32>, tensor<i32>, tensor<i32>) -> tensor<1x1x6x20xi1>
    %694 = stablehlo.reshape %693 : (tensor<1x1x6x20xi1>) -> tensor<1x6x20xi1>
    %695 = stablehlo.broadcast_in_dim %694, dims = [1, 2, 3] : (tensor<1x6x20xi1>) -> tensor<2x1x6x20xi1>
    %696 = stablehlo.broadcast_in_dim %223, dims = [0, 3] : (tensor<2x20xi32>) -> tensor<2x1x1x20xi32>
    %697 = stablehlo.reshape %696 : (tensor<2x1x1x20xi32>) -> tensor<2x1x20xi32>
    %698 = stablehlo.broadcast_in_dim %697, dims = [0, 1, 3] : (tensor<2x1x20xi32>) -> tensor<2x1x6x20xi32>
    %699 = stablehlo.broadcast_in_dim %22, dims = [] : (tensor<i32>) -> tensor<2x1x6x20xi32>
    %700 = stablehlo.compare  NE, %698, %699,  SIGNED : (tensor<2x1x6x20xi32>, tensor<2x1x6x20xi32>) -> tensor<2x1x6x20xi1>
    %701 = stablehlo.and %700, %695 : tensor<2x1x6x20xi1>
    %702 = stablehlo.convert %701 : (tensor<2x1x6x20xi1>) -> tensor<2x1x6x20xf32>
    %703 = stablehlo.compare  LT, %22, %22,  SIGNED : (tensor<i32>, tensor<i32>) -> tensor<i1>
    %704 = stablehlo.add %22, %15 : tensor<i32>
    %705 = stablehlo.select %703, %704, %22 : tensor<i1>, tensor<i32>
    %706 = stablehlo.dynamic_update_slice %179, %688, %22, %705, %22, %22 : (tensor<2x20x12x64xf32>, tensor<2x6x12x64xf32>, tensor<i32>, tensor<i32>, tensor<i32>, tensor<i32>) -> tensor<2x20x12x64xf32>
    %707 = stablehlo.compare  LT, %22, %22,  SIGNED : (tensor<i32>, tensor<i32>) -> tensor<i1>
    %708 = stablehlo.add %22, %15 : tensor<i32>
    %709 = stablehlo.select %707, %708, %22 : tensor<i1>, tensor<i32>
    %710 = stablehlo.dynamic_update_slice %180, %689, %22, %709, %22, %22 : (tensor<2x20x12x64xf32>, tensor<2x6x12x64xf32>, tensor<i32>, tensor<i32>, tensor<i32>, tensor<i32>) -> tensor<2x20x12x64xf32>
    %711 = stablehlo.add %22, %14 : tensor<i32>
    %712 = stablehlo.iota dim = 0 : tensor<20xi32>
    %713 = stablehlo.add %22, %14 : tensor<i32>
    %714 = stablehlo.broadcast_in_dim %713, dims = [] : (tensor<i32>) -> tensor<20xi32>
    %715 = stablehlo.compare  LT, %712, %714,  SIGNED : (tensor<20xi32>, tensor<20xi32>) -> tensor<20xi1>
    %716 = stablehlo.broadcast_in_dim %715, dims = [3] : (tensor<20xi1>) -> tensor<2x1x6x20xi1>
    %717 = stablehlo.broadcast_in_dim %20, dims = [] : (tensor<f32>) -> tensor<2x1x6x20xf32>
    %718 = stablehlo.compare  NE, %702, %717,  FLOAT : (tensor<2x1x6x20xf32>, tensor<2x1x6x20xf32>) -> tensor<2x1x6x20xi1>
    %719 = stablehlo.and %716, %718 : tensor<2x1x6x20xi1>
    %720 = stablehlo.convert %719 : (tensor<2x1x6x20xi1>) -> tensor<2x1x6x20xf32>
    %721 = stablehlo.broadcast_in_dim %20, dims = [] : (tensor<f32>) -> tensor<2x1x6x20xf32>
    %722 = stablehlo.compare  GT, %720, %721,  FLOAT : (tensor<2x1x6x20xf32>, tensor<2x1x6x20xf32>) -> tensor<2x1x6x20xi1>
    %723 = stablehlo.broadcast_in_dim %20, dims = [] : (tensor<f32>) -> tensor<2x1x6x20xf32>
    %724 = stablehlo.convert %723 : tensor<2x1x6x20xf32>
    %725 = stablehlo.broadcast_in_dim %13, dims = [] : (tensor<f32>) -> tensor<2x1x6x20xf32>
    %726 = stablehlo.select %722, %724, %725 : tensor<2x1x6x20xi1>, tensor<2x1x6x20xf32>
    %727 = stablehlo.sqrt %12 : tensor<f32>
    %728 = stablehlo.convert %727 : tensor<f32>
    %729 = stablehlo.broadcast_in_dim %728, dims = [] : (tensor<f32>) -> tensor<2x6x12x64xf32>
    %730 = stablehlo.divide %687, %729 : tensor<2x6x12x64xf32>
    %731 = stablehlo.dot_general %730, %706, batching_dims = [0, 2] x [0, 2], contracting_dims = [3] x [3], precision = [DEFAULT, DEFAULT] : (tensor<2x6x12x64xf32>, tensor<2x20x12x64xf32>) -> tensor<2x12x6x20xf32>
    %732 = stablehlo.broadcast_in_dim %726, dims = [0, 1, 2, 3] : (tensor<2x1x6x20xf32>) -> tensor<2x12x6x20xf32>
    %733 = stablehlo.add %731, %732 : tensor<2x12x6x20xf32>
    %734 = stablehlo.reduce(%733 init: %11) applies stablehlo.maximum across dimensions = [3] : (tensor<2x12x6x20xf32>, tensor<f32>) -> tensor<2x12x6xf32>
    %735 = stablehlo.broadcast_in_dim %734, dims = [0, 1, 2] : (tensor<2x12x6xf32>) -> tensor<2x12x6x1xf32>
    %736 = stablehlo.broadcast_in_dim %735, dims = [0, 1, 2, 3] : (tensor<2x12x6x1xf32>) -> tensor<2x12x6x20xf32>
    %737 = stablehlo.subtract %733, %736 : tensor<2x12x6x20xf32>
    %738 = stablehlo.exponential %737 : tensor<2x12x6x20xf32>
    %739 = stablehlo.reduce(%738 init: %20) applies stablehlo.add across dimensions = [3] : (tensor<2x12x6x20xf32>, tensor<f32>) -> tensor<2x12x6xf32>
    %740 = stablehlo.broadcast_in_dim %739, dims = [0, 1, 2] : (tensor<2x12x6xf32>) -> tensor<2x12x6x1xf32>
    %741 = stablehlo.broadcast_in_dim %740, dims = [0, 1, 2, 3] : (tensor<2x12x6x1xf32>) -> tensor<2x12x6x20xf32>
    %742 = stablehlo.divide %738, %741 : tensor<2x12x6x20xf32>
    %743 = stablehlo.dot_general %710, %742, batching_dims = [0, 2] x [0, 1], contracting_dims = [1] x [3], precision = [DEFAULT, DEFAULT] : (tensor<2x20x12x64xf32>, tensor<2x12x6x20xf32>) -> tensor<2x12x64x6xf32>
    %744 = stablehlo.transpose %743, dims = [0, 3, 1, 2] : (tensor<2x12x64x6xf32>) -> tensor<2x6x12x64xf32>
    %745 = stablehlo.reshape %744 : (tensor<2x6x12x64xf32>) -> tensor<2x6x768xf32>
    %746 = stablehlo.transpose %53, dims = [1, 0] : (tensor<768x768xf16>) -> tensor<768x768xf16>
    %747 = stablehlo.convert %746 : (tensor<768x768xf16>) -> tensor<768x768xf32>
    %748 = stablehlo.dot_general %745, %747, contracting_dims = [2] x [0], precision = [DEFAULT, DEFAULT] : (tensor<2x6x768xf32>, tensor<768x768xf32>) -> tensor<2x6x768xf32>
    %749 = stablehlo.convert %54 : (tensor<768xf16>) -> tensor<768xf32>
    %750 = stablehlo.broadcast_in_dim %749, dims = [2] : (tensor<768xf32>) -> tensor<1x1x768xf32>
    %751 = stablehlo.broadcast_in_dim %750, dims = [0, 1, 2] : (tensor<1x1x768xf32>) -> tensor<2x6x768xf32>
    %752 = stablehlo.add %748, %751 : tensor<2x6x768xf32>
    %753 = stablehlo.add %752, %640 : tensor<2x6x768xf32>
    %754 = stablehlo.multiply %753, %753 : tensor<2x6x768xf32>
    %755 = stablehlo.reduce(%753 init: %20) applies stablehlo.add across dimensions = [2] : (tensor<2x6x768xf32>, tensor<f32>) -> tensor<2x6xf32>
    %756 = stablehlo.broadcast_in_dim %18, dims = [] : (tensor<f32>) -> tensor<2x6xf32>
    %757 = stablehlo.divide %755, %756 : tensor<2x6xf32>
    %758 = stablehlo.reduce(%754 init: %20) applies stablehlo.add across dimensions = [2] : (tensor<2x6x768xf32>, tensor<f32>) -> tensor<2x6xf32>
    %759 = stablehlo.broadcast_in_dim %18, dims = [] : (tensor<f32>) -> tensor<2x6xf32>
    %760 = stablehlo.divide %758, %759 : tensor<2x6xf32>
    %761 = stablehlo.multiply %757, %757 : tensor<2x6xf32>
    %762 = stablehlo.subtract %760, %761 : tensor<2x6xf32>
    %763 = stablehlo.broadcast_in_dim %20, dims = [] : (tensor<f32>) -> tensor<2x6xf32>
    %764 = stablehlo.maximum %763, %762 : tensor<2x6xf32>
    %765 = stablehlo.broadcast_in_dim %757, dims = [0, 1] : (tensor<2x6xf32>) -> tensor<2x6x1xf32>
    %766 = stablehlo.broadcast_in_dim %764, dims = [0, 1] : (tensor<2x6xf32>) -> tensor<2x6x1xf32>
    %767 = stablehlo.broadcast_in_dim %765, dims = [0, 1, 2] : (tensor<2x6x1xf32>) -> tensor<2x6x768xf32>
    %768 = stablehlo.subtract %753, %767 : tensor<2x6x768xf32>
    %769 = stablehlo.broadcast_in_dim %17, dims = [] : (tensor<f32>) -> tensor<2x6x1xf32>
    %770 = stablehlo.add %766, %769 : tensor<2x6x1xf32>
    %771 = stablehlo.rsqrt %770 : tensor<2x6x1xf32>
    %772 = stablehlo.reshape %55 : (tensor<768xf16>) -> tensor<1x1x768xf16>
    %773 = stablehlo.convert %772 : (tensor<1x1x768xf16>) -> tensor<1x1x768xf32>
    %774 = stablehlo.broadcast_in_dim %771, dims = [0, 1, 2] : (tensor<2x6x1xf32>) -> tensor<2x6x768xf32>
    %775 = stablehlo.broadcast_in_dim %773, dims = [0, 1, 2] : (tensor<1x1x768xf32>) -> tensor<2x6x768xf32>
    %776 = stablehlo.multiply %774, %775 : tensor<2x6x768xf32>
    %777 = stablehlo.multiply %768, %776 : tensor<2x6x768xf32>
    %778 = stablehlo.reshape %56 : (tensor<768xf16>) -> tensor<1x1x768xf16>
    %779 = stablehlo.convert %778 : (tensor<1x1x768xf16>) -> tensor<1x1x768xf32>
    %780 = stablehlo.broadcast_in_dim %779, dims = [0, 1, 2] : (tensor<1x1x768xf32>) -> tensor<2x6x768xf32>
    %781 = stablehlo.add %777, %780 : tensor<2x6x768xf32>
    %782 = stablehlo.transpose %57, dims = [1, 0] : (tensor<3072x768xf16>) -> tensor<768x3072xf16>
    %783 = stablehlo.convert %782 : (tensor<768x3072xf16>) -> tensor<768x3072xf32>
    %784 = stablehlo.dot_general %781, %783, contracting_dims = [2] x [0], precision = [DEFAULT, DEFAULT] : (tensor<2x6x768xf32>, tensor<768x3072xf32>) -> tensor<2x6x3072xf32>
    %785 = stablehlo.convert %58 : (tensor<3072xf16>) -> tensor<3072xf32>
    %786 = stablehlo.broadcast_in_dim %785, dims = [2] : (tensor<3072xf32>) -> tensor<1x1x3072xf32>
    %787 = stablehlo.broadcast_in_dim %786, dims = [0, 1, 2] : (tensor<1x1x3072xf32>) -> tensor<2x6x3072xf32>
    %788 = stablehlo.add %784, %787 : tensor<2x6x3072xf32>
    %789 = stablehlo.multiply %788, %788 : tensor<2x6x3072xf32>
    %790 = stablehlo.multiply %788, %789 : tensor<2x6x3072xf32>
    %791 = stablehlo.broadcast_in_dim %10, dims = [] : (tensor<f32>) -> tensor<2x6x3072xf32>
    %792 = stablehlo.multiply %791, %790 : tensor<2x6x3072xf32>
    %793 = stablehlo.add %788, %792 : tensor<2x6x3072xf32>
    %794 = stablehlo.broadcast_in_dim %9, dims = [] : (tensor<f32>) -> tensor<2x6x3072xf32>
    %795 = stablehlo.multiply %794, %793 : tensor<2x6x3072xf32>
    %796 = stablehlo.tanh %795 : tensor<2x6x3072xf32>
    %797 = stablehlo.broadcast_in_dim %8, dims = [] : (tensor<f32>) -> tensor<2x6x3072xf32>
    %798 = stablehlo.add %797, %796 : tensor<2x6x3072xf32>
    %799 = stablehlo.broadcast_in_dim %7, dims = [] : (tensor<f32>) -> tensor<2x6x3072xf32>
    %800 = stablehlo.multiply %799, %798 : tensor<2x6x3072xf32>
    %801 = stablehlo.multiply %788, %800 : tensor<2x6x3072xf32>
    %802 = stablehlo.transpose %59, dims = [1, 0] : (tensor<768x3072xf16>) -> tensor<3072x768xf16>
    %803 = stablehlo.convert %802 : (tensor<3072x768xf16>) -> tensor<3072x768xf32>
    %804 = stablehlo.dot_general %801, %803, contracting_dims = [2] x [0], precision = [DEFAULT, DEFAULT] : (tensor<2x6x3072xf32>, tensor<3072x768xf32>) -> tensor<2x6x768xf32>
    %805 = stablehlo.convert %60 : (tensor<768xf16>) -> tensor<768xf32>
    %806 = stablehlo.broadcast_in_dim %805, dims = [2] : (tensor<768xf32>) -> tensor<1x1x768xf32>
    %807 = stablehlo.broadcast_in_dim %806, dims = [0, 1, 2] : (tensor<1x1x768xf32>) -> tensor<2x6x768xf32>
    %808 = stablehlo.add %804, %807 : tensor<2x6x768xf32>
    %809 = stablehlo.add %753, %808 : tensor<2x6x768xf32>
    %810 = stablehlo.multiply %809, %809 : tensor<2x6x768xf32>
    %811 = stablehlo.reduce(%809 init: %20) applies stablehlo.add across dimensions = [2] : (tensor<2x6x768xf32>, tensor<f32>) -> tensor<2x6xf32>
    %812 = stablehlo.broadcast_in_dim %18, dims = [] : (tensor<f32>) -> tensor<2x6xf32>
    %813 = stablehlo.divide %811, %812 : tensor<2x6xf32>
    %814 = stablehlo.reduce(%810 init: %20) applies stablehlo.add across dimensions = [2] : (tensor<2x6x768xf32>, tensor<f32>) -> tensor<2x6xf32>
    %815 = stablehlo.broadcast_in_dim %18, dims = [] : (tensor<f32>) -> tensor<2x6xf32>
    %816 = stablehlo.divide %814, %815 : tensor<2x6xf32>
    %817 = stablehlo.multiply %813, %813 : tensor<2x6xf32>
    %818 = stablehlo.subtract %816, %817 : tensor<2x6xf32>
    %819 = stablehlo.broadcast_in_dim %20, dims = [] : (tensor<f32>) -> tensor<2x6xf32>
    %820 = stablehlo.maximum %819, %818 : tensor<2x6xf32>
    %821 = stablehlo.broadcast_in_dim %813, dims = [0, 1] : (tensor<2x6xf32>) -> tensor<2x6x1xf32>
    %822 = stablehlo.broadcast_in_dim %820, dims = [0, 1] : (tensor<2x6xf32>) -> tensor<2x6x1xf32>
    %823 = stablehlo.broadcast_in_dim %821, dims = [0, 1, 2] : (tensor<2x6x1xf32>) -> tensor<2x6x768xf32>
    %824 = stablehlo.subtract %809, %823 : tensor<2x6x768xf32>
    %825 = stablehlo.broadcast_in_dim %17, dims = [] : (tensor<f32>) -> tensor<2x6x1xf32>
    %826 = stablehlo.add %822, %825 : tensor<2x6x1xf32>
    %827 = stablehlo.rsqrt %826 : tensor<2x6x1xf32>
    %828 = stablehlo.reshape %61 : (tensor<768xf16>) -> tensor<1x1x768xf16>
    %829 = stablehlo.convert %828 : (tensor<1x1x768xf16>) -> tensor<1x1x768xf32>
    %830 = stablehlo.broadcast_in_dim %827, dims = [0, 1, 2] : (tensor<2x6x1xf32>) -> tensor<2x6x768xf32>
    %831 = stablehlo.broadcast_in_dim %829, dims = [0, 1, 2] : (tensor<1x1x768xf32>) -> tensor<2x6x768xf32>
    %832 = stablehlo.multiply %830, %831 : tensor<2x6x768xf32>
    %833 = stablehlo.multiply %824, %832 : tensor<2x6x768xf32>
    %834 = stablehlo.reshape %62 : (tensor<768xf16>) -> tensor<1x1x768xf16>
    %835 = stablehlo.convert %834 : (tensor<1x1x768xf16>) -> tensor<1x1x768xf32>
    %836 = stablehlo.broadcast_in_dim %835, dims = [0, 1, 2] : (tensor<1x1x768xf32>) -> tensor<2x6x768xf32>
    %837 = stablehlo.add %833, %836 : tensor<2x6x768xf32>
    %838 = stablehlo.iota dim = 0 : tensor<1024xi32>
    %839 = stablehlo.broadcast_in_dim %838, dims = [1] : (tensor<1024xi32>) -> tensor<1x1024xi32>
    %840 = stablehlo.broadcast_in_dim %839, dims = [0, 1] : (tensor<1x1024xi32>) -> tensor<1x1024x1xi32>
    %841 = stablehlo.broadcast_in_dim %839, dims = [0, 2] : (tensor<1x1024xi32>) -> tensor<1x1x1024xi32>
    %842 = stablehlo.broadcast_in_dim %840, dims = [0, 1, 2] : (tensor<1x1024x1xi32>) -> tensor<1x1024x1024xi32>
    %843 = stablehlo.broadcast_in_dim %841, dims = [0, 1, 2] : (tensor<1x1x1024xi32>) -> tensor<1x1024x1024xi32>
    %844 = stablehlo.compare  GE, %842, %843,  SIGNED : (tensor<1x1024x1024xi32>, tensor<1x1024x1024xi32>) -> tensor<1x1024x1024xi1>
    %845 = stablehlo.broadcast_in_dim %844, dims = [0, 2, 3] : (tensor<1x1024x1024xi1>) -> tensor<1x1x1024x1024xi1>
    %846 = stablehlo.transpose %63, dims = [1, 0] : (tensor<2304x768xf16>) -> tensor<768x2304xf16>
    %847 = stablehlo.convert %846 : (tensor<768x2304xf16>) -> tensor<768x2304xf32>
    %848 = stablehlo.dot_general %837, %847, contracting_dims = [2] x [0], precision = [DEFAULT, DEFAULT] : (tensor<2x6x768xf32>, tensor<768x2304xf32>) -> tensor<2x6x2304xf32>
    %849 = stablehlo.convert %64 : (tensor<2304xf16>) -> tensor<2304xf32>
    %850 = stablehlo.broadcast_in_dim %849, dims = [2] : (tensor<2304xf32>) -> tensor<1x1x2304xf32>
    %851 = stablehlo.broadcast_in_dim %850, dims = [0, 1, 2] : (tensor<1x1x2304xf32>) -> tensor<2x6x2304xf32>
    %852 = stablehlo.add %848, %851 : tensor<2x6x2304xf32>
    %853 = stablehlo.slice %852 [0:2, 0:6, 0:768] : (tensor<2x6x2304xf32>) -> tensor<2x6x768xf32>
    %854 = stablehlo.slice %852 [0:2, 0:6, 768:1536] : (tensor<2x6x2304xf32>) -> tensor<2x6x768xf32>
    %855 = stablehlo.slice %852 [0:2, 0:6, 1536:2304] : (tensor<2x6x2304xf32>) -> tensor<2x6x768xf32>
    %856 = stablehlo.reshape %853 : (tensor<2x6x768xf32>) -> tensor<2x6x12x64xf32>
    %857 = stablehlo.reshape %854 : (tensor<2x6x768xf32>) -> tensor<2x6x12x64xf32>
    %858 = stablehlo.reshape %855 : (tensor<2x6x768xf32>) -> tensor<2x6x12x64xf32>
    %859 = stablehlo.compare  LT, %22, %22,  SIGNED : (tensor<i32>, tensor<i32>) -> tensor<i1>
    %860 = stablehlo.add %22, %16 : tensor<i32>
    %861 = stablehlo.select %859, %860, %22 : tensor<i1>, tensor<i32>
    %862 = stablehlo.dynamic_slice %845, %22, %22, %861, %22, sizes = [1, 1, 6, 20] : (tensor<1x1x1024x1024xi1>, tensor<i32>, tensor<i32>, tensor<i32>, tensor<i32>) -> tensor<1x1x6x20xi1>
    %863 = stablehlo.reshape %862 : (tensor<1x1x6x20xi1>) -> tensor<1x6x20xi1>
    %864 = stablehlo.broadcast_in_dim %863, dims = [1, 2, 3] : (tensor<1x6x20xi1>) -> tensor<2x1x6x20xi1>
    %865 = stablehlo.broadcast_in_dim %223, dims = [0, 3] : (tensor<2x20xi32>) -> tensor<2x1x1x20xi32>
    %866 = stablehlo.reshape %865 : (tensor<2x1x1x20xi32>) -> tensor<2x1x20xi32>
    %867 = stablehlo.broadcast_in_dim %866, dims = [0, 1, 3] : (tensor<2x1x20xi32>) -> tensor<2x1x6x20xi32>
    %868 = stablehlo.broadcast_in_dim %22, dims = [] : (tensor<i32>) -> tensor<2x1x6x20xi32>
    %869 = stablehlo.compare  NE, %867, %868,  SIGNED : (tensor<2x1x6x20xi32>, tensor<2x1x6x20xi32>) -> tensor<2x1x6x20xi1>
    %870 = stablehlo.and %869, %864 : tensor<2x1x6x20xi1>
    %871 = stablehlo.convert %870 : (tensor<2x1x6x20xi1>) -> tensor<2x1x6x20xf32>
    %872 = stablehlo.compare  LT, %22, %22,  SIGNED : (tensor<i32>, tensor<i32>) -> tensor<i1>
    %873 = stablehlo.add %22, %15 : tensor<i32>
    %874 = stablehlo.select %872, %873, %22 : tensor<i1>, tensor<i32>
    %875 = stablehlo.dynamic_update_slice %181, %857, %22, %874, %22, %22 : (tensor<2x20x12x64xf32>, tensor<2x6x12x64xf32>, tensor<i32>, tensor<i32>, tensor<i32>, tensor<i32>) -> tensor<2x20x12x64xf32>
    %876 = stablehlo.compare  LT, %22, %22,  SIGNED : (tensor<i32>, tensor<i32>) -> tensor<i1>
    %877 = stablehlo.add %22, %15 : tensor<i32>
    %878 = stablehlo.select %876, %877, %22 : tensor<i1>, tensor<i32>
    %879 = stablehlo.dynamic_update_slice %182, %858, %22, %878, %22, %22 : (tensor<2x20x12x64xf32>, tensor<2x6x12x64xf32>, tensor<i32>, tensor<i32>, tensor<i32>, tensor<i32>) -> tensor<2x20x12x64xf32>
    %880 = stablehlo.add %22, %14 : tensor<i32>
    %881 = stablehlo.iota dim = 0 : tensor<20xi32>
    %882 = stablehlo.add %22, %14 : tensor<i32>
    %883 = stablehlo.broadcast_in_dim %882, dims = [] : (tensor<i32>) -> tensor<20xi32>
    %884 = stablehlo.compare  LT, %881, %883,  SIGNED : (tensor<20xi32>, tensor<20xi32>) -> tensor<20xi1>
    %885 = stablehlo.broadcast_in_dim %884, dims = [3] : (tensor<20xi1>) -> tensor<2x1x6x20xi1>
    %886 = stablehlo.broadcast_in_dim %20, dims = [] : (tensor<f32>) -> tensor<2x1x6x20xf32>
    %887 = stablehlo.compare  NE, %871, %886,  FLOAT : (tensor<2x1x6x20xf32>, tensor<2x1x6x20xf32>) -> tensor<2x1x6x20xi1>
    %888 = stablehlo.and %885, %887 : tensor<2x1x6x20xi1>
    %889 = stablehlo.convert %888 : (tensor<2x1x6x20xi1>) -> tensor<2x1x6x20xf32>
    %890 = stablehlo.broadcast_in_dim %20, dims = [] : (tensor<f32>) -> tensor<2x1x6x20xf32>
    %891 = stablehlo.compare  GT, %889, %890,  FLOAT : (tensor<2x1x6x20xf32>, tensor<2x1x6x20xf32>) -> tensor<2x1x6x20xi1>
    %892 = stablehlo.broadcast_in_dim %20, dims = [] : (tensor<f32>) -> tensor<2x1x6x20xf32>
    %893 = stablehlo.convert %892 : tensor<2x1x6x20xf32>
    %894 = stablehlo.broadcast_in_dim %13, dims = [] : (tensor<f32>) -> tensor<2x1x6x20xf32>
    %895 = stablehlo.select %891, %893, %894 : tensor<2x1x6x20xi1>, tensor<2x1x6x20xf32>
    %896 = stablehlo.sqrt %12 : tensor<f32>
    %897 = stablehlo.convert %896 : tensor<f32>
    %898 = stablehlo.broadcast_in_dim %897, dims = [] : (tensor<f32>) -> tensor<2x6x12x64xf32>
    %899 = stablehlo.divide %856, %898 : tensor<2x6x12x64xf32>
    %900 = stablehlo.dot_general %899, %875, batching_dims = [0, 2] x [0, 2], contracting_dims = [3] x [3], precision = [DEFAULT, DEFAULT] : (tensor<2x6x12x64xf32>, tensor<2x20x12x64xf32>) -> tensor<2x12x6x20xf32>
    %901 = stablehlo.broadcast_in_dim %895, dims = [0, 1, 2, 3] : (tensor<2x1x6x20xf32>) -> tensor<2x12x6x20xf32>
    %902 = stablehlo.add %900, %901 : tensor<2x12x6x20xf32>
    %903 = stablehlo.reduce(%902 init: %11) applies stablehlo.maximum across dimensions = [3] : (tensor<2x12x6x20xf32>, tensor<f32>) -> tensor<2x12x6xf32>
    %904 = stablehlo.broadcast_in_dim %903, dims = [0, 1, 2] : (tensor<2x12x6xf32>) -> tensor<2x12x6x1xf32>
    %905 = stablehlo.broadcast_in_dim %904, dims = [0, 1, 2, 3] : (tensor<2x12x6x1xf32>) -> tensor<2x12x6x20xf32>
    %906 = stablehlo.subtract %902, %905 : tensor<2x12x6x20xf32>
    %907 = stablehlo.exponential %906 : tensor<2x12x6x20xf32>
    %908 = stablehlo.reduce(%907 init: %20) applies stablehlo.add across dimensions = [3] : (tensor<2x12x6x20xf32>, tensor<f32>) -> tensor<2x12x6xf32>
    %909 = stablehlo.broadcast_in_dim %908, dims = [0, 1, 2] : (tensor<2x12x6xf32>) -> tensor<2x12x6x1xf32>
    %910 = stablehlo.broadcast_in_dim %909, dims = [0, 1, 2, 3] : (tensor<2x12x6x1xf32>) -> tensor<2x12x6x20xf32>
    %911 = stablehlo.divide %907, %910 : tensor<2x12x6x20xf32>
    %912 = stablehlo.dot_general %879, %911, batching_dims = [0, 2] x [0, 1], contracting_dims = [1] x [3], precision = [DEFAULT, DEFAULT] : (tensor<2x20x12x64xf32>, tensor<2x12x6x20xf32>) -> tensor<2x12x64x6xf32>
    %913 = stablehlo.transpose %912, dims = [0, 3, 1, 2] : (tensor<2x12x64x6xf32>) -> tensor<2x6x12x64xf32>
    %914 = stablehlo.reshape %913 : (tensor<2x6x12x64xf32>) -> tensor<2x6x768xf32>
    %915 = stablehlo.transpose %65, dims = [1, 0] : (tensor<768x768xf16>) -> tensor<768x768xf16>
    %916 = stablehlo.convert %915 : (tensor<768x768xf16>) -> tensor<768x768xf32>
    %917 = stablehlo.dot_general %914, %916, contracting_dims = [2] x [0], precision = [DEFAULT, DEFAULT] : (tensor<2x6x768xf32>, tensor<768x768xf32>) -> tensor<2x6x768xf32>
    %918 = stablehlo.convert %66 : (tensor<768xf16>) -> tensor<768xf32>
    %919 = stablehlo.broadcast_in_dim %918, dims = [2] : (tensor<768xf32>) -> tensor<1x1x768xf32>
    %920 = stablehlo.broadcast_in_dim %919, dims = [0, 1, 2] : (tensor<1x1x768xf32>) -> tensor<2x6x768xf32>
    %921 = stablehlo.add %917, %920 : tensor<2x6x768xf32>
    %922 = stablehlo.add %921, %809 : tensor<2x6x768xf32>
    %923 = stablehlo.multiply %922, %922 : tensor<2x6x768xf32>
    %924 = stablehlo.reduce(%922 init: %20) applies stablehlo.add across dimensions = [2] : (tensor<2x6x768xf32>, tensor<f32>) -> tensor<2x6xf32>
    %925 = stablehlo.broadcast_in_dim %18, dims = [] : (tensor<f32>) -> tensor<2x6xf32>
    %926 = stablehlo.divide %924, %925 : tensor<2x6xf32>
    %927 = stablehlo.reduce(%923 init: %20) applies stablehlo.add across dimensions = [2] : (tensor<2x6x768xf32>, tensor<f32>) -> tensor<2x6xf32>
    %928 = stablehlo.broadcast_in_dim %18, dims = [] : (tensor<f32>) -> tensor<2x6xf32>
    %929 = stablehlo.divide %927, %928 : tensor<2x6xf32>
    %930 = stablehlo.multiply %926, %926 : tensor<2x6xf32>
    %931 = stablehlo.subtract %929, %930 : tensor<2x6xf32>
    %932 = stablehlo.broadcast_in_dim %20, dims = [] : (tensor<f32>) -> tensor<2x6xf32>
    %933 = stablehlo.maximum %932, %931 : tensor<2x6xf32>
    %934 = stablehlo.broadcast_in_dim %926, dims = [0, 1] : (tensor<2x6xf32>) -> tensor<2x6x1xf32>
    %935 = stablehlo.broadcast_in_dim %933, dims = [0, 1] : (tensor<2x6xf32>) -> tensor<2x6x1xf32>
    %936 = stablehlo.broadcast_in_dim %934, dims = [0, 1, 2] : (tensor<2x6x1xf32>) -> tensor<2x6x768xf32>
    %937 = stablehlo.subtract %922, %936 : tensor<2x6x768xf32>
    %938 = stablehlo.broadcast_in_dim %17, dims = [] : (tensor<f32>) -> tensor<2x6x1xf32>
    %939 = stablehlo.add %935, %938 : tensor<2x6x1xf32>
    %940 = stablehlo.rsqrt %939 : tensor<2x6x1xf32>
    %941 = stablehlo.reshape %67 : (tensor<768xf16>) -> tensor<1x1x768xf16>
    %942 = stablehlo.convert %941 : (tensor<1x1x768xf16>) -> tensor<1x1x768xf32>
    %943 = stablehlo.broadcast_in_dim %940, dims = [0, 1, 2] : (tensor<2x6x1xf32>) -> tensor<2x6x768xf32>
    %944 = stablehlo.broadcast_in_dim %942, dims = [0, 1, 2] : (tensor<1x1x768xf32>) -> tensor<2x6x768xf32>
    %945 = stablehlo.multiply %943, %944 : tensor<2x6x768xf32>
    %946 = stablehlo.multiply %937, %945 : tensor<2x6x768xf32>
    %947 = stablehlo.reshape %68 : (tensor<768xf16>) -> tensor<1x1x768xf16>
    %948 = stablehlo.convert %947 : (tensor<1x1x768xf16>) -> tensor<1x1x768xf32>
    %949 = stablehlo.broadcast_in_dim %948, dims = [0, 1, 2] : (tensor<1x1x768xf32>) -> tensor<2x6x768xf32>
    %950 = stablehlo.add %946, %949 : tensor<2x6x768xf32>
    %951 = stablehlo.transpose %69, dims = [1, 0] : (tensor<3072x768xf16>) -> tensor<768x3072xf16>
    %952 = stablehlo.convert %951 : (tensor<768x3072xf16>) -> tensor<768x3072xf32>
    %953 = stablehlo.dot_general %950, %952, contracting_dims = [2] x [0], precision = [DEFAULT, DEFAULT] : (tensor<2x6x768xf32>, tensor<768x3072xf32>) -> tensor<2x6x3072xf32>
    %954 = stablehlo.convert %70 : (tensor<3072xf16>) -> tensor<3072xf32>
    %955 = stablehlo.broadcast_in_dim %954, dims = [2] : (tensor<3072xf32>) -> tensor<1x1x3072xf32>
    %956 = stablehlo.broadcast_in_dim %955, dims = [0, 1, 2] : (tensor<1x1x3072xf32>) -> tensor<2x6x3072xf32>
    %957 = stablehlo.add %953, %956 : tensor<2x6x3072xf32>
    %958 = stablehlo.multiply %957, %957 : tensor<2x6x3072xf32>
    %959 = stablehlo.multiply %957, %958 : tensor<2x6x3072xf32>
    %960 = stablehlo.broadcast_in_dim %10, dims = [] : (tensor<f32>) -> tensor<2x6x3072xf32>
    %961 = stablehlo.multiply %960, %959 : tensor<2x6x3072xf32>
    %962 = stablehlo.add %957, %961 : tensor<2x6x3072xf32>
    %963 = stablehlo.broadcast_in_dim %9, dims = [] : (tensor<f32>) -> tensor<2x6x3072xf32>
    %964 = stablehlo.multiply %963, %962 : tensor<2x6x3072xf32>
    %965 = stablehlo.tanh %964 : tensor<2x6x3072xf32>
    %966 = stablehlo.broadcast_in_dim %8, dims = [] : (tensor<f32>) -> tensor<2x6x3072xf32>
    %967 = stablehlo.add %966, %965 : tensor<2x6x3072xf32>
    %968 = stablehlo.broadcast_in_dim %7, dims = [] : (tensor<f32>) -> tensor<2x6x3072xf32>
    %969 = stablehlo.multiply %968, %967 : tensor<2x6x3072xf32>
    %970 = stablehlo.multiply %957, %969 : tensor<2x6x3072xf32>
    %971 = stablehlo.transpose %71, dims = [1, 0] : (tensor<768x3072xf16>) -> tensor<3072x768xf16>
    %972 = stablehlo.convert %971 : (tensor<3072x768xf16>) -> tensor<3072x768xf32>
    %973 = stablehlo.dot_general %970, %972, contracting_dims = [2] x [0], precision = [DEFAULT, DEFAULT] : (tensor<2x6x3072xf32>, tensor<3072x768xf32>) -> tensor<2x6x768xf32>
    %974 = stablehlo.convert %72 : (tensor<768xf16>) -> tensor<768xf32>
    %975 = stablehlo.broadcast_in_dim %974, dims = [2] : (tensor<768xf32>) -> tensor<1x1x768xf32>
    %976 = stablehlo.broadcast_in_dim %975, dims = [0, 1, 2] : (tensor<1x1x768xf32>) -> tensor<2x6x768xf32>
    %977 = stablehlo.add %973, %976 : tensor<2x6x768xf32>
    %978 = stablehlo.add %922, %977 : tensor<2x6x768xf32>
    %979 = stablehlo.multiply %978, %978 : tensor<2x6x768xf32>
    %980 = stablehlo.reduce(%978 init: %20) applies stablehlo.add across dimensions = [2] : (tensor<2x6x768xf32>, tensor<f32>) -> tensor<2x6xf32>
    %981 = stablehlo.broadcast_in_dim %18, dims = [] : (tensor<f32>) -> tensor<2x6xf32>
    %982 = stablehlo.divide %980, %981 : tensor<2x6xf32>
    %983 = stablehlo.reduce(%979 init: %20) applies stablehlo.add across dimensions = [2] : (tensor<2x6x768xf32>, tensor<f32>) -> tensor<2x6xf32>
    %984 = stablehlo.broadcast_in_dim %18, dims = [] : (tensor<f32>) -> tensor<2x6xf32>
    %985 = stablehlo.divide %983, %984 : tensor<2x6xf32>
    %986 = stablehlo.multiply %982, %982 : tensor<2x6xf32>
    %987 = stablehlo.subtract %985, %986 : tensor<2x6xf32>
    %988 = stablehlo.broadcast_in_dim %20, dims = [] : (tensor<f32>) -> tensor<2x6xf32>
    %989 = stablehlo.maximum %988, %987 : tensor<2x6xf32>
    %990 = stablehlo.broadcast_in_dim %982, dims = [0, 1] : (tensor<2x6xf32>) -> tensor<2x6x1xf32>
    %991 = stablehlo.broadcast_in_dim %989, dims = [0, 1] : (tensor<2x6xf32>) -> tensor<2x6x1xf32>
    %992 = stablehlo.broadcast_in_dim %990, dims = [0, 1, 2] : (tensor<2x6x1xf32>) -> tensor<2x6x768xf32>
    %993 = stablehlo.subtract %978, %992 : tensor<2x6x768xf32>
    %994 = stablehlo.broadcast_in_dim %17, dims = [] : (tensor<f32>) -> tensor<2x6x1xf32>
    %995 = stablehlo.add %991, %994 : tensor<2x6x1xf32>
    %996 = stablehlo.rsqrt %995 : tensor<2x6x1xf32>
    %997 = stablehlo.reshape %73 : (tensor<768xf16>) -> tensor<1x1x768xf16>
    %998 = stablehlo.convert %997 : (tensor<1x1x768xf16>) -> tensor<1x1x768xf32>
    %999 = stablehlo.broadcast_in_dim %996, dims = [0, 1, 2] : (tensor<2x6x1xf32>) -> tensor<2x6x768xf32>
    %1000 = stablehlo.broadcast_in_dim %998, dims = [0, 1, 2] : (tensor<1x1x768xf32>) -> tensor<2x6x768xf32>
    %1001 = stablehlo.multiply %999, %1000 : tensor<2x6x768xf32>
    %1002 = stablehlo.multiply %993, %1001 : tensor<2x6x768xf32>
    %1003 = stablehlo.reshape %74 : (tensor<768xf16>) -> tensor<1x1x768xf16>
    %1004 = stablehlo.convert %1003 : (tensor<1x1x768xf16>) -> tensor<1x1x768xf32>
    %1005 = stablehlo.broadcast_in_dim %1004, dims = [0, 1, 2] : (tensor<1x1x768xf32>) -> tensor<2x6x768xf32>
    %1006 = stablehlo.add %1002, %1005 : tensor<2x6x768xf32>
    %1007 = stablehlo.iota dim = 0 : tensor<1024xi32>
    %1008 = stablehlo.broadcast_in_dim %1007, dims = [1] : (tensor<1024xi32>) -> tensor<1x1024xi32>
    %1009 = stablehlo.broadcast_in_dim %1008, dims = [0, 1] : (tensor<1x1024xi32>) -> tensor<1x1024x1xi32>
    %1010 = stablehlo.broadcast_in_dim %1008, dims = [0, 2] : (tensor<1x1024xi32>) -> tensor<1x1x1024xi32>
    %1011 = stablehlo.broadcast_in_dim %1009, dims = [0, 1, 2] : (tensor<1x1024x1xi32>) -> tensor<1x1024x1024xi32>
    %1012 = stablehlo.broadcast_in_dim %1010, dims = [0, 1, 2] : (tensor<1x1x1024xi32>) -> tensor<1x1024x1024xi32>
    %1013 = stablehlo.compare  GE, %1011, %1012,  SIGNED : (tensor<1x1024x1024xi32>, tensor<1x1024x1024xi32>) -> tensor<1x1024x1024xi1>
    %1014 = stablehlo.broadcast_in_dim %1013, dims = [0, 2, 3] : (tensor<1x1024x1024xi1>) -> tensor<1x1x1024x1024xi1>
    %1015 = stablehlo.transpose %75, dims = [1, 0] : (tensor<2304x768xf16>) -> tensor<768x2304xf16>
    %1016 = stablehlo.convert %1015 : (tensor<768x2304xf16>) -> tensor<768x2304xf32>
    %1017 = stablehlo.dot_general %1006, %1016, contracting_dims = [2] x [0], precision = [DEFAULT, DEFAULT] : (tensor<2x6x768xf32>, tensor<768x2304xf32>) -> tensor<2x6x2304xf32>
    %1018 = stablehlo.convert %76 : (tensor<2304xf16>) -> tensor<2304xf32>
    %1019 = stablehlo.broadcast_in_dim %1018, dims = [2] : (tensor<2304xf32>) -> tensor<1x1x2304xf32>
    %1020 = stablehlo.broadcast_in_dim %1019, dims = [0, 1, 2] : (tensor<1x1x2304xf32>) -> tensor<2x6x2304xf32>
    %1021 = stablehlo.add %1017, %1020 : tensor<2x6x2304xf32>
    %1022 = stablehlo.slice %1021 [0:2, 0:6, 0:768] : (tensor<2x6x2304xf32>) -> tensor<2x6x768xf32>
    %1023 = stablehlo.slice %1021 [0:2, 0:6, 768:1536] : (tensor<2x6x2304xf32>) -> tensor<2x6x768xf32>
    %1024 = stablehlo.slice %1021 [0:2, 0:6, 1536:2304] : (tensor<2x6x2304xf32>) -> tensor<2x6x768xf32>
    %1025 = stablehlo.reshape %1022 : (tensor<2x6x768xf32>) -> tensor<2x6x12x64xf32>
    %1026 = stablehlo.reshape %1023 : (tensor<2x6x768xf32>) -> tensor<2x6x12x64xf32>
    %1027 = stablehlo.reshape %1024 : (tensor<2x6x768xf32>) -> tensor<2x6x12x64xf32>
    %1028 = stablehlo.compare  LT, %22, %22,  SIGNED : (tensor<i32>, tensor<i32>) -> tensor<i1>
    %1029 = stablehlo.add %22, %16 : tensor<i32>
    %1030 = stablehlo.select %1028, %1029, %22 : tensor<i1>, tensor<i32>
    %1031 = stablehlo.dynamic_slice %1014, %22, %22, %1030, %22, sizes = [1, 1, 6, 20] : (tensor<1x1x1024x1024xi1>, tensor<i32>, tensor<i32>, tensor<i32>, tensor<i32>) -> tensor<1x1x6x20xi1>
    %1032 = stablehlo.reshape %1031 : (tensor<1x1x6x20xi1>) -> tensor<1x6x20xi1>
    %1033 = stablehlo.broadcast_in_dim %1032, dims = [1, 2, 3] : (tensor<1x6x20xi1>) -> tensor<2x1x6x20xi1>
    %1034 = stablehlo.broadcast_in_dim %223, dims = [0, 3] : (tensor<2x20xi32>) -> tensor<2x1x1x20xi32>
    %1035 = stablehlo.reshape %1034 : (tensor<2x1x1x20xi32>) -> tensor<2x1x20xi32>
    %1036 = stablehlo.broadcast_in_dim %1035, dims = [0, 1, 3] : (tensor<2x1x20xi32>) -> tensor<2x1x6x20xi32>
    %1037 = stablehlo.broadcast_in_dim %22, dims = [] : (tensor<i32>) -> tensor<2x1x6x20xi32>
    %1038 = stablehlo.compare  NE, %1036, %1037,  SIGNED : (tensor<2x1x6x20xi32>, tensor<2x1x6x20xi32>) -> tensor<2x1x6x20xi1>
    %1039 = stablehlo.and %1038, %1033 : tensor<2x1x6x20xi1>
    %1040 = stablehlo.convert %1039 : (tensor<2x1x6x20xi1>) -> tensor<2x1x6x20xf32>
    %1041 = stablehlo.compare  LT, %22, %22,  SIGNED : (tensor<i32>, tensor<i32>) -> tensor<i1>
    %1042 = stablehlo.add %22, %15 : tensor<i32>
    %1043 = stablehlo.select %1041, %1042, %22 : tensor<i1>, tensor<i32>
    %1044 = stablehlo.dynamic_update_slice %183, %1026, %22, %1043, %22, %22 : (tensor<2x20x12x64xf32>, tensor<2x6x12x64xf32>, tensor<i32>, tensor<i32>, tensor<i32>, tensor<i32>) -> tensor<2x20x12x64xf32>
    %1045 = stablehlo.compare  LT, %22, %22,  SIGNED : (tensor<i32>, tensor<i32>) -> tensor<i1>
    %1046 = stablehlo.add %22, %15 : tensor<i32>
    %1047 = stablehlo.select %1045, %1046, %22 : tensor<i1>, tensor<i32>
    %1048 = stablehlo.dynamic_update_slice %184, %1027, %22, %1047, %22, %22 : (tensor<2x20x12x64xf32>, tensor<2x6x12x64xf32>, tensor<i32>, tensor<i32>, tensor<i32>, tensor<i32>) -> tensor<2x20x12x64xf32>
    %1049 = stablehlo.add %22, %14 : tensor<i32>
    %1050 = stablehlo.iota dim = 0 : tensor<20xi32>
    %1051 = stablehlo.add %22, %14 : tensor<i32>
    %1052 = stablehlo.broadcast_in_dim %1051, dims = [] : (tensor<i32>) -> tensor<20xi32>
    %1053 = stablehlo.compare  LT, %1050, %1052,  SIGNED : (tensor<20xi32>, tensor<20xi32>) -> tensor<20xi1>
    %1054 = stablehlo.broadcast_in_dim %1053, dims = [3] : (tensor<20xi1>) -> tensor<2x1x6x20xi1>
    %1055 = stablehlo.broadcast_in_dim %20, dims = [] : (tensor<f32>) -> tensor<2x1x6x20xf32>
    %1056 = stablehlo.compare  NE, %1040, %1055,  FLOAT : (tensor<2x1x6x20xf32>, tensor<2x1x6x20xf32>) -> tensor<2x1x6x20xi1>
    %1057 = stablehlo.and %1054, %1056 : tensor<2x1x6x20xi1>
    %1058 = stablehlo.convert %1057 : (tensor<2x1x6x20xi1>) -> tensor<2x1x6x20xf32>
    %1059 = stablehlo.broadcast_in_dim %20, dims = [] : (tensor<f32>) -> tensor<2x1x6x20xf32>
    %1060 = stablehlo.compare  GT, %1058, %1059,  FLOAT : (tensor<2x1x6x20xf32>, tensor<2x1x6x20xf32>) -> tensor<2x1x6x20xi1>
    %1061 = stablehlo.broadcast_in_dim %20, dims = [] : (tensor<f32>) -> tensor<2x1x6x20xf32>
    %1062 = stablehlo.convert %1061 : tensor<2x1x6x20xf32>
    %1063 = stablehlo.broadcast_in_dim %13, dims = [] : (tensor<f32>) -> tensor<2x1x6x20xf32>
    %1064 = stablehlo.select %1060, %1062, %1063 : tensor<2x1x6x20xi1>, tensor<2x1x6x20xf32>
    %1065 = stablehlo.sqrt %12 : tensor<f32>
    %1066 = stablehlo.convert %1065 : tensor<f32>
    %1067 = stablehlo.broadcast_in_dim %1066, dims = [] : (tensor<f32>) -> tensor<2x6x12x64xf32>
    %1068 = stablehlo.divide %1025, %1067 : tensor<2x6x12x64xf32>
    %1069 = stablehlo.dot_general %1068, %1044, batching_dims = [0, 2] x [0, 2], contracting_dims = [3] x [3], precision = [DEFAULT, DEFAULT] : (tensor<2x6x12x64xf32>, tensor<2x20x12x64xf32>) -> tensor<2x12x6x20xf32>
    %1070 = stablehlo.broadcast_in_dim %1064, dims = [0, 1, 2, 3] : (tensor<2x1x6x20xf32>) -> tensor<2x12x6x20xf32>
    %1071 = stablehlo.add %1069, %1070 : tensor<2x12x6x20xf32>
    %1072 = stablehlo.reduce(%1071 init: %11) applies stablehlo.maximum across dimensions = [3] : (tensor<2x12x6x20xf32>, tensor<f32>) -> tensor<2x12x6xf32>
    %1073 = stablehlo.broadcast_in_dim %1072, dims = [0, 1, 2] : (tensor<2x12x6xf32>) -> tensor<2x12x6x1xf32>
    %1074 = stablehlo.broadcast_in_dim %1073, dims = [0, 1, 2, 3] : (tensor<2x12x6x1xf32>) -> tensor<2x12x6x20xf32>
    %1075 = stablehlo.subtract %1071, %1074 : tensor<2x12x6x20xf32>
    %1076 = stablehlo.exponential %1075 : tensor<2x12x6x20xf32>
    %1077 = stablehlo.reduce(%1076 init: %20) applies stablehlo.add across dimensions = [3] : (tensor<2x12x6x20xf32>, tensor<f32>) -> tensor<2x12x6xf32>
    %1078 = stablehlo.broadcast_in_dim %1077, dims = [0, 1, 2] : (tensor<2x12x6xf32>) -> tensor<2x12x6x1xf32>
    %1079 = stablehlo.broadcast_in_dim %1078, dims = [0, 1, 2, 3] : (tensor<2x12x6x1xf32>) -> tensor<2x12x6x20xf32>
    %1080 = stablehlo.divide %1076, %1079 : tensor<2x12x6x20xf32>
    %1081 = stablehlo.dot_general %1048, %1080, batching_dims = [0, 2] x [0, 1], contracting_dims = [1] x [3], precision = [DEFAULT, DEFAULT] : (tensor<2x20x12x64xf32>, tensor<2x12x6x20xf32>) -> tensor<2x12x64x6xf32>
    %1082 = stablehlo.transpose %1081, dims = [0, 3, 1, 2] : (tensor<2x12x64x6xf32>) -> tensor<2x6x12x64xf32>
    %1083 = stablehlo.reshape %1082 : (tensor<2x6x12x64xf32>) -> tensor<2x6x768xf32>
    %1084 = stablehlo.transpose %77, dims = [1, 0] : (tensor<768x768xf16>) -> tensor<768x768xf16>
    %1085 = stablehlo.convert %1084 : (tensor<768x768xf16>) -> tensor<768x768xf32>
    %1086 = stablehlo.dot_general %1083, %1085, contracting_dims = [2] x [0], precision = [DEFAULT, DEFAULT] : (tensor<2x6x768xf32>, tensor<768x768xf32>) -> tensor<2x6x768xf32>
    %1087 = stablehlo.convert %78 : (tensor<768xf16>) -> tensor<768xf32>
    %1088 = stablehlo.broadcast_in_dim %1087, dims = [2] : (tensor<768xf32>) -> tensor<1x1x768xf32>
    %1089 = stablehlo.broadcast_in_dim %1088, dims = [0, 1, 2] : (tensor<1x1x768xf32>) -> tensor<2x6x768xf32>
    %1090 = stablehlo.add %1086, %1089 : tensor<2x6x768xf32>
    %1091 = stablehlo.add %1090, %978 : tensor<2x6x768xf32>
    %1092 = stablehlo.multiply %1091, %1091 : tensor<2x6x768xf32>
    %1093 = stablehlo.reduce(%1091 init: %20) applies stablehlo.add across dimensions = [2] : (tensor<2x6x768xf32>, tensor<f32>) -> tensor<2x6xf32>
    %1094 = stablehlo.broadcast_in_dim %18, dims = [] : (tensor<f32>) -> tensor<2x6xf32>
    %1095 = stablehlo.divide %1093, %1094 : tensor<2x6xf32>
    %1096 = stablehlo.reduce(%1092 init: %20) applies stablehlo.add across dimensions = [2] : (tensor<2x6x768xf32>, tensor<f32>) -> tensor<2x6xf32>
    %1097 = stablehlo.broadcast_in_dim %18, dims = [] : (tensor<f32>) -> tensor<2x6xf32>
    %1098 = stablehlo.divide %1096, %1097 : tensor<2x6xf32>
    %1099 = stablehlo.multiply %1095, %1095 : tensor<2x6xf32>
    %1100 = stablehlo.subtract %1098, %1099 : tensor<2x6xf32>
    %1101 = stablehlo.broadcast_in_dim %20, dims = [] : (tensor<f32>) -> tensor<2x6xf32>
    %1102 = stablehlo.maximum %1101, %1100 : tensor<2x6xf32>
    %1103 = stablehlo.broadcast_in_dim %1095, dims = [0, 1] : (tensor<2x6xf32>) -> tensor<2x6x1xf32>
    %1104 = stablehlo.broadcast_in_dim %1102, dims = [0, 1] : (tensor<2x6xf32>) -> tensor<2x6x1xf32>
    %1105 = stablehlo.broadcast_in_dim %1103, dims = [0, 1, 2] : (tensor<2x6x1xf32>) -> tensor<2x6x768xf32>
    %1106 = stablehlo.subtract %1091, %1105 : tensor<2x6x768xf32>
    %1107 = stablehlo.broadcast_in_dim %17, dims = [] : (tensor<f32>) -> tensor<2x6x1xf32>
    %1108 = stablehlo.add %1104, %1107 : tensor<2x6x1xf32>
    %1109 = stablehlo.rsqrt %1108 : tensor<2x6x1xf32>
    %1110 = stablehlo.reshape %79 : (tensor<768xf16>) -> tensor<1x1x768xf16>
    %1111 = stablehlo.convert %1110 : (tensor<1x1x768xf16>) -> tensor<1x1x768xf32>
    %1112 = stablehlo.broadcast_in_dim %1109, dims = [0, 1, 2] : (tensor<2x6x1xf32>) -> tensor<2x6x768xf32>
    %1113 = stablehlo.broadcast_in_dim %1111, dims = [0, 1, 2] : (tensor<1x1x768xf32>) -> tensor<2x6x768xf32>
    %1114 = stablehlo.multiply %1112, %1113 : tensor<2x6x768xf32>
    %1115 = stablehlo.multiply %1106, %1114 : tensor<2x6x768xf32>
    %1116 = stablehlo.reshape %80 : (tensor<768xf16>) -> tensor<1x1x768xf16>
    %1117 = stablehlo.convert %1116 : (tensor<1x1x768xf16>) -> tensor<1x1x768xf32>
    %1118 = stablehlo.broadcast_in_dim %1117, dims = [0, 1, 2] : (tensor<1x1x768xf32>) -> tensor<2x6x768xf32>
    %1119 = stablehlo.add %1115, %1118 : tensor<2x6x768xf32>
    %1120 = stablehlo.transpose %81, dims = [1, 0] : (tensor<3072x768xf16>) -> tensor<768x3072xf16>
    %1121 = stablehlo.convert %1120 : (tensor<768x3072xf16>) -> tensor<768x3072xf32>
    %1122 = stablehlo.dot_general %1119, %1121, contracting_dims = [2] x [0], precision = [DEFAULT, DEFAULT] : (tensor<2x6x768xf32>, tensor<768x3072xf32>) -> tensor<2x6x3072xf32>
    %1123 = stablehlo.convert %82 : (tensor<3072xf16>) -> tensor<3072xf32>
    %1124 = stablehlo.broadcast_in_dim %1123, dims = [2] : (tensor<3072xf32>) -> tensor<1x1x3072xf32>
    %1125 = stablehlo.broadcast_in_dim %1124, dims = [0, 1, 2] : (tensor<1x1x3072xf32>) -> tensor<2x6x3072xf32>
    %1126 = stablehlo.add %1122, %1125 : tensor<2x6x3072xf32>
    %1127 = stablehlo.multiply %1126, %1126 : tensor<2x6x3072xf32>
    %1128 = stablehlo.multiply %1126, %1127 : tensor<2x6x3072xf32>
    %1129 = stablehlo.broadcast_in_dim %10, dims = [] : (tensor<f32>) -> tensor<2x6x3072xf32>
    %1130 = stablehlo.multiply %1129, %1128 : tensor<2x6x3072xf32>
    %1131 = stablehlo.add %1126, %1130 : tensor<2x6x3072xf32>
    %1132 = stablehlo.broadcast_in_dim %9, dims = [] : (tensor<f32>) -> tensor<2x6x3072xf32>
    %1133 = stablehlo.multiply %1132, %1131 : tensor<2x6x3072xf32>
    %1134 = stablehlo.tanh %1133 : tensor<2x6x3072xf32>
    %1135 = stablehlo.broadcast_in_dim %8, dims = [] : (tensor<f32>) -> tensor<2x6x3072xf32>
    %1136 = stablehlo.add %1135, %1134 : tensor<2x6x3072xf32>
    %1137 = stablehlo.broadcast_in_dim %7, dims = [] : (tensor<f32>) -> tensor<2x6x3072xf32>
    %1138 = stablehlo.multiply %1137, %1136 : tensor<2x6x3072xf32>
    %1139 = stablehlo.multiply %1126, %1138 : tensor<2x6x3072xf32>
    %1140 = stablehlo.transpose %83, dims = [1, 0] : (tensor<768x3072xf16>) -> tensor<3072x768xf16>
    %1141 = stablehlo.convert %1140 : (tensor<3072x768xf16>) -> tensor<3072x768xf32>
    %1142 = stablehlo.dot_general %1139, %1141, contracting_dims = [2] x [0], precision = [DEFAULT, DEFAULT] : (tensor<2x6x3072xf32>, tensor<3072x768xf32>) -> tensor<2x6x768xf32>
    %1143 = stablehlo.convert %84 : (tensor<768xf16>) -> tensor<768xf32>
    %1144 = stablehlo.broadcast_in_dim %1143, dims = [2] : (tensor<768xf32>) -> tensor<1x1x768xf32>
    %1145 = stablehlo.broadcast_in_dim %1144, dims = [0, 1, 2] : (tensor<1x1x768xf32>) -> tensor<2x6x768xf32>
    %1146 = stablehlo.add %1142, %1145 : tensor<2x6x768xf32>
    %1147 = stablehlo.add %1091, %1146 : tensor<2x6x768xf32>
    %1148 = stablehlo.multiply %1147, %1147 : tensor<2x6x768xf32>
    %1149 = stablehlo.reduce(%1147 init: %20) applies stablehlo.add across dimensions = [2] : (tensor<2x6x768xf32>, tensor<f32>) -> tensor<2x6xf32>
    %1150 = stablehlo.broadcast_in_dim %18, dims = [] : (tensor<f32>) -> tensor<2x6xf32>
    %1151 = stablehlo.divide %1149, %1150 : tensor<2x6xf32>
    %1152 = stablehlo.reduce(%1148 init: %20) applies stablehlo.add across dimensions = [2] : (tensor<2x6x768xf32>, tensor<f32>) -> tensor<2x6xf32>
    %1153 = stablehlo.broadcast_in_dim %18, dims = [] : (tensor<f32>) -> tensor<2x6xf32>
    %1154 = stablehlo.divide %1152, %1153 : tensor<2x6xf32>
    %1155 = stablehlo.multiply %1151, %1151 : tensor<2x6xf32>
    %1156 = stablehlo.subtract %1154, %1155 : tensor<2x6xf32>
    %1157 = stablehlo.broadcast_in_dim %20, dims = [] : (tensor<f32>) -> tensor<2x6xf32>
    %1158 = stablehlo.maximum %1157, %1156 : tensor<2x6xf32>
    %1159 = stablehlo.broadcast_in_dim %1151, dims = [0, 1] : (tensor<2x6xf32>) -> tensor<2x6x1xf32>
    %1160 = stablehlo.broadcast_in_dim %1158, dims = [0, 1] : (tensor<2x6xf32>) -> tensor<2x6x1xf32>
    %1161 = stablehlo.broadcast_in_dim %1159, dims = [0, 1, 2] : (tensor<2x6x1xf32>) -> tensor<2x6x768xf32>
    %1162 = stablehlo.subtract %1147, %1161 : tensor<2x6x768xf32>
    %1163 = stablehlo.broadcast_in_dim %17, dims = [] : (tensor<f32>) -> tensor<2x6x1xf32>
    %1164 = stablehlo.add %1160, %1163 : tensor<2x6x1xf32>
    %1165 = stablehlo.rsqrt %1164 : tensor<2x6x1xf32>
    %1166 = stablehlo.reshape %85 : (tensor<768xf16>) -> tensor<1x1x768xf16>
    %1167 = stablehlo.convert %1166 : (tensor<1x1x768xf16>) -> tensor<1x1x768xf32>
    %1168 = stablehlo.broadcast_in_dim %1165, dims = [0, 1, 2] : (tensor<2x6x1xf32>) -> tensor<2x6x768xf32>
    %1169 = stablehlo.broadcast_in_dim %1167, dims = [0, 1, 2] : (tensor<1x1x768xf32>) -> tensor<2x6x768xf32>
    %1170 = stablehlo.multiply %1168, %1169 : tensor<2x6x768xf32>
    %1171 = stablehlo.multiply %1162, %1170 : tensor<2x6x768xf32>
    %1172 = stablehlo.reshape %86 : (tensor<768xf16>) -> tensor<1x1x768xf16>
    %1173 = stablehlo.convert %1172 : (tensor<1x1x768xf16>) -> tensor<1x1x768xf32>
    %1174 = stablehlo.broadcast_in_dim %1173, dims = [0, 1, 2] : (tensor<1x1x768xf32>) -> tensor<2x6x768xf32>
    %1175 = stablehlo.add %1171, %1174 : tensor<2x6x768xf32>
    %1176 = stablehlo.iota dim = 0 : tensor<1024xi32>
    %1177 = stablehlo.broadcast_in_dim %1176, dims = [1] : (tensor<1024xi32>) -> tensor<1x1024xi32>
    %1178 = stablehlo.broadcast_in_dim %1177, dims = [0, 1] : (tensor<1x1024xi32>) -> tensor<1x1024x1xi32>
    %1179 = stablehlo.broadcast_in_dim %1177, dims = [0, 2] : (tensor<1x1024xi32>) -> tensor<1x1x1024xi32>
    %1180 = stablehlo.broadcast_in_dim %1178, dims = [0, 1, 2] : (tensor<1x1024x1xi32>) -> tensor<1x1024x1024xi32>
    %1181 = stablehlo.broadcast_in_dim %1179, dims = [0, 1, 2] : (tensor<1x1x1024xi32>) -> tensor<1x1024x1024xi32>
    %1182 = stablehlo.compare  GE, %1180, %1181,  SIGNED : (tensor<1x1024x1024xi32>, tensor<1x1024x1024xi32>) -> tensor<1x1024x1024xi1>
    %1183 = stablehlo.broadcast_in_dim %1182, dims = [0, 2, 3] : (tensor<1x1024x1024xi1>) -> tensor<1x1x1024x1024xi1>
    %1184 = stablehlo.transpose %87, dims = [1, 0] : (tensor<2304x768xf16>) -> tensor<768x2304xf16>
    %1185 = stablehlo.convert %1184 : (tensor<768x2304xf16>) -> tensor<768x2304xf32>
    %1186 = stablehlo.dot_general %1175, %1185, contracting_dims = [2] x [0], precision = [DEFAULT, DEFAULT] : (tensor<2x6x768xf32>, tensor<768x2304xf32>) -> tensor<2x6x2304xf32>
    %1187 = stablehlo.convert %88 : (tensor<2304xf16>) -> tensor<2304xf32>
    %1188 = stablehlo.broadcast_in_dim %1187, dims = [2] : (tensor<2304xf32>) -> tensor<1x1x2304xf32>
    %1189 = stablehlo.broadcast_in_dim %1188, dims = [0, 1, 2] : (tensor<1x1x2304xf32>) -> tensor<2x6x2304xf32>
    %1190 = stablehlo.add %1186, %1189 : tensor<2x6x2304xf32>
    %1191 = stablehlo.slice %1190 [0:2, 0:6, 0:768] : (tensor<2x6x2304xf32>) -> tensor<2x6x768xf32>
    %1192 = stablehlo.slice %1190 [0:2, 0:6, 768:1536] : (tensor<2x6x2304xf32>) -> tensor<2x6x768xf32>
    %1193 = stablehlo.slice %1190 [0:2, 0:6, 1536:2304] : (tensor<2x6x2304xf32>) -> tensor<2x6x768xf32>
    %1194 = stablehlo.reshape %1191 : (tensor<2x6x768xf32>) -> tensor<2x6x12x64xf32>
    %1195 = stablehlo.reshape %1192 : (tensor<2x6x768xf32>) -> tensor<2x6x12x64xf32>
    %1196 = stablehlo.reshape %1193 : (tensor<2x6x768xf32>) -> tensor<2x6x12x64xf32>
    %1197 = stablehlo.compare  LT, %22, %22,  SIGNED : (tensor<i32>, tensor<i32>) -> tensor<i1>
    %1198 = stablehlo.add %22, %16 : tensor<i32>
    %1199 = stablehlo.select %1197, %1198, %22 : tensor<i1>, tensor<i32>
    %1200 = stablehlo.dynamic_slice %1183, %22, %22, %1199, %22, sizes = [1, 1, 6, 20] : (tensor<1x1x1024x1024xi1>, tensor<i32>, tensor<i32>, tensor<i32>, tensor<i32>) -> tensor<1x1x6x20xi1>
    %1201 = stablehlo.reshape %1200 : (tensor<1x1x6x20xi1>) -> tensor<1x6x20xi1>
    %1202 = stablehlo.broadcast_in_dim %1201, dims = [1, 2, 3] : (tensor<1x6x20xi1>) -> tensor<2x1x6x20xi1>
    %1203 = stablehlo.broadcast_in_dim %223, dims = [0, 3] : (tensor<2x20xi32>) -> tensor<2x1x1x20xi32>
    %1204 = stablehlo.reshape %1203 : (tensor<2x1x1x20xi32>) -> tensor<2x1x20xi32>
    %1205 = stablehlo.broadcast_in_dim %1204, dims = [0, 1, 3] : (tensor<2x1x20xi32>) -> tensor<2x1x6x20xi32>
    %1206 = stablehlo.broadcast_in_dim %22, dims = [] : (tensor<i32>) -> tensor<2x1x6x20xi32>
    %1207 = stablehlo.compare  NE, %1205, %1206,  SIGNED : (tensor<2x1x6x20xi32>, tensor<2x1x6x20xi32>) -> tensor<2x1x6x20xi1>
    %1208 = stablehlo.and %1207, %1202 : tensor<2x1x6x20xi1>
    %1209 = stablehlo.convert %1208 : (tensor<2x1x6x20xi1>) -> tensor<2x1x6x20xf32>
    %1210 = stablehlo.compare  LT, %22, %22,  SIGNED : (tensor<i32>, tensor<i32>) -> tensor<i1>
    %1211 = stablehlo.add %22, %15 : tensor<i32>
    %1212 = stablehlo.select %1210, %1211, %22 : tensor<i1>, tensor<i32>
    %1213 = stablehlo.dynamic_update_slice %185, %1195, %22, %1212, %22, %22 : (tensor<2x20x12x64xf32>, tensor<2x6x12x64xf32>, tensor<i32>, tensor<i32>, tensor<i32>, tensor<i32>) -> tensor<2x20x12x64xf32>
    %1214 = stablehlo.compare  LT, %22, %22,  SIGNED : (tensor<i32>, tensor<i32>) -> tensor<i1>
    %1215 = stablehlo.add %22, %15 : tensor<i32>
    %1216 = stablehlo.select %1214, %1215, %22 : tensor<i1>, tensor<i32>
    %1217 = stablehlo.dynamic_update_slice %186, %1196, %22, %1216, %22, %22 : (tensor<2x20x12x64xf32>, tensor<2x6x12x64xf32>, tensor<i32>, tensor<i32>, tensor<i32>, tensor<i32>) -> tensor<2x20x12x64xf32>
    %1218 = stablehlo.add %22, %14 : tensor<i32>
    %1219 = stablehlo.iota dim = 0 : tensor<20xi32>
    %1220 = stablehlo.add %22, %14 : tensor<i32>
    %1221 = stablehlo.broadcast_in_dim %1220, dims = [] : (tensor<i32>) -> tensor<20xi32>
    %1222 = stablehlo.compare  LT, %1219, %1221,  SIGNED : (tensor<20xi32>, tensor<20xi32>) -> tensor<20xi1>
    %1223 = stablehlo.broadcast_in_dim %1222, dims = [3] : (tensor<20xi1>) -> tensor<2x1x6x20xi1>
    %1224 = stablehlo.broadcast_in_dim %20, dims = [] : (tensor<f32>) -> tensor<2x1x6x20xf32>
    %1225 = stablehlo.compare  NE, %1209, %1224,  FLOAT : (tensor<2x1x6x20xf32>, tensor<2x1x6x20xf32>) -> tensor<2x1x6x20xi1>
    %1226 = stablehlo.and %1223, %1225 : tensor<2x1x6x20xi1>
    %1227 = stablehlo.convert %1226 : (tensor<2x1x6x20xi1>) -> tensor<2x1x6x20xf32>
    %1228 = stablehlo.broadcast_in_dim %20, dims = [] : (tensor<f32>) -> tensor<2x1x6x20xf32>
    %1229 = stablehlo.compare  GT, %1227, %1228,  FLOAT : (tensor<2x1x6x20xf32>, tensor<2x1x6x20xf32>) -> tensor<2x1x6x20xi1>
    %1230 = stablehlo.broadcast_in_dim %20, dims = [] : (tensor<f32>) -> tensor<2x1x6x20xf32>
    %1231 = stablehlo.convert %1230 : tensor<2x1x6x20xf32>
    %1232 = stablehlo.broadcast_in_dim %13, dims = [] : (tensor<f32>) -> tensor<2x1x6x20xf32>
    %1233 = stablehlo.select %1229, %1231, %1232 : tensor<2x1x6x20xi1>, tensor<2x1x6x20xf32>
    %1234 = stablehlo.sqrt %12 : tensor<f32>
    %1235 = stablehlo.convert %1234 : tensor<f32>
    %1236 = stablehlo.broadcast_in_dim %1235, dims = [] : (tensor<f32>) -> tensor<2x6x12x64xf32>
    %1237 = stablehlo.divide %1194, %1236 : tensor<2x6x12x64xf32>
    %1238 = stablehlo.dot_general %1237, %1213, batching_dims = [0, 2] x [0, 2], contracting_dims = [3] x [3], precision = [DEFAULT, DEFAULT] : (tensor<2x6x12x64xf32>, tensor<2x20x12x64xf32>) -> tensor<2x12x6x20xf32>
    %1239 = stablehlo.broadcast_in_dim %1233, dims = [0, 1, 2, 3] : (tensor<2x1x6x20xf32>) -> tensor<2x12x6x20xf32>
    %1240 = stablehlo.add %1238, %1239 : tensor<2x12x6x20xf32>
    %1241 = stablehlo.reduce(%1240 init: %11) applies stablehlo.maximum across dimensions = [3] : (tensor<2x12x6x20xf32>, tensor<f32>) -> tensor<2x12x6xf32>
    %1242 = stablehlo.broadcast_in_dim %1241, dims = [0, 1, 2] : (tensor<2x12x6xf32>) -> tensor<2x12x6x1xf32>
    %1243 = stablehlo.broadcast_in_dim %1242, dims = [0, 1, 2, 3] : (tensor<2x12x6x1xf32>) -> tensor<2x12x6x20xf32>
    %1244 = stablehlo.subtract %1240, %1243 : tensor<2x12x6x20xf32>
    %1245 = stablehlo.exponential %1244 : tensor<2x12x6x20xf32>
    %1246 = stablehlo.reduce(%1245 init: %20) applies stablehlo.add across dimensions = [3] : (tensor<2x12x6x20xf32>, tensor<f32>) -> tensor<2x12x6xf32>
    %1247 = stablehlo.broadcast_in_dim %1246, dims = [0, 1, 2] : (tensor<2x12x6xf32>) -> tensor<2x12x6x1xf32>
    %1248 = stablehlo.broadcast_in_dim %1247, dims = [0, 1, 2, 3] : (tensor<2x12x6x1xf32>) -> tensor<2x12x6x20xf32>
    %1249 = stablehlo.divide %1245, %1248 : tensor<2x12x6x20xf32>
    %1250 = stablehlo.dot_general %1217, %1249, batching_dims = [0, 2] x [0, 1], contracting_dims = [1] x [3], precision = [DEFAULT, DEFAULT] : (tensor<2x20x12x64xf32>, tensor<2x12x6x20xf32>) -> tensor<2x12x64x6xf32>
    %1251 = stablehlo.transpose %1250, dims = [0, 3, 1, 2] : (tensor<2x12x64x6xf32>) -> tensor<2x6x12x64xf32>
    %1252 = stablehlo.reshape %1251 : (tensor<2x6x12x64xf32>) -> tensor<2x6x768xf32>
    %1253 = stablehlo.transpose %89, dims = [1, 0] : (tensor<768x768xf16>) -> tensor<768x768xf16>
    %1254 = stablehlo.convert %1253 : (tensor<768x768xf16>) -> tensor<768x768xf32>
    %1255 = stablehlo.dot_general %1252, %1254, contracting_dims = [2] x [0], precision = [DEFAULT, DEFAULT] : (tensor<2x6x768xf32>, tensor<768x768xf32>) -> tensor<2x6x768xf32>
    %1256 = stablehlo.convert %90 : (tensor<768xf16>) -> tensor<768xf32>
    %1257 = stablehlo.broadcast_in_dim %1256, dims = [2] : (tensor<768xf32>) -> tensor<1x1x768xf32>
    %1258 = stablehlo.broadcast_in_dim %1257, dims = [0, 1, 2] : (tensor<1x1x768xf32>) -> tensor<2x6x768xf32>
    %1259 = stablehlo.add %1255, %1258 : tensor<2x6x768xf32>
    %1260 = stablehlo.add %1259, %1147 : tensor<2x6x768xf32>
    %1261 = stablehlo.multiply %1260, %1260 : tensor<2x6x768xf32>
    %1262 = stablehlo.reduce(%1260 init: %20) applies stablehlo.add across dimensions = [2] : (tensor<2x6x768xf32>, tensor<f32>) -> tensor<2x6xf32>
    %1263 = stablehlo.broadcast_in_dim %18, dims = [] : (tensor<f32>) -> tensor<2x6xf32>
    %1264 = stablehlo.divide %1262, %1263 : tensor<2x6xf32>
    %1265 = stablehlo.reduce(%1261 init: %20) applies stablehlo.add across dimensions = [2] : (tensor<2x6x768xf32>, tensor<f32>) -> tensor<2x6xf32>
    %1266 = stablehlo.broadcast_in_dim %18, dims = [] : (tensor<f32>) -> tensor<2x6xf32>
    %1267 = stablehlo.divide %1265, %1266 : tensor<2x6xf32>
    %1268 = stablehlo.multiply %1264, %1264 : tensor<2x6xf32>
    %1269 = stablehlo.subtract %1267, %1268 : tensor<2x6xf32>
    %1270 = stablehlo.broadcast_in_dim %20, dims = [] : (tensor<f32>) -> tensor<2x6xf32>
    %1271 = stablehlo.maximum %1270, %1269 : tensor<2x6xf32>
    %1272 = stablehlo.broadcast_in_dim %1264, dims = [0, 1] : (tensor<2x6xf32>) -> tensor<2x6x1xf32>
    %1273 = stablehlo.broadcast_in_dim %1271, dims = [0, 1] : (tensor<2x6xf32>) -> tensor<2x6x1xf32>
    %1274 = stablehlo.broadcast_in_dim %1272, dims = [0, 1, 2] : (tensor<2x6x1xf32>) -> tensor<2x6x768xf32>
    %1275 = stablehlo.subtract %1260, %1274 : tensor<2x6x768xf32>
    %1276 = stablehlo.broadcast_in_dim %17, dims = [] : (tensor<f32>) -> tensor<2x6x1xf32>
    %1277 = stablehlo.add %1273, %1276 : tensor<2x6x1xf32>
    %1278 = stablehlo.rsqrt %1277 : tensor<2x6x1xf32>
    %1279 = stablehlo.reshape %91 : (tensor<768xf16>) -> tensor<1x1x768xf16>
    %1280 = stablehlo.convert %1279 : (tensor<1x1x768xf16>) -> tensor<1x1x768xf32>
    %1281 = stablehlo.broadcast_in_dim %1278, dims = [0, 1, 2] : (tensor<2x6x1xf32>) -> tensor<2x6x768xf32>
    %1282 = stablehlo.broadcast_in_dim %1280, dims = [0, 1, 2] : (tensor<1x1x768xf32>) -> tensor<2x6x768xf32>
    %1283 = stablehlo.multiply %1281, %1282 : tensor<2x6x768xf32>
    %1284 = stablehlo.multiply %1275, %1283 : tensor<2x6x768xf32>
    %1285 = stablehlo.reshape %92 : (tensor<768xf16>) -> tensor<1x1x768xf16>
    %1286 = stablehlo.convert %1285 : (tensor<1x1x768xf16>) -> tensor<1x1x768xf32>
    %1287 = stablehlo.broadcast_in_dim %1286, dims = [0, 1, 2] : (tensor<1x1x768xf32>) -> tensor<2x6x768xf32>
    %1288 = stablehlo.add %1284, %1287 : tensor<2x6x768xf32>
    %1289 = stablehlo.transpose %93, dims = [1, 0] : (tensor<3072x768xf16>) -> tensor<768x3072xf16>
    %1290 = stablehlo.convert %1289 : (tensor<768x3072xf16>) -> tensor<768x3072xf32>
    %1291 = stablehlo.dot_general %1288, %1290, contracting_dims = [2] x [0], precision = [DEFAULT, DEFAULT] : (tensor<2x6x768xf32>, tensor<768x3072xf32>) -> tensor<2x6x3072xf32>
    %1292 = stablehlo.convert %94 : (tensor<3072xf16>) -> tensor<3072xf32>
    %1293 = stablehlo.broadcast_in_dim %1292, dims = [2] : (tensor<3072xf32>) -> tensor<1x1x3072xf32>
    %1294 = stablehlo.broadcast_in_dim %1293, dims = [0, 1, 2] : (tensor<1x1x3072xf32>) -> tensor<2x6x3072xf32>
    %1295 = stablehlo.add %1291, %1294 : tensor<2x6x3072xf32>
    %1296 = stablehlo.multiply %1295, %1295 : tensor<2x6x3072xf32>
    %1297 = stablehlo.multiply %1295, %1296 : tensor<2x6x3072xf32>
    %1298 = stablehlo.broadcast_in_dim %10, dims = [] : (tensor<f32>) -> tensor<2x6x3072xf32>
    %1299 = stablehlo.multiply %1298, %1297 : tensor<2x6x3072xf32>
    %1300 = stablehlo.add %1295, %1299 : tensor<2x6x3072xf32>
    %1301 = stablehlo.broadcast_in_dim %9, dims = [] : (tensor<f32>) -> tensor<2x6x3072xf32>
    %1302 = stablehlo.multiply %1301, %1300 : tensor<2x6x3072xf32>
    %1303 = stablehlo.tanh %1302 : tensor<2x6x3072xf32>
    %1304 = stablehlo.broadcast_in_dim %8, dims = [] : (tensor<f32>) -> tensor<2x6x3072xf32>
    %1305 = stablehlo.add %1304, %1303 : tensor<2x6x3072xf32>
    %1306 = stablehlo.broadcast_in_dim %7, dims = [] : (tensor<f32>) -> tensor<2x6x3072xf32>
    %1307 = stablehlo.multiply %1306, %1305 : tensor<2x6x3072xf32>
    %1308 = stablehlo.multiply %1295, %1307 : tensor<2x6x3072xf32>
    %1309 = stablehlo.transpose %95, dims = [1, 0] : (tensor<768x3072xf16>) -> tensor<3072x768xf16>
    %1310 = stablehlo.convert %1309 : (tensor<3072x768xf16>) -> tensor<3072x768xf32>
    %1311 = stablehlo.dot_general %1308, %1310, contracting_dims = [2] x [0], precision = [DEFAULT, DEFAULT] : (tensor<2x6x3072xf32>, tensor<3072x768xf32>) -> tensor<2x6x768xf32>
    %1312 = stablehlo.convert %96 : (tensor<768xf16>) -> tensor<768xf32>
    %1313 = stablehlo.broadcast_in_dim %1312, dims = [2] : (tensor<768xf32>) -> tensor<1x1x768xf32>
    %1314 = stablehlo.broadcast_in_dim %1313, dims = [0, 1, 2] : (tensor<1x1x768xf32>) -> tensor<2x6x768xf32>
    %1315 = stablehlo.add %1311, %1314 : tensor<2x6x768xf32>
    %1316 = stablehlo.add %1260, %1315 : tensor<2x6x768xf32>
    %1317 = stablehlo.multiply %1316, %1316 : tensor<2x6x768xf32>
    %1318 = stablehlo.reduce(%1316 init: %20) applies stablehlo.add across dimensions = [2] : (tensor<2x6x768xf32>, tensor<f32>) -> tensor<2x6xf32>
    %1319 = stablehlo.broadcast_in_dim %18, dims = [] : (tensor<f32>) -> tensor<2x6xf32>
    %1320 = stablehlo.divide %1318, %1319 : tensor<2x6xf32>
    %1321 = stablehlo.reduce(%1317 init: %20) applies stablehlo.add across dimensions = [2] : (tensor<2x6x768xf32>, tensor<f32>) -> tensor<2x6xf32>
    %1322 = stablehlo.broadcast_in_dim %18, dims = [] : (tensor<f32>) -> tensor<2x6xf32>
    %1323 = stablehlo.divide %1321, %1322 : tensor<2x6xf32>
    %1324 = stablehlo.multiply %1320, %1320 : tensor<2x6xf32>
    %1325 = stablehlo.subtract %1323, %1324 : tensor<2x6xf32>
    %1326 = stablehlo.broadcast_in_dim %20, dims = [] : (tensor<f32>) -> tensor<2x6xf32>
    %1327 = stablehlo.maximum %1326, %1325 : tensor<2x6xf32>
    %1328 = stablehlo.broadcast_in_dim %1320, dims = [0, 1] : (tensor<2x6xf32>) -> tensor<2x6x1xf32>
    %1329 = stablehlo.broadcast_in_dim %1327, dims = [0, 1] : (tensor<2x6xf32>) -> tensor<2x6x1xf32>
    %1330 = stablehlo.broadcast_in_dim %1328, dims = [0, 1, 2] : (tensor<2x6x1xf32>) -> tensor<2x6x768xf32>
    %1331 = stablehlo.subtract %1316, %1330 : tensor<2x6x768xf32>
    %1332 = stablehlo.broadcast_in_dim %17, dims = [] : (tensor<f32>) -> tensor<2x6x1xf32>
    %1333 = stablehlo.add %1329, %1332 : tensor<2x6x1xf32>
    %1334 = stablehlo.rsqrt %1333 : tensor<2x6x1xf32>
    %1335 = stablehlo.reshape %97 : (tensor<768xf16>) -> tensor<1x1x768xf16>
    %1336 = stablehlo.convert %1335 : (tensor<1x1x768xf16>) -> tensor<1x1x768xf32>
    %1337 = stablehlo.broadcast_in_dim %1334, dims = [0, 1, 2] : (tensor<2x6x1xf32>) -> tensor<2x6x768xf32>
    %1338 = stablehlo.broadcast_in_dim %1336, dims = [0, 1, 2] : (tensor<1x1x768xf32>) -> tensor<2x6x768xf32>
    %1339 = stablehlo.multiply %1337, %1338 : tensor<2x6x768xf32>
    %1340 = stablehlo.multiply %1331, %1339 : tensor<2x6x768xf32>
    %1341 = stablehlo.reshape %98 : (tensor<768xf16>) -> tensor<1x1x768xf16>
    %1342 = stablehlo.convert %1341 : (tensor<1x1x768xf16>) -> tensor<1x1x768xf32>
    %1343 = stablehlo.broadcast_in_dim %1342, dims = [0, 1, 2] : (tensor<1x1x768xf32>) -> tensor<2x6x768xf32>
    %1344 = stablehlo.add %1340, %1343 : tensor<2x6x768xf32>
    %1345 = stablehlo.iota dim = 0 : tensor<1024xi32>
    %1346 = stablehlo.broadcast_in_dim %1345, dims = [1] : (tensor<1024xi32>) -> tensor<1x1024xi32>
    %1347 = stablehlo.broadcast_in_dim %1346, dims = [0, 1] : (tensor<1x1024xi32>) -> tensor<1x1024x1xi32>
    %1348 = stablehlo.broadcast_in_dim %1346, dims = [0, 2] : (tensor<1x1024xi32>) -> tensor<1x1x1024xi32>
    %1349 = stablehlo.broadcast_in_dim %1347, dims = [0, 1, 2] : (tensor<1x1024x1xi32>) -> tensor<1x1024x1024xi32>
    %1350 = stablehlo.broadcast_in_dim %1348, dims = [0, 1, 2] : (tensor<1x1x1024xi32>) -> tensor<1x1024x1024xi32>
    %1351 = stablehlo.compare  GE, %1349, %1350,  SIGNED : (tensor<1x1024x1024xi32>, tensor<1x1024x1024xi32>) -> tensor<1x1024x1024xi1>
    %1352 = stablehlo.broadcast_in_dim %1351, dims = [0, 2, 3] : (tensor<1x1024x1024xi1>) -> tensor<1x1x1024x1024xi1>
    %1353 = stablehlo.transpose %99, dims = [1, 0] : (tensor<2304x768xf16>) -> tensor<768x2304xf16>
    %1354 = stablehlo.convert %1353 : (tensor<768x2304xf16>) -> tensor<768x2304xf32>
    %1355 = stablehlo.dot_general %1344, %1354, contracting_dims = [2] x [0], precision = [DEFAULT, DEFAULT] : (tensor<2x6x768xf32>, tensor<768x2304xf32>) -> tensor<2x6x2304xf32>
    %1356 = stablehlo.convert %100 : (tensor<2304xf16>) -> tensor<2304xf32>
    %1357 = stablehlo.broadcast_in_dim %1356, dims = [2] : (tensor<2304xf32>) -> tensor<1x1x2304xf32>
    %1358 = stablehlo.broadcast_in_dim %1357, dims = [0, 1, 2] : (tensor<1x1x2304xf32>) -> tensor<2x6x2304xf32>
    %1359 = stablehlo.add %1355, %1358 : tensor<2x6x2304xf32>
    %1360 = stablehlo.slice %1359 [0:2, 0:6, 0:768] : (tensor<2x6x2304xf32>) -> tensor<2x6x768xf32>
    %1361 = stablehlo.slice %1359 [0:2, 0:6, 768:1536] : (tensor<2x6x2304xf32>) -> tensor<2x6x768xf32>
    %1362 = stablehlo.slice %1359 [0:2, 0:6, 1536:2304] : (tensor<2x6x2304xf32>) -> tensor<2x6x768xf32>
    %1363 = stablehlo.reshape %1360 : (tensor<2x6x768xf32>) -> tensor<2x6x12x64xf32>
    %1364 = stablehlo.reshape %1361 : (tensor<2x6x768xf32>) -> tensor<2x6x12x64xf32>
    %1365 = stablehlo.reshape %1362 : (tensor<2x6x768xf32>) -> tensor<2x6x12x64xf32>
    %1366 = stablehlo.compare  LT, %22, %22,  SIGNED : (tensor<i32>, tensor<i32>) -> tensor<i1>
    %1367 = stablehlo.add %22, %16 : tensor<i32>
    %1368 = stablehlo.select %1366, %1367, %22 : tensor<i1>, tensor<i32>
    %1369 = stablehlo.dynamic_slice %1352, %22, %22, %1368, %22, sizes = [1, 1, 6, 20] : (tensor<1x1x1024x1024xi1>, tensor<i32>, tensor<i32>, tensor<i32>, tensor<i32>) -> tensor<1x1x6x20xi1>
    %1370 = stablehlo.reshape %1369 : (tensor<1x1x6x20xi1>) -> tensor<1x6x20xi1>
    %1371 = stablehlo.broadcast_in_dim %1370, dims = [1, 2, 3] : (tensor<1x6x20xi1>) -> tensor<2x1x6x20xi1>
    %1372 = stablehlo.broadcast_in_dim %223, dims = [0, 3] : (tensor<2x20xi32>) -> tensor<2x1x1x20xi32>
    %1373 = stablehlo.reshape %1372 : (tensor<2x1x1x20xi32>) -> tensor<2x1x20xi32>
    %1374 = stablehlo.broadcast_in_dim %1373, dims = [0, 1, 3] : (tensor<2x1x20xi32>) -> tensor<2x1x6x20xi32>
    %1375 = stablehlo.broadcast_in_dim %22, dims = [] : (tensor<i32>) -> tensor<2x1x6x20xi32>
    %1376 = stablehlo.compare  NE, %1374, %1375,  SIGNED : (tensor<2x1x6x20xi32>, tensor<2x1x6x20xi32>) -> tensor<2x1x6x20xi1>
    %1377 = stablehlo.and %1376, %1371 : tensor<2x1x6x20xi1>
    %1378 = stablehlo.convert %1377 : (tensor<2x1x6x20xi1>) -> tensor<2x1x6x20xf32>
    %1379 = stablehlo.compare  LT, %22, %22,  SIGNED : (tensor<i32>, tensor<i32>) -> tensor<i1>
    %1380 = stablehlo.add %22, %15 : tensor<i32>
    %1381 = stablehlo.select %1379, %1380, %22 : tensor<i1>, tensor<i32>
    %1382 = stablehlo.dynamic_update_slice %187, %1364, %22, %1381, %22, %22 : (tensor<2x20x12x64xf32>, tensor<2x6x12x64xf32>, tensor<i32>, tensor<i32>, tensor<i32>, tensor<i32>) -> tensor<2x20x12x64xf32>
    %1383 = stablehlo.compare  LT, %22, %22,  SIGNED : (tensor<i32>, tensor<i32>) -> tensor<i1>
    %1384 = stablehlo.add %22, %15 : tensor<i32>
    %1385 = stablehlo.select %1383, %1384, %22 : tensor<i1>, tensor<i32>
    %1386 = stablehlo.dynamic_update_slice %188, %1365, %22, %1385, %22, %22 : (tensor<2x20x12x64xf32>, tensor<2x6x12x64xf32>, tensor<i32>, tensor<i32>, tensor<i32>, tensor<i32>) -> tensor<2x20x12x64xf32>
    %1387 = stablehlo.add %22, %14 : tensor<i32>
    %1388 = stablehlo.iota dim = 0 : tensor<20xi32>
    %1389 = stablehlo.add %22, %14 : tensor<i32>
    %1390 = stablehlo.broadcast_in_dim %1389, dims = [] : (tensor<i32>) -> tensor<20xi32>
    %1391 = stablehlo.compare  LT, %1388, %1390,  SIGNED : (tensor<20xi32>, tensor<20xi32>) -> tensor<20xi1>
    %1392 = stablehlo.broadcast_in_dim %1391, dims = [3] : (tensor<20xi1>) -> tensor<2x1x6x20xi1>
    %1393 = stablehlo.broadcast_in_dim %20, dims = [] : (tensor<f32>) -> tensor<2x1x6x20xf32>
    %1394 = stablehlo.compare  NE, %1378, %1393,  FLOAT : (tensor<2x1x6x20xf32>, tensor<2x1x6x20xf32>) -> tensor<2x1x6x20xi1>
    %1395 = stablehlo.and %1392, %1394 : tensor<2x1x6x20xi1>
    %1396 = stablehlo.convert %1395 : (tensor<2x1x6x20xi1>) -> tensor<2x1x6x20xf32>
    %1397 = stablehlo.broadcast_in_dim %20, dims = [] : (tensor<f32>) -> tensor<2x1x6x20xf32>
    %1398 = stablehlo.compare  GT, %1396, %1397,  FLOAT : (tensor<2x1x6x20xf32>, tensor<2x1x6x20xf32>) -> tensor<2x1x6x20xi1>
    %1399 = stablehlo.broadcast_in_dim %20, dims = [] : (tensor<f32>) -> tensor<2x1x6x20xf32>
    %1400 = stablehlo.convert %1399 : tensor<2x1x6x20xf32>
    %1401 = stablehlo.broadcast_in_dim %13, dims = [] : (tensor<f32>) -> tensor<2x1x6x20xf32>
    %1402 = stablehlo.select %1398, %1400, %1401 : tensor<2x1x6x20xi1>, tensor<2x1x6x20xf32>
    %1403 = stablehlo.sqrt %12 : tensor<f32>
    %1404 = stablehlo.convert %1403 : tensor<f32>
    %1405 = stablehlo.broadcast_in_dim %1404, dims = [] : (tensor<f32>) -> tensor<2x6x12x64xf32>
    %1406 = stablehlo.divide %1363, %1405 : tensor<2x6x12x64xf32>
    %1407 = stablehlo.dot_general %1406, %1382, batching_dims = [0, 2] x [0, 2], contracting_dims = [3] x [3], precision = [DEFAULT, DEFAULT] : (tensor<2x6x12x64xf32>, tensor<2x20x12x64xf32>) -> tensor<2x12x6x20xf32>
    %1408 = stablehlo.broadcast_in_dim %1402, dims = [0, 1, 2, 3] : (tensor<2x1x6x20xf32>) -> tensor<2x12x6x20xf32>
    %1409 = stablehlo.add %1407, %1408 : tensor<2x12x6x20xf32>
    %1410 = stablehlo.reduce(%1409 init: %11) applies stablehlo.maximum across dimensions = [3] : (tensor<2x12x6x20xf32>, tensor<f32>) -> tensor<2x12x6xf32>
    %1411 = stablehlo.broadcast_in_dim %1410, dims = [0, 1, 2] : (tensor<2x12x6xf32>) -> tensor<2x12x6x1xf32>
    %1412 = stablehlo.broadcast_in_dim %1411, dims = [0, 1, 2, 3] : (tensor<2x12x6x1xf32>) -> tensor<2x12x6x20xf32>
    %1413 = stablehlo.subtract %1409, %1412 : tensor<2x12x6x20xf32>
    %1414 = stablehlo.exponential %1413 : tensor<2x12x6x20xf32>
    %1415 = stablehlo.reduce(%1414 init: %20) applies stablehlo.add across dimensions = [3] : (tensor<2x12x6x20xf32>, tensor<f32>) -> tensor<2x12x6xf32>
    %1416 = stablehlo.broadcast_in_dim %1415, dims = [0, 1, 2] : (tensor<2x12x6xf32>) -> tensor<2x12x6x1xf32>
    %1417 = stablehlo.broadcast_in_dim %1416, dims = [0, 1, 2, 3] : (tensor<2x12x6x1xf32>) -> tensor<2x12x6x20xf32>
    %1418 = stablehlo.divide %1414, %1417 : tensor<2x12x6x20xf32>
    %1419 = stablehlo.dot_general %1386, %1418, batching_dims = [0, 2] x [0, 1], contracting_dims = [1] x [3], precision = [DEFAULT, DEFAULT] : (tensor<2x20x12x64xf32>, tensor<2x12x6x20xf32>) -> tensor<2x12x64x6xf32>
    %1420 = stablehlo.transpose %1419, dims = [0, 3, 1, 2] : (tensor<2x12x64x6xf32>) -> tensor<2x6x12x64xf32>
    %1421 = stablehlo.reshape %1420 : (tensor<2x6x12x64xf32>) -> tensor<2x6x768xf32>
    %1422 = stablehlo.transpose %101, dims = [1, 0] : (tensor<768x768xf16>) -> tensor<768x768xf16>
    %1423 = stablehlo.convert %1422 : (tensor<768x768xf16>) -> tensor<768x768xf32>
    %1424 = stablehlo.dot_general %1421, %1423, contracting_dims = [2] x [0], precision = [DEFAULT, DEFAULT] : (tensor<2x6x768xf32>, tensor<768x768xf32>) -> tensor<2x6x768xf32>
    %1425 = stablehlo.convert %102 : (tensor<768xf16>) -> tensor<768xf32>
    %1426 = stablehlo.broadcast_in_dim %1425, dims = [2] : (tensor<768xf32>) -> tensor<1x1x768xf32>
    %1427 = stablehlo.broadcast_in_dim %1426, dims = [0, 1, 2] : (tensor<1x1x768xf32>) -> tensor<2x6x768xf32>
    %1428 = stablehlo.add %1424, %1427 : tensor<2x6x768xf32>
    %1429 = stablehlo.add %1428, %1316 : tensor<2x6x768xf32>
    %1430 = stablehlo.multiply %1429, %1429 : tensor<2x6x768xf32>
    %1431 = stablehlo.reduce(%1429 init: %20) applies stablehlo.add across dimensions = [2] : (tensor<2x6x768xf32>, tensor<f32>) -> tensor<2x6xf32>
    %1432 = stablehlo.broadcast_in_dim %18, dims = [] : (tensor<f32>) -> tensor<2x6xf32>
    %1433 = stablehlo.divide %1431, %1432 : tensor<2x6xf32>
    %1434 = stablehlo.reduce(%1430 init: %20) applies stablehlo.add across dimensions = [2] : (tensor<2x6x768xf32>, tensor<f32>) -> tensor<2x6xf32>
    %1435 = stablehlo.broadcast_in_dim %18, dims = [] : (tensor<f32>) -> tensor<2x6xf32>
    %1436 = stablehlo.divide %1434, %1435 : tensor<2x6xf32>
    %1437 = stablehlo.multiply %1433, %1433 : tensor<2x6xf32>
    %1438 = stablehlo.subtract %1436, %1437 : tensor<2x6xf32>
    %1439 = stablehlo.broadcast_in_dim %20, dims = [] : (tensor<f32>) -> tensor<2x6xf32>
    %1440 = stablehlo.maximum %1439, %1438 : tensor<2x6xf32>
    %1441 = stablehlo.broadcast_in_dim %1433, dims = [0, 1] : (tensor<2x6xf32>) -> tensor<2x6x1xf32>
    %1442 = stablehlo.broadcast_in_dim %1440, dims = [0, 1] : (tensor<2x6xf32>) -> tensor<2x6x1xf32>
    %1443 = stablehlo.broadcast_in_dim %1441, dims = [0, 1, 2] : (tensor<2x6x1xf32>) -> tensor<2x6x768xf32>
    %1444 = stablehlo.subtract %1429, %1443 : tensor<2x6x768xf32>
    %1445 = stablehlo.broadcast_in_dim %17, dims = [] : (tensor<f32>) -> tensor<2x6x1xf32>
    %1446 = stablehlo.add %1442, %1445 : tensor<2x6x1xf32>
    %1447 = stablehlo.rsqrt %1446 : tensor<2x6x1xf32>
    %1448 = stablehlo.reshape %103 : (tensor<768xf16>) -> tensor<1x1x768xf16>
    %1449 = stablehlo.convert %1448 : (tensor<1x1x768xf16>) -> tensor<1x1x768xf32>
    %1450 = stablehlo.broadcast_in_dim %1447, dims = [0, 1, 2] : (tensor<2x6x1xf32>) -> tensor<2x6x768xf32>
    %1451 = stablehlo.broadcast_in_dim %1449, dims = [0, 1, 2] : (tensor<1x1x768xf32>) -> tensor<2x6x768xf32>
    %1452 = stablehlo.multiply %1450, %1451 : tensor<2x6x768xf32>
    %1453 = stablehlo.multiply %1444, %1452 : tensor<2x6x768xf32>
    %1454 = stablehlo.reshape %104 : (tensor<768xf16>) -> tensor<1x1x768xf16>
    %1455 = stablehlo.convert %1454 : (tensor<1x1x768xf16>) -> tensor<1x1x768xf32>
    %1456 = stablehlo.broadcast_in_dim %1455, dims = [0, 1, 2] : (tensor<1x1x768xf32>) -> tensor<2x6x768xf32>
    %1457 = stablehlo.add %1453, %1456 : tensor<2x6x768xf32>
    %1458 = stablehlo.transpose %105, dims = [1, 0] : (tensor<3072x768xf16>) -> tensor<768x3072xf16>
    %1459 = stablehlo.convert %1458 : (tensor<768x3072xf16>) -> tensor<768x3072xf32>
    %1460 = stablehlo.dot_general %1457, %1459, contracting_dims = [2] x [0], precision = [DEFAULT, DEFAULT] : (tensor<2x6x768xf32>, tensor<768x3072xf32>) -> tensor<2x6x3072xf32>
    %1461 = stablehlo.convert %106 : (tensor<3072xf16>) -> tensor<3072xf32>
    %1462 = stablehlo.broadcast_in_dim %1461, dims = [2] : (tensor<3072xf32>) -> tensor<1x1x3072xf32>
    %1463 = stablehlo.broadcast_in_dim %1462, dims = [0, 1, 2] : (tensor<1x1x3072xf32>) -> tensor<2x6x3072xf32>
    %1464 = stablehlo.add %1460, %1463 : tensor<2x6x3072xf32>
    %1465 = stablehlo.multiply %1464, %1464 : tensor<2x6x3072xf32>
    %1466 = stablehlo.multiply %1464, %1465 : tensor<2x6x3072xf32>
    %1467 = stablehlo.broadcast_in_dim %10, dims = [] : (tensor<f32>) -> tensor<2x6x3072xf32>
    %1468 = stablehlo.multiply %1467, %1466 : tensor<2x6x3072xf32>
    %1469 = stablehlo.add %1464, %1468 : tensor<2x6x3072xf32>
    %1470 = stablehlo.broadcast_in_dim %9, dims = [] : (tensor<f32>) -> tensor<2x6x3072xf32>
    %1471 = stablehlo.multiply %1470, %1469 : tensor<2x6x3072xf32>
    %1472 = stablehlo.tanh %1471 : tensor<2x6x3072xf32>
    %1473 = stablehlo.broadcast_in_dim %8, dims = [] : (tensor<f32>) -> tensor<2x6x3072xf32>
    %1474 = stablehlo.add %1473, %1472 : tensor<2x6x3072xf32>
    %1475 = stablehlo.broadcast_in_dim %7, dims = [] : (tensor<f32>) -> tensor<2x6x3072xf32>
    %1476 = stablehlo.multiply %1475, %1474 : tensor<2x6x3072xf32>
    %1477 = stablehlo.multiply %1464, %1476 : tensor<2x6x3072xf32>
    %1478 = stablehlo.transpose %107, dims = [1, 0] : (tensor<768x3072xf16>) -> tensor<3072x768xf16>
    %1479 = stablehlo.convert %1478 : (tensor<3072x768xf16>) -> tensor<3072x768xf32>
    %1480 = stablehlo.dot_general %1477, %1479, contracting_dims = [2] x [0], precision = [DEFAULT, DEFAULT] : (tensor<2x6x3072xf32>, tensor<3072x768xf32>) -> tensor<2x6x768xf32>
    %1481 = stablehlo.convert %108 : (tensor<768xf16>) -> tensor<768xf32>
    %1482 = stablehlo.broadcast_in_dim %1481, dims = [2] : (tensor<768xf32>) -> tensor<1x1x768xf32>
    %1483 = stablehlo.broadcast_in_dim %1482, dims = [0, 1, 2] : (tensor<1x1x768xf32>) -> tensor<2x6x768xf32>
    %1484 = stablehlo.add %1480, %1483 : tensor<2x6x768xf32>
    %1485 = stablehlo.add %1429, %1484 : tensor<2x6x768xf32>
    %1486 = stablehlo.multiply %1485, %1485 : tensor<2x6x768xf32>
    %1487 = stablehlo.reduce(%1485 init: %20) applies stablehlo.add across dimensions = [2] : (tensor<2x6x768xf32>, tensor<f32>) -> tensor<2x6xf32>
    %1488 = stablehlo.broadcast_in_dim %18, dims = [] : (tensor<f32>) -> tensor<2x6xf32>
    %1489 = stablehlo.divide %1487, %1488 : tensor<2x6xf32>
    %1490 = stablehlo.reduce(%1486 init: %20) applies stablehlo.add across dimensions = [2] : (tensor<2x6x768xf32>, tensor<f32>) -> tensor<2x6xf32>
    %1491 = stablehlo.broadcast_in_dim %18, dims = [] : (tensor<f32>) -> tensor<2x6xf32>
    %1492 = stablehlo.divide %1490, %1491 : tensor<2x6xf32>
    %1493 = stablehlo.multiply %1489, %1489 : tensor<2x6xf32>
    %1494 = stablehlo.subtract %1492, %1493 : tensor<2x6xf32>
    %1495 = stablehlo.broadcast_in_dim %20, dims = [] : (tensor<f32>) -> tensor<2x6xf32>
    %1496 = stablehlo.maximum %1495, %1494 : tensor<2x6xf32>
    %1497 = stablehlo.broadcast_in_dim %1489, dims = [0, 1] : (tensor<2x6xf32>) -> tensor<2x6x1xf32>
    %1498 = stablehlo.broadcast_in_dim %1496, dims = [0, 1] : (tensor<2x6xf32>) -> tensor<2x6x1xf32>
    %1499 = stablehlo.broadcast_in_dim %1497, dims = [0, 1, 2] : (tensor<2x6x1xf32>) -> tensor<2x6x768xf32>
    %1500 = stablehlo.subtract %1485, %1499 : tensor<2x6x768xf32>
    %1501 = stablehlo.broadcast_in_dim %17, dims = [] : (tensor<f32>) -> tensor<2x6x1xf32>
    %1502 = stablehlo.add %1498, %1501 : tensor<2x6x1xf32>
    %1503 = stablehlo.rsqrt %1502 : tensor<2x6x1xf32>
    %1504 = stablehlo.reshape %109 : (tensor<768xf16>) -> tensor<1x1x768xf16>
    %1505 = stablehlo.convert %1504 : (tensor<1x1x768xf16>) -> tensor<1x1x768xf32>
    %1506 = stablehlo.broadcast_in_dim %1503, dims = [0, 1, 2] : (tensor<2x6x1xf32>) -> tensor<2x6x768xf32>
    %1507 = stablehlo.broadcast_in_dim %1505, dims = [0, 1, 2] : (tensor<1x1x768xf32>) -> tensor<2x6x768xf32>
    %1508 = stablehlo.multiply %1506, %1507 : tensor<2x6x768xf32>
    %1509 = stablehlo.multiply %1500, %1508 : tensor<2x6x768xf32>
    %1510 = stablehlo.reshape %110 : (tensor<768xf16>) -> tensor<1x1x768xf16>
    %1511 = stablehlo.convert %1510 : (tensor<1x1x768xf16>) -> tensor<1x1x768xf32>
    %1512 = stablehlo.broadcast_in_dim %1511, dims = [0, 1, 2] : (tensor<1x1x768xf32>) -> tensor<2x6x768xf32>
    %1513 = stablehlo.add %1509, %1512 : tensor<2x6x768xf32>
    %1514 = stablehlo.iota dim = 0 : tensor<1024xi32>
    %1515 = stablehlo.broadcast_in_dim %1514, dims = [1] : (tensor<1024xi32>) -> tensor<1x1024xi32>
    %1516 = stablehlo.broadcast_in_dim %1515, dims = [0, 1] : (tensor<1x1024xi32>) -> tensor<1x1024x1xi32>
    %1517 = stablehlo.broadcast_in_dim %1515, dims = [0, 2] : (tensor<1x1024xi32>) -> tensor<1x1x1024xi32>
    %1518 = stablehlo.broadcast_in_dim %1516, dims = [0, 1, 2] : (tensor<1x1024x1xi32>) -> tensor<1x1024x1024xi32>
    %1519 = stablehlo.broadcast_in_dim %1517, dims = [0, 1, 2] : (tensor<1x1x1024xi32>) -> tensor<1x1024x1024xi32>
    %1520 = stablehlo.compare  GE, %1518, %1519,  SIGNED : (tensor<1x1024x1024xi32>, tensor<1x1024x1024xi32>) -> tensor<1x1024x1024xi1>
    %1521 = stablehlo.broadcast_in_dim %1520, dims = [0, 2, 3] : (tensor<1x1024x1024xi1>) -> tensor<1x1x1024x1024xi1>
    %1522 = stablehlo.transpose %111, dims = [1, 0] : (tensor<2304x768xf16>) -> tensor<768x2304xf16>
    %1523 = stablehlo.convert %1522 : (tensor<768x2304xf16>) -> tensor<768x2304xf32>
    %1524 = stablehlo.dot_general %1513, %1523, contracting_dims = [2] x [0], precision = [DEFAULT, DEFAULT] : (tensor<2x6x768xf32>, tensor<768x2304xf32>) -> tensor<2x6x2304xf32>
    %1525 = stablehlo.convert %112 : (tensor<2304xf16>) -> tensor<2304xf32>
    %1526 = stablehlo.broadcast_in_dim %1525, dims = [2] : (tensor<2304xf32>) -> tensor<1x1x2304xf32>
    %1527 = stablehlo.broadcast_in_dim %1526, dims = [0, 1, 2] : (tensor<1x1x2304xf32>) -> tensor<2x6x2304xf32>
    %1528 = stablehlo.add %1524, %1527 : tensor<2x6x2304xf32>
    %1529 = stablehlo.slice %1528 [0:2, 0:6, 0:768] : (tensor<2x6x2304xf32>) -> tensor<2x6x768xf32>
    %1530 = stablehlo.slice %1528 [0:2, 0:6, 768:1536] : (tensor<2x6x2304xf32>) -> tensor<2x6x768xf32>
    %1531 = stablehlo.slice %1528 [0:2, 0:6, 1536:2304] : (tensor<2x6x2304xf32>) -> tensor<2x6x768xf32>
    %1532 = stablehlo.reshape %1529 : (tensor<2x6x768xf32>) -> tensor<2x6x12x64xf32>
    %1533 = stablehlo.reshape %1530 : (tensor<2x6x768xf32>) -> tensor<2x6x12x64xf32>
    %1534 = stablehlo.reshape %1531 : (tensor<2x6x768xf32>) -> tensor<2x6x12x64xf32>
    %1535 = stablehlo.compare  LT, %22, %22,  SIGNED : (tensor<i32>, tensor<i32>) -> tensor<i1>
    %1536 = stablehlo.add %22, %16 : tensor<i32>
    %1537 = stablehlo.select %1535, %1536, %22 : tensor<i1>, tensor<i32>
    %1538 = stablehlo.dynamic_slice %1521, %22, %22, %1537, %22, sizes = [1, 1, 6, 20] : (tensor<1x1x1024x1024xi1>, tensor<i32>, tensor<i32>, tensor<i32>, tensor<i32>) -> tensor<1x1x6x20xi1>
    %1539 = stablehlo.reshape %1538 : (tensor<1x1x6x20xi1>) -> tensor<1x6x20xi1>
    %1540 = stablehlo.broadcast_in_dim %1539, dims = [1, 2, 3] : (tensor<1x6x20xi1>) -> tensor<2x1x6x20xi1>
    %1541 = stablehlo.broadcast_in_dim %223, dims = [0, 3] : (tensor<2x20xi32>) -> tensor<2x1x1x20xi32>
    %1542 = stablehlo.reshape %1541 : (tensor<2x1x1x20xi32>) -> tensor<2x1x20xi32>
    %1543 = stablehlo.broadcast_in_dim %1542, dims = [0, 1, 3] : (tensor<2x1x20xi32>) -> tensor<2x1x6x20xi32>
    %1544 = stablehlo.broadcast_in_dim %22, dims = [] : (tensor<i32>) -> tensor<2x1x6x20xi32>
    %1545 = stablehlo.compare  NE, %1543, %1544,  SIGNED : (tensor<2x1x6x20xi32>, tensor<2x1x6x20xi32>) -> tensor<2x1x6x20xi1>
    %1546 = stablehlo.and %1545, %1540 : tensor<2x1x6x20xi1>
    %1547 = stablehlo.convert %1546 : (tensor<2x1x6x20xi1>) -> tensor<2x1x6x20xf32>
    %1548 = stablehlo.compare  LT, %22, %22,  SIGNED : (tensor<i32>, tensor<i32>) -> tensor<i1>
    %1549 = stablehlo.add %22, %15 : tensor<i32>
    %1550 = stablehlo.select %1548, %1549, %22 : tensor<i1>, tensor<i32>
    %1551 = stablehlo.dynamic_update_slice %189, %1533, %22, %1550, %22, %22 : (tensor<2x20x12x64xf32>, tensor<2x6x12x64xf32>, tensor<i32>, tensor<i32>, tensor<i32>, tensor<i32>) -> tensor<2x20x12x64xf32>
    %1552 = stablehlo.compare  LT, %22, %22,  SIGNED : (tensor<i32>, tensor<i32>) -> tensor<i1>
    %1553 = stablehlo.add %22, %15 : tensor<i32>
    %1554 = stablehlo.select %1552, %1553, %22 : tensor<i1>, tensor<i32>
    %1555 = stablehlo.dynamic_update_slice %190, %1534, %22, %1554, %22, %22 : (tensor<2x20x12x64xf32>, tensor<2x6x12x64xf32>, tensor<i32>, tensor<i32>, tensor<i32>, tensor<i32>) -> tensor<2x20x12x64xf32>
    %1556 = stablehlo.add %22, %14 : tensor<i32>
    %1557 = stablehlo.iota dim = 0 : tensor<20xi32>
    %1558 = stablehlo.add %22, %14 : tensor<i32>
    %1559 = stablehlo.broadcast_in_dim %1558, dims = [] : (tensor<i32>) -> tensor<20xi32>
    %1560 = stablehlo.compare  LT, %1557, %1559,  SIGNED : (tensor<20xi32>, tensor<20xi32>) -> tensor<20xi1>
    %1561 = stablehlo.broadcast_in_dim %1560, dims = [3] : (tensor<20xi1>) -> tensor<2x1x6x20xi1>
    %1562 = stablehlo.broadcast_in_dim %20, dims = [] : (tensor<f32>) -> tensor<2x1x6x20xf32>
    %1563 = stablehlo.compare  NE, %1547, %1562,  FLOAT : (tensor<2x1x6x20xf32>, tensor<2x1x6x20xf32>) -> tensor<2x1x6x20xi1>
    %1564 = stablehlo.and %1561, %1563 : tensor<2x1x6x20xi1>
    %1565 = stablehlo.convert %1564 : (tensor<2x1x6x20xi1>) -> tensor<2x1x6x20xf32>
    %1566 = stablehlo.broadcast_in_dim %20, dims = [] : (tensor<f32>) -> tensor<2x1x6x20xf32>
    %1567 = stablehlo.compare  GT, %1565, %1566,  FLOAT : (tensor<2x1x6x20xf32>, tensor<2x1x6x20xf32>) -> tensor<2x1x6x20xi1>
    %1568 = stablehlo.broadcast_in_dim %20, dims = [] : (tensor<f32>) -> tensor<2x1x6x20xf32>
    %1569 = stablehlo.convert %1568 : tensor<2x1x6x20xf32>
    %1570 = stablehlo.broadcast_in_dim %13, dims = [] : (tensor<f32>) -> tensor<2x1x6x20xf32>
    %1571 = stablehlo.select %1567, %1569, %1570 : tensor<2x1x6x20xi1>, tensor<2x1x6x20xf32>
    %1572 = stablehlo.sqrt %12 : tensor<f32>
    %1573 = stablehlo.convert %1572 : tensor<f32>
    %1574 = stablehlo.broadcast_in_dim %1573, dims = [] : (tensor<f32>) -> tensor<2x6x12x64xf32>
    %1575 = stablehlo.divide %1532, %1574 : tensor<2x6x12x64xf32>
    %1576 = stablehlo.dot_general %1575, %1551, batching_dims = [0, 2] x [0, 2], contracting_dims = [3] x [3], precision = [DEFAULT, DEFAULT] : (tensor<2x6x12x64xf32>, tensor<2x20x12x64xf32>) -> tensor<2x12x6x20xf32>
    %1577 = stablehlo.broadcast_in_dim %1571, dims = [0, 1, 2, 3] : (tensor<2x1x6x20xf32>) -> tensor<2x12x6x20xf32>
    %1578 = stablehlo.add %1576, %1577 : tensor<2x12x6x20xf32>
    %1579 = stablehlo.reduce(%1578 init: %11) applies stablehlo.maximum across dimensions = [3] : (tensor<2x12x6x20xf32>, tensor<f32>) -> tensor<2x12x6xf32>
    %1580 = stablehlo.broadcast_in_dim %1579, dims = [0, 1, 2] : (tensor<2x12x6xf32>) -> tensor<2x12x6x1xf32>
    %1581 = stablehlo.broadcast_in_dim %1580, dims = [0, 1, 2, 3] : (tensor<2x12x6x1xf32>) -> tensor<2x12x6x20xf32>
    %1582 = stablehlo.subtract %1578, %1581 : tensor<2x12x6x20xf32>
    %1583 = stablehlo.exponential %1582 : tensor<2x12x6x20xf32>
    %1584 = stablehlo.reduce(%1583 init: %20) applies stablehlo.add across dimensions = [3] : (tensor<2x12x6x20xf32>, tensor<f32>) -> tensor<2x12x6xf32>
    %1585 = stablehlo.broadcast_in_dim %1584, dims = [0, 1, 2] : (tensor<2x12x6xf32>) -> tensor<2x12x6x1xf32>
    %1586 = stablehlo.broadcast_in_dim %1585, dims = [0, 1, 2, 3] : (tensor<2x12x6x1xf32>) -> tensor<2x12x6x20xf32>
    %1587 = stablehlo.divide %1583, %1586 : tensor<2x12x6x20xf32>
    %1588 = stablehlo.dot_general %1555, %1587, batching_dims = [0, 2] x [0, 1], contracting_dims = [1] x [3], precision = [DEFAULT, DEFAULT] : (tensor<2x20x12x64xf32>, tensor<2x12x6x20xf32>) -> tensor<2x12x64x6xf32>
    %1589 = stablehlo.transpose %1588, dims = [0, 3, 1, 2] : (tensor<2x12x64x6xf32>) -> tensor<2x6x12x64xf32>
    %1590 = stablehlo.reshape %1589 : (tensor<2x6x12x64xf32>) -> tensor<2x6x768xf32>
    %1591 = stablehlo.transpose %113, dims = [1, 0] : (tensor<768x768xf16>) -> tensor<768x768xf16>
    %1592 = stablehlo.convert %1591 : (tensor<768x768xf16>) -> tensor<768x768xf32>
    %1593 = stablehlo.dot_general %1590, %1592, contracting_dims = [2] x [0], precision = [DEFAULT, DEFAULT] : (tensor<2x6x768xf32>, tensor<768x768xf32>) -> tensor<2x6x768xf32>
    %1594 = stablehlo.convert %114 : (tensor<768xf16>) -> tensor<768xf32>
    %1595 = stablehlo.broadcast_in_dim %1594, dims = [2] : (tensor<768xf32>) -> tensor<1x1x768xf32>
    %1596 = stablehlo.broadcast_in_dim %1595, dims = [0, 1, 2] : (tensor<1x1x768xf32>) -> tensor<2x6x768xf32>
    %1597 = stablehlo.add %1593, %1596 : tensor<2x6x768xf32>
    %1598 = stablehlo.add %1597, %1485 : tensor<2x6x768xf32>
    %1599 = stablehlo.multiply %1598, %1598 : tensor<2x6x768xf32>
    %1600 = stablehlo.reduce(%1598 init: %20) applies stablehlo.add across dimensions = [2] : (tensor<2x6x768xf32>, tensor<f32>) -> tensor<2x6xf32>
    %1601 = stablehlo.broadcast_in_dim %18, dims = [] : (tensor<f32>) -> tensor<2x6xf32>
    %1602 = stablehlo.divide %1600, %1601 : tensor<2x6xf32>
    %1603 = stablehlo.reduce(%1599 init: %20) applies stablehlo.add across dimensions = [2] : (tensor<2x6x768xf32>, tensor<f32>) -> tensor<2x6xf32>
    %1604 = stablehlo.broadcast_in_dim %18, dims = [] : (tensor<f32>) -> tensor<2x6xf32>
    %1605 = stablehlo.divide %1603, %1604 : tensor<2x6xf32>
    %1606 = stablehlo.multiply %1602, %1602 : tensor<2x6xf32>
    %1607 = stablehlo.subtract %1605, %1606 : tensor<2x6xf32>
    %1608 = stablehlo.broadcast_in_dim %20, dims = [] : (tensor<f32>) -> tensor<2x6xf32>
    %1609 = stablehlo.maximum %1608, %1607 : tensor<2x6xf32>
    %1610 = stablehlo.broadcast_in_dim %1602, dims = [0, 1] : (tensor<2x6xf32>) -> tensor<2x6x1xf32>
    %1611 = stablehlo.broadcast_in_dim %1609, dims = [0, 1] : (tensor<2x6xf32>) -> tensor<2x6x1xf32>
    %1612 = stablehlo.broadcast_in_dim %1610, dims = [0, 1, 2] : (tensor<2x6x1xf32>) -> tensor<2x6x768xf32>
    %1613 = stablehlo.subtract %1598, %1612 : tensor<2x6x768xf32>
    %1614 = stablehlo.broadcast_in_dim %17, dims = [] : (tensor<f32>) -> tensor<2x6x1xf32>
    %1615 = stablehlo.add %1611, %1614 : tensor<2x6x1xf32>
    %1616 = stablehlo.rsqrt %1615 : tensor<2x6x1xf32>
    %1617 = stablehlo.reshape %115 : (tensor<768xf16>) -> tensor<1x1x768xf16>
    %1618 = stablehlo.convert %1617 : (tensor<1x1x768xf16>) -> tensor<1x1x768xf32>
    %1619 = stablehlo.broadcast_in_dim %1616, dims = [0, 1, 2] : (tensor<2x6x1xf32>) -> tensor<2x6x768xf32>
    %1620 = stablehlo.broadcast_in_dim %1618, dims = [0, 1, 2] : (tensor<1x1x768xf32>) -> tensor<2x6x768xf32>
    %1621 = stablehlo.multiply %1619, %1620 : tensor<2x6x768xf32>
    %1622 = stablehlo.multiply %1613, %1621 : tensor<2x6x768xf32>
    %1623 = stablehlo.reshape %116 : (tensor<768xf16>) -> tensor<1x1x768xf16>
    %1624 = stablehlo.convert %1623 : (tensor<1x1x768xf16>) -> tensor<1x1x768xf32>
    %1625 = stablehlo.broadcast_in_dim %1624, dims = [0, 1, 2] : (tensor<1x1x768xf32>) -> tensor<2x6x768xf32>
    %1626 = stablehlo.add %1622, %1625 : tensor<2x6x768xf32>
    %1627 = stablehlo.transpose %117, dims = [1, 0] : (tensor<3072x768xf16>) -> tensor<768x3072xf16>
    %1628 = stablehlo.convert %1627 : (tensor<768x3072xf16>) -> tensor<768x3072xf32>
    %1629 = stablehlo.dot_general %1626, %1628, contracting_dims = [2] x [0], precision = [DEFAULT, DEFAULT] : (tensor<2x6x768xf32>, tensor<768x3072xf32>) -> tensor<2x6x3072xf32>
    %1630 = stablehlo.convert %118 : (tensor<3072xf16>) -> tensor<3072xf32>
    %1631 = stablehlo.broadcast_in_dim %1630, dims = [2] : (tensor<3072xf32>) -> tensor<1x1x3072xf32>
    %1632 = stablehlo.broadcast_in_dim %1631, dims = [0, 1, 2] : (tensor<1x1x3072xf32>) -> tensor<2x6x3072xf32>
    %1633 = stablehlo.add %1629, %1632 : tensor<2x6x3072xf32>
    %1634 = stablehlo.multiply %1633, %1633 : tensor<2x6x3072xf32>
    %1635 = stablehlo.multiply %1633, %1634 : tensor<2x6x3072xf32>
    %1636 = stablehlo.broadcast_in_dim %10, dims = [] : (tensor<f32>) -> tensor<2x6x3072xf32>
    %1637 = stablehlo.multiply %1636, %1635 : tensor<2x6x3072xf32>
    %1638 = stablehlo.add %1633, %1637 : tensor<2x6x3072xf32>
    %1639 = stablehlo.broadcast_in_dim %9, dims = [] : (tensor<f32>) -> tensor<2x6x3072xf32>
    %1640 = stablehlo.multiply %1639, %1638 : tensor<2x6x3072xf32>
    %1641 = stablehlo.tanh %1640 : tensor<2x6x3072xf32>
    %1642 = stablehlo.broadcast_in_dim %8, dims = [] : (tensor<f32>) -> tensor<2x6x3072xf32>
    %1643 = stablehlo.add %1642, %1641 : tensor<2x6x3072xf32>
    %1644 = stablehlo.broadcast_in_dim %7, dims = [] : (tensor<f32>) -> tensor<2x6x3072xf32>
    %1645 = stablehlo.multiply %1644, %1643 : tensor<2x6x3072xf32>
    %1646 = stablehlo.multiply %1633, %1645 : tensor<2x6x3072xf32>
    %1647 = stablehlo.transpose %119, dims = [1, 0] : (tensor<768x3072xf16>) -> tensor<3072x768xf16>
    %1648 = stablehlo.convert %1647 : (tensor<3072x768xf16>) -> tensor<3072x768xf32>
    %1649 = stablehlo.dot_general %1646, %1648, contracting_dims = [2] x [0], precision = [DEFAULT, DEFAULT] : (tensor<2x6x3072xf32>, tensor<3072x768xf32>) -> tensor<2x6x768xf32>
    %1650 = stablehlo.convert %120 : (tensor<768xf16>) -> tensor<768xf32>
    %1651 = stablehlo.broadcast_in_dim %1650, dims = [2] : (tensor<768xf32>) -> tensor<1x1x768xf32>
    %1652 = stablehlo.broadcast_in_dim %1651, dims = [0, 1, 2] : (tensor<1x1x768xf32>) -> tensor<2x6x768xf32>
    %1653 = stablehlo.add %1649, %1652 : tensor<2x6x768xf32>
    %1654 = stablehlo.add %1598, %1653 : tensor<2x6x768xf32>
    %1655 = stablehlo.multiply %1654, %1654 : tensor<2x6x768xf32>
    %1656 = stablehlo.reduce(%1654 init: %20) applies stablehlo.add across dimensions = [2] : (tensor<2x6x768xf32>, tensor<f32>) -> tensor<2x6xf32>
    %1657 = stablehlo.broadcast_in_dim %18, dims = [] : (tensor<f32>) -> tensor<2x6xf32>
    %1658 = stablehlo.divide %1656, %1657 : tensor<2x6xf32>
    %1659 = stablehlo.reduce(%1655 init: %20) applies stablehlo.add across dimensions = [2] : (tensor<2x6x768xf32>, tensor<f32>) -> tensor<2x6xf32>
    %1660 = stablehlo.broadcast_in_dim %18, dims = [] : (tensor<f32>) -> tensor<2x6xf32>
    %1661 = stablehlo.divide %1659, %1660 : tensor<2x6xf32>
    %1662 = stablehlo.multiply %1658, %1658 : tensor<2x6xf32>
    %1663 = stablehlo.subtract %1661, %1662 : tensor<2x6xf32>
    %1664 = stablehlo.broadcast_in_dim %20, dims = [] : (tensor<f32>) -> tensor<2x6xf32>
    %1665 = stablehlo.maximum %1664, %1663 : tensor<2x6xf32>
…
      %4101 = stablehlo.divide %4099, %4100 : tensor<2x1xf32>
      %4102 = stablehlo.reduce(%4098 init: %20) applies stablehlo.add across dimensions = [2] : (tensor<2x1x768xf32>, tensor<f32>) -> tensor<2x1xf32>
      %4103 = stablehlo.broadcast_in_dim %18, dims = [] : (tensor<f32>) -> tensor<2x1xf32>
      %4104 = stablehlo.divide %4102, %4103 : tensor<2x1xf32>
      %4105 = stablehlo.multiply %4101, %4101 : tensor<2x1xf32>
      %4106 = stablehlo.subtract %4104, %4105 : tensor<2x1xf32>
      %4107 = stablehlo.broadcast_in_dim %20, dims = [] : (tensor<f32>) -> tensor<2x1xf32>
      %4108 = stablehlo.maximum %4107, %4106 : tensor<2x1xf32>
      %4109 = stablehlo.broadcast_in_dim %4101, dims = [0, 1] : (tensor<2x1xf32>) -> tensor<2x1x1xf32>
      %4110 = stablehlo.broadcast_in_dim %4108, dims = [0, 1] : (tensor<2x1xf32>) -> tensor<2x1x1xf32>
      %4111 = stablehlo.broadcast_in_dim %4109, dims = [0, 1, 2] : (tensor<2x1x1xf32>) -> tensor<2x1x768xf32>
      %4112 = stablehlo.subtract %4097, %4111 : tensor<2x1x768xf32>
      %4113 = stablehlo.broadcast_in_dim %17, dims = [] : (tensor<f32>) -> tensor<2x1x1xf32>
      %4114 = stablehlo.add %4110, %4113 : tensor<2x1x1xf32>
      %4115 = stablehlo.rsqrt %4114 : tensor<2x1x1xf32>
      %4116 = stablehlo.reshape %iterArg_115 : (tensor<768xf16>) -> tensor<1x1x768xf16>
      %4117 = stablehlo.convert %4116 : (tensor<1x1x768xf16>) -> tensor<1x1x768xf32>
      %4118 = stablehlo.broadcast_in_dim %4115, dims = [0, 1, 2] : (tensor<2x1x1xf32>) -> tensor<2x1x768xf32>
      %4119 = stablehlo.broadcast_in_dim %4117, dims = [0, 1, 2] : (tensor<1x1x768xf32>) -> tensor<2x1x768xf32>
      %4120 = stablehlo.multiply %4118, %4119 : tensor<2x1x768xf32>
      %4121 = stablehlo.multiply %4112, %4120 : tensor<2x1x768xf32>
      %4122 = stablehlo.reshape %iterArg_116 : (tensor<768xf16>) -> tensor<1x1x768xf16>
      %4123 = stablehlo.convert %4122 : (tensor<1x1x768xf16>) -> tensor<1x1x768xf32>
      %4124 = stablehlo.broadcast_in_dim %4123, dims = [0, 1, 2] : (tensor<1x1x768xf32>) -> tensor<2x1x768xf32>
      %4125 = stablehlo.add %4121, %4124 : tensor<2x1x768xf32>
      %4126 = stablehlo.transpose %iterArg_117, dims = [1, 0] : (tensor<3072x768xf16>) -> tensor<768x3072xf16>
      %4127 = stablehlo.convert %4126 : (tensor<768x3072xf16>) -> tensor<768x3072xf32>
      %4128 = stablehlo.dot_general %4125, %4127, contracting_dims = [2] x [0], precision = [DEFAULT, DEFAULT] : (tensor<2x1x768xf32>, tensor<768x3072xf32>) -> tensor<2x1x3072xf32>
      %4129 = stablehlo.convert %iterArg_118 : (tensor<3072xf16>) -> tensor<3072xf32>
      %4130 = stablehlo.broadcast_in_dim %4129, dims = [2] : (tensor<3072xf32>) -> tensor<1x1x3072xf32>
      %4131 = stablehlo.broadcast_in_dim %4130, dims = [0, 1, 2] : (tensor<1x1x3072xf32>) -> tensor<2x1x3072xf32>
      %4132 = stablehlo.add %4128, %4131 : tensor<2x1x3072xf32>
      %4133 = stablehlo.multiply %4132, %4132 : tensor<2x1x3072xf32>
      %4134 = stablehlo.multiply %4132, %4133 : tensor<2x1x3072xf32>
      %4135 = stablehlo.broadcast_in_dim %10, dims = [] : (tensor<f32>) -> tensor<2x1x3072xf32>
      %4136 = stablehlo.multiply %4135, %4134 : tensor<2x1x3072xf32>
      %4137 = stablehlo.add %4132, %4136 : tensor<2x1x3072xf32>
      %4138 = stablehlo.broadcast_in_dim %9, dims = [] : (tensor<f32>) -> tensor<2x1x3072xf32>
      %4139 = stablehlo.multiply %4138, %4137 : tensor<2x1x3072xf32>
      %4140 = stablehlo.tanh %4139 : tensor<2x1x3072xf32>
      %4141 = stablehlo.broadcast_in_dim %8, dims = [] : (tensor<f32>) -> tensor<2x1x3072xf32>
      %4142 = stablehlo.add %4141, %4140 : tensor<2x1x3072xf32>
      %4143 = stablehlo.broadcast_in_dim %7, dims = [] : (tensor<f32>) -> tensor<2x1x3072xf32>
      %4144 = stablehlo.multiply %4143, %4142 : tensor<2x1x3072xf32>
      %4145 = stablehlo.multiply %4132, %4144 : tensor<2x1x3072xf32>
      %4146 = stablehlo.transpose %iterArg_119, dims = [1, 0] : (tensor<768x3072xf16>) -> tensor<3072x768xf16>
      %4147 = stablehlo.convert %4146 : (tensor<3072x768xf16>) -> tensor<3072x768xf32>
      %4148 = stablehlo.dot_general %4145, %4147, contracting_dims = [2] x [0], precision = [DEFAULT, DEFAULT] : (tensor<2x1x3072xf32>, tensor<3072x768xf32>) -> tensor<2x1x768xf32>
      %4149 = stablehlo.convert %iterArg_120 : (tensor<768xf16>) -> tensor<768xf32>
      %4150 = stablehlo.broadcast_in_dim %4149, dims = [2] : (tensor<768xf32>) -> tensor<1x1x768xf32>
      %4151 = stablehlo.broadcast_in_dim %4150, dims = [0, 1, 2] : (tensor<1x1x768xf32>) -> tensor<2x1x768xf32>
      %4152 = stablehlo.add %4148, %4151 : tensor<2x1x768xf32>
      %4153 = stablehlo.add %4097, %4152 : tensor<2x1x768xf32>
      %4154 = stablehlo.multiply %4153, %4153 : tensor<2x1x768xf32>
      %4155 = stablehlo.reduce(%4153 init: %20) applies stablehlo.add across dimensions = [2] : (tensor<2x1x768xf32>, tensor<f32>) -> tensor<2x1xf32>
      %4156 = stablehlo.broadcast_in_dim %18, dims = [] : (tensor<f32>) -> tensor<2x1xf32>
      %4157 = stablehlo.divide %4155, %4156 : tensor<2x1xf32>
      %4158 = stablehlo.reduce(%4154 init: %20) applies stablehlo.add across dimensions = [2] : (tensor<2x1x768xf32>, tensor<f32>) -> tensor<2x1xf32>
      %4159 = stablehlo.broadcast_in_dim %18, dims = [] : (tensor<f32>) -> tensor<2x1xf32>
      %4160 = stablehlo.divide %4158, %4159 : tensor<2x1xf32>
      %4161 = stablehlo.multiply %4157, %4157 : tensor<2x1xf32>
      %4162 = stablehlo.subtract %4160, %4161 : tensor<2x1xf32>
      %4163 = stablehlo.broadcast_in_dim %20, dims = [] : (tensor<f32>) -> tensor<2x1xf32>
      %4164 = stablehlo.maximum %4163, %4162 : tensor<2x1xf32>
      %4165 = stablehlo.broadcast_in_dim %4157, dims = [0, 1] : (tensor<2x1xf32>) -> tensor<2x1x1xf32>
      %4166 = stablehlo.broadcast_in_dim %4164, dims = [0, 1] : (tensor<2x1xf32>) -> tensor<2x1x1xf32>
      %4167 = stablehlo.broadcast_in_dim %4165, dims = [0, 1, 2] : (tensor<2x1x1xf32>) -> tensor<2x1x768xf32>
      %4168 = stablehlo.subtract %4153, %4167 : tensor<2x1x768xf32>
      %4169 = stablehlo.broadcast_in_dim %17, dims = [] : (tensor<f32>) -> tensor<2x1x1xf32>
      %4170 = stablehlo.add %4166, %4169 : tensor<2x1x1xf32>
      %4171 = stablehlo.rsqrt %4170 : tensor<2x1x1xf32>
      %4172 = stablehlo.reshape %iterArg_121 : (tensor<768xf16>) -> tensor<1x1x768xf16>
      %4173 = stablehlo.convert %4172 : (tensor<1x1x768xf16>) -> tensor<1x1x768xf32>
      %4174 = stablehlo.broadcast_in_dim %4171, dims = [0, 1, 2] : (tensor<2x1x1xf32>) -> tensor<2x1x768xf32>
      %4175 = stablehlo.broadcast_in_dim %4173, dims = [0, 1, 2] : (tensor<1x1x768xf32>) -> tensor<2x1x768xf32>
      %4176 = stablehlo.multiply %4174, %4175 : tensor<2x1x768xf32>
      %4177 = stablehlo.multiply %4168, %4176 : tensor<2x1x768xf32>
      %4178 = stablehlo.reshape %iterArg_122 : (tensor<768xf16>) -> tensor<1x1x768xf16>
      %4179 = stablehlo.convert %4178 : (tensor<1x1x768xf16>) -> tensor<1x1x768xf32>
      %4180 = stablehlo.broadcast_in_dim %4179, dims = [0, 1, 2] : (tensor<1x1x768xf32>) -> tensor<2x1x768xf32>
      %4181 = stablehlo.add %4177, %4180 : tensor<2x1x768xf32>
      %4182 = stablehlo.iota dim = 0 : tensor<1024xi32>
      %4183 = stablehlo.broadcast_in_dim %4182, dims = [1] : (tensor<1024xi32>) -> tensor<1x1024xi32>
      %4184 = stablehlo.broadcast_in_dim %4183, dims = [0, 1] : (tensor<1x1024xi32>) -> tensor<1x1024x1xi32>
      %4185 = stablehlo.broadcast_in_dim %4183, dims = [0, 2] : (tensor<1x1024xi32>) -> tensor<1x1x1024xi32>
      %4186 = stablehlo.broadcast_in_dim %4184, dims = [0, 1, 2] : (tensor<1x1024x1xi32>) -> tensor<1x1024x1024xi32>
      %4187 = stablehlo.broadcast_in_dim %4185, dims = [0, 1, 2] : (tensor<1x1x1024xi32>) -> tensor<1x1024x1024xi32>
      %4188 = stablehlo.compare  GE, %4186, %4187,  SIGNED : (tensor<1x1024x1024xi32>, tensor<1x1024x1024xi32>) -> tensor<1x1024x1024xi1>
      %4189 = stablehlo.broadcast_in_dim %4188, dims = [0, 2, 3] : (tensor<1x1024x1024xi1>) -> tensor<1x1x1024x1024xi1>
      %4190 = stablehlo.transpose %iterArg_123, dims = [1, 0] : (tensor<2304x768xf16>) -> tensor<768x2304xf16>
      %4191 = stablehlo.convert %4190 : (tensor<768x2304xf16>) -> tensor<768x2304xf32>
      %4192 = stablehlo.dot_general %4181, %4191, contracting_dims = [2] x [0], precision = [DEFAULT, DEFAULT] : (tensor<2x1x768xf32>, tensor<768x2304xf32>) -> tensor<2x1x2304xf32>
      %4193 = stablehlo.convert %iterArg_124 : (tensor<2304xf16>) -> tensor<2304xf32>
      %4194 = stablehlo.broadcast_in_dim %4193, dims = [2] : (tensor<2304xf32>) -> tensor<1x1x2304xf32>
      %4195 = stablehlo.broadcast_in_dim %4194, dims = [0, 1, 2] : (tensor<1x1x2304xf32>) -> tensor<2x1x2304xf32>
      %4196 = stablehlo.add %4192, %4195 : tensor<2x1x2304xf32>
      %4197 = stablehlo.slice %4196 [0:2, 0:1, 0:768] : (tensor<2x1x2304xf32>) -> tensor<2x1x768xf32>
      %4198 = stablehlo.slice %4196 [0:2, 0:1, 768:1536] : (tensor<2x1x2304xf32>) -> tensor<2x1x768xf32>
      %4199 = stablehlo.slice %4196 [0:2, 0:1, 1536:2304] : (tensor<2x1x2304xf32>) -> tensor<2x1x768xf32>
      %4200 = stablehlo.reshape %4197 : (tensor<2x1x768xf32>) -> tensor<2x1x12x64xf32>
      %4201 = stablehlo.reshape %4198 : (tensor<2x1x768xf32>) -> tensor<2x1x12x64xf32>
      %4202 = stablehlo.reshape %4199 : (tensor<2x1x768xf32>) -> tensor<2x1x12x64xf32>
      %4203 = stablehlo.compare  LT, %iterArg_160, %22,  SIGNED : (tensor<i32>, tensor<i32>) -> tensor<i1>
      %4204 = stablehlo.add %iterArg_160, %16 : tensor<i32>
      %4205 = stablehlo.select %4203, %4204, %iterArg_160 : tensor<i1>, tensor<i32>
      %4206 = stablehlo.dynamic_slice %4189, %22, %22, %4205, %22, sizes = [1, 1, 1, 20] : (tensor<1x1x1024x1024xi1>, tensor<i32>, tensor<i32>, tensor<i32>, tensor<i32>) -> tensor<1x1x1x20xi1>
      %4207 = stablehlo.reshape %4206 : (tensor<1x1x1x20xi1>) -> tensor<1x1x20xi1>
      %4208 = stablehlo.broadcast_in_dim %4207, dims = [1, 2, 3] : (tensor<1x1x20xi1>) -> tensor<2x1x1x20xi1>
      %4209 = stablehlo.broadcast_in_dim %iterArg_153, dims = [0, 3] : (tensor<2x20xi32>) -> tensor<2x1x1x20xi32>
      %4210 = stablehlo.broadcast_in_dim %22, dims = [] : (tensor<i32>) -> tensor<2x1x1x20xi32>
      %4211 = stablehlo.compare  NE, %4209, %4210,  SIGNED : (tensor<2x1x1x20xi32>, tensor<2x1x1x20xi32>) -> tensor<2x1x1x20xi1>
      %4212 = stablehlo.and %4211, %4208 : tensor<2x1x1x20xi1>
      %4213 = stablehlo.convert %4212 : (tensor<2x1x1x20xi1>) -> tensor<2x1x1x20xf32>
      %4214 = stablehlo.compare  LT, %iterArg_160, %22,  SIGNED : (tensor<i32>, tensor<i32>) -> tensor<i1>
      %4215 = stablehlo.add %iterArg_160, %15 : tensor<i32>
      %4216 = stablehlo.select %4214, %4215, %iterArg_160 : tensor<i1>, tensor<i32>
      %4217 = stablehlo.dynamic_update_slice %iterArg_161, %4201, %22, %4216, %22, %22 : (tensor<2x20x12x64xf32>, tensor<2x1x12x64xf32>, tensor<i32>, tensor<i32>, tensor<i32>, tensor<i32>) -> tensor<2x20x12x64xf32>
      %4218 = stablehlo.compare  LT, %iterArg_160, %22,  SIGNED : (tensor<i32>, tensor<i32>) -> tensor<i1>
      %4219 = stablehlo.add %iterArg_160, %15 : tensor<i32>
      %4220 = stablehlo.select %4218, %4219, %iterArg_160 : tensor<i1>, tensor<i32>
      %4221 = stablehlo.dynamic_update_slice %iterArg_162, %4202, %22, %4220, %22, %22 : (tensor<2x20x12x64xf32>, tensor<2x1x12x64xf32>, tensor<i32>, tensor<i32>, tensor<i32>, tensor<i32>) -> tensor<2x20x12x64xf32>
      %4222 = stablehlo.add %iterArg_160, %19 : tensor<i32>
      %4223 = stablehlo.iota dim = 0 : tensor<20xi32>
      %4224 = stablehlo.add %iterArg_160, %19 : tensor<i32>
      %4225 = stablehlo.broadcast_in_dim %4224, dims = [] : (tensor<i32>) -> tensor<20xi32>
      %4226 = stablehlo.compare  LT, %4223, %4225,  SIGNED : (tensor<20xi32>, tensor<20xi32>) -> tensor<20xi1>
      %4227 = stablehlo.broadcast_in_dim %4226, dims = [3] : (tensor<20xi1>) -> tensor<2x1x1x20xi1>
      %4228 = stablehlo.broadcast_in_dim %20, dims = [] : (tensor<f32>) -> tensor<2x1x1x20xf32>
      %4229 = stablehlo.compare  NE, %4213, %4228,  FLOAT : (tensor<2x1x1x20xf32>, tensor<2x1x1x20xf32>) -> tensor<2x1x1x20xi1>
      %4230 = stablehlo.and %4227, %4229 : tensor<2x1x1x20xi1>
      %4231 = stablehlo.convert %4230 : (tensor<2x1x1x20xi1>) -> tensor<2x1x1x20xf32>
      %4232 = stablehlo.broadcast_in_dim %20, dims = [] : (tensor<f32>) -> tensor<2x1x1x20xf32>
      %4233 = stablehlo.compare  GT, %4231, %4232,  FLOAT : (tensor<2x1x1x20xf32>, tensor<2x1x1x20xf32>) -> tensor<2x1x1x20xi1>
      %4234 = stablehlo.broadcast_in_dim %20, dims = [] : (tensor<f32>) -> tensor<2x1x1x20xf32>
      %4235 = stablehlo.convert %4234 : tensor<2x1x1x20xf32>
      %4236 = stablehlo.broadcast_in_dim %13, dims = [] : (tensor<f32>) -> tensor<2x1x1x20xf32>
      %4237 = stablehlo.select %4233, %4235, %4236 : tensor<2x1x1x20xi1>, tensor<2x1x1x20xf32>
      %4238 = stablehlo.sqrt %12 : tensor<f32>
      %4239 = stablehlo.convert %4238 : tensor<f32>
      %4240 = stablehlo.broadcast_in_dim %4239, dims = [] : (tensor<f32>) -> tensor<2x1x12x64xf32>
      %4241 = stablehlo.divide %4200, %4240 : tensor<2x1x12x64xf32>
      %4242 = stablehlo.dot_general %4241, %4217, batching_dims = [0, 2] x [0, 2], contracting_dims = [3] x [3], precision = [DEFAULT, DEFAULT] : (tensor<2x1x12x64xf32>, tensor<2x20x12x64xf32>) -> tensor<2x12x1x20xf32>
      %4243 = stablehlo.broadcast_in_dim %4237, dims = [0, 1, 2, 3] : (tensor<2x1x1x20xf32>) -> tensor<2x12x1x20xf32>
      %4244 = stablehlo.add %4242, %4243 : tensor<2x12x1x20xf32>
      %4245 = stablehlo.reduce(%4244 init: %11) applies stablehlo.maximum across dimensions = [3] : (tensor<2x12x1x20xf32>, tensor<f32>) -> tensor<2x12x1xf32>
      %4246 = stablehlo.broadcast_in_dim %4245, dims = [0, 1, 2] : (tensor<2x12x1xf32>) -> tensor<2x12x1x1xf32>
      %4247 = stablehlo.broadcast_in_dim %4246, dims = [0, 1, 2, 3] : (tensor<2x12x1x1xf32>) -> tensor<2x12x1x20xf32>
      %4248 = stablehlo.subtract %4244, %4247 : tensor<2x12x1x20xf32>
      %4249 = stablehlo.exponential %4248 : tensor<2x12x1x20xf32>
      %4250 = stablehlo.reduce(%4249 init: %20) applies stablehlo.add across dimensions = [3] : (tensor<2x12x1x20xf32>, tensor<f32>) -> tensor<2x12x1xf32>
      %4251 = stablehlo.broadcast_in_dim %4250, dims = [0, 1, 2] : (tensor<2x12x1xf32>) -> tensor<2x12x1x1xf32>
      %4252 = stablehlo.broadcast_in_dim %4251, dims = [0, 1, 2, 3] : (tensor<2x12x1x1xf32>) -> tensor<2x12x1x20xf32>
      %4253 = stablehlo.divide %4249, %4252 : tensor<2x12x1x20xf32>
      %4254 = stablehlo.dot_general %4221, %4253, batching_dims = [0, 2] x [0, 1], contracting_dims = [1] x [3], precision = [DEFAULT, DEFAULT] : (tensor<2x20x12x64xf32>, tensor<2x12x1x20xf32>) -> tensor<2x12x64x1xf32>
      %4255 = stablehlo.transpose %4254, dims = [0, 3, 1, 2] : (tensor<2x12x64x1xf32>) -> tensor<2x1x12x64xf32>
      %4256 = stablehlo.reshape %4255 : (tensor<2x1x12x64xf32>) -> tensor<2x1x768xf32>
      %4257 = stablehlo.transpose %iterArg_125, dims = [1, 0] : (tensor<768x768xf16>) -> tensor<768x768xf16>
      %4258 = stablehlo.convert %4257 : (tensor<768x768xf16>) -> tensor<768x768xf32>
      %4259 = stablehlo.dot_general %4256, %4258, contracting_dims = [2] x [0], precision = [DEFAULT, DEFAULT] : (tensor<2x1x768xf32>, tensor<768x768xf32>) -> tensor<2x1x768xf32>
      %4260 = stablehlo.convert %iterArg_126 : (tensor<768xf16>) -> tensor<768xf32>
      %4261 = stablehlo.broadcast_in_dim %4260, dims = [2] : (tensor<768xf32>) -> tensor<1x1x768xf32>
      %4262 = stablehlo.broadcast_in_dim %4261, dims = [0, 1, 2] : (tensor<1x1x768xf32>) -> tensor<2x1x768xf32>
      %4263 = stablehlo.add %4259, %4262 : tensor<2x1x768xf32>
      %4264 = stablehlo.add %4263, %4153 : tensor<2x1x768xf32>
      %4265 = stablehlo.multiply %4264, %4264 : tensor<2x1x768xf32>
      %4266 = stablehlo.reduce(%4264 init: %20) applies stablehlo.add across dimensions = [2] : (tensor<2x1x768xf32>, tensor<f32>) -> tensor<2x1xf32>
      %4267 = stablehlo.broadcast_in_dim %18, dims = [] : (tensor<f32>) -> tensor<2x1xf32>
      %4268 = stablehlo.divide %4266, %4267 : tensor<2x1xf32>
      %4269 = stablehlo.reduce(%4265 init: %20) applies stablehlo.add across dimensions = [2] : (tensor<2x1x768xf32>, tensor<f32>) -> tensor<2x1xf32>
      %4270 = stablehlo.broadcast_in_dim %18, dims = [] : (tensor<f32>) -> tensor<2x1xf32>
      %4271 = stablehlo.divide %4269, %4270 : tensor<2x1xf32>
      %4272 = stablehlo.multiply %4268, %4268 : tensor<2x1xf32>
      %4273 = stablehlo.subtract %4271, %4272 : tensor<2x1xf32>
      %4274 = stablehlo.broadcast_in_dim %20, dims = [] : (tensor<f32>) -> tensor<2x1xf32>
      %4275 = stablehlo.maximum %4274, %4273 : tensor<2x1xf32>
      %4276 = stablehlo.broadcast_in_dim %4268, dims = [0, 1] : (tensor<2x1xf32>) -> tensor<2x1x1xf32>
      %4277 = stablehlo.broadcast_in_dim %4275, dims = [0, 1] : (tensor<2x1xf32>) -> tensor<2x1x1xf32>
      %4278 = stablehlo.broadcast_in_dim %4276, dims = [0, 1, 2] : (tensor<2x1x1xf32>) -> tensor<2x1x768xf32>
      %4279 = stablehlo.subtract %4264, %4278 : tensor<2x1x768xf32>
      %4280 = stablehlo.broadcast_in_dim %17, dims = [] : (tensor<f32>) -> tensor<2x1x1xf32>
      %4281 = stablehlo.add %4277, %4280 : tensor<2x1x1xf32>
      %4282 = stablehlo.rsqrt %4281 : tensor<2x1x1xf32>
      %4283 = stablehlo.reshape %iterArg_127 : (tensor<768xf16>) -> tensor<1x1x768xf16>
      %4284 = stablehlo.convert %4283 : (tensor<1x1x768xf16>) -> tensor<1x1x768xf32>
      %4285 = stablehlo.broadcast_in_dim %4282, dims = [0, 1, 2] : (tensor<2x1x1xf32>) -> tensor<2x1x768xf32>
      %4286 = stablehlo.broadcast_in_dim %4284, dims = [0, 1, 2] : (tensor<1x1x768xf32>) -> tensor<2x1x768xf32>
      %4287 = stablehlo.multiply %4285, %4286 : tensor<2x1x768xf32>
      %4288 = stablehlo.multiply %4279, %4287 : tensor<2x1x768xf32>
      %4289 = stablehlo.reshape %iterArg_128 : (tensor<768xf16>) -> tensor<1x1x768xf16>
      %4290 = stablehlo.convert %4289 : (tensor<1x1x768xf16>) -> tensor<1x1x768xf32>
      %4291 = stablehlo.broadcast_in_dim %4290, dims = [0, 1, 2] : (tensor<1x1x768xf32>) -> tensor<2x1x768xf32>
      %4292 = stablehlo.add %4288, %4291 : tensor<2x1x768xf32>
      %4293 = stablehlo.transpose %iterArg_129, dims = [1, 0] : (tensor<3072x768xf16>) -> tensor<768x3072xf16>
      %4294 = stablehlo.convert %4293 : (tensor<768x3072xf16>) -> tensor<768x3072xf32>
      %4295 = stablehlo.dot_general %4292, %4294, contracting_dims = [2] x [0], precision = [DEFAULT, DEFAULT] : (tensor<2x1x768xf32>, tensor<768x3072xf32>) -> tensor<2x1x3072xf32>
      %4296 = stablehlo.convert %iterArg_130 : (tensor<3072xf16>) -> tensor<3072xf32>
      %4297 = stablehlo.broadcast_in_dim %4296, dims = [2] : (tensor<3072xf32>) -> tensor<1x1x3072xf32>
      %4298 = stablehlo.broadcast_in_dim %4297, dims = [0, 1, 2] : (tensor<1x1x3072xf32>) -> tensor<2x1x3072xf32>
      %4299 = stablehlo.add %4295, %4298 : tensor<2x1x3072xf32>
      %4300 = stablehlo.multiply %4299, %4299 : tensor<2x1x3072xf32>
      %4301 = stablehlo.multiply %4299, %4300 : tensor<2x1x3072xf32>
      %4302 = stablehlo.broadcast_in_dim %10, dims = [] : (tensor<f32>) -> tensor<2x1x3072xf32>
      %4303 = stablehlo.multiply %4302, %4301 : tensor<2x1x3072xf32>
      %4304 = stablehlo.add %4299, %4303 : tensor<2x1x3072xf32>
      %4305 = stablehlo.broadcast_in_dim %9, dims = [] : (tensor<f32>) -> tensor<2x1x3072xf32>
      %4306 = stablehlo.multiply %4305, %4304 : tensor<2x1x3072xf32>
      %4307 = stablehlo.tanh %4306 : tensor<2x1x3072xf32>
      %4308 = stablehlo.broadcast_in_dim %8, dims = [] : (tensor<f32>) -> tensor<2x1x3072xf32>
      %4309 = stablehlo.add %4308, %4307 : tensor<2x1x3072xf32>
      %4310 = stablehlo.broadcast_in_dim %7, dims = [] : (tensor<f32>) -> tensor<2x1x3072xf32>
      %4311 = stablehlo.multiply %4310, %4309 : tensor<2x1x3072xf32>
      %4312 = stablehlo.multiply %4299, %4311 : tensor<2x1x3072xf32>
      %4313 = stablehlo.transpose %iterArg_131, dims = [1, 0] : (tensor<768x3072xf16>) -> tensor<3072x768xf16>
      %4314 = stablehlo.convert %4313 : (tensor<3072x768xf16>) -> tensor<3072x768xf32>
      %4315 = stablehlo.dot_general %4312, %4314, contracting_dims = [2] x [0], precision = [DEFAULT, DEFAULT] : (tensor<2x1x3072xf32>, tensor<3072x768xf32>) -> tensor<2x1x768xf32>
      %4316 = stablehlo.convert %iterArg_132 : (tensor<768xf16>) -> tensor<768xf32>
      %4317 = stablehlo.broadcast_in_dim %4316, dims = [2] : (tensor<768xf32>) -> tensor<1x1x768xf32>
      %4318 = stablehlo.broadcast_in_dim %4317, dims = [0, 1, 2] : (tensor<1x1x768xf32>) -> tensor<2x1x768xf32>
      %4319 = stablehlo.add %4315, %4318 : tensor<2x1x768xf32>
      %4320 = stablehlo.add %4264, %4319 : tensor<2x1x768xf32>
      %4321 = stablehlo.multiply %4320, %4320 : tensor<2x1x768xf32>
      %4322 = stablehlo.reduce(%4320 init: %20) applies stablehlo.add across dimensions = [2] : (tensor<2x1x768xf32>, tensor<f32>) -> tensor<2x1xf32>
      %4323 = stablehlo.broadcast_in_dim %18, dims = [] : (tensor<f32>) -> tensor<2x1xf32>
      %4324 = stablehlo.divide %4322, %4323 : tensor<2x1xf32>
      %4325 = stablehlo.reduce(%4321 init: %20) applies stablehlo.add across dimensions = [2] : (tensor<2x1x768xf32>, tensor<f32>) -> tensor<2x1xf32>
      %4326 = stablehlo.broadcast_in_dim %18, dims = [] : (tensor<f32>) -> tensor<2x1xf32>
      %4327 = stablehlo.divide %4325, %4326 : tensor<2x1xf32>
      %4328 = stablehlo.multiply %4324, %4324 : tensor<2x1xf32>
      %4329 = stablehlo.subtract %4327, %4328 : tensor<2x1xf32>
      %4330 = stablehlo.broadcast_in_dim %20, dims = [] : (tensor<f32>) -> tensor<2x1xf32>
      %4331 = stablehlo.maximum %4330, %4329 : tensor<2x1xf32>
      %4332 = stablehlo.broadcast_in_dim %4324, dims = [0, 1] : (tensor<2x1xf32>) -> tensor<2x1x1xf32>
      %4333 = stablehlo.broadcast_in_dim %4331, dims = [0, 1] : (tensor<2x1xf32>) -> tensor<2x1x1xf32>
      %4334 = stablehlo.broadcast_in_dim %4332, dims = [0, 1, 2] : (tensor<2x1x1xf32>) -> tensor<2x1x768xf32>
      %4335 = stablehlo.subtract %4320, %4334 : tensor<2x1x768xf32>
      %4336 = stablehlo.broadcast_in_dim %17, dims = [] : (tensor<f32>) -> tensor<2x1x1xf32>
      %4337 = stablehlo.add %4333, %4336 : tensor<2x1x1xf32>
      %4338 = stablehlo.rsqrt %4337 : tensor<2x1x1xf32>
      %4339 = stablehlo.reshape %iterArg_133 : (tensor<768xf16>) -> tensor<1x1x768xf16>
      %4340 = stablehlo.convert %4339 : (tensor<1x1x768xf16>) -> tensor<1x1x768xf32>
      %4341 = stablehlo.broadcast_in_dim %4338, dims = [0, 1, 2] : (tensor<2x1x1xf32>) -> tensor<2x1x768xf32>
      %4342 = stablehlo.broadcast_in_dim %4340, dims = [0, 1, 2] : (tensor<1x1x768xf32>) -> tensor<2x1x768xf32>
      %4343 = stablehlo.multiply %4341, %4342 : tensor<2x1x768xf32>
      %4344 = stablehlo.multiply %4335, %4343 : tensor<2x1x768xf32>
      %4345 = stablehlo.reshape %iterArg_134 : (tensor<768xf16>) -> tensor<1x1x768xf16>
      %4346 = stablehlo.convert %4345 : (tensor<1x1x768xf16>) -> tensor<1x1x768xf32>
      %4347 = stablehlo.broadcast_in_dim %4346, dims = [0, 1, 2] : (tensor<1x1x768xf32>) -> tensor<2x1x768xf32>
      %4348 = stablehlo.add %4344, %4347 : tensor<2x1x768xf32>
      %4349 = stablehlo.iota dim = 0 : tensor<1024xi32>
      %4350 = stablehlo.broadcast_in_dim %4349, dims = [1] : (tensor<1024xi32>) -> tensor<1x1024xi32>
      %4351 = stablehlo.broadcast_in_dim %4350, dims = [0, 1] : (tensor<1x1024xi32>) -> tensor<1x1024x1xi32>
      %4352 = stablehlo.broadcast_in_dim %4350, dims = [0, 2] : (tensor<1x1024xi32>) -> tensor<1x1x1024xi32>
      %4353 = stablehlo.broadcast_in_dim %4351, dims = [0, 1, 2] : (tensor<1x1024x1xi32>) -> tensor<1x1024x1024xi32>
      %4354 = stablehlo.broadcast_in_dim %4352, dims = [0, 1, 2] : (tensor<1x1x1024xi32>) -> tensor<1x1024x1024xi32>
      %4355 = stablehlo.compare  GE, %4353, %4354,  SIGNED : (tensor<1x1024x1024xi32>, tensor<1x1024x1024xi32>) -> tensor<1x1024x1024xi1>
      %4356 = stablehlo.broadcast_in_dim %4355, dims = [0, 2, 3] : (tensor<1x1024x1024xi1>) -> tensor<1x1x1024x1024xi1>
      %4357 = stablehlo.transpose %iterArg_135, dims = [1, 0] : (tensor<2304x768xf16>) -> tensor<768x2304xf16>
      %4358 = stablehlo.convert %4357 : (tensor<768x2304xf16>) -> tensor<768x2304xf32>
      %4359 = stablehlo.dot_general %4348, %4358, contracting_dims = [2] x [0], precision = [DEFAULT, DEFAULT] : (tensor<2x1x768xf32>, tensor<768x2304xf32>) -> tensor<2x1x2304xf32>
      %4360 = stablehlo.convert %iterArg_136 : (tensor<2304xf16>) -> tensor<2304xf32>
      %4361 = stablehlo.broadcast_in_dim %4360, dims = [2] : (tensor<2304xf32>) -> tensor<1x1x2304xf32>
      %4362 = stablehlo.broadcast_in_dim %4361, dims = [0, 1, 2] : (tensor<1x1x2304xf32>) -> tensor<2x1x2304xf32>
      %4363 = stablehlo.add %4359, %4362 : tensor<2x1x2304xf32>
      %4364 = stablehlo.slice %4363 [0:2, 0:1, 0:768] : (tensor<2x1x2304xf32>) -> tensor<2x1x768xf32>
      %4365 = stablehlo.slice %4363 [0:2, 0:1, 768:1536] : (tensor<2x1x2304xf32>) -> tensor<2x1x768xf32>
      %4366 = stablehlo.slice %4363 [0:2, 0:1, 1536:2304] : (tensor<2x1x2304xf32>) -> tensor<2x1x768xf32>
      %4367 = stablehlo.reshape %4364 : (tensor<2x1x768xf32>) -> tensor<2x1x12x64xf32>
      %4368 = stablehlo.reshape %4365 : (tensor<2x1x768xf32>) -> tensor<2x1x12x64xf32>
      %4369 = stablehlo.reshape %4366 : (tensor<2x1x768xf32>) -> tensor<2x1x12x64xf32>
      %4370 = stablehlo.compare  LT, %iterArg_163, %22,  SIGNED : (tensor<i32>, tensor<i32>) -> tensor<i1>
      %4371 = stablehlo.add %iterArg_163, %16 : tensor<i32>
      %4372 = stablehlo.select %4370, %4371, %iterArg_163 : tensor<i1>, tensor<i32>
      %4373 = stablehlo.dynamic_slice %4356, %22, %22, %4372, %22, sizes = [1, 1, 1, 20] : (tensor<1x1x1024x1024xi1>, tensor<i32>, tensor<i32>, tensor<i32>, tensor<i32>) -> tensor<1x1x1x20xi1>
      %4374 = stablehlo.reshape %4373 : (tensor<1x1x1x20xi1>) -> tensor<1x1x20xi1>
      %4375 = stablehlo.broadcast_in_dim %4374, dims = [1, 2, 3] : (tensor<1x1x20xi1>) -> tensor<2x1x1x20xi1>
      %4376 = stablehlo.broadcast_in_dim %iterArg_153, dims = [0, 3] : (tensor<2x20xi32>) -> tensor<2x1x1x20xi32>
      %4377 = stablehlo.broadcast_in_dim %22, dims = [] : (tensor<i32>) -> tensor<2x1x1x20xi32>
      %4378 = stablehlo.compare  NE, %4376, %4377,  SIGNED : (tensor<2x1x1x20xi32>, tensor<2x1x1x20xi32>) -> tensor<2x1x1x20xi1>
      %4379 = stablehlo.and %4378, %4375 : tensor<2x1x1x20xi1>
      %4380 = stablehlo.convert %4379 : (tensor<2x1x1x20xi1>) -> tensor<2x1x1x20xf32>
      %4381 = stablehlo.compare  LT, %iterArg_163, %22,  SIGNED : (tensor<i32>, tensor<i32>) -> tensor<i1>
      %4382 = stablehlo.add %iterArg_163, %15 : tensor<i32>
      %4383 = stablehlo.select %4381, %4382, %iterArg_163 : tensor<i1>, tensor<i32>
      %4384 = stablehlo.dynamic_update_slice %iterArg_164, %4368, %22, %4383, %22, %22 : (tensor<2x20x12x64xf32>, tensor<2x1x12x64xf32>, tensor<i32>, tensor<i32>, tensor<i32>, tensor<i32>) -> tensor<2x20x12x64xf32>
      %4385 = stablehlo.compare  LT, %iterArg_163, %22,  SIGNED : (tensor<i32>, tensor<i32>) -> tensor<i1>
      %4386 = stablehlo.add %iterArg_163, %15 : tensor<i32>
      %4387 = stablehlo.select %4385, %4386, %iterArg_163 : tensor<i1>, tensor<i32>
      %4388 = stablehlo.dynamic_update_slice %iterArg_165, %4369, %22, %4387, %22, %22 : (tensor<2x20x12x64xf32>, tensor<2x1x12x64xf32>, tensor<i32>, tensor<i32>, tensor<i32>, tensor<i32>) -> tensor<2x20x12x64xf32>
      %4389 = stablehlo.add %iterArg_163, %19 : tensor<i32>
      %4390 = stablehlo.iota dim = 0 : tensor<20xi32>
      %4391 = stablehlo.add %iterArg_163, %19 : tensor<i32>
      %4392 = stablehlo.broadcast_in_dim %4391, dims = [] : (tensor<i32>) -> tensor<20xi32>
      %4393 = stablehlo.compare  LT, %4390, %4392,  SIGNED : (tensor<20xi32>, tensor<20xi32>) -> tensor<20xi1>
      %4394 = stablehlo.broadcast_in_dim %4393, dims = [3] : (tensor<20xi1>) -> tensor<2x1x1x20xi1>
      %4395 = stablehlo.broadcast_in_dim %20, dims = [] : (tensor<f32>) -> tensor<2x1x1x20xf32>
      %4396 = stablehlo.compare  NE, %4380, %4395,  FLOAT : (tensor<2x1x1x20xf32>, tensor<2x1x1x20xf32>) -> tensor<2x1x1x20xi1>
      %4397 = stablehlo.and %4394, %4396 : tensor<2x1x1x20xi1>
      %4398 = stablehlo.convert %4397 : (tensor<2x1x1x20xi1>) -> tensor<2x1x1x20xf32>
      %4399 = stablehlo.broadcast_in_dim %20, dims = [] : (tensor<f32>) -> tensor<2x1x1x20xf32>
      %4400 = stablehlo.compare  GT, %4398, %4399,  FLOAT : (tensor<2x1x1x20xf32>, tensor<2x1x1x20xf32>) -> tensor<2x1x1x20xi1>
      %4401 = stablehlo.broadcast_in_dim %20, dims = [] : (tensor<f32>) -> tensor<2x1x1x20xf32>
      %4402 = stablehlo.convert %4401 : tensor<2x1x1x20xf32>
      %4403 = stablehlo.broadcast_in_dim %13, dims = [] : (tensor<f32>) -> tensor<2x1x1x20xf32>
      %4404 = stablehlo.select %4400, %4402, %4403 : tensor<2x1x1x20xi1>, tensor<2x1x1x20xf32>
      %4405 = stablehlo.sqrt %12 : tensor<f32>
      %4406 = stablehlo.convert %4405 : tensor<f32>
      %4407 = stablehlo.broadcast_in_dim %4406, dims = [] : (tensor<f32>) -> tensor<2x1x12x64xf32>
      %4408 = stablehlo.divide %4367, %4407 : tensor<2x1x12x64xf32>
      %4409 = stablehlo.dot_general %4408, %4384, batching_dims = [0, 2] x [0, 2], contracting_dims = [3] x [3], precision = [DEFAULT, DEFAULT] : (tensor<2x1x12x64xf32>, tensor<2x20x12x64xf32>) -> tensor<2x12x1x20xf32>
      %4410 = stablehlo.broadcast_in_dim %4404, dims = [0, 1, 2, 3] : (tensor<2x1x1x20xf32>) -> tensor<2x12x1x20xf32>
      %4411 = stablehlo.add %4409, %4410 : tensor<2x12x1x20xf32>
      %4412 = stablehlo.reduce(%4411 init: %11) applies stablehlo.maximum across dimensions = [3] : (tensor<2x12x1x20xf32>, tensor<f32>) -> tensor<2x12x1xf32>
      %4413 = stablehlo.broadcast_in_dim %4412, dims = [0, 1, 2] : (tensor<2x12x1xf32>) -> tensor<2x12x1x1xf32>
      %4414 = stablehlo.broadcast_in_dim %4413, dims = [0, 1, 2, 3] : (tensor<2x12x1x1xf32>) -> tensor<2x12x1x20xf32>
      %4415 = stablehlo.subtract %4411, %4414 : tensor<2x12x1x20xf32>
      %4416 = stablehlo.exponential %4415 : tensor<2x12x1x20xf32>
      %4417 = stablehlo.reduce(%4416 init: %20) applies stablehlo.add across dimensions = [3] : (tensor<2x12x1x20xf32>, tensor<f32>) -> tensor<2x12x1xf32>
      %4418 = stablehlo.broadcast_in_dim %4417, dims = [0, 1, 2] : (tensor<2x12x1xf32>) -> tensor<2x12x1x1xf32>
      %4419 = stablehlo.broadcast_in_dim %4418, dims = [0, 1, 2, 3] : (tensor<2x12x1x1xf32>) -> tensor<2x12x1x20xf32>
      %4420 = stablehlo.divide %4416, %4419 : tensor<2x12x1x20xf32>
      %4421 = stablehlo.dot_general %4388, %4420, batching_dims = [0, 2] x [0, 1], contracting_dims = [1] x [3], precision = [DEFAULT, DEFAULT] : (tensor<2x20x12x64xf32>, tensor<2x12x1x20xf32>) -> tensor<2x12x64x1xf32>
      %4422 = stablehlo.transpose %4421, dims = [0, 3, 1, 2] : (tensor<2x12x64x1xf32>) -> tensor<2x1x12x64xf32>
      %4423 = stablehlo.reshape %4422 : (tensor<2x1x12x64xf32>) -> tensor<2x1x768xf32>
      %4424 = stablehlo.transpose %iterArg_137, dims = [1, 0] : (tensor<768x768xf16>) -> tensor<768x768xf16>
      %4425 = stablehlo.convert %4424 : (tensor<768x768xf16>) -> tensor<768x768xf32>
      %4426 = stablehlo.dot_general %4423, %4425, contracting_dims = [2] x [0], precision = [DEFAULT, DEFAULT] : (tensor<2x1x768xf32>, tensor<768x768xf32>) -> tensor<2x1x768xf32>
      %4427 = stablehlo.convert %iterArg_138 : (tensor<768xf16>) -> tensor<768xf32>
      %4428 = stablehlo.broadcast_in_dim %4427, dims = [2] : (tensor<768xf32>) -> tensor<1x1x768xf32>
      %4429 = stablehlo.broadcast_in_dim %4428, dims = [0, 1, 2] : (tensor<1x1x768xf32>) -> tensor<2x1x768xf32>
      %4430 = stablehlo.add %4426, %4429 : tensor<2x1x768xf32>
      %4431 = stablehlo.add %4430, %4320 : tensor<2x1x768xf32>
      %4432 = stablehlo.multiply %4431, %4431 : tensor<2x1x768xf32>
      %4433 = stablehlo.reduce(%4431 init: %20) applies stablehlo.add across dimensions = [2] : (tensor<2x1x768xf32>, tensor<f32>) -> tensor<2x1xf32>
      %4434 = stablehlo.broadcast_in_dim %18, dims = [] : (tensor<f32>) -> tensor<2x1xf32>
      %4435 = stablehlo.divide %4433, %4434 : tensor<2x1xf32>
      %4436 = stablehlo.reduce(%4432 init: %20) applies stablehlo.add across dimensions = [2] : (tensor<2x1x768xf32>, tensor<f32>) -> tensor<2x1xf32>
      %4437 = stablehlo.broadcast_in_dim %18, dims = [] : (tensor<f32>) -> tensor<2x1xf32>
      %4438 = stablehlo.divide %4436, %4437 : tensor<2x1xf32>
      %4439 = stablehlo.multiply %4435, %4435 : tensor<2x1xf32>
      %4440 = stablehlo.subtract %4438, %4439 : tensor<2x1xf32>
      %4441 = stablehlo.broadcast_in_dim %20, dims = [] : (tensor<f32>) -> tensor<2x1xf32>
      %4442 = stablehlo.maximum %4441, %4440 : tensor<2x1xf32>
      %4443 = stablehlo.broadcast_in_dim %4435, dims = [0, 1] : (tensor<2x1xf32>) -> tensor<2x1x1xf32>
      %4444 = stablehlo.broadcast_in_dim %4442, dims = [0, 1] : (tensor<2x1xf32>) -> tensor<2x1x1xf32>
      %4445 = stablehlo.broadcast_in_dim %4443, dims = [0, 1, 2] : (tensor<2x1x1xf32>) -> tensor<2x1x768xf32>
      %4446 = stablehlo.subtract %4431, %4445 : tensor<2x1x768xf32>
      %4447 = stablehlo.broadcast_in_dim %17, dims = [] : (tensor<f32>) -> tensor<2x1x1xf32>
      %4448 = stablehlo.add %4444, %4447 : tensor<2x1x1xf32>
      %4449 = stablehlo.rsqrt %4448 : tensor<2x1x1xf32>
      %4450 = stablehlo.reshape %iterArg_139 : (tensor<768xf16>) -> tensor<1x1x768xf16>
      %4451 = stablehlo.convert %4450 : (tensor<1x1x768xf16>) -> tensor<1x1x768xf32>
      %4452 = stablehlo.broadcast_in_dim %4449, dims = [0, 1, 2] : (tensor<2x1x1xf32>) -> tensor<2x1x768xf32>
      %4453 = stablehlo.broadcast_in_dim %4451, dims = [0, 1, 2] : (tensor<1x1x768xf32>) -> tensor<2x1x768xf32>
      %4454 = stablehlo.multiply %4452, %4453 : tensor<2x1x768xf32>
      %4455 = stablehlo.multiply %4446, %4454 : tensor<2x1x768xf32>
      %4456 = stablehlo.reshape %iterArg_140 : (tensor<768xf16>) -> tensor<1x1x768xf16>
      %4457 = stablehlo.convert %4456 : (tensor<1x1x768xf16>) -> tensor<1x1x768xf32>
      %4458 = stablehlo.broadcast_in_dim %4457, dims = [0, 1, 2] : (tensor<1x1x768xf32>) -> tensor<2x1x768xf32>
      %4459 = stablehlo.add %4455, %4458 : tensor<2x1x768xf32>
      %4460 = stablehlo.transpose %iterArg_141, dims = [1, 0] : (tensor<3072x768xf16>) -> tensor<768x3072xf16>
      %4461 = stablehlo.convert %4460 : (tensor<768x3072xf16>) -> tensor<768x3072xf32>
      %4462 = stablehlo.dot_general %4459, %4461, contracting_dims = [2] x [0], precision = [DEFAULT, DEFAULT] : (tensor<2x1x768xf32>, tensor<768x3072xf32>) -> tensor<2x1x3072xf32>
      %4463 = stablehlo.convert %iterArg_142 : (tensor<3072xf16>) -> tensor<3072xf32>
      %4464 = stablehlo.broadcast_in_dim %4463, dims = [2] : (tensor<3072xf32>) -> tensor<1x1x3072xf32>
      %4465 = stablehlo.broadcast_in_dim %4464, dims = [0, 1, 2] : (tensor<1x1x3072xf32>) -> tensor<2x1x3072xf32>
      %4466 = stablehlo.add %4462, %4465 : tensor<2x1x3072xf32>
      %4467 = stablehlo.multiply %4466, %4466 : tensor<2x1x3072xf32>
      %4468 = stablehlo.multiply %4466, %4467 : tensor<2x1x3072xf32>
      %4469 = stablehlo.broadcast_in_dim %10, dims = [] : (tensor<f32>) -> tensor<2x1x3072xf32>
      %4470 = stablehlo.multiply %4469, %4468 : tensor<2x1x3072xf32>
      %4471 = stablehlo.add %4466, %4470 : tensor<2x1x3072xf32>
      %4472 = stablehlo.broadcast_in_dim %9, dims = [] : (tensor<f32>) -> tensor<2x1x3072xf32>
      %4473 = stablehlo.multiply %4472, %4471 : tensor<2x1x3072xf32>
      %4474 = stablehlo.tanh %4473 : tensor<2x1x3072xf32>
      %4475 = stablehlo.broadcast_in_dim %8, dims = [] : (tensor<f32>) -> tensor<2x1x3072xf32>
      %4476 = stablehlo.add %4475, %4474 : tensor<2x1x3072xf32>
      %4477 = stablehlo.broadcast_in_dim %7, dims = [] : (tensor<f32>) -> tensor<2x1x3072xf32>
      %4478 = stablehlo.multiply %4477, %4476 : tensor<2x1x3072xf32>
      %4479 = stablehlo.multiply %4466, %4478 : tensor<2x1x3072xf32>
      %4480 = stablehlo.transpose %iterArg_143, dims = [1, 0] : (tensor<768x3072xf16>) -> tensor<3072x768xf16>
      %4481 = stablehlo.convert %4480 : (tensor<3072x768xf16>) -> tensor<3072x768xf32>
      %4482 = stablehlo.dot_general %4479, %4481, contracting_dims = [2] x [0], precision = [DEFAULT, DEFAULT] : (tensor<2x1x3072xf32>, tensor<3072x768xf32>) -> tensor<2x1x768xf32>
      %4483 = stablehlo.convert %iterArg_144 : (tensor<768xf16>) -> tensor<768xf32>
      %4484 = stablehlo.broadcast_in_dim %4483, dims = [2] : (tensor<768xf32>) -> tensor<1x1x768xf32>
      %4485 = stablehlo.broadcast_in_dim %4484, dims = [0, 1, 2] : (tensor<1x1x768xf32>) -> tensor<2x1x768xf32>
      %4486 = stablehlo.add %4482, %4485 : tensor<2x1x768xf32>
      %4487 = stablehlo.add %4431, %4486 : tensor<2x1x768xf32>
      %4488 = stablehlo.multiply %4487, %4487 : tensor<2x1x768xf32>
      %4489 = stablehlo.reduce(%4487 init: %20) applies stablehlo.add across dimensions = [2] : (tensor<2x1x768xf32>, tensor<f32>) -> tensor<2x1xf32>
      %4490 = stablehlo.broadcast_in_dim %18, dims = [] : (tensor<f32>) -> tensor<2x1xf32>
      %4491 = stablehlo.divide %4489, %4490 : tensor<2x1xf32>
      %4492 = stablehlo.reduce(%4488 init: %20) applies stablehlo.add across dimensions = [2] : (tensor<2x1x768xf32>, tensor<f32>) -> tensor<2x1xf32>
      %4493 = stablehlo.broadcast_in_dim %18, dims = [] : (tensor<f32>) -> tensor<2x1xf32>
      %4494 = stablehlo.divide %4492, %4493 : tensor<2x1xf32>
      %4495 = stablehlo.multiply %4491, %4491 : tensor<2x1xf32>
      %4496 = stablehlo.subtract %4494, %4495 : tensor<2x1xf32>
      %4497 = stablehlo.broadcast_in_dim %20, dims = [] : (tensor<f32>) -> tensor<2x1xf32>
      %4498 = stablehlo.maximum %4497, %4496 : tensor<2x1xf32>
      %4499 = stablehlo.broadcast_in_dim %4491, dims = [0, 1] : (tensor<2x1xf32>) -> tensor<2x1x1xf32>
      %4500 = stablehlo.broadcast_in_dim %4498, dims = [0, 1] : (tensor<2x1xf32>) -> tensor<2x1x1xf32>
      %4501 = stablehlo.broadcast_in_dim %4499, dims = [0, 1, 2] : (tensor<2x1x1xf32>) -> tensor<2x1x768xf32>
      %4502 = stablehlo.subtract %4487, %4501 : tensor<2x1x768xf32>
      %4503 = stablehlo.broadcast_in_dim %17, dims = [] : (tensor<f32>) -> tensor<2x1x1xf32>
      %4504 = stablehlo.add %4500, %4503 : tensor<2x1x1xf32>
      %4505 = stablehlo.rsqrt %4504 : tensor<2x1x1xf32>
      %4506 = stablehlo.reshape %iterArg_145 : (tensor<768xf16>) -> tensor<1x1x768xf16>
      %4507 = stablehlo.convert %4506 : (tensor<1x1x768xf16>) -> tensor<1x1x768xf32>
      %4508 = stablehlo.broadcast_in_dim %4505, dims = [0, 1, 2] : (tensor<2x1x1xf32>) -> tensor<2x1x768xf32>
      %4509 = stablehlo.broadcast_in_dim %4507, dims = [0, 1, 2] : (tensor<1x1x768xf32>) -> tensor<2x1x768xf32>
      %4510 = stablehlo.multiply %4508, %4509 : tensor<2x1x768xf32>
      %4511 = stablehlo.multiply %4502, %4510 : tensor<2x1x768xf32>
      %4512 = stablehlo.reshape %iterArg_146 : (tensor<768xf16>) -> tensor<1x1x768xf16>
      %4513 = stablehlo.convert %4512 : (tensor<1x1x768xf16>) -> tensor<1x1x768xf32>
      %4514 = stablehlo.broadcast_in_dim %4513, dims = [0, 1, 2] : (tensor<1x1x768xf32>) -> tensor<2x1x768xf32>
      %4515 = stablehlo.add %4511, %4514 : tensor<2x1x768xf32>
      %4516 = stablehlo.transpose %iterArg, dims = [1, 0] : (tensor<50257x768xf16>) -> tensor<768x50257xf16>
      %4517 = stablehlo.convert %4516 : (tensor<768x50257xf16>) -> tensor<768x50257xf32>
      %4518 = stablehlo.dot_general %4515, %4517, contracting_dims = [2] x [0], precision = [DEFAULT, DEFAULT] : (tensor<2x1x768xf32>, tensor<768x50257xf32>) -> tensor<2x1x50257xf32>
      %4519 = stablehlo.compare  LT, %22, %22,  SIGNED : (tensor<i32>, tensor<i32>) -> tensor<i1>
      %4520 = stablehlo.add %22, %6 : tensor<i32>
      %4521 = stablehlo.select %4519, %4520, %22 : tensor<i1>, tensor<i32>
      %4522 = stablehlo.compare  LT, %5, %22,  SIGNED : (tensor<i32>, tensor<i32>) -> tensor<i1>
      %4523 = stablehlo.add %5, %19 : tensor<i32>
      %4524 = stablehlo.select %4522, %4523, %5 : tensor<i1>, tensor<i32>
      %4525 = stablehlo.compare  LT, %22, %22,  SIGNED : (tensor<i32>, tensor<i32>) -> tensor<i1>
      %4526 = stablehlo.add %22, %4 : tensor<i32>
      %4527 = stablehlo.select %4525, %4526, %22 : tensor<i1>, tensor<i32>
      %4528 = stablehlo.dynamic_slice %4518, %4521, %4524, %4527, sizes = [2, 1, 50257] : (tensor<2x1x50257xf32>, tensor<i32>, tensor<i32>, tensor<i32>) -> tensor<2x1x50257xf32>
      %4529 = stablehlo.reshape %4528 : (tensor<2x1x50257xf32>) -> tensor<2x50257xf32>
      %4530 = stablehlo.subtract %iterArg_149, %22 : tensor<i32>
      %4531 = stablehlo.maximum %22, %4530 : tensor<i32>
      %4532 = stablehlo.minimum %19, %4531 : tensor<i32>
      %4533 = stablehlo.subtract %19, %4532 : tensor<i32>
      %4534 = stablehlo.broadcast_in_dim %171, dims = [] : (tensor<i32>) -> tensor<1xi32>
      %4535 = stablehlo.broadcast_in_dim %11, dims = [] : (tensor<f32>) -> tensor<2xf32>
      %4536 = "stablehlo.scatter"(%4529, %4534, %4535) ({
      ^bb0(%arg2: tensor<f32>, %arg3: tensor<f32>):
        stablehlo.return %arg3 : tensor<f32>
      }) {indices_are_sorted = true, scatter_dimension_numbers = #stablehlo.scatter<update_window_dims = [0], inserted_window_dims = [1], scatter_dims_to_operand_dims = [1]>, unique_indices = true} : (tensor<2x50257xf32>, tensor<1xi32>, tensor<2xf32>) -> tensor<2x50257xf32>
      %4537 = stablehlo.compare  NE, %4533, %22,  SIGNED : (tensor<i32>, tensor<i32>) -> tensor<i1>
      %4538 = stablehlo.broadcast_in_dim %4537, dims = [] : (tensor<i1>) -> tensor<2x50257xi1>
      %4539 = stablehlo.select %4538, %4536, %4529 : tensor<2x50257xi1>, tensor<2x50257xf32>
      %4540 = stablehlo.iota dim = 1 : tensor<2x50257xi32>
      %4541:2 = stablehlo.reduce(%4539 init: %11), (%4540 init: %22) across dimensions = [1] : (tensor<2x50257xf32>, tensor<2x50257xi32>, tensor<f32>, tensor<i32>) -> (tensor<2xf32>, tensor<2xi32>)
       reducer(%arg2: tensor<f32>, %arg4: tensor<f32>) (%arg3: tensor<i32>, %arg5: tensor<i32>)  {
        %4561 = stablehlo.compare  GT, %arg2, %arg4,  FLOAT : (tensor<f32>, tensor<f32>) -> tensor<i1>
        %4562 = stablehlo.compare  NE, %arg2, %arg2,  FLOAT : (tensor<f32>, tensor<f32>) -> tensor<i1>
        %4563 = stablehlo.or %4561, %4562 : tensor<i1>
        %4564 = stablehlo.compare  EQ, %arg2, %arg4,  FLOAT : (tensor<f32>, tensor<f32>) -> tensor<i1>
        %4565 = stablehlo.compare  LT, %arg3, %arg5,  SIGNED : (tensor<i32>, tensor<i32>) -> tensor<i1>
        %4566 = stablehlo.and %4564, %4565 : tensor<i1>
        %4567 = stablehlo.or %4563, %4566 : tensor<i1>
        %4568 = stablehlo.select %4563, %arg2, %arg4 : tensor<i1>, tensor<f32>
        %4569 = stablehlo.select %4567, %arg3, %arg5 : tensor<i1>, tensor<i32>
        stablehlo.return %4568, %4569 : tensor<f32>, tensor<i32>
      }
      %4542 = stablehlo.not %iterArg_152 : tensor<2xi1>
      %4543 = stablehlo.convert %4542 : (tensor<2xi1>) -> tensor<2xi32>
      %4544 = stablehlo.multiply %4541#1, %4543 : tensor<2xi32>
      %4545 = stablehlo.convert %iterArg_152 : (tensor<2xi1>) -> tensor<2xi32>
      %4546 = stablehlo.broadcast_in_dim %iterArg_147, dims = [] : (tensor<i32>) -> tensor<2xi32>
      %4547 = stablehlo.multiply %4546, %4545 : tensor<2xi32>
      %4548 = stablehlo.add %4544, %4547 : tensor<2xi32>
      %4549 = stablehlo.broadcast_in_dim %iterArg_148, dims = [] : (tensor<i32>) -> tensor<2xi32>
      %4550 = stablehlo.compare  EQ, %4548, %4549,  SIGNED : (tensor<2xi32>, tensor<2xi32>) -> tensor<2xi1>
      %4551 = stablehlo.or %iterArg_152, %4550 : tensor<2xi1>
      %4552 = stablehlo.broadcast_in_dim %4548, dims = [0] : (tensor<2xi32>) -> tensor<2x1xi32>
      %4553 = stablehlo.compare  LT, %iterArg_149, %22,  SIGNED : (tensor<i32>, tensor<i32>) -> tensor<i1>
      %4554 = stablehlo.convert %iterArg_149 : tensor<i32>
      %4555 = stablehlo.add %4554, %15 : tensor<i32>
      %4556 = stablehlo.select %4553, %4555, %iterArg_149 : tensor<i1>, tensor<i32>
      %4557 = stablehlo.dynamic_update_slice %iterArg_150, %4552, %22, %4556 : (tensor<2x20xi32>, tensor<2x1xi32>, tensor<i32>, tensor<i32>) -> tensor<2x20xi32>
      %4558 = stablehlo.broadcast_in_dim %19, dims = [] : (tensor<i32>) -> tensor<2x1xi32>
      %4559 = stablehlo.add %iterArg_190, %4558 : tensor<2x1xi32>
      %4560 = stablehlo.add %iterArg_149, %19 : tensor<i32>
      stablehlo.return %iterArg, %iterArg_0, %iterArg_1, %iterArg_2, %iterArg_3, %iterArg_4, %iterArg_5, %iterArg_6, %iterArg_7, %iterArg_8, %iterArg_9, %iterArg_10, %iterArg_11, %iterArg_12, %iterArg_13, %iterArg_14, %iterArg_15, %iterArg_16, %iterArg_17, %iterArg_18, %iterArg_19, %iterArg_20, %iterArg_21, %iterArg_22, %iterArg_23, %iterArg_24, %iterArg_25, %iterArg_26, %iterArg_27, %iterArg_28, %iterArg_29, %iterArg_30, %iterArg_31, %iterArg_32, %iterArg_33, %iterArg_34, %iterArg_35, %iterArg_36, %iterArg_37, %iterArg_38, %iterArg_39, %iterArg_40, %iterArg_41, %iterArg_42, %iterArg_43, %iterArg_44, %iterArg_45, %iterArg_46, %iterArg_47, %iterArg_48, %iterArg_49, %iterArg_50, %iterArg_51, %iterArg_52, %iterArg_53, %iterArg_54, %iterArg_55, %iterArg_56, %iterArg_57, %iterArg_58, %iterArg_59, %iterArg_60, %iterArg_61, %iterArg_62, %iterArg_63, %iterArg_64, %iterArg_65, %iterArg_66, %iterArg_67, %iterArg_68, %iterArg_69, %iterArg_70, %iterArg_71, %iterArg_72, %iterArg_73, %iterArg_74, %iterArg_75, %iterArg_76, %iterArg_77, %iterArg_78, %iterArg_79, %iterArg_80, %iterArg_81, %iterArg_82, %iterArg_83, %iterArg_84, %iterArg_85, %iterArg_86, %iterArg_87, %iterArg_88, %iterArg_89, %iterArg_90, %iterArg_91, %iterArg_92, %iterArg_93, %iterArg_94, %iterArg_95, %iterArg_96, %iterArg_97, %iterArg_98, %iterArg_99, %iterArg_100, %iterArg_101, %iterArg_102, %iterArg_103, %iterArg_104, %iterArg_105, %iterArg_106, %iterArg_107, %iterArg_108, %iterArg_109, %iterArg_110, %iterArg_111, %iterArg_112, %iterArg_113, %iterArg_114, %iterArg_115, %iterArg_116, %iterArg_117, %iterArg_118, %iterArg_119, %iterArg_120, %iterArg_121, %iterArg_122, %iterArg_123, %iterArg_124, %iterArg_125, %iterArg_126, %iterArg_127, %iterArg_128, %iterArg_129, %iterArg_130, %iterArg_131, %iterArg_132, %iterArg_133, %iterArg_134, %iterArg_135, %iterArg_136, %iterArg_137, %iterArg_138, %iterArg_139, %iterArg_140, %iterArg_141, %iterArg_142, %iterArg_143, %iterArg_144, %iterArg_145, %iterArg_146, %iterArg_147, %iterArg_148, %4560, %4557, %4552, %4551, %iterArg_153, %2552, %2547, %2551, %2719, %2714, %2718, %4222, %4217, %4221, %4389, %4384, %4388, %2886, %2881, %2885, %3053, %3048, %3052, %3220, %3215, %3219, %3387, %3382, %3386, %3554, %3549, %3553, %3721, %3716, %3720, %3888, %3883, %3887, %4055, %4050, %4054, %4559 : tensor<50257x768xf16>, tensor<1024x768xf16>, tensor<768xf16>, tensor<768xf16>, tensor<2304x768xf16>, tensor<2304xf16>, tensor<768x768xf16>, tensor<768xf16>, tensor<768xf16>, tensor<768xf16>, tensor<3072x768xf16>, tensor<3072xf16>, tensor<768x3072xf16>, tensor<768xf16>, tensor<768xf16>, tensor<768xf16>, tensor<2304x768xf16>, tensor<2304xf16>, tensor<768x768xf16>, tensor<768xf16>, tensor<768xf16>, tensor<768xf16>, tensor<3072x768xf16>, tensor<3072xf16>, tensor<768x3072xf16>, tensor<768xf16>, tensor<768xf16>, tensor<768xf16>, tensor<2304x768xf16>, tensor<2304xf16>, tensor<768x768xf16>, tensor<768xf16>, tensor<768xf16>, tensor<768xf16>, tensor<3072x768xf16>, tensor<3072xf16>, tensor<768x3072xf16>, tensor<768xf16>, tensor<768xf16>, tensor<768xf16>, tensor<2304x768xf16>, tensor<2304xf16>, tensor<768x768xf16>, tensor<768xf16>, tensor<768xf16>, tensor<768xf16>, tensor<3072x768xf16>, tensor<3072xf16>, tensor<768x3072xf16>, tensor<768xf16>, tensor<768xf16>, tensor<768xf16>, tensor<2304x768xf16>, tensor<2304xf16>, tensor<768x768xf16>, tensor<768xf16>, tensor<768xf16>, tensor<768xf16>, tensor<3072x768xf16>, tensor<3072xf16>, tensor<768x3072xf16>, tensor<768xf16>, tensor<768xf16>, tensor<768xf16>, tensor<2304x768xf16>, tensor<2304xf16>, tensor<768x768xf16>, tensor<768xf16>, tensor<768xf16>, tensor<768xf16>, tensor<3072x768xf16>, tensor<3072xf16>, tensor<768x3072xf16>, tensor<768xf16>, tensor<768xf16>, tensor<768xf16>, tensor<2304x768xf16>, tensor<2304xf16>, tensor<768x768xf16>, tensor<768xf16>, tensor<768xf16>, tensor<768xf16>, tensor<3072x768xf16>, tensor<3072xf16>, tensor<768x3072xf16>, tensor<768xf16>, tensor<768xf16>, tensor<768xf16>, tensor<2304x768xf16>, tensor<2304xf16>, tensor<768x768xf16>, tensor<768xf16>, tensor<768xf16>, tensor<768xf16>, tensor<3072x768xf16>, tensor<3072xf16>, tensor<768x3072xf16>, tensor<768xf16>, tensor<768xf16>, tensor<768xf16>, tensor<2304x768xf16>, tensor<2304xf16>, tensor<768x768xf16>, tensor<768xf16>, tensor<768xf16>, tensor<768xf16>, tensor<3072x768xf16>, tensor<3072xf16>, tensor<768x3072xf16>, tensor<768xf16>, tensor<768xf16>, tensor<768xf16>, tensor<2304x768xf16>, tensor<2304xf16>, tensor<768x768xf16>, tensor<768xf16>, tensor<768xf16>, tensor<768xf16>, tensor<3072x768xf16>, tensor<3072xf16>, tensor<768x3072xf16>, tensor<768xf16>, tensor<768xf16>, tensor<768xf16>, tensor<2304x768xf16>, tensor<2304xf16>, tensor<768x768xf16>, tensor<768xf16>, tensor<768xf16>, tensor<768xf16>, tensor<3072x768xf16>, tensor<3072xf16>, tensor<768x3072xf16>, tensor<768xf16>, tensor<768xf16>, tensor<768xf16>, tensor<2304x768xf16>, tensor<2304xf16>, tensor<768x768xf16>, tensor<768xf16>, tensor<768xf16>, tensor<768xf16>, tensor<3072x768xf16>, tensor<3072xf16>, tensor<768x3072xf16>, tensor<768xf16>, tensor<768xf16>, tensor<768xf16>, tensor<i32>, tensor<i32>, tensor<i32>, tensor<2x20xi32>, tensor<2x1xi32>, tensor<2xi1>, tensor<2x20xi32>, tensor<i32>, tensor<2x20x12x64xf32>, tensor<2x20x12x64xf32>, tensor<i32>, tensor<2x20x12x64xf32>, tensor<2x20x12x64xf32>, tensor<i32>, tensor<2x20x12x64xf32>, tensor<2x20x12x64xf32>, tensor<i32>, tensor<2x20x12x64xf32>, tensor<2x20x12x64xf32>, tensor<i32>, tensor<2x20x12x64xf32>, tensor<2x20x12x64xf32>, tensor<i32>, tensor<2x20x12x64xf32>, tensor<2x20x12x64xf32>, tensor<i32>, tensor<2x20x12x64xf32>, tensor<2x20x12x64xf32>, tensor<i32>, tensor<2x20x12x64xf32>, tensor<2x20x12x64xf32>, tensor<i32>, tensor<2x20x12x64xf32>, tensor<2x20x12x64xf32>, tensor<i32>, tensor<2x20x12x64xf32>, tensor<2x20x12x64xf32>, tensor<i32>, tensor<2x20x12x64xf32>, tensor<2x20x12x64xf32>, tensor<i32>, tensor<2x20x12x64xf32>, tensor<2x20x12x64xf32>, tensor<2x1xi32>
    }
    return %2404#151 : tensor<2x20xi32>
  }
}


