module @llama_v2 attributes {jax.uses_shape_polymorphism = false, mhlo.num_partitions = 1 : i32, mhlo.num_replicas = 1 : i32} {
  func.func public @main(%arg0: tensor<1x27xf32> {mhlo.layout_mode = "default"}) -> (tensor<1x27x32000xf32> {mhlo.layout_mode = "default"}) {
    %0 = stablehlo.constant dense_resource<__elided__> : tensor<32000x4096xf16>
    %1 = stablehlo.constant dense_resource<__elided__> : tensor<4096xf16>
    %2 = stablehlo.constant dense_resource<__elided__> : tensor<4096x4096xf16>
    %3 = stablehlo.constant dense_resource<__elided__> : tensor<4096x4096xf16>
    %4 = stablehlo.constant dense_resource<__elided__> : tensor<4096x4096xf16>
    %5 = stablehlo.constant dense_resource<__elided__> : tensor<4096x1x256xf32>
    %6 = stablehlo.constant dense_resource<__elided__> : tensor<4096x4096xf16>
    %7 = stablehlo.constant dense_resource<__elided__> : tensor<4096xf16>
    %8 = stablehlo.constant dense_resource<__elided__> : tensor<4096x11008xf16>
    %9 = stablehlo.constant dense_resource<__elided__> : tensor<4096x11008xf16>
    %10 = stablehlo.constant dense_resource<__elided__> : tensor<11008x4096xf16>
    %11 = stablehlo.constant dense_resource<__elided__> : tensor<4096xf16>
    %12 = stablehlo.constant dense_resource<__elided__> : tensor<4096x4096xf16>
    %13 = stablehlo.constant dense_resource<__elided__> : tensor<4096x4096xf16>
    %14 = stablehlo.constant dense_resource<__elided__> : tensor<4096x4096xf16>
    %15 = stablehlo.constant dense_resource<__elided__> : tensor<4096x1x256xf32>
    %16 = stablehlo.constant dense_resource<__elided__> : tensor<4096x4096xf16>
    %17 = stablehlo.constant dense_resource<__elided__> : tensor<4096xf16>
    %18 = stablehlo.constant dense_resource<__elided__> : tensor<4096x11008xf16>
    %19 = stablehlo.constant dense_resource<__elided__> : tensor<4096x11008xf16>
    %20 = stablehlo.constant dense_resource<__elided__> : tensor<11008x4096xf16>
    %21 = stablehlo.constant dense_resource<__elided__> : tensor<4096xf16>
    %22 = stablehlo.constant dense_resource<__elided__> : tensor<4096x4096xf16>
    %23 = stablehlo.constant dense_resource<__elided__> : tensor<4096x4096xf16>
    %24 = stablehlo.constant dense_resource<__elided__> : tensor<4096x4096xf16>
    %25 = stablehlo.constant dense_resource<__elided__> : tensor<4096x1x256xf32>
    %26 = stablehlo.constant dense_resource<__elided__> : tensor<4096x4096xf16>
    %27 = stablehlo.constant dense_resource<__elided__> : tensor<4096xf16>
    %28 = stablehlo.constant dense_resource<__elided__> : tensor<4096x11008xf16>
    %29 = stablehlo.constant dense_resource<__elided__> : tensor<4096x11008xf16>
    %30 = stablehlo.constant dense_resource<__elided__> : tensor<11008x4096xf16>
    %31 = stablehlo.constant dense_resource<__elided__> : tensor<4096xf16>
    %32 = stablehlo.constant dense_resource<__elided__> : tensor<4096x4096xf16>
    %33 = stablehlo.constant dense_resource<__elided__> : tensor<4096x4096xf16>
    %34 = stablehlo.constant dense_resource<__elided__> : tensor<4096x4096xf16>
    %35 = stablehlo.constant dense_resource<__elided__> : tensor<4096x1x256xf32>
    %36 = stablehlo.constant dense_resource<__elided__> : tensor<4096x4096xf16>
    %37 = stablehlo.constant dense_resource<__elided__> : tensor<4096xf16>
    %38 = stablehlo.constant dense_resource<__elided__> : tensor<4096x11008xf16>
    %39 = stablehlo.constant dense_resource<__elided__> : tensor<4096x11008xf16>
    %40 = stablehlo.constant dense_resource<__elided__> : tensor<11008x4096xf16>
    %41 = stablehlo.constant dense_resource<__elided__> : tensor<4096xf16>
    %42 = stablehlo.constant dense_resource<__elided__> : tensor<4096x4096xf16>
    %43 = stablehlo.constant dense_resource<__elided__> : tensor<4096x4096xf16>
    %44 = stablehlo.constant dense_resource<__elided__> : tensor<4096x4096xf16>
    %45 = stablehlo.constant dense_resource<__elided__> : tensor<4096x1x256xf32>
    %46 = stablehlo.constant dense_resource<__elided__> : tensor<4096x4096xf16>
    %47 = stablehlo.constant dense_resource<__elided__> : tensor<4096xf16>
    %48 = stablehlo.constant dense_resource<__elided__> : tensor<4096x11008xf16>
    %49 = stablehlo.constant dense_resource<__elided__> : tensor<4096x11008xf16>
    %50 = stablehlo.constant dense_resource<__elided__> : tensor<11008x4096xf16>
    %51 = stablehlo.constant dense_resource<__elided__> : tensor<4096xf16>
    %52 = stablehlo.constant dense_resource<__elided__> : tensor<4096x4096xf16>
    %53 = stablehlo.constant dense_resource<__elided__> : tensor<4096x4096xf16>
    %54 = stablehlo.constant dense_resource<__elided__> : tensor<4096x4096xf16>
    %55 = stablehlo.constant dense_resource<__elided__> : tensor<4096x1x256xf32>
    %56 = stablehlo.constant dense_resource<__elided__> : tensor<4096x4096xf16>
    %57 = stablehlo.constant dense_resource<__elided__> : tensor<4096xf16>
    %58 = stablehlo.constant dense_resource<__elided__> : tensor<4096x11008xf16>
    %59 = stablehlo.constant dense_resource<__elided__> : tensor<4096x11008xf16>
    %60 = stablehlo.constant dense_resource<__elided__> : tensor<11008x4096xf16>
    %61 = stablehlo.constant dense_resource<__elided__> : tensor<4096xf16>
    %62 = stablehlo.constant dense_resource<__elided__> : tensor<4096x4096xf16>
    %63 = stablehlo.constant dense_resource<__elided__> : tensor<4096x4096xf16>
    %64 = stablehlo.constant dense_resource<__elided__> : tensor<4096x4096xf16>
    %65 = stablehlo.constant dense_resource<__elided__> : tensor<4096x1x256xf32>
    %66 = stablehlo.constant dense_resource<__elided__> : tensor<4096x4096xf16>
    %67 = stablehlo.constant dense_resource<__elided__> : tensor<4096xf16>
    %68 = stablehlo.constant dense_resource<__elided__> : tensor<4096x11008xf16>
    %69 = stablehlo.constant dense_resource<__elided__> : tensor<4096x11008xf16>
    %70 = stablehlo.constant dense_resource<__elided__> : tensor<11008x4096xf16>
    %71 = stablehlo.constant dense_resource<__elided__> : tensor<4096xf16>
    %72 = stablehlo.constant dense_resource<__elided__> : tensor<4096x4096xf16>
    %73 = stablehlo.constant dense_resource<__elided__> : tensor<4096x4096xf16>
    %74 = stablehlo.constant dense_resource<__elided__> : tensor<4096x4096xf16>
    %75 = stablehlo.constant dense_resource<__elided__> : tensor<4096x1x256xf32>
    %76 = stablehlo.constant dense_resource<__elided__> : tensor<4096x4096xf16>
    %77 = stablehlo.constant dense_resource<__elided__> : tensor<4096xf16>
    %78 = stablehlo.constant dense_resource<__elided__> : tensor<4096x11008xf16>
    %79 = stablehlo.constant dense_resource<__elided__> : tensor<4096x11008xf16>
    %80 = stablehlo.constant dense_resource<__elided__> : tensor<11008x4096xf16>
    %81 = stablehlo.constant dense_resource<__elided__> : tensor<4096xf16>
    %82 = stablehlo.constant dense_resource<__elided__> : tensor<4096x4096xf16>
    %83 = stablehlo.constant dense_resource<__elided__> : tensor<4096x4096xf16>
    %84 = stablehlo.constant dense_resource<__elided__> : tensor<4096x4096xf16>
    %85 = stablehlo.constant dense_resource<__elided__> : tensor<4096x1x256xf32>
    %86 = stablehlo.constant dense_resource<__elided__> : tensor<4096x4096xf16>
    %87 = stablehlo.constant dense_resource<__elided__> : tensor<4096xf16>
    %88 = stablehlo.constant dense_resource<__elided__> : tensor<4096x11008xf16>
    %89 = stablehlo.constant dense_resource<__elided__> : tensor<4096x11008xf16>
    %90 = stablehlo.constant dense_resource<__elided__> : tensor<11008x4096xf16>
    %91 = stablehlo.constant dense_resource<__elided__> : tensor<4096xf16>
    %92 = stablehlo.constant dense_resource<__elided__> : tensor<4096x4096xf16>
    %93 = stablehlo.constant dense_resource<__elided__> : tensor<4096x4096xf16>
    %94 = stablehlo.constant dense_resource<__elided__> : tensor<4096x4096xf16>
    %95 = stablehlo.constant dense_resource<__elided__> : tensor<4096x1x256xf32>
    %96 = stablehlo.constant dense_resource<__elided__> : tensor<4096x4096xf16>
    %97 = stablehlo.constant dense_resource<__elided__> : tensor<4096xf16>
    %98 = stablehlo.constant dense_resource<__elided__> : tensor<4096x11008xf16>
    %99 = stablehlo.constant dense_resource<__elided__> : tensor<4096x11008xf16>
    %100 = stablehlo.constant dense_resource<__elided__> : tensor<11008x4096xf16>
    %101 = stablehlo.constant dense_resource<__elided__> : tensor<4096xf16>
    %102 = stablehlo.constant dense_resource<__elided__> : tensor<4096x4096xf16>
    %103 = stablehlo.constant dense_resource<__elided__> : tensor<4096x4096xf16>
    %104 = stablehlo.constant dense_resource<__elided__> : tensor<4096x4096xf16>
    %105 = stablehlo.constant dense_resource<__elided__> : tensor<4096x1x256xf32>
    %106 = stablehlo.constant dense_resource<__elided__> : tensor<4096x4096xf16>
    %107 = stablehlo.constant dense_resource<__elided__> : tensor<4096xf16>
    %108 = stablehlo.constant dense_resource<__elided__> : tensor<4096x11008xf16>
    %109 = stablehlo.constant dense_resource<__elided__> : tensor<4096x11008xf16>
    %110 = stablehlo.constant dense_resource<__elided__> : tensor<11008x4096xf16>
    %111 = stablehlo.constant dense_resource<__elided__> : tensor<4096xf16>
    %112 = stablehlo.constant dense_resource<__elided__> : tensor<4096x4096xf16>
    %113 = stablehlo.constant dense_resource<__elided__> : tensor<4096x4096xf16>
    %114 = stablehlo.constant dense_resource<__elided__> : tensor<4096x4096xf16>
    %115 = stablehlo.constant dense_resource<__elided__> : tensor<4096x1x256xf32>
    %116 = stablehlo.constant dense_resource<__elided__> : tensor<4096x4096xf16>
    %117 = stablehlo.constant dense_resource<__elided__> : tensor<4096xf16>
    %118 = stablehlo.constant dense_resource<__elided__> : tensor<4096x11008xf16>
    %119 = stablehlo.constant dense_resource<__elided__> : tensor<4096x11008xf16>
    %120 = stablehlo.constant dense_resource<__elided__> : tensor<11008x4096xf16>
    %121 = stablehlo.constant dense_resource<__elided__> : tensor<4096xf16>
    %122 = stablehlo.constant dense_resource<__elided__> : tensor<4096x4096xf16>
    %123 = stablehlo.constant dense_resource<__elided__> : tensor<4096x4096xf16>
    %124 = stablehlo.constant dense_resource<__elided__> : tensor<4096x4096xf16>
    %125 = stablehlo.constant dense_resource<__elided__> : tensor<4096x1x256xf32>
    %126 = stablehlo.constant dense_resource<__elided__> : tensor<4096x4096xf16>
    %127 = stablehlo.constant dense_resource<__elided__> : tensor<4096xf16>
    %128 = stablehlo.constant dense_resource<__elided__> : tensor<4096x11008xf16>
    %129 = stablehlo.constant dense_resource<__elided__> : tensor<4096x11008xf16>
    %130 = stablehlo.constant dense_resource<__elided__> : tensor<11008x4096xf16>
    %131 = stablehlo.constant dense_resource<__elided__> : tensor<4096xf16>
    %132 = stablehlo.constant dense_resource<__elided__> : tensor<4096x4096xf16>
    %133 = stablehlo.constant dense_resource<__elided__> : tensor<4096x4096xf16>
    %134 = stablehlo.constant dense_resource<__elided__> : tensor<4096x4096xf16>
    %135 = stablehlo.constant dense_resource<__elided__> : tensor<4096x1x256xf32>
    %136 = stablehlo.constant dense_resource<__elided__> : tensor<4096x4096xf16>
    %137 = stablehlo.constant dense_resource<__elided__> : tensor<4096xf16>
    %138 = stablehlo.constant dense_resource<__elided__> : tensor<4096x11008xf16>
    %139 = stablehlo.constant dense_resource<__elided__> : tensor<4096x11008xf16>
    %140 = stablehlo.constant dense_resource<__elided__> : tensor<11008x4096xf16>
    %141 = stablehlo.constant dense_resource<__elided__> : tensor<4096xf16>
    %142 = stablehlo.constant dense_resource<__elided__> : tensor<4096x4096xf16>
    %143 = stablehlo.constant dense_resource<__elided__> : tensor<4096x4096xf16>
    %144 = stablehlo.constant dense_resource<__elided__> : tensor<4096x4096xf16>
    %145 = stablehlo.constant dense_resource<__elided__> : tensor<4096x1x256xf32>
    %146 = stablehlo.constant dense_resource<__elided__> : tensor<4096x4096xf16>
    %147 = stablehlo.constant dense_resource<__elided__> : tensor<4096xf16>
    %148 = stablehlo.constant dense_resource<__elided__> : tensor<4096x11008xf16>
    %149 = stablehlo.constant dense_resource<__elided__> : tensor<4096x11008xf16>
    %150 = stablehlo.constant dense_resource<__elided__> : tensor<11008x4096xf16>
    %151 = stablehlo.constant dense_resource<__elided__> : tensor<4096xf16>
    %152 = stablehlo.constant dense_resource<__elided__> : tensor<4096x4096xf16>
    %153 = stablehlo.constant dense_resource<__elided__> : tensor<4096x4096xf16>
    %154 = stablehlo.constant dense_resource<__elided__> : tensor<4096x4096xf16>
    %155 = stablehlo.constant dense_resource<__elided__> : tensor<4096x1x256xf32>
    %156 = stablehlo.constant dense_resource<__elided__> : tensor<4096x4096xf16>
    %157 = stablehlo.constant dense_resource<__elided__> : tensor<4096xf16>
    %158 = stablehlo.constant dense_resource<__elided__> : tensor<4096x11008xf16>
    %159 = stablehlo.constant dense_resource<__elided__> : tensor<4096x11008xf16>
    %160 = stablehlo.constant dense_resource<__elided__> : tensor<11008x4096xf16>
    %161 = stablehlo.constant dense_resource<__elided__> : tensor<4096xf16>
    %162 = stablehlo.constant dense_resource<__elided__> : tensor<4096x4096xf16>
    %163 = stablehlo.constant dense_resource<__elided__> : tensor<4096x4096xf16>
    %164 = stablehlo.constant dense_resource<__elided__> : tensor<4096x4096xf16>
    %165 = stablehlo.constant dense_resource<__elided__> : tensor<4096x1x256xf32>
    %166 = stablehlo.constant dense_resource<__elided__> : tensor<4096x4096xf16>
    %167 = stablehlo.constant dense_resource<__elided__> : tensor<4096xf16>
    %168 = stablehlo.constant dense_resource<__elided__> : tensor<4096x11008xf16>
    %169 = stablehlo.constant dense_resource<__elided__> : tensor<4096x11008xf16>
    %170 = stablehlo.constant dense_resource<__elided__> : tensor<11008x4096xf16>
    %171 = stablehlo.constant dense_resource<__elided__> : tensor<4096xf16>
    %172 = stablehlo.constant dense_resource<__elided__> : tensor<4096x4096xf16>
    %173 = stablehlo.constant dense_resource<__elided__> : tensor<4096x4096xf16>
    %174 = stablehlo.constant dense_resource<__elided__> : tensor<4096x4096xf16>
    %175 = stablehlo.constant dense_resource<__elided__> : tensor<4096x1x256xf32>
    %176 = stablehlo.constant dense_resource<__elided__> : tensor<4096x4096xf16>
    %177 = stablehlo.constant dense_resource<__elided__> : tensor<4096xf16>
    %178 = stablehlo.constant dense_resource<__elided__> : tensor<4096x11008xf16>
    %179 = stablehlo.constant dense_resource<__elided__> : tensor<4096x11008xf16>
    %180 = stablehlo.constant dense_resource<__elided__> : tensor<11008x4096xf16>
    %181 = stablehlo.constant dense_resource<__elided__> : tensor<4096xf16>
    %182 = stablehlo.constant dense_resource<__elided__> : tensor<4096x4096xf16>
    %183 = stablehlo.constant dense_resource<__elided__> : tensor<4096x4096xf16>
    %184 = stablehlo.constant dense_resource<__elided__> : tensor<4096x4096xf16>
    %185 = stablehlo.constant dense_resource<__elided__> : tensor<4096x1x256xf32>
    %186 = stablehlo.constant dense_resource<__elided__> : tensor<4096x4096xf16>
    %187 = stablehlo.constant dense_resource<__elided__> : tensor<4096xf16>
    %188 = stablehlo.constant dense_resource<__elided__> : tensor<4096x11008xf16>
    %189 = stablehlo.constant dense_resource<__elided__> : tensor<4096x11008xf16>
    %190 = stablehlo.constant dense_resource<__elided__> : tensor<11008x4096xf16>
    %191 = stablehlo.constant dense_resource<__elided__> : tensor<4096xf16>
    %192 = stablehlo.constant dense_resource<__elided__> : tensor<4096x4096xf16>
    %193 = stablehlo.constant dense_resource<__elided__> : tensor<4096x4096xf16>
    %194 = stablehlo.constant dense_resource<__elided__> : tensor<4096x4096xf16>
    %195 = stablehlo.constant dense_resource<__elided__> : tensor<4096x1x256xf32>
    %196 = stablehlo.constant dense_resource<__elided__> : tensor<4096x4096xf16>
    %197 = stablehlo.constant dense_resource<__elided__> : tensor<4096xf16>
    %198 = stablehlo.constant dense_resource<__elided__> : tensor<4096x11008xf16>
    %199 = stablehlo.constant dense_resource<__elided__> : tensor<4096x11008xf16>
    %200 = stablehlo.constant dense_resource<__elided__> : tensor<11008x4096xf16>
    %201 = stablehlo.constant dense_resource<__elided__> : tensor<4096xf16>
    %202 = stablehlo.constant dense_resource<__elided__> : tensor<4096x4096xf16>
    %203 = stablehlo.constant dense_resource<__elided__> : tensor<4096x4096xf16>
    %204 = stablehlo.constant dense_resource<__elided__> : tensor<4096x4096xf16>
    %205 = stablehlo.constant dense_resource<__elided__> : tensor<4096x1x256xf32>
    %206 = stablehlo.constant dense_resource<__elided__> : tensor<4096x4096xf16>
    %207 = stablehlo.constant dense_resource<__elided__> : tensor<4096xf16>
    %208 = stablehlo.constant dense_resource<__elided__> : tensor<4096x11008xf16>
    %209 = stablehlo.constant dense_resource<__elided__> : tensor<4096x11008xf16>
    %210 = stablehlo.constant dense_resource<__elided__> : tensor<11008x4096xf16>
    %211 = stablehlo.constant dense_resource<__elided__> : tensor<4096xf16>
    %212 = stablehlo.constant dense_resource<__elided__> : tensor<4096x4096xf16>
    %213 = stablehlo.constant dense_resource<__elided__> : tensor<4096x4096xf16>
    %214 = stablehlo.constant dense_resource<__elided__> : tensor<4096x4096xf16>
    %215 = stablehlo.constant dense_resource<__elided__> : tensor<4096x1x256xf32>
    %216 = stablehlo.constant dense_resource<__elided__> : tensor<4096x4096xf16>
    %217 = stablehlo.constant dense_resource<__elided__> : tensor<4096xf16>
    %218 = stablehlo.constant dense_resource<__elided__> : tensor<4096x11008xf16>
    %219 = stablehlo.constant dense_resource<__elided__> : tensor<4096x11008xf16>
    %220 = stablehlo.constant dense_resource<__elided__> : tensor<11008x4096xf16>
    %221 = stablehlo.constant dense_resource<__elided__> : tensor<4096xf16>
    %222 = stablehlo.constant dense_resource<__elided__> : tensor<4096x4096xf16>
    %223 = stablehlo.constant dense_resource<__elided__> : tensor<4096x4096xf16>
    %224 = stablehlo.constant dense_resource<__elided__> : tensor<4096x4096xf16>
    %225 = stablehlo.constant dense_resource<__elided__> : tensor<4096x1x256xf32>
    %226 = stablehlo.constant dense_resource<__elided__> : tensor<4096x4096xf16>
    %227 = stablehlo.constant dense_resource<__elided__> : tensor<4096xf16>
    %228 = stablehlo.constant dense_resource<__elided__> : tensor<4096x11008xf16>
    %229 = stablehlo.constant dense_resource<__elided__> : tensor<4096x11008xf16>
    %230 = stablehlo.constant dense_resource<__elided__> : tensor<11008x4096xf16>
    %231 = stablehlo.constant dense_resource<__elided__> : tensor<4096xf16>
    %232 = stablehlo.constant dense_resource<__elided__> : tensor<4096x4096xf16>
    %233 = stablehlo.constant dense_resource<__elided__> : tensor<4096x4096xf16>
    %234 = stablehlo.constant dense_resource<__elided__> : tensor<4096x4096xf16>
    %235 = stablehlo.constant dense_resource<__elided__> : tensor<4096x1x256xf32>
    %236 = stablehlo.constant dense_resource<__elided__> : tensor<4096x4096xf16>
    %237 = stablehlo.constant dense_resource<__elided__> : tensor<4096xf16>
    %238 = stablehlo.constant dense_resource<__elided__> : tensor<4096x11008xf16>
    %239 = stablehlo.constant dense_resource<__elided__> : tensor<4096x11008xf16>
    %240 = stablehlo.constant dense_resource<__elided__> : tensor<11008x4096xf16>
    %241 = stablehlo.constant dense_resource<__elided__> : tensor<4096xf16>
    %242 = stablehlo.constant dense_resource<__elided__> : tensor<4096x4096xf16>
    %243 = stablehlo.constant dense_resource<__elided__> : tensor<4096x4096xf16>
    %244 = stablehlo.constant dense_resource<__elided__> : tensor<4096x4096xf16>
    %245 = stablehlo.constant dense_resource<__elided__> : tensor<4096x1x256xf32>
    %246 = stablehlo.constant dense_resource<__elided__> : tensor<4096x4096xf16>
    %247 = stablehlo.constant dense_resource<__elided__> : tensor<4096xf16>
    %248 = stablehlo.constant dense_resource<__elided__> : tensor<4096x11008xf16>
    %249 = stablehlo.constant dense_resource<__elided__> : tensor<4096x11008xf16>
    %250 = stablehlo.constant dense_resource<__elided__> : tensor<11008x4096xf16>
    %251 = stablehlo.constant dense_resource<__elided__> : tensor<4096xf16>
    %252 = stablehlo.constant dense_resource<__elided__> : tensor<4096x4096xf16>
    %253 = stablehlo.constant dense_resource<__elided__> : tensor<4096x4096xf16>
    %254 = stablehlo.constant dense_resource<__elided__> : tensor<4096x4096xf16>
    %255 = stablehlo.constant dense_resource<__elided__> : tensor<4096x1x256xf32>
    %256 = stablehlo.constant dense_resource<__elided__> : tensor<4096x4096xf16>
    %257 = stablehlo.constant dense_resource<__elided__> : tensor<4096xf16>
    %258 = stablehlo.constant dense_resource<__elided__> : tensor<4096x11008xf16>
    %259 = stablehlo.constant dense_resource<__elided__> : tensor<4096x11008xf16>
    %260 = stablehlo.constant dense_resource<__elided__> : tensor<11008x4096xf16>
    %261 = stablehlo.constant dense_resource<__elided__> : tensor<4096xf16>
    %262 = stablehlo.constant dense_resource<__elided__> : tensor<4096x4096xf16>
    %263 = stablehlo.constant dense_resource<__elided__> : tensor<4096x4096xf16>
    %264 = stablehlo.constant dense_resource<__elided__> : tensor<4096x4096xf16>
    %265 = stablehlo.constant dense_resource<__elided__> : tensor<4096x1x256xf32>
    %266 = stablehlo.constant dense_resource<__elided__> : tensor<4096x4096xf16>
    %267 = stablehlo.constant dense_resource<__elided__> : tensor<4096xf16>
    %268 = stablehlo.constant dense_resource<__elided__> : tensor<4096x11008xf16>
    %269 = stablehlo.constant dense_resource<__elided__> : tensor<4096x11008xf16>
    %270 = stablehlo.constant dense_resource<__elided__> : tensor<11008x4096xf16>
    %271 = stablehlo.constant dense_resource<__elided__> : tensor<4096xf16>
    %272 = stablehlo.constant dense_resource<__elided__> : tensor<4096x4096xf16>
    %273 = stablehlo.constant dense_resource<__elided__> : tensor<4096x4096xf16>
    %274 = stablehlo.constant dense_resource<__elided__> : tensor<4096x4096xf16>
    %275 = stablehlo.constant dense_resource<__elided__> : tensor<4096x1x256xf32>
    %276 = stablehlo.constant dense_resource<__elided__> : tensor<4096x4096xf16>
    %277 = stablehlo.constant dense_resource<__elided__> : tensor<4096xf16>
    %278 = stablehlo.constant dense_resource<__elided__> : tensor<4096x11008xf16>
    %279 = stablehlo.constant dense_resource<__elided__> : tensor<4096x11008xf16>
    %280 = stablehlo.constant dense_resource<__elided__> : tensor<11008x4096xf16>
    %281 = stablehlo.constant dense_resource<__elided__> : tensor<4096xf16>
    %282 = stablehlo.constant dense_resource<__elided__> : tensor<4096x4096xf16>
    %283 = stablehlo.constant dense_resource<__elided__> : tensor<4096x4096xf16>
    %284 = stablehlo.constant dense_resource<__elided__> : tensor<4096x4096xf16>
    %285 = stablehlo.constant dense_resource<__elided__> : tensor<4096x1x256xf32>
    %286 = stablehlo.constant dense_resource<__elided__> : tensor<4096x4096xf16>
    %287 = stablehlo.constant dense_resource<__elided__> : tensor<4096xf16>
    %288 = stablehlo.constant dense_resource<__elided__> : tensor<4096x11008xf16>
    %289 = stablehlo.constant dense_resource<__elided__> : tensor<4096x11008xf16>
    %290 = stablehlo.constant dense_resource<__elided__> : tensor<11008x4096xf16>
    %291 = stablehlo.constant dense_resource<__elided__> : tensor<4096xf16>
    %292 = stablehlo.constant dense_resource<__elided__> : tensor<4096x4096xf16>
    %293 = stablehlo.constant dense_resource<__elided__> : tensor<4096x4096xf16>
    %294 = stablehlo.constant dense_resource<__elided__> : tensor<4096x4096xf16>
    %295 = stablehlo.constant dense_resource<__elided__> : tensor<4096x1x256xf32>
    %296 = stablehlo.constant dense_resource<__elided__> : tensor<4096x4096xf16>
    %297 = stablehlo.constant dense_resource<__elided__> : tensor<4096xf16>
    %298 = stablehlo.constant dense_resource<__elided__> : tensor<4096x11008xf16>
    %299 = stablehlo.constant dense_resource<__elided__> : tensor<4096x11008xf16>
    %300 = stablehlo.constant dense_resource<__elided__> : tensor<11008x4096xf16>
    %301 = stablehlo.constant dense_resource<__elided__> : tensor<4096xf16>
    %302 = stablehlo.constant dense_resource<__elided__> : tensor<4096x4096xf16>
    %303 = stablehlo.constant dense_resource<__elided__> : tensor<4096x4096xf16>
    %304 = stablehlo.constant dense_resource<__elided__> : tensor<4096x4096xf16>
    %305 = stablehlo.constant dense_resource<__elided__> : tensor<4096x1x256xf32>
    %306 = stablehlo.constant dense_resource<__elided__> : tensor<4096x4096xf16>
    %307 = stablehlo.constant dense_resource<__elided__> : tensor<4096xf16>
    %308 = stablehlo.constant dense_resource<__elided__> : tensor<4096x11008xf16>
    %309 = stablehlo.constant dense_resource<__elided__> : tensor<4096x11008xf16>
    %310 = stablehlo.constant dense_resource<__elided__> : tensor<11008x4096xf16>
    %311 = stablehlo.constant dense_resource<__elided__> : tensor<4096xf16>
    %312 = stablehlo.constant dense_resource<__elided__> : tensor<4096x4096xf16>
    %313 = stablehlo.constant dense_resource<__elided__> : tensor<4096x4096xf16>
    %314 = stablehlo.constant dense_resource<__elided__> : tensor<4096x4096xf16>
    %315 = stablehlo.constant dense_resource<__elided__> : tensor<4096x1x256xf32>
    %316 = stablehlo.constant dense_resource<__elided__> : tensor<4096x4096xf16>
    %317 = stablehlo.constant dense_resource<__elided__> : tensor<4096xf16>
    %318 = stablehlo.constant dense_resource<__elided__> : tensor<4096x11008xf16>
    %319 = stablehlo.constant dense_resource<__elided__> : tensor<4096x11008xf16>
    %320 = stablehlo.constant dense_resource<__elided__> : tensor<11008x4096xf16>
    %321 = stablehlo.constant dense_resource<__elided__> : tensor<4096xf16>
    %322 = stablehlo.constant dense_resource<__elided__> : tensor<4096x32000xf16>
    %323 = stablehlo.iota dim = 0 : tensor<27xi32>
    %324 = stablehlo.broadcast_in_dim %323, dims = [1] : (tensor<27xi32>) -> tensor<1x27xi32>
    %325 = stablehlo.constant dense<1.000000e+00> : tensor<f32>
    %326 = stablehlo.broadcast_in_dim %325, dims = [] : (tensor<f32>) -> tensor<1x27xf32>
    %327 = stablehlo.convert %arg0 : (tensor<1x27xf32>) -> tensor<1x27xi32>
    %328 = stablehlo.convert %326 : (tensor<1x27xf32>) -> tensor<1x27xi32>
    %329 = stablehlo.convert %0 : (tensor<32000x4096xf16>) -> tensor<32000x4096xf32>
    %330 = call @_take(%329, %327) : (tensor<32000x4096xf32>, tensor<1x27xi32>) -> tensor<1x27x4096xf32>
    %331 = stablehlo.multiply %330, %330 : tensor<1x27x4096xf32>
    %332 = stablehlo.constant dense<0.000000e+00> : tensor<f32>
    %333 = stablehlo.reduce(%331 init: %332) applies stablehlo.add across dimensions = [2] : (tensor<1x27x4096xf32>, tensor<f32>) -> tensor<1x27xf32>
    %334 = stablehlo.broadcast_in_dim %333, dims = [0, 1] : (tensor<1x27xf32>) -> tensor<1x27x1xf32>
    %335 = stablehlo.constant dense<4.096000e+03> : tensor<f32>
    %336 = stablehlo.broadcast_in_dim %335, dims = [] : (tensor<f32>) -> tensor<1x27x1xf32>
    %337 = stablehlo.divide %334, %336 : tensor<1x27x1xf32>
    %338 = stablehlo.constant dense<9.99999974E-6> : tensor<f32>
    %339 = stablehlo.broadcast_in_dim %338, dims = [] : (tensor<f32>) -> tensor<1x27x1xf32>
    %340 = stablehlo.add %337, %339 : tensor<1x27x1xf32>
    %341 = stablehlo.sqrt %340 : tensor<1x27x1xf32>
    %342 = stablehlo.broadcast_in_dim %341, dims = [0, 1, 2] : (tensor<1x27x1xf32>) -> tensor<1x27x4096xf32>
    %343 = stablehlo.divide %330, %342 : tensor<1x27x4096xf32>
    %344 = stablehlo.convert %1 : (tensor<4096xf16>) -> tensor<4096xf32>
    %345 = stablehlo.broadcast_in_dim %344, dims = [2] : (tensor<4096xf32>) -> tensor<1x1x4096xf32>
    %346 = stablehlo.broadcast_in_dim %345, dims = [0, 1, 2] : (tensor<1x1x4096xf32>) -> tensor<1x27x4096xf32>
    %347 = stablehlo.multiply %346, %343 : tensor<1x27x4096xf32>
    %348 = stablehlo.iota dim = 0 : tensor<4096xi32>
    %349 = stablehlo.broadcast_in_dim %348, dims = [1] : (tensor<4096xi32>) -> tensor<1x4096xi32>
    %350 = stablehlo.broadcast_in_dim %349, dims = [0, 1] : (tensor<1x4096xi32>) -> tensor<1x4096x1xi32>
    %351 = stablehlo.broadcast_in_dim %349, dims = [0, 2] : (tensor<1x4096xi32>) -> tensor<1x1x4096xi32>
    %352 = stablehlo.broadcast_in_dim %350, dims = [0, 1, 2] : (tensor<1x4096x1xi32>) -> tensor<1x4096x4096xi32>
    %353 = stablehlo.broadcast_in_dim %351, dims = [0, 1, 2] : (tensor<1x1x4096xi32>) -> tensor<1x4096x4096xi32>
    %354 = stablehlo.compare  GE, %352, %353,  SIGNED : (tensor<1x4096x4096xi32>, tensor<1x4096x4096xi32>) -> tensor<1x4096x4096xi1>
    %355 = stablehlo.broadcast_in_dim %354, dims = [0, 2, 3] : (tensor<1x4096x4096xi1>) -> tensor<1x1x4096x4096xi1>
    %356 = stablehlo.convert %2 : (tensor<4096x4096xf16>) -> tensor<4096x4096xf32>
    %357 = stablehlo.dot_general %347, %356, contracting_dims = [2] x [0] : (tensor<1x27x4096xf32>, tensor<4096x4096xf32>) -> tensor<1x27x4096xf32>
    %358 = stablehlo.convert %3 : (tensor<4096x4096xf16>) -> tensor<4096x4096xf32>
    %359 = stablehlo.dot_general %347, %358, contracting_dims = [2] x [0] : (tensor<1x27x4096xf32>, tensor<4096x4096xf32>) -> tensor<1x27x4096xf32>
    %360 = stablehlo.convert %4 : (tensor<4096x4096xf16>) -> tensor<4096x4096xf32>
    %361 = stablehlo.dot_general %347, %360, contracting_dims = [2] x [0] : (tensor<1x27x4096xf32>, tensor<4096x4096xf32>) -> tensor<1x27x4096xf32>
    %362 = stablehlo.reshape %357 : (tensor<1x27x4096xf32>) -> tensor<1x27x32x128xf32>
    %363 = stablehlo.reshape %359 : (tensor<1x27x4096xf32>) -> tensor<1x27x32x128xf32>
    %364 = stablehlo.reshape %361 : (tensor<1x27x4096xf32>) -> tensor<1x27x32x128xf32>
    %365 = stablehlo.constant dense<0> : tensor<i32>
    %366 = stablehlo.broadcast_in_dim %365, dims = [] : (tensor<i32>) -> tensor<1x27xi32>
    %367 = stablehlo.compare  LT, %324, %366,  SIGNED : (tensor<1x27xi32>, tensor<1x27xi32>) -> tensor<1x27xi1>
    %368 = stablehlo.constant dense<4096> : tensor<i32>
    %369 = stablehlo.broadcast_in_dim %368, dims = [] : (tensor<i32>) -> tensor<1x27xi32>
    %370 = stablehlo.add %324, %369 : tensor<1x27xi32>
    %371 = stablehlo.select %367, %370, %324 : tensor<1x27xi1>, tensor<1x27xi32>
    %372 = stablehlo.broadcast_in_dim %371, dims = [0, 1] : (tensor<1x27xi32>) -> tensor<1x27x1xi32>
    %373 = "stablehlo.gather"(%5, %372) {dimension_numbers = #stablehlo.gather<offset_dims = [2, 3], collapsed_slice_dims = [0], start_index_map = [0], index_vector_dim = 2>, slice_sizes = array<i64: 1, 1, 256>} : (tensor<4096x1x256xf32>, tensor<1x27x1xi32>) -> tensor<1x27x1x256xf32>
    %374 = stablehlo.slice %373 [0:1, 0:27, 0:1, 0:128] : (tensor<1x27x1x256xf32>) -> tensor<1x27x1x128xf32>
    %375 = stablehlo.slice %373 [0:1, 0:27, 0:1, 128:256] : (tensor<1x27x1x256xf32>) -> tensor<1x27x1x128xf32>
    %376 = stablehlo.broadcast_in_dim %375, dims = [0, 1, 2, 3] : (tensor<1x27x1x128xf32>) -> tensor<1x27x32x128xf32>
    %377 = stablehlo.multiply %363, %376 : tensor<1x27x32x128xf32>
    %378 = stablehlo.constant dense<64> : tensor<i32>
    %379 = stablehlo.broadcast_in_dim %378, dims = [] : (tensor<i32>) -> tensor<1xi32>
    %380 = "stablehlo.gather"(%363, %379) {dimension_numbers = #stablehlo.gather<offset_dims = [0, 1, 2, 3], start_index_map = [3]>, indices_are_sorted = true, slice_sizes = array<i64: 1, 27, 32, 64>} : (tensor<1x27x32x128xf32>, tensor<1xi32>) -> tensor<1x27x32x64xf32>
    %381 = stablehlo.negate %380 : tensor<1x27x32x64xf32>
    %382 = stablehlo.constant dense<0> : tensor<i32>
    %383 = stablehlo.broadcast_in_dim %382, dims = [] : (tensor<i32>) -> tensor<1xi32>
    %384 = "stablehlo.gather"(%363, %383) {dimension_numbers = #stablehlo.gather<offset_dims = [0, 1, 2, 3], start_index_map = [3]>, indices_are_sorted = true, slice_sizes = array<i64: 1, 27, 32, 64>} : (tensor<1x27x32x128xf32>, tensor<1xi32>) -> tensor<1x27x32x64xf32>
    %385 = stablehlo.concatenate %381, %384, dim = 3 : (tensor<1x27x32x64xf32>, tensor<1x27x32x64xf32>) -> tensor<1x27x32x128xf32>
    %386 = stablehlo.broadcast_in_dim %374, dims = [0, 1, 2, 3] : (tensor<1x27x1x128xf32>) -> tensor<1x27x32x128xf32>
    %387 = stablehlo.multiply %385, %386 : tensor<1x27x32x128xf32>
    %388 = stablehlo.add %377, %387 : tensor<1x27x32x128xf32>
    %389 = stablehlo.broadcast_in_dim %375, dims = [0, 1, 2, 3] : (tensor<1x27x1x128xf32>) -> tensor<1x27x32x128xf32>
    %390 = stablehlo.multiply %362, %389 : tensor<1x27x32x128xf32>
    %391 = stablehlo.constant dense<64> : tensor<i32>
    %392 = stablehlo.broadcast_in_dim %391, dims = [] : (tensor<i32>) -> tensor<1xi32>
    %393 = "stablehlo.gather"(%362, %392) {dimension_numbers = #stablehlo.gather<offset_dims = [0, 1, 2, 3], start_index_map = [3]>, indices_are_sorted = true, slice_sizes = array<i64: 1, 27, 32, 64>} : (tensor<1x27x32x128xf32>, tensor<1xi32>) -> tensor<1x27x32x64xf32>
    %394 = stablehlo.negate %393 : tensor<1x27x32x64xf32>
    %395 = stablehlo.constant dense<0> : tensor<i32>
    %396 = stablehlo.broadcast_in_dim %395, dims = [] : (tensor<i32>) -> tensor<1xi32>
    %397 = "stablehlo.gather"(%362, %396) {dimension_numbers = #stablehlo.gather<offset_dims = [0, 1, 2, 3], start_index_map = [3]>, indices_are_sorted = true, slice_sizes = array<i64: 1, 27, 32, 64>} : (tensor<1x27x32x128xf32>, tensor<1xi32>) -> tensor<1x27x32x64xf32>
    %398 = stablehlo.concatenate %394, %397, dim = 3 : (tensor<1x27x32x64xf32>, tensor<1x27x32x64xf32>) -> tensor<1x27x32x128xf32>
    %399 = stablehlo.broadcast_in_dim %374, dims = [0, 1, 2, 3] : (tensor<1x27x1x128xf32>) -> tensor<1x27x32x128xf32>
    %400 = stablehlo.multiply %398, %399 : tensor<1x27x32x128xf32>
    %401 = stablehlo.add %390, %400 : tensor<1x27x32x128xf32>
    %402 = stablehlo.slice %355 [0:1, 0:1, 0:27, 0:27] : (tensor<1x1x4096x4096xi1>) -> tensor<1x1x27x27xi1>
    %403 = stablehlo.broadcast_in_dim %328, dims = [0, 3] : (tensor<1x27xi32>) -> tensor<1x1x1x27xi32>
    %404 = stablehlo.reshape %403 : (tensor<1x1x1x27xi32>) -> tensor<1x1x27xi32>
    %405 = stablehlo.broadcast_in_dim %404, dims = [0, 1, 3] : (tensor<1x1x27xi32>) -> tensor<1x1x27x27xi32>
    %406 = stablehlo.constant dense<0> : tensor<i32>
    %407 = stablehlo.broadcast_in_dim %406, dims = [] : (tensor<i32>) -> tensor<1x1x27x27xi32>
    %408 = stablehlo.compare  NE, %405, %407,  SIGNED : (tensor<1x1x27x27xi32>, tensor<1x1x27x27xi32>) -> tensor<1x1x27x27xi1>
    %409 = stablehlo.and %408, %402 : tensor<1x1x27x27xi1>
    %410 = stablehlo.convert %409 : (tensor<1x1x27x27xi1>) -> tensor<1x1x27x27xf32>
    %411 = stablehlo.constant dense<0.000000e+00> : tensor<f32>
    %412 = stablehlo.broadcast_in_dim %411, dims = [] : (tensor<f32>) -> tensor<1x1x27x27xf32>
    %413 = stablehlo.compare  GT, %410, %412,  FLOAT : (tensor<1x1x27x27xf32>, tensor<1x1x27x27xf32>) -> tensor<1x1x27x27xi1>
    %414 = stablehlo.constant dense<0.000000e+00> : tensor<f32>
    %415 = stablehlo.broadcast_in_dim %414, dims = [] : (tensor<f32>) -> tensor<1x1x27x27xf32>
    %416 = stablehlo.convert %415 : tensor<1x1x27x27xf32>
    %417 = stablehlo.constant dense<-3.40282347E+38> : tensor<f32>
    %418 = stablehlo.broadcast_in_dim %417, dims = [] : (tensor<f32>) -> tensor<1x1x27x27xf32>
    %419 = stablehlo.select %413, %416, %418 : tensor<1x1x27x27xi1>, tensor<1x1x27x27xf32>
    %420 = stablehlo.constant dense<1.280000e+02> : tensor<f32>
    %421 = stablehlo.sqrt %420 : tensor<f32>
    %422 = stablehlo.convert %421 : tensor<f32>
    %423 = stablehlo.broadcast_in_dim %422, dims = [] : (tensor<f32>) -> tensor<1x27x32x128xf32>
    %424 = stablehlo.divide %401, %423 : tensor<1x27x32x128xf32>
    %425 = stablehlo.dot_general %424, %388, batching_dims = [0, 2] x [0, 2], contracting_dims = [3] x [3] : (tensor<1x27x32x128xf32>, tensor<1x27x32x128xf32>) -> tensor<1x32x27x27xf32>
    %426 = stablehlo.broadcast_in_dim %419, dims = [0, 1, 2, 3] : (tensor<1x1x27x27xf32>) -> tensor<1x32x27x27xf32>
    %427 = stablehlo.add %425, %426 : tensor<1x32x27x27xf32>
    %428 = stablehlo.constant dense<0xFF800000> : tensor<f32>
    %429 = stablehlo.reduce(%427 init: %428) applies stablehlo.maximum across dimensions = [3] : (tensor<1x32x27x27xf32>, tensor<f32>) -> tensor<1x32x27xf32>
    %430 = stablehlo.broadcast_in_dim %429, dims = [0, 1, 2] : (tensor<1x32x27xf32>) -> tensor<1x32x27x1xf32>
    %431 = stablehlo.broadcast_in_dim %430, dims = [0, 1, 2, 3] : (tensor<1x32x27x1xf32>) -> tensor<1x32x27x27xf32>
    %432 = stablehlo.subtract %427, %431 : tensor<1x32x27x27xf32>
    %433 = stablehlo.exponential %432 : tensor<1x32x27x27xf32>
    %434 = stablehlo.constant dense<0.000000e+00> : tensor<f32>
    %435 = stablehlo.reduce(%433 init: %434) applies stablehlo.add across dimensions = [3] : (tensor<1x32x27x27xf32>, tensor<f32>) -> tensor<1x32x27xf32>
    %436 = stablehlo.broadcast_in_dim %435, dims = [0, 1, 2] : (tensor<1x32x27xf32>) -> tensor<1x32x27x1xf32>
    %437 = stablehlo.broadcast_in_dim %436, dims = [0, 1, 2, 3] : (tensor<1x32x27x1xf32>) -> tensor<1x32x27x27xf32>
    %438 = stablehlo.divide %433, %437 : tensor<1x32x27x27xf32>
    %439 = stablehlo.dot_general %364, %438, batching_dims = [0, 2] x [0, 1], contracting_dims = [1] x [3] : (tensor<1x27x32x128xf32>, tensor<1x32x27x27xf32>) -> tensor<1x32x128x27xf32>
    %440 = stablehlo.transpose %439, dims = [0, 3, 1, 2] : (tensor<1x32x128x27xf32>) -> tensor<1x27x32x128xf32>
    %441 = stablehlo.reshape %440 : (tensor<1x27x32x128xf32>) -> tensor<1x27x4096xf32>
    %442 = stablehlo.convert %6 : (tensor<4096x4096xf16>) -> tensor<4096x4096xf32>
    %443 = stablehlo.dot_general %441, %442, contracting_dims = [2] x [0] : (tensor<1x27x4096xf32>, tensor<4096x4096xf32>) -> tensor<1x27x4096xf32>
    %444 = stablehlo.add %330, %443 : tensor<1x27x4096xf32>
    %445 = stablehlo.multiply %444, %444 : tensor<1x27x4096xf32>
    %446 = stablehlo.constant dense<0.000000e+00> : tensor<f32>
    %447 = stablehlo.reduce(%445 init: %446) applies stablehlo.add across dimensions = [2] : (tensor<1x27x4096xf32>, tensor<f32>) -> tensor<1x27xf32>
    %448 = stablehlo.broadcast_in_dim %447, dims = [0, 1] : (tensor<1x27xf32>) -> tensor<1x27x1xf32>
    %449 = stablehlo.constant dense<4.096000e+03> : tensor<f32>
    %450 = stablehlo.broadcast_in_dim %449, dims = [] : (tensor<f32>) -> tensor<1x27x1xf32>
    %451 = stablehlo.divide %448, %450 : tensor<1x27x1xf32>
    %452 = stablehlo.constant dense<9.99999974E-6> : tensor<f32>
    %453 = stablehlo.broadcast_in_dim %452, dims = [] : (tensor<f32>) -> tensor<1x27x1xf32>
    %454 = stablehlo.add %451, %453 : tensor<1x27x1xf32>
    %455 = stablehlo.sqrt %454 : tensor<1x27x1xf32>
    %456 = stablehlo.broadcast_in_dim %455, dims = [0, 1, 2] : (tensor<1x27x1xf32>) -> tensor<1x27x4096xf32>
    %457 = stablehlo.divide %444, %456 : tensor<1x27x4096xf32>
    %458 = stablehlo.convert %7 : (tensor<4096xf16>) -> tensor<4096xf32>
    %459 = stablehlo.broadcast_in_dim %458, dims = [2] : (tensor<4096xf32>) -> tensor<1x1x4096xf32>
    %460 = stablehlo.broadcast_in_dim %459, dims = [0, 1, 2] : (tensor<1x1x4096xf32>) -> tensor<1x27x4096xf32>
    %461 = stablehlo.multiply %460, %457 : tensor<1x27x4096xf32>
    %462 = stablehlo.convert %8 : (tensor<4096x11008xf16>) -> tensor<4096x11008xf32>
    %463 = stablehlo.dot_general %461, %462, contracting_dims = [2] x [0] : (tensor<1x27x4096xf32>, tensor<4096x11008xf32>) -> tensor<1x27x11008xf32>
    %464 = stablehlo.convert %9 : (tensor<4096x11008xf16>) -> tensor<4096x11008xf32>
    %465 = stablehlo.dot_general %461, %464, contracting_dims = [2] x [0] : (tensor<1x27x4096xf32>, tensor<4096x11008xf32>) -> tensor<1x27x11008xf32>
    %466 = call @silu(%465) : (tensor<1x27x11008xf32>) -> tensor<1x27x11008xf32>
    %467 = stablehlo.multiply %463, %466 : tensor<1x27x11008xf32>
    %468 = stablehlo.convert %10 : (tensor<11008x4096xf16>) -> tensor<11008x4096xf32>
    %469 = stablehlo.dot_general %467, %468, contracting_dims = [2] x [0] : (tensor<1x27x11008xf32>, tensor<11008x4096xf32>) -> tensor<1x27x4096xf32>
    %470 = stablehlo.add %444, %469 : tensor<1x27x4096xf32>
    %471 = stablehlo.multiply %470, %470 : tensor<1x27x4096xf32>
    %472 = stablehlo.constant dense<0.000000e+00> : tensor<f32>
    %473 = stablehlo.reduce(%471 init: %472) applies stablehlo.add across dimensions = [2] : (tensor<1x27x4096xf32>, tensor<f32>) -> tensor<1x27xf32>
    %474 = stablehlo.broadcast_in_dim %473, dims = [0, 1] : (tensor<1x27xf32>) -> tensor<1x27x1xf32>
    %475 = stablehlo.constant dense<4.096000e+03> : tensor<f32>
    %476 = stablehlo.broadcast_in_dim %475, dims = [] : (tensor<f32>) -> tensor<1x27x1xf32>
    %477 = stablehlo.divide %474, %476 : tensor<1x27x1xf32>
    %478 = stablehlo.constant dense<9.99999974E-6> : tensor<f32>
    %479 = stablehlo.broadcast_in_dim %478, dims = [] : (tensor<f32>) -> tensor<1x27x1xf32>
    %480 = stablehlo.add %477, %479 : tensor<1x27x1xf32>
    %481 = stablehlo.sqrt %480 : tensor<1x27x1xf32>
    %482 = stablehlo.broadcast_in_dim %481, dims = [0, 1, 2] : (tensor<1x27x1xf32>) -> tensor<1x27x4096xf32>
    %483 = stablehlo.divide %470, %482 : tensor<1x27x4096xf32>
    %484 = stablehlo.convert %11 : (tensor<4096xf16>) -> tensor<4096xf32>
    %485 = stablehlo.broadcast_in_dim %484, dims = [2] : (tensor<4096xf32>) -> tensor<1x1x4096xf32>
    %486 = stablehlo.broadcast_in_dim %485, dims = [0, 1, 2] : (tensor<1x1x4096xf32>) -> tensor<1x27x4096xf32>
    %487 = stablehlo.multiply %486, %483 : tensor<1x27x4096xf32>
    %488 = stablehlo.iota dim = 0 : tensor<4096xi32>
    %489 = stablehlo.broadcast_in_dim %488, dims = [1] : (tensor<4096xi32>) -> tensor<1x4096xi32>
    %490 = stablehlo.broadcast_in_dim %489, dims = [0, 1] : (tensor<1x4096xi32>) -> tensor<1x4096x1xi32>
    %491 = stablehlo.broadcast_in_dim %489, dims = [0, 2] : (tensor<1x4096xi32>) -> tensor<1x1x4096xi32>
    %492 = stablehlo.broadcast_in_dim %490, dims = [0, 1, 2] : (tensor<1x4096x1xi32>) -> tensor<1x4096x4096xi32>
    %493 = stablehlo.broadcast_in_dim %491, dims = [0, 1, 2] : (tensor<1x1x4096xi32>) -> tensor<1x4096x4096xi32>
    %494 = stablehlo.compare  GE, %492, %493,  SIGNED : (tensor<1x4096x4096xi32>, tensor<1x4096x4096xi32>) -> tensor<1x4096x4096xi1>
    %495 = stablehlo.broadcast_in_dim %494, dims = [0, 2, 3] : (tensor<1x4096x4096xi1>) -> tensor<1x1x4096x4096xi1>
    %496 = stablehlo.convert %12 : (tensor<4096x4096xf16>) -> tensor<4096x4096xf32>
    %497 = stablehlo.dot_general %487, %496, contracting_dims = [2] x [0] : (tensor<1x27x4096xf32>, tensor<4096x4096xf32>) -> tensor<1x27x4096xf32>
    %498 = stablehlo.convert %13 : (tensor<4096x4096xf16>) -> tensor<4096x4096xf32>
    %499 = stablehlo.dot_general %487, %498, contracting_dims = [2] x [0] : (tensor<1x27x4096xf32>, tensor<4096x4096xf32>) -> tensor<1x27x4096xf32>
    %500 = stablehlo.convert %14 : (tensor<4096x4096xf16>) -> tensor<4096x4096xf32>
    %501 = stablehlo.dot_general %487, %500, contracting_dims = [2] x [0] : (tensor<1x27x4096xf32>, tensor<4096x4096xf32>) -> tensor<1x27x4096xf32>
    %502 = stablehlo.reshape %497 : (tensor<1x27x4096xf32>) -> tensor<1x27x32x128xf32>
    %503 = stablehlo.reshape %499 : (tensor<1x27x4096xf32>) -> tensor<1x27x32x128xf32>
    %504 = stablehlo.reshape %501 : (tensor<1x27x4096xf32>) -> tensor<1x27x32x128xf32>
    %505 = stablehlo.constant dense<0> : tensor<i32>
    %506 = stablehlo.broadcast_in_dim %505, dims = [] : (tensor<i32>) -> tensor<1x27xi32>
    %507 = stablehlo.compare  LT, %324, %506,  SIGNED : (tensor<1x27xi32>, tensor<1x27xi32>) -> tensor<1x27xi1>
    %508 = stablehlo.constant dense<4096> : tensor<i32>
    %509 = stablehlo.broadcast_in_dim %508, dims = [] : (tensor<i32>) -> tensor<1x27xi32>
    %510 = stablehlo.add %324, %509 : tensor<1x27xi32>
    %511 = stablehlo.select %507, %510, %324 : tensor<1x27xi1>, tensor<1x27xi32>
    %512 = stablehlo.broadcast_in_dim %511, dims = [0, 1] : (tensor<1x27xi32>) -> tensor<1x27x1xi32>
    %513 = "stablehlo.gather"(%15, %512) {dimension_numbers = #stablehlo.gather<offset_dims = [2, 3], collapsed_slice_dims = [0], start_index_map = [0], index_vector_dim = 2>, slice_sizes = array<i64: 1, 1, 256>} : (tensor<4096x1x256xf32>, tensor<1x27x1xi32>) -> tensor<1x27x1x256xf32>
    %514 = stablehlo.slice %513 [0:1, 0:27, 0:1, 0:128] : (tensor<1x27x1x256xf32>) -> tensor<1x27x1x128xf32>
    %515 = stablehlo.slice %513 [0:1, 0:27, 0:1, 128:256] : (tensor<1x27x1x256xf32>) -> tensor<1x27x1x128xf32>
    %516 = stablehlo.broadcast_in_dim %515, dims = [0, 1, 2, 3] : (tensor<1x27x1x128xf32>) -> tensor<1x27x32x128xf32>
    %517 = stablehlo.multiply %503, %516 : tensor<1x27x32x128xf32>
    %518 = stablehlo.constant dense<64> : tensor<i32>
    %519 = stablehlo.broadcast_in_dim %518, dims = [] : (tensor<i32>) -> tensor<1xi32>
    %520 = "stablehlo.gather"(%503, %519) {dimension_numbers = #stablehlo.gather<offset_dims = [0, 1, 2, 3], start_index_map = [3]>, indices_are_sorted = true, slice_sizes = array<i64: 1, 27, 32, 64>} : (tensor<1x27x32x128xf32>, tensor<1xi32>) -> tensor<1x27x32x64xf32>
    %521 = stablehlo.negate %520 : tensor<1x27x32x64xf32>
    %522 = stablehlo.constant dense<0> : tensor<i32>
    %523 = stablehlo.broadcast_in_dim %522, dims = [] : (tensor<i32>) -> tensor<1xi32>
    %524 = "stablehlo.gather"(%503, %523) {dimension_numbers = #stablehlo.gather<offset_dims = [0, 1, 2, 3], start_index_map = [3]>, indices_are_sorted = true, slice_sizes = array<i64: 1, 27, 32, 64>} : (tensor<1x27x32x128xf32>, tensor<1xi32>) -> tensor<1x27x32x64xf32>
    %525 = stablehlo.concatenate %521, %524, dim = 3 : (tensor<1x27x32x64xf32>, tensor<1x27x32x64xf32>) -> tensor<1x27x32x128xf32>
    %526 = stablehlo.broadcast_in_dim %514, dims = [0, 1, 2, 3] : (tensor<1x27x1x128xf32>) -> tensor<1x27x32x128xf32>
    %527 = stablehlo.multiply %525, %526 : tensor<1x27x32x128xf32>
    %528 = stablehlo.add %517, %527 : tensor<1x27x32x128xf32>
    %529 = stablehlo.broadcast_in_dim %515, dims = [0, 1, 2, 3] : (tensor<1x27x1x128xf32>) -> tensor<1x27x32x128xf32>
    %530 = stablehlo.multiply %502, %529 : tensor<1x27x32x128xf32>
    %531 = stablehlo.constant dense<64> : tensor<i32>
    %532 = stablehlo.broadcast_in_dim %531, dims = [] : (tensor<i32>) -> tensor<1xi32>
    %533 = "stablehlo.gather"(%502, %532) {dimension_numbers = #stablehlo.gather<offset_dims = [0, 1, 2, 3], start_index_map = [3]>, indices_are_sorted = true, slice_sizes = array<i64: 1, 27, 32, 64>} : (tensor<1x27x32x128xf32>, tensor<1xi32>) -> tensor<1x27x32x64xf32>
    %534 = stablehlo.negate %533 : tensor<1x27x32x64xf32>
    %535 = stablehlo.constant dense<0> : tensor<i32>
    %536 = stablehlo.broadcast_in_dim %535, dims = [] : (tensor<i32>) -> tensor<1xi32>
    %537 = "stablehlo.gather"(%502, %536) {dimension_numbers = #stablehlo.gather<offset_dims = [0, 1, 2, 3], start_index_map = [3]>, indices_are_sorted = true, slice_sizes = array<i64: 1, 27, 32, 64>} : (tensor<1x27x32x128xf32>, tensor<1xi32>) -> tensor<1x27x32x64xf32>
    %538 = stablehlo.concatenate %534, %537, dim = 3 : (tensor<1x27x32x64xf32>, tensor<1x27x32x64xf32>) -> tensor<1x27x32x128xf32>
    %539 = stablehlo.broadcast_in_dim %514, dims = [0, 1, 2, 3] : (tensor<1x27x1x128xf32>) -> tensor<1x27x32x128xf32>
    %540 = stablehlo.multiply %538, %539 : tensor<1x27x32x128xf32>
    %541 = stablehlo.add %530, %540 : tensor<1x27x32x128xf32>
    %542 = stablehlo.slice %495 [0:1, 0:1, 0:27, 0:27] : (tensor<1x1x4096x4096xi1>) -> tensor<1x1x27x27xi1>
    %543 = stablehlo.broadcast_in_dim %328, dims = [0, 3] : (tensor<1x27xi32>) -> tensor<1x1x1x27xi32>
    %544 = stablehlo.reshape %543 : (tensor<1x1x1x27xi32>) -> tensor<1x1x27xi32>
    %545 = stablehlo.broadcast_in_dim %544, dims = [0, 1, 3] : (tensor<1x1x27xi32>) -> tensor<1x1x27x27xi32>
    %546 = stablehlo.constant dense<0> : tensor<i32>
    %547 = stablehlo.broadcast_in_dim %546, dims = [] : (tensor<i32>) -> tensor<1x1x27x27xi32>
    %548 = stablehlo.compare  NE, %545, %547,  SIGNED : (tensor<1x1x27x27xi32>, tensor<1x1x27x27xi32>) -> tensor<1x1x27x27xi1>
    %549 = stablehlo.and %548, %542 : tensor<1x1x27x27xi1>
    %550 = stablehlo.convert %549 : (tensor<1x1x27x27xi1>) -> tensor<1x1x27x27xf32>
    %551 = stablehlo.constant dense<0.000000e+00> : tensor<f32>
    %552 = stablehlo.broadcast_in_dim %551, dims = [] : (tensor<f32>) -> tensor<1x1x27x27xf32>
    %553 = stablehlo.compare  GT, %550, %552,  FLOAT : (tensor<1x1x27x27xf32>, tensor<1x1x27x27xf32>) -> tensor<1x1x27x27xi1>
    %554 = stablehlo.constant dense<0.000000e+00> : tensor<f32>
    %555 = stablehlo.broadcast_in_dim %554, dims = [] : (tensor<f32>) -> tensor<1x1x27x27xf32>
    %556 = stablehlo.convert %555 : tensor<1x1x27x27xf32>
    %557 = stablehlo.constant dense<-3.40282347E+38> : tensor<f32>
    %558 = stablehlo.broadcast_in_dim %557, dims = [] : (tensor<f32>) -> tensor<1x1x27x27xf32>
    %559 = stablehlo.select %553, %556, %558 : tensor<1x1x27x27xi1>, tensor<1x1x27x27xf32>
    %560 = stablehlo.constant dense<1.280000e+02> : tensor<f32>
    %561 = stablehlo.sqrt %560 : tensor<f32>
    %562 = stablehlo.convert %561 : tensor<f32>
    %563 = stablehlo.broadcast_in_dim %562, dims = [] : (tensor<f32>) -> tensor<1x27x32x128xf32>
    %564 = stablehlo.divide %541, %563 : tensor<1x27x32x128xf32>
    %565 = stablehlo.dot_general %564, %528, batching_dims = [0, 2] x [0, 2], contracting_dims = [3] x [3] : (tensor<1x27x32x128xf32>, tensor<1x27x32x128xf32>) -> tensor<1x32x27x27xf32>
    %566 = stablehlo.broadcast_in_dim %559, dims = [0, 1, 2, 3] : (tensor<1x1x27x27xf32>) -> tensor<1x32x27x27xf32>
    %567 = stablehlo.add %565, %566 : tensor<1x32x27x27xf32>
    %568 = stablehlo.constant dense<0xFF800000> : tensor<f32>
    %569 = stablehlo.reduce(%567 init: %568) applies stablehlo.maximum across dimensions = [3] : (tensor<1x32x27x27xf32>, tensor<f32>) -> tensor<1x32x27xf32>
    %570 = stablehlo.broadcast_in_dim %569, dims = [0, 1, 2] : (tensor<1x32x27xf32>) -> tensor<1x32x27x1xf32>
    %571 = stablehlo.broadcast_in_dim %570, dims = [0, 1, 2, 3] : (tensor<1x32x27x1xf32>) -> tensor<1x32x27x27xf32>
    %572 = stablehlo.subtract %567, %571 : tensor<1x32x27x27xf32>
    %573 = stablehlo.exponential %572 : tensor<1x32x27x27xf32>
    %574 = stablehlo.constant dense<0.000000e+00> : tensor<f32>
    %575 = stablehlo.reduce(%573 init: %574) applies stablehlo.add across dimensions = [3] : (tensor<1x32x27x27xf32>, tensor<f32>) -> tensor<1x32x27xf32>
    %576 = stablehlo.broadcast_in_dim %575, dims = [0, 1, 2] : (tensor<1x32x27xf32>) -> tensor<1x32x27x1xf32>
    %577 = stablehlo.broadcast_in_dim %576, dims = [0, 1, 2, 3] : (tensor<1x32x27x1xf32>) -> tensor<1x32x27x27xf32>
    %578 = stablehlo.divide %573, %577 : tensor<1x32x27x27xf32>
    %579 = stablehlo.dot_general %504, %578, batching_dims = [0, 2] x [0, 1], contracting_dims = [1] x [3] : (tensor<1x27x32x128xf32>, tensor<1x32x27x27xf32>) -> tensor<1x32x128x27xf32>
    %580 = stablehlo.transpose %579, dims = [0, 3, 1, 2] : (tensor<1x32x128x27xf32>) -> tensor<1x27x32x128xf32>
    %581 = stablehlo.reshape %580 : (tensor<1x27x32x128xf32>) -> tensor<1x27x4096xf32>
    %582 = stablehlo.convert %16 : (tensor<4096x4096xf16>) -> tensor<4096x4096xf32>
    %583 = stablehlo.dot_general %581, %582, contracting_dims = [2] x [0] : (tensor<1x27x4096xf32>, tensor<4096x4096xf32>) -> tensor<1x27x4096xf32>
    %584 = stablehlo.add %470, %583 : tensor<1x27x4096xf32>
    %585 = stablehlo.multiply %584, %584 : tensor<1x27x4096xf32>
    %586 = stablehlo.constant dense<0.000000e+00> : tensor<f32>
    %587 = stablehlo.reduce(%585 init: %586) applies stablehlo.add across dimensions = [2] : (tensor<1x27x4096xf32>, tensor<f32>) -> tensor<1x27xf32>
    %588 = stablehlo.broadcast_in_dim %587, dims = [0, 1] : (tensor<1x27xf32>) -> tensor<1x27x1xf32>
    %589 = stablehlo.constant dense<4.096000e+03> : tensor<f32>
    %590 = stablehlo.broadcast_in_dim %589, dims = [] : (tensor<f32>) -> tensor<1x27x1xf32>
    %591 = stablehlo.divide %588, %590 : tensor<1x27x1xf32>
    %592 = stablehlo.constant dense<9.99999974E-6> : tensor<f32>
    %593 = stablehlo.broadcast_in_dim %592, dims = [] : (tensor<f32>) -> tensor<1x27x1xf32>
    %594 = stablehlo.add %591, %593 : tensor<1x27x1xf32>
    %595 = stablehlo.sqrt %594 : tensor<1x27x1xf32>
    %596 = stablehlo.broadcast_in_dim %595, dims = [0, 1, 2] : (tensor<1x27x1xf32>) -> tensor<1x27x4096xf32>
    %597 = stablehlo.divide %584, %596 : tensor<1x27x4096xf32>
    %598 = stablehlo.convert %17 : (tensor<4096xf16>) -> tensor<4096xf32>
    %599 = stablehlo.broadcast_in_dim %598, dims = [2] : (tensor<4096xf32>) -> tensor<1x1x4096xf32>
    %600 = stablehlo.broadcast_in_dim %599, dims = [0, 1, 2] : (tensor<1x1x4096xf32>) -> tensor<1x27x4096xf32>
    %601 = stablehlo.multiply %600, %597 : tensor<1x27x4096xf32>
    %602 = stablehlo.convert %18 : (tensor<4096x11008xf16>) -> tensor<4096x11008xf32>
    %603 = stablehlo.dot_general %601, %602, contracting_dims = [2] x [0] : (tensor<1x27x4096xf32>, tensor<4096x11008xf32>) -> tensor<1x27x11008xf32>
    %604 = stablehlo.convert %19 : (tensor<4096x11008xf16>) -> tensor<4096x11008xf32>
    %605 = stablehlo.dot_general %601, %604, contracting_dims = [2] x [0] : (tensor<1x27x4096xf32>, tensor<4096x11008xf32>) -> tensor<1x27x11008xf32>
    %606 = call @silu(%605) : (tensor<1x27x11008xf32>) -> tensor<1x27x11008xf32>
    %607 = stablehlo.multiply %603, %606 : tensor<1x27x11008xf32>
    %608 = stablehlo.convert %20 : (tensor<11008x4096xf16>) -> tensor<11008x4096xf32>
    %609 = stablehlo.dot_general %607, %608, contracting_dims = [2] x [0] : (tensor<1x27x11008xf32>, tensor<11008x4096xf32>) -> tensor<1x27x4096xf32>
    %610 = stablehlo.add %584, %609 : tensor<1x27x4096xf32>
    %611 = stablehlo.multiply %610, %610 : tensor<1x27x4096xf32>
    %612 = stablehlo.constant dense<0.000000e+00> : tensor<f32>
    %613 = stablehlo.reduce(%611 init: %612) applies stablehlo.add across dimensions = [2] : (tensor<1x27x4096xf32>, tensor<f32>) -> tensor<1x27xf32>
    %614 = stablehlo.broadcast_in_dim %613, dims = [0, 1] : (tensor<1x27xf32>) -> tensor<1x27x1xf32>
    %615 = stablehlo.constant dense<4.096000e+03> : tensor<f32>
    %616 = stablehlo.broadcast_in_dim %615, dims = [] : (tensor<f32>) -> tensor<1x27x1xf32>
    %617 = stablehlo.divide %614, %616 : tensor<1x27x1xf32>
    %618 = stablehlo.constant dense<9.99999974E-6> : tensor<f32>
    %619 = stablehlo.broadcast_in_dim %618, dims = [] : (tensor<f32>) -> tensor<1x27x1xf32>
    %620 = stablehlo.add %617, %619 : tensor<1x27x1xf32>
    %621 = stablehlo.sqrt %620 : tensor<1x27x1xf32>
    %622 = stablehlo.broadcast_in_dim %621, dims = [0, 1, 2] : (tensor<1x27x1xf32>) -> tensor<1x27x4096xf32>
    %623 = stablehlo.divide %610, %622 : tensor<1x27x4096xf32>
    %624 = stablehlo.convert %21 : (tensor<4096xf16>) -> tensor<4096xf32>
    %625 = stablehlo.broadcast_in_dim %624, dims = [2] : (tensor<4096xf32>) -> tensor<1x1x4096xf32>
    %626 = stablehlo.broadcast_in_dim %625, dims = [0, 1, 2] : (tensor<1x1x4096xf32>) -> tensor<1x27x4096xf32>
    %627 = stablehlo.multiply %626, %623 : tensor<1x27x4096xf32>
    %628 = stablehlo.iota dim = 0 : tensor<4096xi32>
    %629 = stablehlo.broadcast_in_dim %628, dims = [1] : (tensor<4096xi32>) -> tensor<1x4096xi32>
    %630 = stablehlo.broadcast_in_dim %629, dims = [0, 1] : (tensor<1x4096xi32>) -> tensor<1x4096x1xi32>
    %631 = stablehlo.broadcast_in_dim %629, dims = [0, 2] : (tensor<1x4096xi32>) -> tensor<1x1x4096xi32>
    %632 = stablehlo.broadcast_in_dim %630, dims = [0, 1, 2] : (tensor<1x4096x1xi32>) -> tensor<1x4096x4096xi32>
    %633 = stablehlo.broadcast_in_dim %631, dims = [0, 1, 2] : (tensor<1x1x4096xi32>) -> tensor<1x4096x4096xi32>
    %634 = stablehlo.compare  GE, %632, %633,  SIGNED : (tensor<1x4096x4096xi32>, tensor<1x4096x4096xi32>) -> tensor<1x4096x4096xi1>
    %635 = stablehlo.broadcast_in_dim %634, dims = [0, 2, 3] : (tensor<1x4096x4096xi1>) -> tensor<1x1x4096x4096xi1>
    %636 = stablehlo.convert %22 : (tensor<4096x4096xf16>) -> tensor<4096x4096xf32>
    %637 = stablehlo.dot_general %627, %636, contracting_dims = [2] x [0] : (tensor<1x27x4096xf32>, tensor<4096x4096xf32>) -> tensor<1x27x4096xf32>
    %638 = stablehlo.convert %23 : (tensor<4096x4096xf16>) -> tensor<4096x4096xf32>
    %639 = stablehlo.dot_general %627, %638, contracting_dims = [2] x [0] : (tensor<1x27x4096xf32>, tensor<4096x4096xf32>) -> tensor<1x27x4096xf32>
    %640 = stablehlo.convert %24 : (tensor<4096x4096xf16>) -> tensor<4096x4096xf32>
    %641 = stablehlo.dot_general %627, %640, contracting_dims = [2] x [0] : (tensor<1x27x4096xf32>, tensor<4096x4096xf32>) -> tensor<1x27x4096xf32>
    %642 = stablehlo.reshape %637 : (tensor<1x27x4096xf32>) -> tensor<1x27x32x128xf32>
    %643 = stablehlo.reshape %639 : (tensor<1x27x4096xf32>) -> tensor<1x27x32x128xf32>
    %644 = stablehlo.reshape %641 : (tensor<1x27x4096xf32>) -> tensor<1x27x32x128xf32>
    %645 = stablehlo.constant dense<0> : tensor<i32>
    %646 = stablehlo.broadcast_in_dim %645, dims = [] : (tensor<i32>) -> tensor<1x27xi32>
    %647 = stablehlo.compare  LT, %324, %646,  SIGNED : (tensor<1x27xi32>, tensor<1x27xi32>) -> tensor<1x27xi1>
    %648 = stablehlo.constant dense<4096> : tensor<i32>
    %649 = stablehlo.broadcast_in_dim %648, dims = [] : (tensor<i32>) -> tensor<1x27xi32>
    %650 = stablehlo.add %324, %649 : tensor<1x27xi32>
    %651 = stablehlo.select %647, %650, %324 : tensor<1x27xi1>, tensor<1x27xi32>
    %652 = stablehlo.broadcast_in_dim %651, dims = [0, 1] : (tensor<1x27xi32>) -> tensor<1x27x1xi32>
    %653 = "stablehlo.gather"(%25, %652) {dimension_numbers = #stablehlo.gather<offset_dims = [2, 3], collapsed_slice_dims = [0], start_index_map = [0], index_vector_dim = 2>, slice_sizes = array<i64: 1, 1, 256>} : (tensor<4096x1x256xf32>, tensor<1x27x1xi32>) -> tensor<1x27x1x256xf32>
    %654 = stablehlo.slice %653 [0:1, 0:27, 0:1, 0:128] : (tensor<1x27x1x256xf32>) -> tensor<1x27x1x128xf32>
    %655 = stablehlo.slice %653 [0:1, 0:27, 0:1, 128:256] : (tensor<1x27x1x256xf32>) -> tensor<1x27x1x128xf32>
    %656 = stablehlo.broadcast_in_dim %655, dims = [0, 1, 2, 3] : (tensor<1x27x1x128xf32>) -> tensor<1x27x32x128xf32>
    %657 = stablehlo.multiply %643, %656 : tensor<1x27x32x128xf32>
    %658 = stablehlo.constant dense<64> : tensor<i32>
    %659 = stablehlo.broadcast_in_dim %658, dims = [] : (tensor<i32>) -> tensor<1xi32>
    %660 = "stablehlo.gather"(%643, %659) {dimension_numbers = #stablehlo.gather<offset_dims = [0, 1, 2, 3], start_index_map = [3]>, indices_are_sorted = true, slice_sizes = array<i64: 1, 27, 32, 64>} : (tensor<1x27x32x128xf32>, tensor<1xi32>) -> tensor<1x27x32x64xf32>
    %661 = stablehlo.negate %660 : tensor<1x27x32x64xf32>
    %662 = stablehlo.constant dense<0> : tensor<i32>
    %663 = stablehlo.broadcast_in_dim %662, dims = [] : (tensor<i32>) -> tensor<1xi32>
    %664 = "stablehlo.gather"(%643, %663) {dimension_numbers = #stablehlo.gather<offset_dims = [0, 1, 2, 3], start_index_map = [3]>, indices_are_sorted = true, slice_sizes = array<i64: 1, 27, 32, 64>} : (tensor<1x27x32x128xf32>, tensor<1xi32>) -> tensor<1x27x32x64xf32>
    %665 = stablehlo.concatenate %661, %664, dim = 3 : (tensor<1x27x32x64xf32>, tensor<1x27x32x64xf32>) -> tensor<1x27x32x128xf32>
    %666 = stablehlo.broadcast_in_dim %654, dims = [0, 1, 2, 3] : (tensor<1x27x1x128xf32>) -> tensor<1x27x32x128xf32>
    %667 = stablehlo.multiply %665, %666 : tensor<1x27x32x128xf32>
    %668 = stablehlo.add %657, %667 : tensor<1x27x32x128xf32>
    %669 = stablehlo.broadcast_in_dim %655, dims = [0, 1, 2, 3] : (tensor<1x27x1x128xf32>) -> tensor<1x27x32x128xf32>
    %670 = stablehlo.multiply %642, %669 : tensor<1x27x32x128xf32>
    %671 = stablehlo.constant dense<64> : tensor<i32>
    %672 = stablehlo.broadcast_in_dim %671, dims = [] : (tensor<i32>) -> tensor<1xi32>
    %673 = "stablehlo.gather"(%642, %672) {dimension_numbers = #stablehlo.gather<offset_dims = [0, 1, 2, 3], start_index_map = [3]>, indices_are_sorted = true, slice_sizes = array<i64: 1, 27, 32, 64>} : (tensor<1x27x32x128xf32>, tensor<1xi32>) -> tensor<1x27x32x64xf32>
    %674 = stablehlo.negate %673 : tensor<1x27x32x64xf32>
    %675 = stablehlo.constant dense<0> : tensor<i32>
    %676 = stablehlo.broadcast_in_dim %675, dims = [] : (tensor<i32>) -> tensor<1xi32>
    %677 = "stablehlo.gather"(%642, %676) {dimension_numbers = #stablehlo.gather<offset_dims = [0, 1, 2, 3], start_index_map = [3]>, indices_are_sorted = true, slice_sizes = array<i64: 1, 27, 32, 64>} : (tensor<1x27x32x128xf32>, tensor<1xi32>) -> tensor<1x27x32x64xf32>
    %678 = stablehlo.concatenate %674, %677, dim = 3 : (tensor<1x27x32x64xf32>, tensor<1x27x32x64xf32>) -> tensor<1x27x32x128xf32>
    %679 = stablehlo.broadcast_in_dim %654, dims = [0, 1, 2, 3] : (tensor<1x27x1x128xf32>) -> tensor<1x27x32x128xf32>
    %680 = stablehlo.multiply %678, %679 : tensor<1x27x32x128xf32>
    %681 = stablehlo.add %670, %680 : tensor<1x27x32x128xf32>
    %682 = stablehlo.slice %635 [0:1, 0:1, 0:27, 0:27] : (tensor<1x1x4096x4096xi1>) -> tensor<1x1x27x27xi1>
    %683 = stablehlo.broadcast_in_dim %328, dims = [0, 3] : (tensor<1x27xi32>) -> tensor<1x1x1x27xi32>
    %684 = stablehlo.reshape %683 : (tensor<1x1x1x27xi32>) -> tensor<1x1x27xi32>
    %685 = stablehlo.broadcast_in_dim %684, dims = [0, 1, 3] : (tensor<1x1x27xi32>) -> tensor<1x1x27x27xi32>
    %686 = stablehlo.constant dense<0> : tensor<i32>
    %687 = stablehlo.broadcast_in_dim %686, dims = [] : (tensor<i32>) -> tensor<1x1x27x27xi32>
    %688 = stablehlo.compare  NE, %685, %687,  SIGNED : (tensor<1x1x27x27xi32>, tensor<1x1x27x27xi32>) -> tensor<1x1x27x27xi1>
    %689 = stablehlo.and %688, %682 : tensor<1x1x27x27xi1>
    %690 = stablehlo.convert %689 : (tensor<1x1x27x27xi1>) -> tensor<1x1x27x27xf32>
    %691 = stablehlo.constant dense<0.000000e+00> : tensor<f32>
    %692 = stablehlo.broadcast_in_dim %691, dims = [] : (tensor<f32>) -> tensor<1x1x27x27xf32>
    %693 = stablehlo.compare  GT, %690, %692,  FLOAT : (tensor<1x1x27x27xf32>, tensor<1x1x27x27xf32>) -> tensor<1x1x27x27xi1>
    %694 = stablehlo.constant dense<0.000000e+00> : tensor<f32>
    %695 = stablehlo.broadcast_in_dim %694, dims = [] : (tensor<f32>) -> tensor<1x1x27x27xf32>
    %696 = stablehlo.convert %695 : tensor<1x1x27x27xf32>
    %697 = stablehlo.constant dense<-3.40282347E+38> : tensor<f32>
    %698 = stablehlo.broadcast_in_dim %697, dims = [] : (tensor<f32>) -> tensor<1x1x27x27xf32>
    %699 = stablehlo.select %693, %696, %698 : tensor<1x1x27x27xi1>, tensor<1x1x27x27xf32>
    %700 = stablehlo.constant dense<1.280000e+02> : tensor<f32>
    %701 = stablehlo.sqrt %700 : tensor<f32>
    %702 = stablehlo.convert %701 : tensor<f32>
    %703 = stablehlo.broadcast_in_dim %702, dims = [] : (tensor<f32>) -> tensor<1x27x32x128xf32>
    %704 = stablehlo.divide %681, %703 : tensor<1x27x32x128xf32>
    %705 = stablehlo.dot_general %704, %668, batching_dims = [0, 2] x [0, 2], contracting_dims = [3] x [3] : (tensor<1x27x32x128xf32>, tensor<1x27x32x128xf32>) -> tensor<1x32x27x27xf32>
    %706 = stablehlo.broadcast_in_dim %699, dims = [0, 1, 2, 3] : (tensor<1x1x27x27xf32>) -> tensor<1x32x27x27xf32>
    %707 = stablehlo.add %705, %706 : tensor<1x32x27x27xf32>
    %708 = stablehlo.constant dense<0xFF800000> : tensor<f32>
    %709 = stablehlo.reduce(%707 init: %708) applies stablehlo.maximum across dimensions = [3] : (tensor<1x32x27x27xf32>, tensor<f32>) -> tensor<1x32x27xf32>
    %710 = stablehlo.broadcast_in_dim %709, dims = [0, 1, 2] : (tensor<1x32x27xf32>) -> tensor<1x32x27x1xf32>
    %711 = stablehlo.broadcast_in_dim %710, dims = [0, 1, 2, 3] : (tensor<1x32x27x1xf32>) -> tensor<1x32x27x27xf32>
    %712 = stablehlo.subtract %707, %711 : tensor<1x32x27x27xf32>
    %713 = stablehlo.exponential %712 : tensor<1x32x27x27xf32>
    %714 = stablehlo.constant dense<0.000000e+00> : tensor<f32>
    %715 = stablehlo.reduce(%713 init: %714) applies stablehlo.add across dimensions = [3] : (tensor<1x32x27x27xf32>, tensor<f32>) -> tensor<1x32x27xf32>
    %716 = stablehlo.broadcast_in_dim %715, dims = [0, 1, 2] : (tensor<1x32x27xf32>) -> tensor<1x32x27x1xf32>
    %717 = stablehlo.broadcast_in_dim %716, dims = [0, 1, 2, 3] : (tensor<1x32x27x1xf32>) -> tensor<1x32x27x27xf32>
    %718 = stablehlo.divide %713, %717 : tensor<1x32x27x27xf32>
    %719 = stablehlo.dot_general %644, %718, batching_dims = [0, 2] x [0, 1], contracting_dims = [1] x [3] : (tensor<1x27x32x128xf32>, tensor<1x32x27x27xf32>) -> tensor<1x32x128x27xf32>
    %720 = stablehlo.transpose %719, dims = [0, 3, 1, 2] : (tensor<1x32x128x27xf32>) -> tensor<1x27x32x128xf32>
    %721 = stablehlo.reshape %720 : (tensor<1x27x32x128xf32>) -> tensor<1x27x4096xf32>
    %722 = stablehlo.convert %26 : (tensor<4096x4096xf16>) -> tensor<4096x4096xf32>
    %723 = stablehlo.dot_general %721, %722, contracting_dims = [2] x [0] : (tensor<1x27x4096xf32>, tensor<4096x4096xf32>) -> tensor<1x27x4096xf32>
    %724 = stablehlo.add %610, %723 : tensor<1x27x4096xf32>
    %725 = stablehlo.multiply %724, %724 : tensor<1x27x4096xf32>
    %726 = stablehlo.constant dense<0.000000e+00> : tensor<f32>
    %727 = stablehlo.reduce(%725 init: %726) applies stablehlo.add across dimensions = [2] : (tensor<1x27x4096xf32>, tensor<f32>) -> tensor<1x27xf32>
    %728 = stablehlo.broadcast_in_dim %727, dims = [0, 1] : (tensor<1x27xf32>) -> tensor<1x27x1xf32>
    %729 = stablehlo.constant dense<4.096000e+03> : tensor<f32>
    %730 = stablehlo.broadcast_in_dim %729, dims = [] : (tensor<f32>) -> tensor<1x27x1xf32>
    %731 = stablehlo.divide %728, %730 : tensor<1x27x1xf32>
    %732 = stablehlo.constant dense<9.99999974E-6> : tensor<f32>
    %733 = stablehlo.broadcast_in_dim %732, dims = [] : (tensor<f32>) -> tensor<1x27x1xf32>
    %734 = stablehlo.add %731, %733 : tensor<1x27x1xf32>
    %735 = stablehlo.sqrt %734 : tensor<1x27x1xf32>
    %736 = stablehlo.broadcast_in_dim %735, dims = [0, 1, 2] : (tensor<1x27x1xf32>) -> tensor<1x27x4096xf32>
    %737 = stablehlo.divide %724, %736 : tensor<1x27x4096xf32>
    %738 = stablehlo.convert %27 : (tensor<4096xf16>) -> tensor<4096xf32>
    %739 = stablehlo.broadcast_in_dim %738, dims = [2] : (tensor<4096xf32>) -> tensor<1x1x4096xf32>
    %740 = stablehlo.broadcast_in_dim %739, dims = [0, 1, 2] : (tensor<1x1x4096xf32>) -> tensor<1x27x4096xf32>
    %741 = stablehlo.multiply %740, %737 : tensor<1x27x4096xf32>
    %742 = stablehlo.convert %28 : (tensor<4096x11008xf16>) -> tensor<4096x11008xf32>
    %743 = stablehlo.dot_general %741, %742, contracting_dims = [2] x [0] : (tensor<1x27x4096xf32>, tensor<4096x11008xf32>) -> tensor<1x27x11008xf32>
    %744 = stablehlo.convert %29 : (tensor<4096x11008xf16>) -> tensor<4096x11008xf32>
    %745 = stablehlo.dot_general %741, %744, contracting_dims = [2] x [0] : (tensor<1x27x4096xf32>, tensor<4096x11008xf32>) -> tensor<1x27x11008xf32>
    %746 = call @silu(%745) : (tensor<1x27x11008xf32>) -> tensor<1x27x11008xf32>
    %747 = stablehlo.multiply %743, %746 : tensor<1x27x11008xf32>
    %748 = stablehlo.convert %30 : (tensor<11008x4096xf16>) -> tensor<11008x4096xf32>
    %749 = stablehlo.dot_general %747, %748, contracting_dims = [2] x [0] : (tensor<1x27x11008xf32>, tensor<11008x4096xf32>) -> tensor<1x27x4096xf32>
    %750 = stablehlo.add %724, %749 : tensor<1x27x4096xf32>
    %751 = stablehlo.multiply %750, %750 : tensor<1x27x4096xf32>
    %752 = stablehlo.constant dense<0.000000e+00> : tensor<f32>
    %753 = stablehlo.reduce(%751 init: %752) applies stablehlo.add across dimensions = [2] : (tensor<1x27x4096xf32>, tensor<f32>) -> tensor<1x27xf32>
    %754 = stablehlo.broadcast_in_dim %753, dims = [0, 1] : (tensor<1x27xf32>) -> tensor<1x27x1xf32>
    %755 = stablehlo.constant dense<4.096000e+03> : tensor<f32>
    %756 = stablehlo.broadcast_in_dim %755, dims = [] : (tensor<f32>) -> tensor<1x27x1xf32>
    %757 = stablehlo.divide %754, %756 : tensor<1x27x1xf32>
    %758 = stablehlo.constant dense<9.99999974E-6> : tensor<f32>
    %759 = stablehlo.broadcast_in_dim %758, dims = [] : (tensor<f32>) -> tensor<1x27x1xf32>
    %760 = stablehlo.add %757, %759 : tensor<1x27x1xf32>
    %761 = stablehlo.sqrt %760 : tensor<1x27x1xf32>
    %762 = stablehlo.broadcast_in_dim %761, dims = [0, 1, 2] : (tensor<1x27x1xf32>) -> tensor<1x27x4096xf32>
    %763 = stablehlo.divide %750, %762 : tensor<1x27x4096xf32>
    %764 = stablehlo.convert %31 : (tensor<4096xf16>) -> tensor<4096xf32>
    %765 = stablehlo.broadcast_in_dim %764, dims = [2] : (tensor<4096xf32>) -> tensor<1x1x4096xf32>
    %766 = stablehlo.broadcast_in_dim %765, dims = [0, 1, 2] : (tensor<1x1x4096xf32>) -> tensor<1x27x4096xf32>
    %767 = stablehlo.multiply %766, %763 : tensor<1x27x4096xf32>
    %768 = stablehlo.iota dim = 0 : tensor<4096xi32>
    %769 = stablehlo.broadcast_in_dim %768, dims = [1] : (tensor<4096xi32>) -> tensor<1x4096xi32>
    %770 = stablehlo.broadcast_in_dim %769, dims = [0, 1] : (tensor<1x4096xi32>) -> tensor<1x4096x1xi32>
    %771 = stablehlo.broadcast_in_dim %769, dims = [0, 2] : (tensor<1x4096xi32>) -> tensor<1x1x4096xi32>
    %772 = stablehlo.broadcast_in_dim %770, dims = [0, 1, 2] : (tensor<1x4096x1xi32>) -> tensor<1x4096x4096xi32>
    %773 = stablehlo.broadcast_in_dim %771, dims = [0, 1, 2] : (tensor<1x1x4096xi32>) -> tensor<1x4096x4096xi32>
    %774 = stablehlo.compare  GE, %772, %773,  SIGNED : (tensor<1x4096x4096xi32>, tensor<1x4096x4096xi32>) -> tensor<1x4096x4096xi1>
    %775 = stablehlo.broadcast_in_dim %774, dims = [0, 2, 3] : (tensor<1x4096x4096xi1>) -> tensor<1x1x4096x4096xi1>
    %776 = stablehlo.convert %32 : (tensor<4096x4096xf16>) -> tensor<4096x4096xf32>
    %777 = stablehlo.dot_general %767, %776, contracting_dims = [2] x [0] : (tensor<1x27x4096xf32>, tensor<4096x4096xf32>) -> tensor<1x27x4096xf32>
    %778 = stablehlo.convert %33 : (tensor<4096x4096xf16>) -> tensor<4096x4096xf32>
    %779 = stablehlo.dot_general %767, %778, contracting_dims = [2] x [0] : (tensor<1x27x4096xf32>, tensor<4096x4096xf32>) -> tensor<1x27x4096xf32>
    %780 = stablehlo.convert %34 : (tensor<4096x4096xf16>) -> tensor<4096x4096xf32>
    %781 = stablehlo.dot_general %767, %780, contracting_dims = [2] x [0] : (tensor<1x27x4096xf32>, tensor<4096x4096xf32>) -> tensor<1x27x4096xf32>
    %782 = stablehlo.reshape %777 : (tensor<1x27x4096xf32>) -> tensor<1x27x32x128xf32>
    %783 = stablehlo.reshape %779 : (tensor<1x27x4096xf32>) -> tensor<1x27x32x128xf32>
    %784 = stablehlo.reshape %781 : (tensor<1x27x4096xf32>) -> tensor<1x27x32x128xf32>
    %785 = stablehlo.constant dense<0> : tensor<i32>
    %786 = stablehlo.broadcast_in_dim %785, dims = [] : (tensor<i32>) -> tensor<1x27xi32>
    %787 = stablehlo.compare  LT, %324, %786,  SIGNED : (tensor<1x27xi32>, tensor<1x27xi32>) -> tensor<1x27xi1>
    %788 = stablehlo.constant dense<4096> : tensor<i32>
    %789 = stablehlo.broadcast_in_dim %788, dims = [] : (tensor<i32>) -> tensor<1x27xi32>
    %790 = stablehlo.add %324, %789 : tensor<1x27xi32>
    %791 = stablehlo.select %787, %790, %324 : tensor<1x27xi1>, tensor<1x27xi32>
    %792 = stablehlo.broadcast_in_dim %791, dims = [0, 1] : (tensor<1x27xi32>) -> tensor<1x27x1xi32>
    %793 = "stablehlo.gather"(%35, %792) {dimension_numbers = #stablehlo.gather<offset_dims = [2, 3], collapsed_slice_dims = [0], start_index_map = [0], index_vector_dim = 2>, slice_sizes = array<i64: 1, 1, 256>} : (tensor<4096x1x256xf32>, tensor<1x27x1xi32>) -> tensor<1x27x1x256xf32>
    %794 = stablehlo.slice %793 [0:1, 0:27, 0:1, 0:128] : (tensor<1x27x1x256xf32>) -> tensor<1x27x1x128xf32>
    %795 = stablehlo.slice %793 [0:1, 0:27, 0:1, 128:256] : (tensor<1x27x1x256xf32>) -> tensor<1x27x1x128xf32>
    %796 = stablehlo.broadcast_in_dim %795, dims = [0, 1, 2, 3] : (tensor<1x27x1x128xf32>) -> tensor<1x27x32x128xf32>
    %797 = stablehlo.multiply %783, %796 : tensor<1x27x32x128xf32>
    %798 = stablehlo.constant dense<64> : tensor<i32>
    %799 = stablehlo.broadcast_in_dim %798, dims = [] : (tensor<i32>) -> tensor<1xi32>
    %800 = "stablehlo.gather"(%783, %799) {dimension_numbers = #stablehlo.gather<offset_dims = [0, 1, 2, 3], start_index_map = [3]>, indices_are_sorted = true, slice_sizes = array<i64: 1, 27, 32, 64>} : (tensor<1x27x32x128xf32>, tensor<1xi32>) -> tensor<1x27x32x64xf32>
    %801 = stablehlo.negate %800 : tensor<1x27x32x64xf32>
    %802 = stablehlo.constant dense<0> : tensor<i32>
    %803 = stablehlo.broadcast_in_dim %802, dims = [] : (tensor<i32>) -> tensor<1xi32>
    %804 = "stablehlo.gather"(%783, %803) {dimension_numbers = #stablehlo.gather<offset_dims = [0, 1, 2, 3], start_index_map = [3]>, indices_are_sorted = true, slice_sizes = array<i64: 1, 27, 32, 64>} : (tensor<1x27x32x128xf32>, tensor<1xi32>) -> tensor<1x27x32x64xf32>
    %805 = stablehlo.concatenate %801, %804, dim = 3 : (tensor<1x27x32x64xf32>, tensor<1x27x32x64xf32>) -> tensor<1x27x32x128xf32>
    %806 = stablehlo.broadcast_in_dim %794, dims = [0, 1, 2, 3] : (tensor<1x27x1x128xf32>) -> tensor<1x27x32x128xf32>
    %807 = stablehlo.multiply %805, %806 : tensor<1x27x32x128xf32>
    %808 = stablehlo.add %797, %807 : tensor<1x27x32x128xf32>
    %809 = stablehlo.broadcast_in_dim %795, dims = [0, 1, 2, 3] : (tensor<1x27x1x128xf32>) -> tensor<1x27x32x128xf32>
    %810 = stablehlo.multiply %782, %809 : tensor<1x27x32x128xf32>
    %811 = stablehlo.constant dense<64> : tensor<i32>
    %812 = stablehlo.broadcast_in_dim %811, dims = [] : (tensor<i32>) -> tensor<1xi32>
    %813 = "stablehlo.gather"(%782, %812) {dimension_numbers = #stablehlo.gather<offset_dims = [0, 1, 2, 3], start_index_map = [3]>, indices_are_sorted = true, slice_sizes = array<i64: 1, 27, 32, 64>} : (tensor<1x27x32x128xf32>, tensor<1xi32>) -> tensor<1x27x32x64xf32>
    %814 = stablehlo.negate %813 : tensor<1x27x32x64xf32>
    %815 = stablehlo.constant dense<0> : tensor<i32>
    %816 = stablehlo.broadcast_in_dim %815, dims = [] : (tensor<i32>) -> tensor<1xi32>
    %817 = "stablehlo.gather"(%782, %816) {dimension_numbers = #stablehlo.gather<offset_dims = [0, 1, 2, 3], start_index_map = [3]>, indices_are_sorted = true, slice_sizes = array<i64: 1, 27, 32, 64>} : (tensor<1x27x32x128xf32>, tensor<1xi32>) -> tensor<1x27x32x64xf32>
    %818 = stablehlo.concatenate %814, %817, dim = 3 : (tensor<1x27x32x64xf32>, tensor<1x27x32x64xf32>) -> tensor<1x27x32x128xf32>
    %819 = stablehlo.broadcast_in_dim %794, dims = [0, 1, 2, 3] : (tensor<1x27x1x128xf32>) -> tensor<1x27x32x128xf32>
    %820 = stablehlo.multiply %818, %819 : tensor<1x27x32x128xf32>
    %821 = stablehlo.add %810, %820 : tensor<1x27x32x128xf32>
    %822 = stablehlo.slice %775 [0:1, 0:1, 0:27, 0:27] : (tensor<1x1x4096x4096xi1>) -> tensor<1x1x27x27xi1>
    %823 = stablehlo.broadcast_in_dim %328, dims = [0, 3] : (tensor<1x27xi32>) -> tensor<1x1x1x27xi32>
    %824 = stablehlo.reshape %823 : (tensor<1x1x1x27xi32>) -> tensor<1x1x27xi32>
    %825 = stablehlo.broadcast_in_dim %824, dims = [0, 1, 3] : (tensor<1x1x27xi32>) -> tensor<1x1x27x27xi32>
    %826 = stablehlo.constant dense<0> : tensor<i32>
    %827 = stablehlo.broadcast_in_dim %826, dims = [] : (tensor<i32>) -> tensor<1x1x27x27xi32>
    %828 = stablehlo.compare  NE, %825, %827,  SIGNED : (tensor<1x1x27x27xi32>, tensor<1x1x27x27xi32>) -> tensor<1x1x27x27xi1>
    %829 = stablehlo.and %828, %822 : tensor<1x1x27x27xi1>
    %830 = stablehlo.convert %829 : (tensor<1x1x27x27xi1>) -> tensor<1x1x27x27xf32>
    %831 = stablehlo.constant dense<0.000000e+00> : tensor<f32>
    %832 = stablehlo.broadcast_in_dim %831, dims = [] : (tensor<f32>) -> tensor<1x1x27x27xf32>
    %833 = stablehlo.compare  GT, %830, %832,  FLOAT : (tensor<1x1x27x27xf32>, tensor<1x1x27x27xf32>) -> tensor<1x1x27x27xi1>
    %834 = stablehlo.constant dense<0.000000e+00> : tensor<f32>
    %835 = stablehlo.broadcast_in_dim %834, dims = [] : (tensor<f32>) -> tensor<1x1x27x27xf32>
    %836 = stablehlo.convert %835 : tensor<1x1x27x27xf32>
    %837 = stablehlo.constant dense<-3.40282347E+38> : tensor<f32>
    %838 = stablehlo.broadcast_in_dim %837, dims = [] : (tensor<f32>) -> tensor<1x1x27x27xf32>
    %839 = stablehlo.select %833, %836, %838 : tensor<1x1x27x27xi1>, tensor<1x1x27x27xf32>
    %840 = stablehlo.constant dense<1.280000e+02> : tensor<f32>
    %841 = stablehlo.sqrt %840 : tensor<f32>
    %842 = stablehlo.convert %841 : tensor<f32>
    %843 = stablehlo.broadcast_in_dim %842, dims = [] : (tensor<f32>) -> tensor<1x27x32x128xf32>
    %844 = stablehlo.divide %821, %843 : tensor<1x27x32x128xf32>
    %845 = stablehlo.dot_general %844, %808, batching_dims = [0, 2] x [0, 2], contracting_dims = [3] x [3] : (tensor<1x27x32x128xf32>, tensor<1x27x32x128xf32>) -> tensor<1x32x27x27xf32>
    %846 = stablehlo.broadcast_in_dim %839, dims = [0, 1, 2, 3] : (tensor<1x1x27x27xf32>) -> tensor<1x32x27x27xf32>
    %847 = stablehlo.add %845, %846 : tensor<1x32x27x27xf32>
    %848 = stablehlo.constant dense<0xFF800000> : tensor<f32>
    %849 = stablehlo.reduce(%847 init: %848) applies stablehlo.maximum across dimensions = [3] : (tensor<1x32x27x27xf32>, tensor<f32>) -> tensor<1x32x27xf32>
    %850 = stablehlo.broadcast_in_dim %849, dims = [0, 1, 2] : (tensor<1x32x27xf32>) -> tensor<1x32x27x1xf32>
    %851 = stablehlo.broadcast_in_dim %850, dims = [0, 1, 2, 3] : (tensor<1x32x27x1xf32>) -> tensor<1x32x27x27xf32>
    %852 = stablehlo.subtract %847, %851 : tensor<1x32x27x27xf32>
    %853 = stablehlo.exponential %852 : tensor<1x32x27x27xf32>
    %854 = stablehlo.constant dense<0.000000e+00> : tensor<f32>
    %855 = stablehlo.reduce(%853 init: %854) applies stablehlo.add across dimensions = [3] : (tensor<1x32x27x27xf32>, tensor<f32>) -> tensor<1x32x27xf32>
    %856 = stablehlo.broadcast_in_dim %855, dims = [0, 1, 2] : (tensor<1x32x27xf32>) -> tensor<1x32x27x1xf32>
    %857 = stablehlo.broadcast_in_dim %856, dims = [0, 1, 2, 3] : (tensor<1x32x27x1xf32>) -> tensor<1x32x27x27xf32>
    %858 = stablehlo.divide %853, %857 : tensor<1x32x27x27xf32>
    %859 = stablehlo.dot_general %784, %858, batching_dims = [0, 2] x [0, 1], contracting_dims = [1] x [3] : (tensor<1x27x32x128xf32>, tensor<1x32x27x27xf32>) -> tensor<1x32x128x27xf32>
    %860 = stablehlo.transpose %859, dims = [0, 3, 1, 2] : (tensor<1x32x128x27xf32>) -> tensor<1x27x32x128xf32>
    %861 = stablehlo.reshape %860 : (tensor<1x27x32x128xf32>) -> tensor<1x27x4096xf32>
    %862 = stablehlo.convert %36 : (tensor<4096x4096xf16>) -> tensor<4096x4096xf32>
    %863 = stablehlo.dot_general %861, %862, contracting_dims = [2] x [0] : (tensor<1x27x4096xf32>, tensor<4096x4096xf32>) -> tensor<1x27x4096xf32>
    %864 = stablehlo.add %750, %863 : tensor<1x27x4096xf32>
    %865 = stablehlo.multiply %864, %864 : tensor<1x27x4096xf32>
    %866 = stablehlo.constant dense<0.000000e+00> : tensor<f32>
    %867 = stablehlo.reduce(%865 init: %866) applies stablehlo.add across dimensions = [2] : (tensor<1x27x4096xf32>, tensor<f32>) -> tensor<1x27xf32>
    %868 = stablehlo.broadcast_in_dim %867, dims = [0, 1] : (tensor<1x27xf32>) -> tensor<1x27x1xf32>
    %869 = stablehlo.constant dense<4.096000e+03> : tensor<f32>
    %870 = stablehlo.broadcast_in_dim %869, dims = [] : (tensor<f32>) -> tensor<1x27x1xf32>
    %871 = stablehlo.divide %868, %870 : tensor<1x27x1xf32>
    %872 = stablehlo.constant dense<9.99999974E-6> : tensor<f32>
    %873 = stablehlo.broadcast_in_dim %872, dims = [] : (tensor<f32>) -> tensor<1x27x1xf32>
    %874 = stablehlo.add %871, %873 : tensor<1x27x1xf32>
    %875 = stablehlo.sqrt %874 : tensor<1x27x1xf32>
    %876 = stablehlo.broadcast_in_dim %875, dims = [0, 1, 2] : (tensor<1x27x1xf32>) -> tensor<1x27x4096xf32>
    %877 = stablehlo.divide %864, %876 : tensor<1x27x4096xf32>
    %878 = stablehlo.convert %37 : (tensor<4096xf16>) -> tensor<4096xf32>
    %879 = stablehlo.broadcast_in_dim %878, dims = [2] : (tensor<4096xf32>) -> tensor<1x1x4096xf32>
    %880 = stablehlo.broadcast_in_dim %879, dims = [0, 1, 2] : (tensor<1x1x4096xf32>) -> tensor<1x27x4096xf32>
    %881 = stablehlo.multiply %880, %877 : tensor<1x27x4096xf32>
    %882 = stablehlo.convert %38 : (tensor<4096x11008xf16>) -> tensor<4096x11008xf32>
    %883 = stablehlo.dot_general %881, %882, contracting_dims = [2] x [0] : (tensor<1x27x4096xf32>, tensor<4096x11008xf32>) -> tensor<1x27x11008xf32>
    %884 = stablehlo.convert %39 : (tensor<4096x11008xf16>) -> tensor<4096x11008xf32>
    %885 = stablehlo.dot_general %881, %884, contracting_dims = [2] x [0] : (tensor<1x27x4096xf32>, tensor<4096x11008xf32>) -> tensor<1x27x11008xf32>
    %886 = call @silu(%885) : (tensor<1x27x11008xf32>) -> tensor<1x27x11008xf32>
    %887 = stablehlo.multiply %883, %886 : tensor<1x27x11008xf32>
    %888 = stablehlo.convert %40 : (tensor<11008x4096xf16>) -> tensor<11008x4096xf32>
    %889 = stablehlo.dot_general %887, %888, contracting_dims = [2] x [0] : (tensor<1x27x11008xf32>, tensor<11008x4096xf32>) -> tensor<1x27x4096xf32>
    %890 = stablehlo.add %864, %889 : tensor<1x27x4096xf32>
    %891 = stablehlo.multiply %890, %890 : tensor<1x27x4096xf32>
    %892 = stablehlo.constant dense<0.000000e+00> : tensor<f32>
    %893 = stablehlo.reduce(%891 init: %892) applies stablehlo.add across dimensions = [2] : (tensor<1x27x4096xf32>, tensor<f32>) -> tensor<1x27xf32>
    %894 = stablehlo.broadcast_in_dim %893, dims = [0, 1] : (tensor<1x27xf32>) -> tensor<1x27x1xf32>
    %895 = stablehlo.constant dense<4.096000e+03> : tensor<f32>
    %896 = stablehlo.broadcast_in_dim %895, dims = [] : (tensor<f32>) -> tensor<1x27x1xf32>
    %897 = stablehlo.divide %894, %896 : tensor<1x27x1xf32>
    %898 = stablehlo.constant dense<9.99999974E-6> : tensor<f32>
    %899 = stablehlo.broadcast_in_dim %898, dims = [] : (tensor<f32>) -> tensor<1x27x1xf32>
    %900 = stablehlo.add %897, %899 : tensor<1x27x1xf32>
    %901 = stablehlo.sqrt %900 : tensor<1x27x1xf32>
    %902 = stablehlo.broadcast_in_dim %901, dims = [0, 1, 2] : (tensor<1x27x1xf32>) -> tensor<1x27x4096xf32>
    %903 = stablehlo.divide %890, %902 : tensor<1x27x4096xf32>
    %904 = stablehlo.convert %41 : (tensor<4096xf16>) -> tensor<4096xf32>
    %905 = stablehlo.broadcast_in_dim %904, dims = [2] : (tensor<4096xf32>) -> tensor<1x1x4096xf32>
    %906 = stablehlo.broadcast_in_dim %905, dims = [0, 1, 2] : (tensor<1x1x4096xf32>) -> tensor<1x27x4096xf32>
    %907 = stablehlo.multiply %906, %903 : tensor<1x27x4096xf32>
    %908 = stablehlo.iota dim = 0 : tensor<4096xi32>
    %909 = stablehlo.broadcast_in_dim %908, dims = [1] : (tensor<4096xi32>) -> tensor<1x4096xi32>
    %910 = stablehlo.broadcast_in_dim %909, dims = [0, 1] : (tensor<1x4096xi32>) -> tensor<1x4096x1xi32>
    %911 = stablehlo.broadcast_in_dim %909, dims = [0, 2] : (tensor<1x4096xi32>) -> tensor<1x1x4096xi32>
    %912 = stablehlo.broadcast_in_dim %910, dims = [0, 1, 2] : (tensor<1x4096x1xi32>) -> tensor<1x4096x4096xi32>
    %913 = stablehlo.broadcast_in_dim %911, dims = [0, 1, 2] : (tensor<1x1x4096xi32>) -> tensor<1x4096x4096xi32>
    %914 = stablehlo.compare  GE, %912, %913,  SIGNED : (tensor<1x4096x4096xi32>, tensor<1x4096x4096xi32>) -> tensor<1x4096x4096xi1>
    %915 = stablehlo.broadcast_in_dim %914, dims = [0, 2, 3] : (tensor<1x4096x4096xi1>) -> tensor<1x1x4096x4096xi1>
    %916 = stablehlo.convert %42 : (tensor<4096x4096xf16>) -> tensor<4096x4096xf32>
    %917 = stablehlo.dot_general %907, %916, contracting_dims = [2] x [0] : (tensor<1x27x4096xf32>, tensor<4096x4096xf32>) -> tensor<1x27x4096xf32>
    %918 = stablehlo.convert %43 : (tensor<4096x4096xf16>) -> tensor<4096x4096xf32>
    %919 = stablehlo.dot_general %907, %918, contracting_dims = [2] x [0] : (tensor<1x27x4096xf32>, tensor<4096x4096xf32>) -> tensor<1x27x4096xf32>
    %920 = stablehlo.convert %44 : (tensor<4096x4096xf16>) -> tensor<4096x4096xf32>
    %921 = stablehlo.dot_general %907, %920, contracting_dims = [2] x [0] : (tensor<1x27x4096xf32>, tensor<4096x4096xf32>) -> tensor<1x27x4096xf32>
    %922 = stablehlo.reshape %917 : (tensor<1x27x4096xf32>) -> tensor<1x27x32x128xf32>
    %923 = stablehlo.reshape %919 : (tensor<1x27x4096xf32>) -> tensor<1x27x32x128xf32>
    %924 = stablehlo.reshape %921 : (tensor<1x27x4096xf32>) -> tensor<1x27x32x128xf32>
    %925 = stablehlo.constant dense<0> : tensor<i32>
    %926 = stablehlo.broadcast_in_dim %925, dims = [] : (tensor<i32>) -> tensor<1x27xi32>
    %927 = stablehlo.compare  LT, %324, %926,  SIGNED : (tensor<1x27xi32>, tensor<1x27xi32>) -> tensor<1x27xi1>
    %928 = stablehlo.constant dense<4096> : tensor<i32>
    %929 = stablehlo.broadcast_in_dim %928, dims = [] : (tensor<i32>) -> tensor<1x27xi32>
    %930 = stablehlo.add %324, %929 : tensor<1x27xi32>
    %931 = stablehlo.select %927, %930, %324 : tensor<1x27xi1>, tensor<1x27xi32>
    %932 = stablehlo.broadcast_in_dim %931, dims = [0, 1] : (tensor<1x27xi32>) -> tensor<1x27x1xi32>
    %933 = "stablehlo.gather"(%45, %932) {dimension_numbers = #stablehlo.gather<offset_dims = [2, 3], collapsed_slice_dims = [0], start_index_map = [0], index_vector_dim = 2>, slice_sizes = array<i64: 1, 1, 256>} : (tensor<4096x1x256xf32>, tensor<1x27x1xi32>) -> tensor<1x27x1x256xf32>
    %934 = stablehlo.slice %933 [0:1, 0:27, 0:1, 0:128] : (tensor<1x27x1x256xf32>) -> tensor<1x27x1x128xf32>
    %935 = stablehlo.slice %933 [0:1, 0:27, 0:1, 128:256] : (tensor<1x27x1x256xf32>) -> tensor<1x27x1x128xf32>
    %936 = stablehlo.broadcast_in_dim %935, dims = [0, 1, 2, 3] : (tensor<1x27x1x128xf32>) -> tensor<1x27x32x128xf32>
    %937 = stablehlo.multiply %923, %936 : tensor<1x27x32x128xf32>
    %938 = stablehlo.constant dense<64> : tensor<i32>
    %939 = stablehlo.broadcast_in_dim %938, dims = [] : (tensor<i32>) -> tensor<1xi32>
    %940 = "stablehlo.gather"(%923, %939) {dimension_numbers = #stablehlo.gather<offset_dims = [0, 1, 2, 3], start_index_map = [3]>, indices_are_sorted = true, slice_sizes = array<i64: 1, 27, 32, 64>} : (tensor<1x27x32x128xf32>, tensor<1xi32>) -> tensor<1x27x32x64xf32>
    %941 = stablehlo.negate %940 : tensor<1x27x32x64xf32>
    %942 = stablehlo.constant dense<0> : tensor<i32>
    %943 = stablehlo.broadcast_in_dim %942, dims = [] : (tensor<i32>) -> tensor<1xi32>
    %944 = "stablehlo.gather"(%923, %943) {dimension_numbers = #stablehlo.gather<offset_dims = [0, 1, 2, 3], start_index_map = [3]>, indices_are_sorted = true, slice_sizes = array<i64: 1, 27, 32, 64>} : (tensor<1x27x32x128xf32>, tensor<1xi32>) -> tensor<1x27x32x64xf32>
    %945 = stablehlo.concatenate %941, %944, dim = 3 : (tensor<1x27x32x64xf32>, tensor<1x27x32x64xf32>) -> tensor<1x27x32x128xf32>
    %946 = stablehlo.broadcast_in_dim %934, dims = [0, 1, 2, 3] : (tensor<1x27x1x128xf32>) -> tensor<1x27x32x128xf32>
    %947 = stablehlo.multiply %945, %946 : tensor<1x27x32x128xf32>
    %948 = stablehlo.add %937, %947 : tensor<1x27x32x128xf32>
    %949 = stablehlo.broadcast_in_dim %935, dims = [0, 1, 2, 3] : (tensor<1x27x1x128xf32>) -> tensor<1x27x32x128xf32>
    %950 = stablehlo.multiply %922, %949 : tensor<1x27x32x128xf32>
    %951 = stablehlo.constant dense<64> : tensor<i32>
    %952 = stablehlo.broadcast_in_dim %951, dims = [] : (tensor<i32>) -> tensor<1xi32>
    %953 = "stablehlo.gather"(%922, %952) {dimension_numbers = #stablehlo.gather<offset_dims = [0, 1, 2, 3], start_index_map = [3]>, indices_are_sorted = true, slice_sizes = array<i64: 1, 27, 32, 64>} : (tensor<1x27x32x128xf32>, tensor<1xi32>) -> tensor<1x27x32x64xf32>
    %954 = stablehlo.negate %953 : tensor<1x27x32x64xf32>
    %955 = stablehlo.constant dense<0> : tensor<i32>
    %956 = stablehlo.broadcast_in_dim %955, dims = [] : (tensor<i32>) -> tensor<1xi32>
    %957 = "stablehlo.gather"(%922, %956) {dimension_numbers = #stablehlo.gather<offset_dims = [0, 1, 2, 3], start_index_map = [3]>, indices_are_sorted = true, slice_sizes = array<i64: 1, 27, 32, 64>} : (tensor<1x27x32x128xf32>, tensor<1xi32>) -> tensor<1x27x32x64xf32>
    %958 = stablehlo.concatenate %954, %957, dim = 3 : (tensor<1x27x32x64xf32>, tensor<1x27x32x64xf32>) -> tensor<1x27x32x128xf32>
    %959 = stablehlo.broadcast_in_dim %934, dims = [0, 1, 2, 3] : (tensor<1x27x1x128xf32>) -> tensor<1x27x32x128xf32>
    %960 = stablehlo.multiply %958, %959 : tensor<1x27x32x128xf32>
    %961 = stablehlo.add %950, %960 : tensor<1x27x32x128xf32>
    %962 = stablehlo.slice %915 [0:1, 0:1, 0:27, 0:27] : (tensor<1x1x4096x4096xi1>) -> tensor<1x1x27x27xi1>
    %963 = stablehlo.broadcast_in_dim %328, dims = [0, 3] : (tensor<1x27xi32>) -> tensor<1x1x1x27xi32>
    %964 = stablehlo.reshape %963 : (tensor<1x1x1x27xi32>) -> tensor<1x1x27xi32>
    %965 = stablehlo.broadcast_in_dim %964, dims = [0, 1, 3] : (tensor<1x1x27xi32>) -> tensor<1x1x27x27xi32>
    %966 = stablehlo.constant dense<0> : tensor<i32>
    %967 = stablehlo.broadcast_in_dim %966, dims = [] : (tensor<i32>) -> tensor<1x1x27x27xi32>
    %968 = stablehlo.compare  NE, %965, %967,  SIGNED : (tensor<1x1x27x27xi32>, tensor<1x1x27x27xi32>) -> tensor<1x1x27x27xi1>
    %969 = stablehlo.and %968, %962 : tensor<1x1x27x27xi1>
    %970 = stablehlo.convert %969 : (tensor<1x1x27x27xi1>) -> tensor<1x1x27x27xf32>
    %971 = stablehlo.constant dense<0.000000e+00> : tensor<f32>
    %972 = stablehlo.broadcast_in_dim %971, dims = [] : (tensor<f32>) -> tensor<1x1x27x27xf32>
    %973 = stablehlo.compare  GT, %970, %972,  FLOAT : (tensor<1x1x27x27xf32>, tensor<1x1x27x27xf32>) -> tensor<1x1x27x27xi1>
    %974 = stablehlo.constant dense<0.000000e+00> : tensor<f32>
    %975 = stablehlo.broadcast_in_dim %974, dims = [] : (tensor<f32>) -> tensor<1x1x27x27xf32>
    %976 = stablehlo.convert %975 : tensor<1x1x27x27xf32>
    %977 = stablehlo.constant dense<-3.40282347E+38> : tensor<f32>
    %978 = stablehlo.broadcast_in_dim %977, dims = [] : (tensor<f32>) -> tensor<1x1x27x27xf32>
    %979 = stablehlo.select %973, %976, %978 : tensor<1x1x27x27xi1>, tensor<1x1x27x27xf32>
    %980 = stablehlo.constant dense<1.280000e+02> : tensor<f32>
    %981 = stablehlo.sqrt %980 : tensor<f32>
    %982 = stablehlo.convert %981 : tensor<f32>
    %983 = stablehlo.broadcast_in_dim %982, dims = [] : (tensor<f32>) -> tensor<1x27x32x128xf32>
    %984 = stablehlo.divide %961, %983 : tensor<1x27x32x128xf32>
    %985 = stablehlo.dot_general %984, %948, batching_dims = [0, 2] x [0, 2], contracting_dims = [3] x [3] : (tensor<1x27x32x128xf32>, tensor<1x27x32x128xf32>) -> tensor<1x32x27x27xf32>
    %986 = stablehlo.broadcast_in_dim %979, dims = [0, 1, 2, 3] : (tensor<1x1x27x27xf32>) -> tensor<1x32x27x27xf32>
    %987 = stablehlo.add %985, %986 : tensor<1x32x27x27xf32>
    %988 = stablehlo.constant dense<0xFF800000> : tensor<f32>
    %989 = stablehlo.reduce(%987 init: %988) applies stablehlo.maximum across dimensions = [3] : (tensor<1x32x27x27xf32>, tensor<f32>) -> tensor<1x32x27xf32>
    %990 = stablehlo.broadcast_in_dim %989, dims = [0, 1, 2] : (tensor<1x32x27xf32>) -> tensor<1x32x27x1xf32>
    %991 = stablehlo.broadcast_in_dim %990, dims = [0, 1, 2, 3] : (tensor<1x32x27x1xf32>) -> tensor<1x32x27x27xf32>
    %992 = stablehlo.subtract %987, %991 : tensor<1x32x27x27xf32>
    %993 = stablehlo.exponential %992 : tensor<1x32x27x27xf32>
    %994 = stablehlo.constant dense<0.000000e+00> : tensor<f32>
    %995 = stablehlo.reduce(%993 init: %994) applies stablehlo.add across dimensions = [3] : (tensor<1x32x27x27xf32>, tensor<f32>) -> tensor<1x32x27xf32>
    %996 = stablehlo.broadcast_in_dim %995, dims = [0, 1, 2] : (tensor<1x32x27xf32>) -> tensor<1x32x27x1xf32>
    %997 = stablehlo.broadcast_in_dim %996, dims = [0, 1, 2, 3] : (tensor<1x32x27x1xf32>) -> tensor<1x32x27x27xf32>
    %998 = stablehlo.divide %993, %997 : tensor<1x32x27x27xf32>
    %999 = stablehlo.dot_general %924, %998, batching_dims = [0, 2] x [0, 1], contracting_dims = [1] x [3] : (tensor<1x27x32x128xf32>, tensor<1x32x27x27xf32>) -> tensor<1x32x128x27xf32>
    %1000 = stablehlo.transpose %999, dims = [0, 3, 1, 2] : (tensor<1x32x128x27xf32>) -> tensor<1x27x32x128xf32>
    %1001 = stablehlo.reshape %1000 : (tensor<1x27x32x128xf32>) -> tensor<1x27x4096xf32>
    %1002 = stablehlo.convert %46 : (tensor<4096x4096xf16>) -> tensor<4096x4096xf32>
    %1003 = stablehlo.dot_general %1001, %1002, contracting_dims = [2] x [0] : (tensor<1x27x4096xf32>, tensor<4096x4096xf32>) -> tensor<1x27x4096xf32>
    %1004 = stablehlo.add %890, %1003 : tensor<1x27x4096xf32>
    %1005 = stablehlo.multiply %1004, %1004 : tensor<1x27x4096xf32>
    %1006 = stablehlo.constant dense<0.000000e+00> : tensor<f32>
    %1007 = stablehlo.reduce(%1005 init: %1006) applies stablehlo.add across dimensions = [2] : (tensor<1x27x4096xf32>, tensor<f32>) -> tensor<1x27xf32>
    %1008 = stablehlo.broadcast_in_dim %1007, dims = [0, 1] : (tensor<1x27xf32>) -> tensor<1x27x1xf32>
    %1009 = stablehlo.constant dense<4.096000e+03> : tensor<f32>
    %1010 = stablehlo.broadcast_in_dim %1009, dims = [] : (tensor<f32>) -> tensor<1x27x1xf32>
    %1011 = stablehlo.divide %1008, %1010 : tensor<1x27x1xf32>
    %1012 = stablehlo.constant dense<9.99999974E-6> : tensor<f32>
    %1013 = stablehlo.broadcast_in_dim %1012, dims = [] : (tensor<f32>) -> tensor<1x27x1xf32>
    %1014 = stablehlo.add %1011, %1013 : tensor<1x27x1xf32>
    %1015 = stablehlo.sqrt %1014 : tensor<1x27x1xf32>
    %1016 = stablehlo.broadcast_in_dim %1015, dims = [0, 1, 2] : (tensor<1x27x1xf32>) -> tensor<1x27x4096xf32>
    %1017 = stablehlo.divide %1004, %1016 : tensor<1x27x4096xf32>
    %1018 = stablehlo.convert %47 : (tensor<4096xf16>) -> tensor<4096xf32>
    %1019 = stablehlo.broadcast_in_dim %1018, dims = [2] : (tensor<4096xf32>) -> tensor<1x1x4096xf32>
    %1020 = stablehlo.broadcast_in_dim %1019, dims = [0, 1, 2] : (tensor<1x1x4096xf32>) -> tensor<1x27x4096xf32>
    %1021 = stablehlo.multiply %1020, %1017 : tensor<1x27x4096xf32>
    %1022 = stablehlo.convert %48 : (tensor<4096x11008xf16>) -> tensor<4096x11008xf32>
    %1023 = stablehlo.dot_general %1021, %1022, contracting_dims = [2] x [0] : (tensor<1x27x4096xf32>, tensor<4096x11008xf32>) -> tensor<1x27x11008xf32>
    %1024 = stablehlo.convert %49 : (tensor<4096x11008xf16>) -> tensor<4096x11008xf32>
    %1025 = stablehlo.dot_general %1021, %1024, contracting_dims = [2] x [0] : (tensor<1x27x4096xf32>, tensor<4096x11008xf32>) -> tensor<1x27x11008xf32>
    %1026 = call @silu(%1025) : (tensor<1x27x11008xf32>) -> tensor<1x27x11008xf32>
    %1027 = stablehlo.multiply %1023, %1026 : tensor<1x27x11008xf32>
    %1028 = stablehlo.convert %50 : (tensor<11008x4096xf16>) -> tensor<11008x4096xf32>
    %1029 = stablehlo.dot_general %1027, %1028, contracting_dims = [2] x [0] : (tensor<1x27x11008xf32>, tensor<11008x4096xf32>) -> tensor<1x27x4096xf32>
    %1030 = stablehlo.add %1004, %1029 : tensor<1x27x4096xf32>
    %1031 = stablehlo.multiply %1030, %1030 : tensor<1x27x4096xf32>
    %1032 = stablehlo.constant dense<0.000000e+00> : tensor<f32>
    %1033 = stablehlo.reduce(%1031 init: %1032) applies stablehlo.add across dimensions = [2] : (tensor<1x27x4096xf32>, tensor<f32>) -> tensor<1x27xf32>
    %1034 = stablehlo.broadcast_in_dim %1033, dims = [0, 1] : (tensor<1x27xf32>) -> tensor<1x27x1xf32>
    %1035 = stablehlo.constant dense<4.096000e+03> : tensor<f32>
    %1036 = stablehlo.broadcast_in_dim %1035, dims = [] : (tensor<f32>) -> tensor<1x27x1xf32>
    %1037 = stablehlo.divide %1034, %1036 : tensor<1x27x1xf32>
    %1038 = stablehlo.constant dense<9.99999974E-6> : tensor<f32>
    %1039 = stablehlo.broadcast_in_dim %1038, dims = [] : (tensor<f32>) -> tensor<1x27x1xf32>
    %1040 = stablehlo.add %1037, %1039 : tensor<1x27x1xf32>
    %1041 = stablehlo.sqrt %1040 : tensor<1x27x1xf32>
    %1042 = stablehlo.broadcast_in_dim %1041, dims = [0, 1, 2] : (tensor<1x27x1xf32>) -> tensor<1x27x4096xf32>
    %1043 = stablehlo.divide %1030, %1042 : tensor<1x27x4096xf32>
    %1044 = stablehlo.convert %51 : (tensor<4096xf16>) -> tensor<4096xf32>
    %1045 = stablehlo.broadcast_in_dim %1044, dims = [2] : (tensor<4096xf32>) -> tensor<1x1x4096xf32>
    %1046 = stablehlo.broadcast_in_dim %1045, dims = [0, 1, 2] : (tensor<1x1x4096xf32>) -> tensor<1x27x4096xf32>
    %1047 = stablehlo.multiply %1046, %1043 : tensor<1x27x4096xf32>
    %1048 = stablehlo.iota dim = 0 : tensor<4096xi32>
    %1049 = stablehlo.broadcast_in_dim %1048, dims = [1] : (tensor<4096xi32>) -> tensor<1x4096xi32>
    %1050 = stablehlo.broadcast_in_dim %1049, dims = [0, 1] : (tensor<1x4096xi32>) -> tensor<1x4096x1xi32>
    %1051 = stablehlo.broadcast_in_dim %1049, dims = [0, 2] : (tensor<1x4096xi32>) -> tensor<1x1x4096xi32>
    %1052 = stablehlo.broadcast_in_dim %1050, dims = [0, 1, 2] : (tensor<1x4096x1xi32>) -> tensor<1x4096x4096xi32>
    %1053 = stablehlo.broadcast_in_dim %1051, dims = [0, 1, 2] : (tensor<1x1x4096xi32>) -> tensor<1x4096x4096xi32>
    %1054 = stablehlo.compare  GE, %1052, %1053,  SIGNED : (tensor<1x4096x4096xi32>, tensor<1x4096x4096xi32>) -> tensor<1x4096x4096xi1>
    %1055 = stablehlo.broadcast_in_dim %1054, dims = [0, 2, 3] : (tensor<1x4096x4096xi1>) -> tensor<1x1x4096x4096xi1>
    %1056 = stablehlo.convert %52 : (tensor<4096x4096xf16>) -> tensor<4096x4096xf32>
    %1057 = stablehlo.dot_general %1047, %1056, contracting_dims = [2] x [0] : (tensor<1x27x4096xf32>, tensor<4096x4096xf32>) -> tensor<1x27x4096xf32>
    %1058 = stablehlo.convert %53 : (tensor<4096x4096xf16>) -> tensor<4096x4096xf32>
    %1059 = stablehlo.dot_general %1047, %1058, contracting_dims = [2] x [0] : (tensor<1x27x4096xf32>, tensor<4096x4096xf32>) -> tensor<1x27x4096xf32>
    %1060 = stablehlo.convert %54 : (tensor<4096x4096xf16>) -> tensor<4096x4096xf32>
    %1061 = stablehlo.dot_general %1047, %1060, contracting_dims = [2] x [0] : (tensor<1x27x4096xf32>, tensor<4096x4096xf32>) -> tensor<1x27x4096xf32>
    %1062 = stablehlo.reshape %1057 : (tensor<1x27x4096xf32>) -> tensor<1x27x32x128xf32>
    %1063 = stablehlo.reshape %1059 : (tensor<1x27x4096xf32>) -> tensor<1x27x32x128xf32>
    %1064 = stablehlo.reshape %1061 : (tensor<1x27x4096xf32>) -> tensor<1x27x32x128xf32>
    %1065 = stablehlo.constant dense<0> : tensor<i32>
    %1066 = stablehlo.broadcast_in_dim %1065, dims = [] : (tensor<i32>) -> tensor<1x27xi32>
    %1067 = stablehlo.compare  LT, %324, %1066,  SIGNED : (tensor<1x27xi32>, tensor<1x27xi32>) -> tensor<1x27xi1>
    %1068 = stablehlo.constant dense<4096> : tensor<i32>
    %1069 = stablehlo.broadcast_in_dim %1068, dims = [] : (tensor<i32>) -> tensor<1x27xi32>
    %1070 = stablehlo.add %324, %1069 : tensor<1x27xi32>
    %1071 = stablehlo.select %1067, %1070, %324 : tensor<1x27xi1>, tensor<1x27xi32>
    %1072 = stablehlo.broadcast_in_dim %1071, dims = [0, 1] : (tensor<1x27xi32>) -> tensor<1x27x1xi32>
    %1073 = "stablehlo.gather"(%55, %1072) {dimension_numbers = #stablehlo.gather<offset_dims = [2, 3], collapsed_slice_dims = [0], start_index_map = [0], index_vector_dim = 2>, slice_sizes = array<i64: 1, 1, 256>} : (tensor<4096x1x256xf32>, tensor<1x27x1xi32>) -> tensor<1x27x1x256xf32>
    %1074 = stablehlo.slice %1073 [0:1, 0:27, 0:1, 0:128] : (tensor<1x27x1x256xf32>) -> tensor<1x27x1x128xf32>
    %1075 = stablehlo.slice %1073 [0:1, 0:27, 0:1, 128:256] : (tensor<1x27x1x256xf32>) -> tensor<1x27x1x128xf32>
    %1076 = stablehlo.broadcast_in_dim %1075, dims = [0, 1, 2, 3] : (tensor<1x27x1x128xf32>) -> tensor<1x27x32x128xf32>
    %1077 = stablehlo.multiply %1063, %1076 : tensor<1x27x32x128xf32>
    %1078 = stablehlo.constant dense<64> : tensor<i32>
    %1079 = stablehlo.broadcast_in_dim %1078, dims = [] : (tensor<i32>) -> tensor<1xi32>
    %1080 = "stablehlo.gather"(%1063, %1079) {dimension_numbers = #stablehlo.gather<offset_dims = [0, 1, 2, 3], start_index_map = [3]>, indices_are_sorted = true, slice_sizes = array<i64: 1, 27, 32, 64>} : (tensor<1x27x32x128xf32>, tensor<1xi32>) -> tensor<1x27x32x64xf32>
    %1081 = stablehlo.negate %1080 : tensor<1x27x32x64xf32>
    %1082 = stablehlo.constant dense<0> : tensor<i32>
    %1083 = stablehlo.broadcast_in_dim %1082, dims = [] : (tensor<i32>) -> tensor<1xi32>
    %1084 = "stablehlo.gather"(%1063, %1083) {dimension_numbers = #stablehlo.gather<offset_dims = [0, 1, 2, 3], start_index_map = [3]>, indices_are_sorted = true, slice_sizes = array<i64: 1, 27, 32, 64>} : (tensor<1x27x32x128xf32>, tensor<1xi32>) -> tensor<1x27x32x64xf32>
    %1085 = stablehlo.concatenate %1081, %1084, dim = 3 : (tensor<1x27x32x64xf32>, tensor<1x27x32x64xf32>) -> tensor<1x27x32x128xf32>
    %1086 = stablehlo.broadcast_in_dim %1074, dims = [0, 1, 2, 3] : (tensor<1x27x1x128xf32>) -> tensor<1x27x32x128xf32>
    %1087 = stablehlo.multiply %1085, %1086 : tensor<1x27x32x128xf32>
    %1088 = stablehlo.add %1077, %1087 : tensor<1x27x32x128xf32>
    %1089 = stablehlo.broadcast_in_dim %1075, dims = [0, 1, 2, 3] : (tensor<1x27x1x128xf32>) -> tensor<1x27x32x128xf32>
    %1090 = stablehlo.multiply %1062, %1089 : tensor<1x27x32x128xf32>
    %1091 = stablehlo.constant dense<64> : tensor<i32>
    %1092 = stablehlo.broadcast_in_dim %1091, dims = [] : (tensor<i32>) -> tensor<1xi32>
    %1093 = "stablehlo.gather"(%1062, %1092) {dimension_numbers = #stablehlo.gather<offset_dims = [0, 1, 2, 3], start_index_map = [3]>, indices_are_sorted = true, slice_sizes = array<i64: 1, 27, 32, 64>} : (tensor<1x27x32x128xf32>, tensor<1xi32>) -> tensor<1x27x32x64xf32>
    %1094 = stablehlo.negate %1093 : tensor<1x27x32x64xf32>
    %1095 = stablehlo.constant dense<0> : tensor<i32>
    %1096 = stablehlo.broadcast_in_dim %1095, dims = [] : (tensor<i32>) -> tensor<1xi32>
    %1097 = "stablehlo.gather"(%1062, %1096) {dimension_numbers = #stablehlo.gather<offset_dims = [0, 1, 2, 3], start_index_map = [3]>, indices_are_sorted = true, slice_sizes = array<i64: 1, 27, 32, 64>} : (tensor<1x27x32x128xf32>, tensor<1xi32>) -> tensor<1x27x32x64xf32>
    %1098 = stablehlo.concatenate %1094, %1097, dim = 3 : (tensor<1x27x32x64xf32>, tensor<1x27x32x64xf32>) -> tensor<1x27x32x128xf32>
    %1099 = stablehlo.broadcast_in_dim %1074, dims = [0, 1, 2, 3] : (tensor<1x27x1x128xf32>) -> tensor<1x27x32x128xf32>
    %1100 = stablehlo.multiply %1098, %1099 : tensor<1x27x32x128xf32>
    %1101 = stablehlo.add %1090, %1100 : tensor<1x27x32x128xf32>
    %1102 = stablehlo.slice %1055 [0:1, 0:1, 0:27, 0:27] : (tensor<1x1x4096x4096xi1>) -> tensor<1x1x27x27xi1>
    %1103 = stablehlo.broadcast_in_dim %328, dims = [0, 3] : (tensor<1x27xi32>) -> tensor<1x1x1x27xi32>
    %1104 = stablehlo.reshape %1103 : (tensor<1x1x1x27xi32>) -> tensor<1x1x27xi32>
    %1105 = stablehlo.broadcast_in_dim %1104, dims = [0, 1, 3] : (tensor<1x1x27xi32>) -> tensor<1x1x27x27xi32>
    %1106 = stablehlo.constant dense<0> : tensor<i32>
    %1107 = stablehlo.broadcast_in_dim %1106, dims = [] : (tensor<i32>) -> tensor<1x1x27x27xi32>
    %1108 = stablehlo.compare  NE, %1105, %1107,  SIGNED : (tensor<1x1x27x27xi32>, tensor<1x1x27x27xi32>) -> tensor<1x1x27x27xi1>
    %1109 = stablehlo.and %1108, %1102 : tensor<1x1x27x27xi1>
    %1110 = stablehlo.convert %1109 : (tensor<1x1x27x27xi1>) -> tensor<1x1x27x27xf32>
    %1111 = stablehlo.constant dense<0.000000e+00> : tensor<f32>
    %1112 = stablehlo.broadcast_in_dim %1111, dims = [] : (tensor<f32>) -> tensor<1x1x27x27xf32>
    %1113 = stablehlo.compare  GT, %1110, %1112,  FLOAT : (tensor<1x1x27x27xf32>, tensor<1x1x27x27xf32>) -> tensor<1x1x27x27xi1>
    %1114 = stablehlo.constant dense<0.000000e+00> : tensor<f32>
    %1115 = stablehlo.broadcast_in_dim %1114, dims = [] : (tensor<f32>) -> tensor<1x1x27x27xf32>
    %1116 = stablehlo.convert %1115 : tensor<1x1x27x27xf32>
    %1117 = stablehlo.constant dense<-3.40282347E+38> : tensor<f32>
    %1118 = stablehlo.broadcast_in_dim %1117, dims = [] : (tensor<f32>) -> tensor<1x1x27x27xf32>
    %1119 = stablehlo.select %1113, %1116, %1118 : tensor<1x1x27x27xi1>, tensor<1x1x27x27xf32>
    %1120 = stablehlo.constant dense<1.280000e+02> : tensor<f32>
    %1121 = stablehlo.sqrt %1120 : tensor<f32>
    %1122 = stablehlo.convert %1121 : tensor<f32>
    %1123 = stablehlo.broadcast_in_dim %1122, dims = [] : (tensor<f32>) -> tensor<1x27x32x128xf32>
    %1124 = stablehlo.divide %1101, %1123 : tensor<1x27x32x128xf32>
    %1125 = stablehlo.dot_general %1124, %1088, batching_dims = [0, 2] x [0, 2], contracting_dims = [3] x [3] : (tensor<1x27x32x128xf32>, tensor<1x27x32x128xf32>) -> tensor<1x32x27x27xf32>
    %1126 = stablehlo.broadcast_in_dim %1119, dims = [0, 1, 2, 3] : (tensor<1x1x27x27xf32>) -> tensor<1x32x27x27xf32>
    %1127 = stablehlo.add %1125, %1126 : tensor<1x32x27x27xf32>
    %1128 = stablehlo.constant dense<0xFF800000> : tensor<f32>
    %1129 = stablehlo.reduce(%1127 init: %1128) applies stablehlo.maximum across dimensions = [3] : (tensor<1x32x27x27xf32>, tensor<f32>) -> tensor<1x32x27xf32>
    %1130 = stablehlo.broadcast_in_dim %1129, dims = [0, 1, 2] : (tensor<1x32x27xf32>) -> tensor<1x32x27x1xf32>
    %1131 = stablehlo.broadcast_in_dim %1130, dims = [0, 1, 2, 3] : (tensor<1x32x27x1xf32>) -> tensor<1x32x27x27xf32>
    %1132 = stablehlo.subtract %1127, %1131 : tensor<1x32x27x27xf32>
    %1133 = stablehlo.exponential %1132 : tensor<1x32x27x27xf32>
    %1134 = stablehlo.constant dense<0.000000e+00> : tensor<f32>
    %1135 = stablehlo.reduce(%1133 init: %1134) applies stablehlo.add across dimensions = [3] : (tensor<1x32x27x27xf32>, tensor<f32>) -> tensor<1x32x27xf32>
    %1136 = stablehlo.broadcast_in_dim %1135, dims = [0, 1, 2] : (tensor<1x32x27xf32>) -> tensor<1x32x27x1xf32>
    %1137 = stablehlo.broadcast_in_dim %1136, dims = [0, 1, 2, 3] : (tensor<1x32x27x1xf32>) -> tensor<1x32x27x27xf32>
    %1138 = stablehlo.divide %1133, %1137 : tensor<1x32x27x27xf32>
    %1139 = stablehlo.dot_general %1064, %1138, batching_dims = [0, 2] x [0, 1], contracting_dims = [1] x [3] : (tensor<1x27x32x128xf32>, tensor<1x32x27x27xf32>) -> tensor<1x32x128x27xf32>
    %1140 = stablehlo.transpose %1139, dims = [0, 3, 1, 2] : (tensor<1x32x128x27xf32>) -> tensor<1x27x32x128xf32>
    %1141 = stablehlo.reshape %1140 : (tensor<1x27x32x128xf32>) -> tensor<1x27x4096xf32>
    %1142 = stablehlo.convert %56 : (tensor<4096x4096xf16>) -> tensor<4096x4096xf32>
    %1143 = stablehlo.dot_general %1141, %1142, contracting_dims = [2] x [0] : (tensor<1x27x4096xf32>, tensor<4096x4096xf32>) -> tensor<1x27x4096xf32>
    %1144 = stablehlo.add %1030, %1143 : tensor<1x27x4096xf32>
    %1145 = stablehlo.multiply %1144, %1144 : tensor<1x27x4096xf32>
    %1146 = stablehlo.constant dense<0.000000e+00> : tensor<f32>
    %1147 = stablehlo.reduce(%1145 init: %1146) applies stablehlo.add across dimensions = [2] : (tensor<1x27x4096xf32>, tensor<f32>) -> tensor<1x27xf32>
    %1148 = stablehlo.broadcast_in_dim %1147, dims = [0, 1] : (tensor<1x27xf32>) -> tensor<1x27x1xf32>
    %1149 = stablehlo.constant dense<4.096000e+03> : tensor<f32>
    %1150 = stablehlo.broadcast_in_dim %1149, dims = [] : (tensor<f32>) -> tensor<1x27x1xf32>
    %1151 = stablehlo.divide %1148, %1150 : tensor<1x27x1xf32>
    %1152 = stablehlo.constant dense<9.99999974E-6> : tensor<f32>
    %1153 = stablehlo.broadcast_in_dim %1152, dims = [] : (tensor<f32>) -> tensor<1x27x1xf32>
    %1154 = stablehlo.add %1151, %1153 : tensor<1x27x1xf32>
    %1155 = stablehlo.sqrt %1154 : tensor<1x27x1xf32>
    %1156 = stablehlo.broadcast_in_dim %1155, dims = [0, 1, 2] : (tensor<1x27x1xf32>) -> tensor<1x27x4096xf32>
    %1157 = stablehlo.divide %1144, %1156 : tensor<1x27x4096xf32>
    %1158 = stablehlo.convert %57 : (tensor<4096xf16>) -> tensor<4096xf32>
    %1159 = stablehlo.broadcast_in_dim %1158, dims = [2] : (tensor<4096xf32>) -> tensor<1x1x4096xf32>
    %1160 = stablehlo.broadcast_in_dim %1159, dims = [0, 1, 2] : (tensor<1x1x4096xf32>) -> tensor<1x27x4096xf32>
    %1161 = stablehlo.multiply %1160, %1157 : tensor<1x27x4096xf32>
    %1162 = stablehlo.convert %58 : (tensor<4096x11008xf16>) -> tensor<4096x11008xf32>
    %1163 = stablehlo.dot_general %1161, %1162, contracting_dims = [2] x [0] : (tensor<1x27x4096xf32>, tensor<4096x11008xf32>) -> tensor<1x27x11008xf32>
    %1164 = stablehlo.convert %59 : (tensor<4096x11008xf16>) -> tensor<4096x11008xf32>
    %1165 = stablehlo.dot_general %1161, %1164, contracting_dims = [2] x [0] : (tensor<1x27x4096xf32>, tensor<4096x11008xf32>) -> tensor<1x27x11008xf32>
    %1166 = call @silu(%1165) : (tensor<1x27x11008xf32>) -> tensor<1x27x11008xf32>
    %1167 = stablehlo.multiply %1163, %1166 : tensor<1x27x11008xf32>
    %1168 = stablehlo.convert %60 : (tensor<11008x4096xf16>) -> tensor<11008x4096xf32>
    %1169 = stablehlo.dot_general %1167, %1168, contracting_dims = [2] x [0] : (tensor<1x27x11008xf32>, tensor<11008x4096xf32>) -> tensor<1x27x4096xf32>
    %1170 = stablehlo.add %1144, %1169 : tensor<1x27x4096xf32>
    %1171 = stablehlo.multiply %1170, %1170 : tensor<1x27x4096xf32>
    %1172 = stablehlo.constant dense<0.000000e+00> : tensor<f32>
    %1173 = stablehlo.reduce(%1171 init: %1172) applies stablehlo.add across dimensions = [2] : (tensor<1x27x4096xf32>, tensor<f32>) -> tensor<1x27xf32>
    %1174 = stablehlo.broadcast_in_dim %1173, dims = [0, 1] : (tensor<1x27xf32>) -> tensor<1x27x1xf32>
    %1175 = stablehlo.constant dense<4.096000e+03> : tensor<f32>
    %1176 = stablehlo.broadcast_in_dim %1175, dims = [] : (tensor<f32>) -> tensor<1x27x1xf32>
    %1177 = stablehlo.divide %1174, %1176 : tensor<1x27x1xf32>
    %1178 = stablehlo.constant dense<9.99999974E-6> : tensor<f32>
    %1179 = stablehlo.broadcast_in_dim %1178, dims = [] : (tensor<f32>) -> tensor<1x27x1xf32>
    %1180 = stablehlo.add %1177, %1179 : tensor<1x27x1xf32>
    %1181 = stablehlo.sqrt %1180 : tensor<1x27x1xf32>
    %1182 = stablehlo.broadcast_in_dim %1181, dims = [0, 1, 2] : (tensor<1x27x1xf32>) -> tensor<1x27x4096xf32>
    %1183 = stablehlo.divide %1170, %1182 : tensor<1x27x4096xf32>
    %1184 = stablehlo.convert %61 : (tensor<4096xf16>) -> tensor<4096xf32>
    %1185 = stablehlo.broadcast_in_dim %1184, dims = [2] : (tensor<4096xf32>) -> tensor<1x1x4096xf32>
    %1186 = stablehlo.broadcast_in_dim %1185, dims = [0, 1, 2] : (tensor<1x1x4096xf32>) -> tensor<1x27x4096xf32>
    %1187 = stablehlo.multiply %1186, %1183 : tensor<1x27x4096xf32>
    %1188 = stablehlo.iota dim = 0 : tensor<4096xi32>
    %1189 = stablehlo.broadcast_in_dim %1188, dims = [1] : (tensor<4096xi32>) -> tensor<1x4096xi32>
    %1190 = stablehlo.broadcast_in_dim %1189, dims = [0, 1] : (tensor<1x4096xi32>) -> tensor<1x4096x1xi32>
    %1191 = stablehlo.broadcast_in_dim %1189, dims = [0, 2] : (tensor<1x4096xi32>) -> tensor<1x1x4096xi32>
    %1192 = stablehlo.broadcast_in_dim %1190, dims = [0, 1, 2] : (tensor<1x4096x1xi32>) -> tensor<1x4096x4096xi32>
    %1193 = stablehlo.broadcast_in_dim %1191, dims = [0, 1, 2] : (tensor<1x1x4096xi32>) -> tensor<1x4096x4096xi32>
    %1194 = stablehlo.compare  GE, %1192, %1193,  SIGNED : (tensor<1x4096x4096xi32>, tensor<1x4096x4096xi32>) -> tensor<1x4096x4096xi1>
    %1195 = stablehlo.broadcast_in_dim %1194, dims = [0, 2, 3] : (tensor<1x4096x4096xi1>) -> tensor<1x1x4096x4096xi1>
    %1196 = stablehlo.convert %62 : (tensor<4096x4096xf16>) -> tensor<4096x4096xf32>
    %1197 = stablehlo.dot_general %1187, %1196, contracting_dims = [2] x [0] : (tensor<1x27x4096xf32>, tensor<4096x4096xf32>) -> tensor<1x27x4096xf32>
    %1198 = stablehlo.convert %63 : (tensor<4096x4096xf16>) -> tensor<4096x4096xf32>
    %1199 = stablehlo.dot_general %1187, %1198, contracting_dims = [2] x [0] : (tensor<1x27x4096xf32>, tensor<4096x4096xf32>) -> tensor<1x27x4096xf32>
    %1200 = stablehlo.convert %64 : (tensor<4096x4096xf16>) -> tensor<4096x4096xf32>
    %1201 = stablehlo.dot_general %1187, %1200, contracting_dims = [2] x [0] : (tensor<1x27x4096xf32>, tensor<4096x4096xf32>) -> tensor<1x27x4096xf32>
    %1202 = stablehlo.reshape %1197 : (tensor<1x27x4096xf32>) -> tensor<1x27x32x128xf32>
    %1203 = stablehlo.reshape %1199 : (tensor<1x27x4096xf32>) -> tensor<1x27x32x128xf32>
    %1204 = stablehlo.reshape %1201 : (tensor<1x27x4096xf32>) -> tensor<1x27x32x128xf32>
    %1205 = stablehlo.constant dense<0> : tensor<i32>
    %1206 = stablehlo.broadcast_in_dim %1205, dims = [] : (tensor<i32>) -> tensor<1x27xi32>
    %1207 = stablehlo.compare  LT, %324, %1206,  SIGNED : (tensor<1x27xi32>, tensor<1x27xi32>) -> tensor<1x27xi1>
    %1208 = stablehlo.constant dense<4096> : tensor<i32>
    %1209 = stablehlo.broadcast_in_dim %1208, dims = [] : (tensor<i32>) -> tensor<1x27xi32>
    %1210 = stablehlo.add %324, %1209 : tensor<1x27xi32>
    %1211 = stablehlo.select %1207, %1210, %324 : tensor<1x27xi1>, tensor<1x27xi32>
    %1212 = stablehlo.broadcast_in_dim %1211, dims = [0, 1] : (tensor<1x27xi32>) -> tensor<1x27x1xi32>
    %1213 = "stablehlo.gather"(%65, %1212) {dimension_numbers = #stablehlo.gather<offset_dims = [2, 3], collapsed_slice_dims = [0], start_index_map = [0], index_vector_dim = 2>, slice_sizes = array<i64: 1, 1, 256>} : (tensor<4096x1x256xf32>, tensor<1x27x1xi32>) -> tensor<1x27x1x256xf32>
    %1214 = stablehlo.slice %1213 [0:1, 0:27, 0:1, 0:128] : (tensor<1x27x1x256xf32>) -> tensor<1x27x1x128xf32>
    %1215 = stablehlo.slice %1213 [0:1, 0:27, 0:1, 128:256] : (tensor<1x27x1x256xf32>) -> tensor<1x27x1x128xf32>
    %1216 = stablehlo.broadcast_in_dim %1215, dims = [0, 1, 2, 3] : (tensor<1x27x1x128xf32>) -> tensor<1x27x32x128xf32>
    %1217 = stablehlo.multiply %1203, %1216 : tensor<1x27x32x128xf32>
    %1218 = stablehlo.constant dense<64> : tensor<i32>
    %1219 = stablehlo.broadcast_in_dim %1218, dims = [] : (tensor<i32>) -> tensor<1xi32>
    %1220 = "stablehlo.gather"(%1203, %1219) {dimension_numbers = #stablehlo.gather<offset_dims = [0, 1, 2, 3], start_index_map = [3]>, indices_are_sorted = true, slice_sizes = array<i64: 1, 27, 32, 64>} : (tensor<1x27x32x128xf32>, tensor<1xi32>) -> tensor<1x27x32x64xf32>
    %1221 = stablehlo.negate %1220 : tensor<1x27x32x64xf32>
    %1222 = stablehlo.constant dense<0> : tensor<i32>
    %1223 = stablehlo.broadcast_in_dim %1222, dims = [] : (tensor<i32>) -> tensor<1xi32>
    %1224 = "stablehlo.gather"(%1203, %1223) {dimension_numbers = #stablehlo.gather<offset_dims = [0, 1, 2, 3], start_index_map = [3]>, indices_are_sorted = true, slice_sizes = array<i64: 1, 27, 32, 64>} : (tensor<1x27x32x128xf32>, tensor<1xi32>) -> tensor<1x27x32x64xf32>
    %1225 = stablehlo.concatenate %1221, %1224, dim = 3 : (tensor<1x27x32x64xf32>, tensor<1x27x32x64xf32>) -> tensor<1x27x32x128xf32>
    %1226 = stablehlo.broadcast_in_dim %1214, dims = [0, 1, 2, 3] : (tensor<1x27x1x128xf32>) -> tensor<1x27x32x128xf32>
    %1227 = stablehlo.multiply %1225, %1226 : tensor<1x27x32x128xf32>
    %1228 = stablehlo.add %1217, %1227 : tensor<1x27x32x128xf32>
    %1229 = stablehlo.broadcast_in_dim %1215, dims = [0, 1, 2, 3] : (tensor<1x27x1x128xf32>) -> tensor<1x27x32x128xf32>
    %1230 = stablehlo.multiply %1202, %1229 : tensor<1x27x32x128xf32>
    %1231 = stablehlo.constant dense<64> : tensor<i32>
    %1232 = stablehlo.broadcast_in_dim %1231, dims = [] : (tensor<i32>) -> tensor<1xi32>
    %1233 = "stablehlo.gather"(%1202, %1232) {dimension_numbers = #stablehlo.gather<offset_dims = [0, 1, 2, 3], start_index_map = [3]>, indices_are_sorted = true, slice_sizes = array<i64: 1, 27, 32, 64>} : (tensor<1x27x32x128xf32>, tensor<1xi32>) -> tensor<1x27x32x64xf32>
    %1234 = stablehlo.negate %1233 : tensor<1x27x32x64xf32>
    %1235 = stablehlo.constant dense<0> : tensor<i32>
    %1236 = stablehlo.broadcast_in_dim %1235, dims = [] : (tensor<i32>) -> tensor<1xi32>
    %1237 = "stablehlo.gather"(%1202, %1236) {dimension_numbers = #stablehlo.gather<offset_dims = [0, 1, 2, 3], start_index_map = [3]>, indices_are_sorted = true, slice_sizes = array<i64: 1, 27, 32, 64>} : (tensor<1x27x32x128xf32>, tensor<1xi32>) -> tensor<1x27x32x64xf32>
    %1238 = stablehlo.concatenate %1234, %1237, dim = 3 : (tensor<1x27x32x64xf32>, tensor<1x27x32x64xf32>) -> tensor<1x27x32x128xf32>
    %1239 = stablehlo.broadcast_in_dim %1214, dims = [0, 1, 2, 3] : (tensor<1x27x1x128xf32>) -> tensor<1x27x32x128xf32>
    %1240 = stablehlo.multiply %1238, %1239 : tensor<1x27x32x128xf32>
    %1241 = stablehlo.add %1230, %1240 : tensor<1x27x32x128xf32>
    %1242 = stablehlo.slice %1195 [0:1, 0:1, 0:27, 0:27] : (tensor<1x1x4096x4096xi1>) -> tensor<1x1x27x27xi1>
    %1243 = stablehlo.broadcast_in_dim %328, dims = [0, 3] : (tensor<1x27xi32>) -> tensor<1x1x1x27xi32>
    %1244 = stablehlo.reshape %1243 : (tensor<1x1x1x27xi32>) -> tensor<1x1x27xi32>
    %1245 = stablehlo.broadcast_in_dim %1244, dims = [0, 1, 3] : (tensor<1x1x27xi32>) -> tensor<1x1x27x27xi32>
    %1246 = stablehlo.constant dense<0> : tensor<i32>
    %1247 = stablehlo.broadcast_in_dim %1246, dims = [] : (tensor<i32>) -> tensor<1x1x27x27xi32>
    %1248 = stablehlo.compare  NE, %1245, %1247,  SIGNED : (tensor<1x1x27x27xi32>, tensor<1x1x27x27xi32>) -> tensor<1x1x27x27xi1>
    %1249 = stablehlo.and %1248, %1242 : tensor<1x1x27x27xi1>
    %1250 = stablehlo.convert %1249 : (tensor<1x1x27x27xi1>) -> tensor<1x1x27x27xf32>
    %1251 = stablehlo.constant dense<0.000000e+00> : tensor<f32>
    %1252 = stablehlo.broadcast_in_dim %1251, dims = [] : (tensor<f32>) -> tensor<1x1x27x27xf32>
    %1253 = stablehlo.compare  GT, %1250, %1252,  FLOAT : (tensor<1x1x27x27xf32>, tensor<1x1x27x27xf32>) -> tensor<1x1x27x27xi1>
    %1254 = stablehlo.constant dense<0.000000e+00> : tensor<f32>
    %1255 = stablehlo.broadcast_in_dim %1254, dims = [] : (tensor<f32>) -> tensor<1x1x27x27xf32>
    %1256 = stablehlo.convert %1255 : tensor<1x1x27x27xf32>
    %1257 = stablehlo.constant dense<-3.40282347E+38> : tensor<f32>
    %1258 = stablehlo.broadcast_in_dim %1257, dims = [] : (tensor<f32>) -> tensor<1x1x27x27xf32>
    %1259 = stablehlo.select %1253, %1256, %1258 : tensor<1x1x27x27xi1>, tensor<1x1x27x27xf32>
    %1260 = stablehlo.constant dense<1.280000e+02> : tensor<f32>
    %1261 = stablehlo.sqrt %1260 : tensor<f32>
    %1262 = stablehlo.convert %1261 : tensor<f32>
    %1263 = stablehlo.broadcast_in_dim %1262, dims = [] : (tensor<f32>) -> tensor<1x27x32x128xf32>
    %1264 = stablehlo.divide %1241, %1263 : tensor<1x27x32x128xf32>
    %1265 = stablehlo.dot_general %1264, %1228, batching_dims = [0, 2] x [0, 2], contracting_dims = [3] x [3] : (tensor<1x27x32x128xf32>, tensor<1x27x32x128xf32>) -> tensor<1x32x27x27xf32>
    %1266 = stablehlo.broadcast_in_dim %1259, dims = [0, 1, 2, 3] : (tensor<1x1x27x27xf32>) -> tensor<1x32x27x27xf32>
    %1267 = stablehlo.add %1265, %1266 : tensor<1x32x27x27xf32>
    %1268 = stablehlo.constant dense<0xFF800000> : tensor<f32>
    %1269 = stablehlo.reduce(%1267 init: %1268) applies stablehlo.maximum across dimensions = [3] : (tensor<1x32x27x27xf32>, tensor<f32>) -> tensor<1x32x27xf32>
    %1270 = stablehlo.broadcast_in_dim %1269, dims = [0, 1, 2] : (tensor<1x32x27xf32>) -> tensor<1x32x27x1xf32>
    %1271 = stablehlo.broadcast_in_dim %1270, dims = [0, 1, 2, 3] : (tensor<1x32x27x1xf32>) -> tensor<1x32x27x27xf32>
    %1272 = stablehlo.subtract %1267, %1271 : tensor<1x32x27x27xf32>
    %1273 = stablehlo.exponential %1272 : tensor<1x32x27x27xf32>
    %1274 = stablehlo.constant dense<0.000000e+00> : tensor<f32>
    %1275 = stablehlo.reduce(%1273 init: %1274) applies stablehlo.add across dimensions = [3] : (tensor<1x32x27x27xf32>, tensor<f32>) -> tensor<1x32x27xf32>
    %1276 = stablehlo.broadcast_in_dim %1275, dims = [0, 1, 2] : (tensor<1x32x27xf32>) -> tensor<1x32x27x1xf32>
    %1277 = stablehlo.broadcast_in_dim %1276, dims = [0, 1, 2, 3] : (tensor<1x32x27x1xf32>) -> tensor<1x32x27x27xf32>
    %1278 = stablehlo.divide %1273, %1277 : tensor<1x32x27x27xf32>
    %1279 = stablehlo.dot_general %1204, %1278, batching_dims = [0, 2] x [0, 1], contracting_dims = [1] x [3] : (tensor<1x27x32x128xf32>, tensor<1x32x27x27xf32>) -> tensor<1x32x128x27xf32>
    %1280 = stablehlo.transpose %1279, dims = [0, 3, 1, 2] : (tensor<1x32x128x27xf32>) -> tensor<1x27x32x128xf32>
    %1281 = stablehlo.reshape %1280 : (tensor<1x27x32x128xf32>) -> tensor<1x27x4096xf32>
    %1282 = stablehlo.convert %66 : (tensor<4096x4096xf16>) -> tensor<4096x4096xf32>
    %1283 = stablehlo.dot_general %1281, %1282, contracting_dims = [2] x [0] : (tensor<1x27x4096xf32>, tensor<4096x4096xf32>) -> tensor<1x27x4096xf32>
    %1284 = stablehlo.add %1170, %1283 : tensor<1x27x4096xf32>
    %1285 = stablehlo.multiply %1284, %1284 : tensor<1x27x4096xf32>
    %1286 = stablehlo.constant dense<0.000000e+00> : tensor<f32>
    %1287 = stablehlo.reduce(%1285 init: %1286) applies stablehlo.add across dimensions = [2] : (tensor<1x27x4096xf32>, tensor<f32>) -> tensor<1x27xf32>
    %1288 = stablehlo.broadcast_in_dim %1287, dims = [0, 1] : (tensor<1x27xf32>) -> tensor<1x27x1xf32>
    %1289 = stablehlo.constant dense<4.096000e+03> : tensor<f32>
    %1290 = stablehlo.broadcast_in_dim %1289, dims = [] : (tensor<f32>) -> tensor<1x27x1xf32>
    %1291 = stablehlo.divide %1288, %1290 : tensor<1x27x1xf32>
    %1292 = stablehlo.constant dense<9.99999974E-6> : tensor<f32>
    %1293 = stablehlo.broadcast_in_dim %1292, dims = [] : (tensor<f32>) -> tensor<1x27x1xf32>
    %1294 = stablehlo.add %1291, %1293 : tensor<1x27x1xf32>
    %1295 = stablehlo.sqrt %1294 : tensor<1x27x1xf32>
    %1296 = stablehlo.broadcast_in_dim %1295, dims = [0, 1, 2] : (tensor<1x27x1xf32>) -> tensor<1x27x4096xf32>
    %1297 = stablehlo.divide %1284, %1296 : tensor<1x27x4096xf32>
    %1298 = stablehlo.convert %67 : (tensor<4096xf16>) -> tensor<4096xf32>
    %1299 = stablehlo.broadcast_in_dim %1298, dims = [2] : (tensor<4096xf32>) -> tensor<1x1x4096xf32>
    %1300 = stablehlo.broadcast_in_dim %1299, dims = [0, 1, 2] : (tensor<1x1x4096xf32>) -> tensor<1x27x4096xf32>
    %1301 = stablehlo.multiply %1300, %1297 : tensor<1x27x4096xf32>
    %1302 = stablehlo.convert %68 : (tensor<4096x11008xf16>) -> tensor<4096x11008xf32>
    %1303 = stablehlo.dot_general %1301, %1302, contracting_dims = [2] x [0] : (tensor<1x27x4096xf32>, tensor<4096x11008xf32>) -> tensor<1x27x11008xf32>
    %1304 = stablehlo.convert %69 : (tensor<4096x11008xf16>) -> tensor<4096x11008xf32>
    %1305 = stablehlo.dot_general %1301, %1304, contracting_dims = [2] x [0] : (tensor<1x27x4096xf32>, tensor<4096x11008xf32>) -> tensor<1x27x11008xf32>
    %1306 = call @silu(%1305) : (tensor<1x27x11008xf32>) -> tensor<1x27x11008xf32>
    %1307 = stablehlo.multiply %1303, %1306 : tensor<1x27x11008xf32>
    %1308 = stablehlo.convert %70 : (tensor<11008x4096xf16>) -> tensor<11008x4096xf32>
    %1309 = stablehlo.dot_general %1307, %1308, contracting_dims = [2] x [0] : (tensor<1x27x11008xf32>, tensor<11008x4096xf32>) -> tensor<1x27x4096xf32>
    %1310 = stablehlo.add %1284, %1309 : tensor<1x27x4096xf32>
    %1311 = stablehlo.multiply %1310, %1310 : tensor<1x27x4096xf32>
    %1312 = stablehlo.constant dense<0.000000e+00> : tensor<f32>
    %1313 = stablehlo.reduce(%1311 init: %1312) applies stablehlo.add across dimensions = [2] : (tensor<1x27x4096xf32>, tensor<f32>) -> tensor<1x27xf32>
    %1314 = stablehlo.broadcast_in_dim %1313, dims = [0, 1] : (tensor<1x27xf32>) -> tensor<1x27x1xf32>
    %1315 = stablehlo.constant dense<4.096000e+03> : tensor<f32>
    %1316 = stablehlo.broadcast_in_dim %1315, dims = [] : (tensor<f32>) -> tensor<1x27x1xf32>
    %1317 = stablehlo.divide %1314, %1316 : tensor<1x27x1xf32>
    %1318 = stablehlo.constant dense<9.99999974E-6> : tensor<f32>
    %1319 = stablehlo.broadcast_in_dim %1318, dims = [] : (tensor<f32>) -> tensor<1x27x1xf32>
    %1320 = stablehlo.add %1317, %1319 : tensor<1x27x1xf32>
    %1321 = stablehlo.sqrt %1320 : tensor<1x27x1xf32>
    %1322 = stablehlo.broadcast_in_dim %1321, dims = [0, 1, 2] : (tensor<1x27x1xf32>) -> tensor<1x27x4096xf32>
    %1323 = stablehlo.divide %1310, %1322 : tensor<1x27x4096xf32>
    %1324 = stablehlo.convert %71 : (tensor<4096xf16>) -> tensor<4096xf32>
    %1325 = stablehlo.broadcast_in_dim %1324, dims = [2] : (tensor<4096xf32>) -> tensor<1x1x4096xf32>
    %1326 = stablehlo.broadcast_in_dim %1325, dims = [0, 1, 2] : (tensor<1x1x4096xf32>) -> tensor<1x27x4096xf32>
    %1327 = stablehlo.multiply %1326, %1323 : tensor<1x27x4096xf32>
    %1328 = stablehlo.iota dim = 0 : tensor<4096xi32>
    %1329 = stablehlo.broadcast_in_dim %1328, dims = [1] : (tensor<4096xi32>) -> tensor<1x4096xi32>
    %1330 = stablehlo.broadcast_in_dim %1329, dims = [0, 1] : (tensor<1x4096xi32>) -> tensor<1x4096x1xi32>
    %1331 = stablehlo.broadcast_in_dim %1329, dims = [0, 2] : (tensor<1x4096xi32>) -> tensor<1x1x4096xi32>
    %1332 = stablehlo.broadcast_in_dim %1330, dims = [0, 1, 2] : (tensor<1x4096x1xi32>) -> tensor<1x4096x4096xi32>
    %1333 = stablehlo.broadcast_in_dim %1331, dims = [0, 1, 2] : (tensor<1x1x4096xi32>) -> tensor<1x4096x4096xi32>
    %1334 = stablehlo.compare  GE, %1332, %1333,  SIGNED : (tensor<1x4096x4096xi32>, tensor<1x4096x4096xi32>) -> tensor<1x4096x4096xi1>
    %1335 = stablehlo.broadcast_in_dim %1334, dims = [0, 2, 3] : (tensor<1x4096x4096xi1>) -> tensor<1x1x4096x4096xi1>
    %1336 = stablehlo.convert %72 : (tensor<4096x4096xf16>) -> tensor<4096x4096xf32>
    %1337 = stablehlo.dot_general %1327, %1336, contracting_dims = [2] x [0] : (tensor<1x27x4096xf32>, tensor<4096x4096xf32>) -> tensor<1x27x4096xf32>
    %1338 = stablehlo.convert %73 : (tensor<4096x4096xf16>) -> tensor<4096x4096xf32>
    %1339 = stablehlo.dot_general %1327, %1338, contracting_dims = [2] x [0] : (tensor<1x27x4096xf32>, tensor<4096x4096xf32>) -> tensor<1x27x4096xf32>
    %1340 = stablehlo.convert %74 : (tensor<4096x4096xf16>) -> tensor<4096x4096xf32>
    %1341 = stablehlo.dot_general %1327, %1340, contracting_dims = [2] x [0] : (tensor<1x27x4096xf32>, tensor<4096x4096xf32>) -> tensor<1x27x4096xf32>
    %1342 = stablehlo.reshape %1337 : (tensor<1x27x4096xf32>) -> tensor<1x27x32x128xf32>
    %1343 = stablehlo.reshape %1339 : (tensor<1x27x4096xf32>) -> tensor<1x27x32x128xf32>
    %1344 = stablehlo.reshape %1341 : (tensor<1x27x4096xf32>) -> tensor<1x27x32x128xf32>
    %1345 = stablehlo.constant dense<0> : tensor<i32>
    %1346 = stablehlo.broadcast_in_dim %1345, dims = [] : (tensor<i32>) -> tensor<1x27xi32>
    %1347 = stablehlo.compare  LT, %324, %1346,  SIGNED : (tensor<1x27xi32>, tensor<1x27xi32>) -> tensor<1x27xi1>
    %1348 = stablehlo.constant dense<4096> : tensor<i32>
    %1349 = stablehlo.broadcast_in_dim %1348, dims = [] : (tensor<i32>) -> tensor<1x27xi32>
    %1350 = stablehlo.add %324, %1349 : tensor<1x27xi32>
    %1351 = stablehlo.select %1347, %1350, %324 : tensor<1x27xi1>, tensor<1x27xi32>
    %1352 = stablehlo.broadcast_in_dim %1351, dims = [0, 1] : (tensor<1x27xi32>) -> tensor<1x27x1xi32>
    %1353 = "stablehlo.gather"(%75, %1352) {dimension_numbers = #stablehlo.gather<offset_dims = [2, 3], collapsed_slice_dims = [0], start_index_map = [0], index_vector_dim = 2>, slice_sizes = array<i64: 1, 1, 256>} : (tensor<4096x1x256xf32>, tensor<1x27x1xi32>) -> tensor<1x27x1x256xf32>
    %1354 = stablehlo.slice %1353 [0:1, 0:27, 0:1, 0:128] : (tensor<1x27x1x256xf32>) -> tensor<1x27x1x128xf32>
    %1355 = stablehlo.slice %1353 [0:1, 0:27, 0:1, 128:256] : (tensor<1x27x1x256xf32>) -> tensor<1x27x1x128xf32>
    %1356 = stablehlo.broadcast_in_dim %1355, dims = [0, 1, 2, 3] : (tensor<1x27x1x128xf32>) -> tensor<1x27x32x128xf32>
    %1357 = stablehlo.multiply %1343, %1356 : tensor<1x27x32x128xf32>
    %1358 = stablehlo.constant dense<64> : tensor<i32>
    %1359 = stablehlo.broadcast_in_dim %1358, dims = [] : (tensor<i32>) -> tensor<1xi32>
    %1360 = "stablehlo.gather"(%1343, %1359) {dimension_numbers = #stablehlo.gather<offset_dims = [0, 1, 2, 3], start_index_map = [3]>, indices_are_sorted = true, slice_sizes = array<i64: 1, 27, 32, 64>} : (tensor<1x27x32x128xf32>, tensor<1xi32>) -> tensor<1x27x32x64xf32>
    %1361 = stablehlo.negate %1360 : tensor<1x27x32x64xf32>
    %1362 = stablehlo.constant dense<0> : tensor<i32>
    %1363 = stablehlo.broadcast_in_dim %1362, dims = [] : (tensor<i32>) -> tensor<1xi32>
    %1364 = "stablehlo.gather"(%1343, %1363) {dimension_numbers = #stablehlo.gather<offset_dims = [0, 1, 2, 3], start_index_map = [3]>, indices_are_sorted = true, slice_sizes = array<i64: 1, 27, 32, 64>} : (tensor<1x27x32x128xf32>, tensor<1xi32>) -> tensor<1x27x32x64xf32>
    %1365 = stablehlo.concatenate %1361, %1364, dim = 3 : (tensor<1x27x32x64xf32>, tensor<1x27x32x64xf32>) -> tensor<1x27x32x128xf32>
    %1366 = stablehlo.broadcast_in_dim %1354, dims = [0, 1, 2, 3] : (tensor<1x27x1x128xf32>) -> tensor<1x27x32x128xf32>
    %1367 = stablehlo.multiply %1365, %1366 : tensor<1x27x32x128xf32>
    %1368 = stablehlo.add %1357, %1367 : tensor<1x27x32x128xf32>
    %1369 = stablehlo.broadcast_in_dim %1355, dims = [0, 1, 2, 3] : (tensor<1x27x1x128xf32>) -> tensor<1x27x32x128xf32>
    %1370 = stablehlo.multiply %1342, %1369 : tensor<1x27x32x128xf32>
    %1371 = stablehlo.constant dense<64> : tensor<i32>
    %1372 = stablehlo.broadcast_in_dim %1371, dims = [] : (tensor<i32>) -> tensor<1xi32>
    %1373 = "stablehlo.gather"(%1342, %1372) {dimension_numbers = #stablehlo.gather<offset_dims = [0, 1, 2, 3], start_index_map = [3]>, indices_are_sorted = true, slice_sizes = array<i64: 1, 27, 32, 64>} : (tensor<1x27x32x128xf32>, tensor<1xi32>) -> tensor<1x27x32x64xf32>
    %1374 = stablehlo.negate %1373 : tensor<1x27x32x64xf32>
    %1375 = stablehlo.constant dense<0> : tensor<i32>
    %1376 = stablehlo.broadcast_in_dim %1375, dims = [] : (tensor<i32>) -> tensor<1xi32>
    %1377 = "stablehlo.gather"(%1342, %1376) {dimension_numbers = #stablehlo.gather<offset_dims = [0, 1, 2, 3], start_index_map = [3]>, indices_are_sorted = true, slice_sizes = array<i64: 1, 27, 32, 64>} : (tensor<1x27x32x128xf32>, tensor<1xi32>) -> tensor<1x27x32x64xf32>
    %1378 = stablehlo.concatenate %1374, %1377, dim = 3 : (tensor<1x27x32x64xf32>, tensor<1x27x32x64xf32>) -> tensor<1x27x32x128xf32>
    %1379 = stablehlo.broadcast_in_dim %1354, dims = [0, 1, 2, 3] : (tensor<1x27x1x128xf32>) -> tensor<1x27x32x128xf32>
    %1380 = stablehlo.multiply %1378, %1379 : tensor<1x27x32x128xf32>
    %1381 = stablehlo.add %1370, %1380 : tensor<1x27x32x128xf32>
    %1382 = stablehlo.slice %1335 [0:1, 0:1, 0:27, 0:27] : (tensor<1x1x4096x4096xi1>) -> tensor<1x1x27x27xi1>
    %1383 = stablehlo.broadcast_in_dim %328, dims = [0, 3] : (tensor<1x27xi32>) -> tensor<1x1x1x27xi32>
    %1384 = stablehlo.reshape %1383 : (tensor<1x1x1x27xi32>) -> tensor<1x1x27xi32>
    %1385 = stablehlo.broadcast_in_dim %1384, dims = [0, 1, 3] : (tensor<1x1x27xi32>) -> tensor<1x1x27x27xi32>
    %1386 = stablehlo.constant dense<0> : tensor<i32>
    %1387 = stablehlo.broadcast_in_dim %1386, dims = [] : (tensor<i32>) -> tensor<1x1x27x27xi32>
    %1388 = stablehlo.compare  NE, %1385, %1387,  SIGNED : (tensor<1x1x27x27xi32>, tensor<1x1x27x27xi32>) -> tensor<1x1x27x27xi1>
    %1389 = stablehlo.and %1388, %1382 : tensor<1x1x27x27xi1>
    %1390 = stablehlo.convert %1389 : (tensor<1x1x27x27xi1>) -> tensor<1x1x27x27xf32>
    %1391 = stablehlo.constant dense<0.000000e+00> : tensor<f32>
    %1392 = stablehlo.broadcast_in_dim %1391, dims = [] : (tensor<f32>) -> tensor<1x1x27x27xf32>
    %1393 = stablehlo.compare  GT, %1390, %1392,  FLOAT : (tensor<1x1x27x27xf32>, tensor<1x1x27x27xf32>) -> tensor<1x1x27x27xi1>
    %1394 = stablehlo.constant dense<0.000000e+00> : tensor<f32>
    %1395 = stablehlo.broadcast_in_dim %1394, dims = [] : (tensor<f32>) -> tensor<1x1x27x27xf32>
    %1396 = stablehlo.convert %1395 : tensor<1x1x27x27xf32>
    %1397 = stablehlo.constant dense<-3.40282347E+38> : tensor<f32>
    %1398 = stablehlo.broadcast_in_dim %1397, dims = [] : (tensor<f32>) -> tensor<1x1x27x27xf32>
    %1399 = stablehlo.select %1393, %1396, %1398 : tensor<1x1x27x27xi1>, tensor<1x1x27x27xf32>
    %1400 = stablehlo.constant dense<1.280000e+02> : tensor<f32>
    %1401 = stablehlo.sqrt %1400 : tensor<f32>
    %1402 = stablehlo.convert %1401 : tensor<f32>
    %1403 = stablehlo.broadcast_in_dim %1402, dims = [] : (tensor<f32>) -> tensor<1x27x32x128xf32>
    %1404 = stablehlo.divide %1381, %1403 : tensor<1x27x32x128xf32>
    %1405 = stablehlo.dot_general %1404, %1368, batching_dims = [0, 2] x [0, 2], contracting_dims = [3] x [3] : (tensor<1x27x32x128xf32>, tensor<1x27x32x128xf32>) -> tensor<1x32x27x27xf32>
    %1406 = stablehlo.broadcast_in_dim %1399, dims = [0, 1, 2, 3] : (tensor<1x1x27x27xf32>) -> tensor<1x32x27x27xf32>
    %1407 = stablehlo.add %1405, %1406 : tensor<1x32x27x27xf32>
    %1408 = stablehlo.constant dense<0xFF800000> : tensor<f32>
    %1409 = stablehlo.reduce(%1407 init: %1408) applies stablehlo.maximum across dimensions = [3] : (tensor<1x32x27x27xf32>, tensor<f32>) -> tensor<1x32x27xf32>
    %1410 = stablehlo.broadcast_in_dim %1409, dims = [0, 1, 2] : (tensor<1x32x27xf32>) -> tensor<1x32x27x1xf32>
    %1411 = stablehlo.broadcast_in_dim %1410, dims = [0, 1, 2, 3] : (tensor<1x32x27x1xf32>) -> tensor<1x32x27x27xf32>
    %1412 = stablehlo.subtract %1407, %1411 : tensor<1x32x27x27xf32>
    %1413 = stablehlo.exponential %1412 : tensor<1x32x27x27xf32>
    %1414 = stablehlo.constant dense<0.000000e+00> : tensor<f32>
    %1415 = stablehlo.reduce(%1413 init: %1414) applies stablehlo.add across dimensions = [3] : (tensor<1x32x27x27xf32>, tensor<f32>) -> tensor<1x32x27xf32>
    %1416 = stablehlo.broadcast_in_dim %1415, dims = [0, 1, 2] : (tensor<1x32x27xf32>) -> tensor<1x32x27x1xf32>
    %1417 = stablehlo.broadcast_in_dim %1416, dims = [0, 1, 2, 3] : (tensor<1x32x27x1xf32>) -> tensor<1x32x27x27xf32>
    %1418 = stablehlo.divide %1413, %1417 : tensor<1x32x27x27xf32>
    %1419 = stablehlo.dot_general %1344, %1418, batching_dims = [0, 2] x [0, 1], contracting_dims = [1] x [3] : (tensor<1x27x32x128xf32>, tensor<1x32x27x27xf32>) -> tensor<1x32x128x27xf32>
    %1420 = stablehlo.transpose %1419, dims = [0, 3, 1, 2] : (tensor<1x32x128x27xf32>) -> tensor<1x27x32x128xf32>
    %1421 = stablehlo.reshape %1420 : (tensor<1x27x32x128xf32>) -> tensor<1x27x4096xf32>
    %1422 = stablehlo.convert %76 : (tensor<4096x4096xf16>) -> tensor<4096x4096xf32>
    %1423 = stablehlo.dot_general %1421, %1422, contracting_dims = [2] x [0] : (tensor<1x27x4096xf32>, tensor<4096x4096xf32>) -> tensor<1x27x4096xf32>
    %1424 = stablehlo.add %1310, %1423 : tensor<1x27x4096xf32>
    %1425 = stablehlo.multiply %1424, %1424 : tensor<1x27x4096xf32>
    %1426 = stablehlo.constant dense<0.000000e+00> : tensor<f32>
    %1427 = stablehlo.reduce(%1425 init: %1426) applies stablehlo.add across dimensions = [2] : (tensor<1x27x4096xf32>, tensor<f32>) -> tensor<1x27xf32>
    %1428 = stablehlo.broadcast_in_dim %1427, dims = [0, 1] : (tensor<1x27xf32>) -> tensor<1x27x1xf32>
    %1429 = stablehlo.constant dense<4.096000e+03> : tensor<f32>
    %1430 = stablehlo.broadcast_in_dim %1429, dims = [] : (tensor<f32>) -> tensor<1x27x1xf32>
    %1431 = stablehlo.divide %1428, %1430 : tensor<1x27x1xf32>
    %1432 = stablehlo.constant dense<9.99999974E-6> : tensor<f32>
    %1433 = stablehlo.broadcast_in_dim %1432, dims = [] : (tensor<f32>) -> tensor<1x27x1xf32>
    %1434 = stablehlo.add %1431, %1433 : tensor<1x27x1xf32>
    %1435 = stablehlo.sqrt %1434 : tensor<1x27x1xf32>
    %1436 = stablehlo.broadcast_in_dim %1435, dims = [0, 1, 2] : (tensor<1x27x1xf32>) -> tensor<1x27x4096xf32>
    %1437 = stablehlo.divide %1424, %1436 : tensor<1x27x4096xf32>
    %1438 = stablehlo.convert %77 : (tensor<4096xf16>) -> tensor<4096xf32>
    %1439 = stablehlo.broadcast_in_dim %1438, dims = [2] : (tensor<4096xf32>) -> tensor<1x1x4096xf32>
    %1440 = stablehlo.broadcast_in_dim %1439, dims = [0, 1, 2] : (tensor<1x1x4096xf32>) -> tensor<1x27x4096xf32>
    %1441 = stablehlo.multiply %1440, %1437 : tensor<1x27x4096xf32>
    %1442 = stablehlo.convert %78 : (tensor<4096x11008xf16>) -> tensor<4096x11008xf32>
    %1443 = stablehlo.dot_general %1441, %1442, contracting_dims = [2] x [0] : (tensor<1x27x4096xf32>, tensor<4096x11008xf32>) -> tensor<1x27x11008xf32>
    %1444 = stablehlo.convert %79 : (tensor<4096x11008xf16>) -> tensor<4096x11008xf32>
    %1445 = stablehlo.dot_general %1441, %1444, contracting_dims = [2] x [0] : (tensor<1x27x4096xf32>, tensor<4096x11008xf32>) -> tensor<1x27x11008xf32>
    %1446 = call @silu(%1445) : (tensor<1x27x11008xf32>) -> tensor<1x27x11008xf32>
    %1447 = stablehlo.multiply %1443, %1446 : tensor<1x27x11008xf32>
    %1448 = stablehlo.convert %80 : (tensor<11008x4096xf16>) -> tensor<11008x4096xf32>
    %1449 = stablehlo.dot_general %1447, %1448, contracting_dims = [2] x [0] : (tensor<1x27x11008xf32>, tensor<11008x4096xf32>) -> tensor<1x27x4096xf32>
    %1450 = stablehlo.add %1424, %1449 : tensor<1x27x4096xf32>
    %1451 = stablehlo.multiply %1450, %1450 : tensor<1x27x4096xf32>
    %1452 = stablehlo.constant dense<0.000000e+00> : tensor<f32>
    %1453 = stablehlo.reduce(%1451 init: %1452) applies stablehlo.add across dimensions = [2] : (tensor<1x27x4096xf32>, tensor<f32>) -> tensor<1x27xf32>
    %1454 = stablehlo.broadcast_in_dim %1453, dims = [0, 1] : (tensor<1x27xf32>) -> tensor<1x27x1xf32>
    %1455 = stablehlo.constant dense<4.096000e+03> : tensor<f32>
    %1456 = stablehlo.broadcast_in_dim %1455, dims = [] : (tensor<f32>) -> tensor<1x27x1xf32>
    %1457 = stablehlo.divide %1454, %1456 : tensor<1x27x1xf32>
    %1458 = stablehlo.constant dense<9.99999974E-6> : tensor<f32>
    %1459 = stablehlo.broadcast_in_dim %1458, dims = [] : (tensor<f32>) -> tensor<1x27x1xf32>
    %1460 = stablehlo.add %1457, %1459 : tensor<1x27x1xf32>
    %1461 = stablehlo.sqrt %1460 : tensor<1x27x1xf32>
    %1462 = stablehlo.broadcast_in_dim %1461, dims = [0, 1, 2] : (tensor<1x27x1xf32>) -> tensor<1x27x4096xf32>
    %1463 = stablehlo.divide %1450, %1462 : tensor<1x27x4096xf32>
    %1464 = stablehlo.convert %81 : (tensor<4096xf16>) -> tensor<4096xf32>
    %1465 = stablehlo.broadcast_in_dim %1464, dims = [2] : (tensor<4096xf32>) -> tensor<1x1x4096xf32>
    %1466 = stablehlo.broadcast_in_dim %1465, dims = [0, 1, 2] : (tensor<1x1x4096xf32>) -> tensor<1x27x4096xf32>
    %1467 = stablehlo.multiply %1466, %1463 : tensor<1x27x4096xf32>
    %1468 = stablehlo.iota dim = 0 : tensor<4096xi32>
    %1469 = stablehlo.broadcast_in_dim %1468, dims = [1] : (tensor<4096xi32>) -> tensor<1x4096xi32>
    %1470 = stablehlo.broadcast_in_dim %1469, dims = [0, 1] : (tensor<1x4096xi32>) -> tensor<1x4096x1xi32>
    %1471 = stablehlo.broadcast_in_dim %1469, dims = [0, 2] : (tensor<1x4096xi32>) -> tensor<1x1x4096xi32>
    %1472 = stablehlo.broadcast_in_dim %1470, dims = [0, 1, 2] : (tensor<1x4096x1xi32>) -> tensor<1x4096x4096xi32>
    %1473 = stablehlo.broadcast_in_dim %1471, dims = [0, 1, 2] : (tensor<1x1x4096xi32>) -> tensor<1x4096x4096xi32>
    %1474 = stablehlo.compare  GE, %1472, %1473,  SIGNED : (tensor<1x4096x4096xi32>, tensor<1x4096x4096xi32>) -> tensor<1x4096x4096xi1>
    %1475 = stablehlo.broadcast_in_dim %1474, dims = [0, 2, 3] : (tensor<1x4096x4096xi1>) -> tensor<1x1x4096x4096xi1>
    %1476 = stablehlo.convert %82 : (tensor<4096x4096xf16>) -> tensor<4096x4096xf32>
    %1477 = stablehlo.dot_general %1467, %1476, contracting_dims = [2] x [0] : (tensor<1x27x4096xf32>, tensor<4096x4096xf32>) -> tensor<1x27x4096xf32>
    %1478 = stablehlo.convert %83 : (tensor<4096x4096xf16>) -> tensor<4096x4096xf32>
    %1479 = stablehlo.dot_general %1467, %1478, contracting_dims = [2] x [0] : (tensor<1x27x4096xf32>, tensor<4096x4096xf32>) -> tensor<1x27x4096xf32>
    %1480 = stablehlo.convert %84 : (tensor<4096x4096xf16>) -> tensor<4096x4096xf32>
    %1481 = stablehlo.dot_general %1467, %1480, contracting_dims = [2] x [0] : (tensor<1x27x4096xf32>, tensor<4096x4096xf32>) -> tensor<1x27x4096xf32>
    %1482 = stablehlo.reshape %1477 : (tensor<1x27x4096xf32>) -> tensor<1x27x32x128xf32>
    %1483 = stablehlo.reshape %1479 : (tensor<1x27x4096xf32>) -> tensor<1x27x32x128xf32>
    %1484 = stablehlo.reshape %1481 : (tensor<1x27x4096xf32>) -> tensor<1x27x32x128xf32>
    %1485 = stablehlo.constant dense<0> : tensor<i32>
    %1486 = stablehlo.broadcast_in_dim %1485, dims = [] : (tensor<i32>) -> tensor<1x27xi32>
    %1487 = stablehlo.compare  LT, %324, %1486,  SIGNED : (tensor<1x27xi32>, tensor<1x27xi32>) -> tensor<1x27xi1>
    %1488 = stablehlo.constant dense<4096> : tensor<i32>
    %1489 = stablehlo.broadcast_in_dim %1488, dims = [] : (tensor<i32>) -> tensor<1x27xi32>
    %1490 = stablehlo.add %324, %1489 : tensor<1x27xi32>
    %1491 = stablehlo.select %1487, %1490, %324 : tensor<1x27xi1>, tensor<1x27xi32>
    %1492 = stablehlo.broadcast_in_dim %1491, dims = [0, 1] : (tensor<1x27xi32>) -> tensor<1x27x1xi32>
    %1493 = "stablehlo.gather"(%85, %1492) {dimension_numbers = #stablehlo.gather<offset_dims = [2, 3], collapsed_slice_dims = [0], start_index_map = [0], index_vector_dim = 2>, slice_sizes = array<i64: 1, 1, 256>} : (tensor<4096x1x256xf32>, tensor<1x27x1xi32>) -> tensor<1x27x1x256xf32>
    %1494 = stablehlo.slice %1493 [0:1, 0:27, 0:1, 0:128] : (tensor<1x27x1x256xf32>) -> tensor<1x27x1x128xf32>
    %1495 = stablehlo.slice %1493 [0:1, 0:27, 0:1, 128:256] : (tensor<1x27x1x256xf32>) -> tensor<1x27x1x128xf32>
    %1496 = stablehlo.broadcast_in_dim %1495, dims = [0, 1, 2, 3] : (tensor<1x27x1x128xf32>) -> tensor<1x27x32x128xf32>
    %1497 = stablehlo.multiply %1483, %1496 : tensor<1x27x32x128xf32>
    %1498 = stablehlo.constant dense<64> : tensor<i32>
    %1499 = stablehlo.broadcast_in_dim %1498, dims = [] : (tensor<i32>) -> tensor<1xi32>
    %1500 = "stablehlo.gather"(%1483, %1499) {dimension_numbers = #stablehlo.gather<offset_dims = [0, 1, 2, 3], start_index_map = [3]>, indices_are_sorted = true, slice_sizes = array<i64: 1, 27, 32, 64>} : (tensor<1x27x32x128xf32>, tensor<1xi32>) -> tensor<1x27x32x64xf32>
    %1501 = stablehlo.negate %1500 : tensor<1x27x32x64xf32>
    %1502 = stablehlo.constant dense<0> : tensor<i32>
    %1503 = stablehlo.broadcast_in_dim %1502, dims = [] : (tensor<i32>) -> tensor<1xi32>
    %1504 = "stablehlo.gather"(%1483, %1503) {dimension_numbers = #stablehlo.gather<offset_dims = [0, 1, 2, 3], start_index_map = [3]>, indices_are_sorted = true, slice_sizes = array<i64: 1, 27, 32, 64>} : (tensor<1x27x32x128xf32>, tensor<1xi32>) -> tensor<1x27x32x64xf32>
    %1505 = stablehlo.concatenate %1501, %1504, dim = 3 : (tensor<1x27x32x64xf32>, tensor<1x27x32x64xf32>) -> tensor<1x27x32x128xf32>
    %1506 = stablehlo.broadcast_in_dim %1494, dims = [0, 1, 2, 3] : (tensor<1x27x1x128xf32>) -> tensor<1x27x32x128xf32>
    %1507 = stablehlo.multiply %1505, %1506 : tensor<1x27x32x128xf32>
    %1508 = stablehlo.add %1497, %1507 : tensor<1x27x32x128xf32>
    %1509 = stablehlo.broadcast_in_dim %1495, dims = [0, 1, 2, 3] : (tensor<1x27x1x128xf32>) -> tensor<1x27x32x128xf32>
    %1510 = stablehlo.multiply %1482, %1509 : tensor<1x27x32x128xf32>
    %1511 = stablehlo.constant dense<64> : tensor<i32>
    %1512 = stablehlo.broadcast_in_dim %1511, dims = [] : (tensor<i32>) -> tensor<1xi32>
    %1513 = "stablehlo.gather"(%1482, %1512) {dimension_numbers = #stablehlo.gather<offset_dims = [0, 1, 2, 3], start_index_map = [3]>, indices_are_sorted = true, slice_sizes = array<i64: 1, 27, 32, 64>} : (tensor<1x27x32x128xf32>, tensor<1xi32>) -> tensor<1x27x32x64xf32>
    %1514 = stablehlo.negate %1513 : tensor<1x27x32x64xf32>
    %1515 = stablehlo.constant dense<0> : tensor<i32>
    %1516 = stablehlo.broadcast_in_dim %1515, dims = [] : (tensor<i32>) -> tensor<1xi32>
    %1517 = "stablehlo.gather"(%1482, %1516) {dimension_numbers = #stablehlo.gather<offset_dims = [0, 1, 2, 3], start_index_map = [3]>, indices_are_sorted = true, slice_sizes = array<i64: 1, 27, 32, 64>} : (tensor<1x27x32x128xf32>, tensor<1xi32>) -> tensor<1x27x32x64xf32>
    %1518 = stablehlo.concatenate %1514, %1517, dim = 3 : (tensor<1x27x32x64xf32>, tensor<1x27x32x64xf32>) -> tensor<1x27x32x128xf32>
    %1519 = stablehlo.broadcast_in_dim %1494, dims = [0, 1, 2, 3] : (tensor<1x27x1x128xf32>) -> tensor<1x27x32x128xf32>
    %1520 = stablehlo.multiply %1518, %1519 : tensor<1x27x32x128xf32>
    %1521 = stablehlo.add %1510, %1520 : tensor<1x27x32x128xf32>
    %1522 = stablehlo.slice %1475 [0:1, 0:1, 0:27, 0:27] : (tensor<1x1x4096x4096xi1>) -> tensor<1x1x27x27xi1>
    %1523 = stablehlo.broadcast_in_dim %328, dims = [0, 3] : (tensor<1x27xi32>) -> tensor<1x1x1x27xi32>
    %1524 = stablehlo.reshape %1523 : (tensor<1x1x1x27xi32>) -> tensor<1x1x27xi32>
    %1525 = stablehlo.broadcast_in_dim %1524, dims = [0, 1, 3] : (tensor<1x1x27xi32>) -> tensor<1x1x27x27xi32>
    %1526 = stablehlo.constant dense<0> : tensor<i32>
    %1527 = stablehlo.broadcast_in_dim %1526, dims = [] : (tensor<i32>) -> tensor<1x1x27x27xi32>
    %1528 = stablehlo.compare  NE, %1525, %1527,  SIGNED : (tensor<1x1x27x27xi32>, tensor<1x1x27x27xi32>) -> tensor<1x1x27x27xi1>
    %1529 = stablehlo.and %1528, %1522 : tensor<1x1x27x27xi1>
    %1530 = stablehlo.convert %1529 : (tensor<1x1x27x27xi1>) -> tensor<1x1x27x27xf32>
    %1531 = stablehlo.constant dense<0.000000e+00> : tensor<f32>
    %1532 = stablehlo.broadcast_in_dim %1531, dims = [] : (tensor<f32>) -> tensor<1x1x27x27xf32>
    %1533 = stablehlo.compare  GT, %1530, %1532,  FLOAT : (tensor<1x1x27x27xf32>, tensor<1x1x27x27xf32>) -> tensor<1x1x27x27xi1>
    %1534 = stablehlo.constant dense<0.000000e+00> : tensor<f32>
    %1535 = stablehlo.broadcast_in_dim %1534, dims = [] : (tensor<f32>) -> tensor<1x1x27x27xf32>
    %1536 = stablehlo.convert %1535 : tensor<1x1x27x27xf32>
    %1537 = stablehlo.constant dense<-3.40282347E+38> : tensor<f32>
    %1538 = stablehlo.broadcast_in_dim %1537, dims = [] : (tensor<f32>) -> tensor<1x1x27x27xf32>
    %1539 = stablehlo.select %1533, %1536, %1538 : tensor<1x1x27x27xi1>, tensor<1x1x27x27xf32>
    %1540 = stablehlo.constant dense<1.280000e+02> : tensor<f32>
    %1541 = stablehlo.sqrt %1540 : tensor<f32>
    %1542 = stablehlo.convert %1541 : tensor<f32>
    %1543 = stablehlo.broadcast_in_dim %1542, dims = [] : (tensor<f32>) -> tensor<1x27x32x128xf32>
    %1544 = stablehlo.divide %1521, %1543 : tensor<1x27x32x128xf32>
    %1545 = stablehlo.dot_general %1544, %1508, batching_dims = [0, 2] x [0, 2], contracting_dims = [3] x [3] : (tensor<1x27x32x128xf32>, tensor<1x27x32x128xf32>) -> tensor<1x32x27x27xf32>
    %1546 = stablehlo.broadcast_in_dim %1539, dims = [0, 1, 2, 3] : (tensor<1x1x27x27xf32>) -> tensor<1x32x27x27xf32>
    %1547 = stablehlo.add %1545, %1546 : tensor<1x32x27x27xf32>
    %1548 = stablehlo.constant dense<0xFF800000> : tensor<f32>
    %1549 = stablehlo.reduce(%1547 init: %1548) applies stablehlo.maximum across dimensions = [3] : (tensor<1x32x27x27xf32>, tensor<f32>) -> tensor<1x32x27xf32>
    %1550 = stablehlo.broadcast_in_dim %1549, dims = [0, 1, 2] : (tensor<1x32x27xf32>) -> tensor<1x32x27x1xf32>
    %1551 = stablehlo.broadcast_in_dim %1550, dims = [0, 1, 2, 3] : (tensor<1x32x27x1xf32>) -> tensor<1x32x27x27xf32>
    %1552 = stablehlo.subtract %1547, %1551 : tensor<1x32x27x27xf32>
    %1553 = stablehlo.exponential %1552 : tensor<1x32x27x27xf32>
    %1554 = stablehlo.constant dense<0.000000e+00> : tensor<f32>
    %1555 = stablehlo.reduce(%1553 init: %1554) applies stablehlo.add across dimensions = [3] : (tensor<1x32x27x27xf32>, tensor<f32>) -> tensor<1x32x27xf32>
    %1556 = stablehlo.broadcast_in_dim %1555, dims = [0, 1, 2] : (tensor<1x32x27xf32>) -> tensor<1x32x27x1xf32>
    %1557 = stablehlo.broadcast_in_dim %1556, dims = [0, 1, 2, 3] : (tensor<1x32x27x1xf32>) -> tensor<1x32x27x27xf32>
    %1558 = stablehlo.divide %1553, %1557 : tensor<1x32x27x27xf32>
    %1559 = stablehlo.dot_general %1484, %1558, batching_dims = [0, 2] x [0, 1], contracting_dims = [1] x [3] : (tensor<1x27x32x128xf32>, tensor<1x32x27x27xf32>) -> tensor<1x32x128x27xf32>
    %1560 = stablehlo.transpose %1559, dims = [0, 3, 1, 2] : (tensor<1x32x128x27xf32>) -> tensor<1x27x32x128xf32>
    %1561 = stablehlo.reshape %1560 : (tensor<1x27x32x128xf32>) -> tensor<1x27x4096xf32>
    %1562 = stablehlo.convert %86 : (tensor<4096x4096xf16>) -> tensor<4096x4096xf32>
    %1563 = stablehlo.dot_general %1561, %1562, contracting_dims = [2] x [0] : (tensor<1x27x4096xf32>, tensor<4096x4096xf32>) -> tensor<1x27x4096xf32>
    %1564 = stablehlo.add %1450, %1563 : tensor<1x27x4096xf32>
    %1565 = stablehlo.multiply %1564, %1564 : tensor<1x27x4096xf32>
    %1566 = stablehlo.constant dense<0.000000e+00> : tensor<f32>
    %1567 = stablehlo.reduce(%1565 init: %1566) applies stablehlo.add across dimensions = [2] : (tensor<1x27x4096xf32>, tensor<f32>) -> tensor<1x27xf32>
    %1568 = stablehlo.broadcast_in_dim %1567, dims = [0, 1] : (tensor<1x27xf32>) -> tensor<1x27x1xf32>
    %1569 = stablehlo.constant dense<4.096000e+03> : tensor<f32>
    %1570 = stablehlo.broadcast_in_dim %1569, dims = [] : (tensor<f32>) -> tensor<1x27x1xf32>
    %1571 = stablehlo.divide %1568, %1570 : tensor<1x27x1xf32>
    %1572 = stablehlo.constant dense<9.99999974E-6> : tensor<f32>
    %1573 = stablehlo.broadcast_in_dim %1572, dims = [] : (tensor<f32>) -> tensor<1x27x1xf32>
    %1574 = stablehlo.add %1571, %1573 : tensor<1x27x1xf32>
    %1575 = stablehlo.sqrt %1574 : tensor<1x27x1xf32>
    %1576 = stablehlo.broadcast_in_dim %1575, dims = [0, 1, 2] : (tensor<1x27x1xf32>) -> tensor<1x27x4096xf32>
    %1577 = stablehlo.divide %1564, %1576 : tensor<1x27x4096xf32>
    %1578 = stablehlo.convert %87 : (tensor<4096xf16>) -> tensor<4096xf32>
    %1579 = stablehlo.broadcast_in_dim %1578, dims = [2] : (tensor<4096xf32>) -> tensor<1x1x4096xf32>
    %1580 = stablehlo.broadcast_in_dim %1579, dims = [0, 1, 2] : (tensor<1x1x4096xf32>) -> tensor<1x27x4096xf32>
    %1581 = stablehlo.multiply %1580, %1577 : tensor<1x27x4096xf32>
    %1582 = stablehlo.convert %88 : (tensor<4096x11008xf16>) -> tensor<4096x11008xf32>
    %1583 = stablehlo.dot_general %1581, %1582, contracting_dims = [2] x [0] : (tensor<1x27x4096xf32>, tensor<4096x11008xf32>) -> tensor<1x27x11008xf32>
    %1584 = stablehlo.convert %89 : (tensor<4096x11008xf16>) -> tensor<4096x11008xf32>
    %1585 = stablehlo.dot_general %1581, %1584, contracting_dims = [2] x [0] : (tensor<1x27x4096xf32>, tensor<4096x11008xf32>) -> tensor<1x27x11008xf32>
    %1586 = call @silu(%1585) : (tensor<1x27x11008xf32>) -> tensor<1x27x11008xf32>
    %1587 = stablehlo.multiply %1583, %1586 : tensor<1x27x11008xf32>
    %1588 = stablehlo.convert %90 : (tensor<11008x4096xf16>) -> tensor<11008x4096xf32>
    %1589 = stablehlo.dot_general %1587, %1588, contracting_dims = [2] x [0] : (tensor<1x27x11008xf32>, tensor<11008x4096xf32>) -> tensor<1x27x4096xf32>
    %1590 = stablehlo.add %1564, %1589 : tensor<1x27x4096xf32>
    %1591 = stablehlo.multiply %1590, %1590 : tensor<1x27x4096xf32>
    %1592 = stablehlo.constant dense<0.000000e+00> : tensor<f32>
    %1593 = stablehlo.reduce(%1591 init: %1592) applies stablehlo.add across dimensions = [2] : (tensor<1x27x4096xf32>, tensor<f32>) -> tensor<1x27xf32>
…
    %4380 = stablehlo.broadcast_in_dim %4379, dims = [0, 1, 2] : (tensor<1x1x4096xf32>) -> tensor<1x27x4096xf32>
    %4381 = stablehlo.multiply %4380, %4377 : tensor<1x27x4096xf32>
    %4382 = stablehlo.convert %288 : (tensor<4096x11008xf16>) -> tensor<4096x11008xf32>
    %4383 = stablehlo.dot_general %4381, %4382, contracting_dims = [2] x [0] : (tensor<1x27x4096xf32>, tensor<4096x11008xf32>) -> tensor<1x27x11008xf32>
    %4384 = stablehlo.convert %289 : (tensor<4096x11008xf16>) -> tensor<4096x11008xf32>
    %4385 = stablehlo.dot_general %4381, %4384, contracting_dims = [2] x [0] : (tensor<1x27x4096xf32>, tensor<4096x11008xf32>) -> tensor<1x27x11008xf32>
    %4386 = call @silu(%4385) : (tensor<1x27x11008xf32>) -> tensor<1x27x11008xf32>
    %4387 = stablehlo.multiply %4383, %4386 : tensor<1x27x11008xf32>
    %4388 = stablehlo.convert %290 : (tensor<11008x4096xf16>) -> tensor<11008x4096xf32>
    %4389 = stablehlo.dot_general %4387, %4388, contracting_dims = [2] x [0] : (tensor<1x27x11008xf32>, tensor<11008x4096xf32>) -> tensor<1x27x4096xf32>
    %4390 = stablehlo.add %4364, %4389 : tensor<1x27x4096xf32>
    %4391 = stablehlo.multiply %4390, %4390 : tensor<1x27x4096xf32>
    %4392 = stablehlo.constant dense<0.000000e+00> : tensor<f32>
    %4393 = stablehlo.reduce(%4391 init: %4392) applies stablehlo.add across dimensions = [2] : (tensor<1x27x4096xf32>, tensor<f32>) -> tensor<1x27xf32>
    %4394 = stablehlo.broadcast_in_dim %4393, dims = [0, 1] : (tensor<1x27xf32>) -> tensor<1x27x1xf32>
    %4395 = stablehlo.constant dense<4.096000e+03> : tensor<f32>
    %4396 = stablehlo.broadcast_in_dim %4395, dims = [] : (tensor<f32>) -> tensor<1x27x1xf32>
    %4397 = stablehlo.divide %4394, %4396 : tensor<1x27x1xf32>
    %4398 = stablehlo.constant dense<9.99999974E-6> : tensor<f32>
    %4399 = stablehlo.broadcast_in_dim %4398, dims = [] : (tensor<f32>) -> tensor<1x27x1xf32>
    %4400 = stablehlo.add %4397, %4399 : tensor<1x27x1xf32>
    %4401 = stablehlo.sqrt %4400 : tensor<1x27x1xf32>
    %4402 = stablehlo.broadcast_in_dim %4401, dims = [0, 1, 2] : (tensor<1x27x1xf32>) -> tensor<1x27x4096xf32>
    %4403 = stablehlo.divide %4390, %4402 : tensor<1x27x4096xf32>
    %4404 = stablehlo.convert %291 : (tensor<4096xf16>) -> tensor<4096xf32>
    %4405 = stablehlo.broadcast_in_dim %4404, dims = [2] : (tensor<4096xf32>) -> tensor<1x1x4096xf32>
    %4406 = stablehlo.broadcast_in_dim %4405, dims = [0, 1, 2] : (tensor<1x1x4096xf32>) -> tensor<1x27x4096xf32>
    %4407 = stablehlo.multiply %4406, %4403 : tensor<1x27x4096xf32>
    %4408 = stablehlo.iota dim = 0 : tensor<4096xi32>
    %4409 = stablehlo.broadcast_in_dim %4408, dims = [1] : (tensor<4096xi32>) -> tensor<1x4096xi32>
    %4410 = stablehlo.broadcast_in_dim %4409, dims = [0, 1] : (tensor<1x4096xi32>) -> tensor<1x4096x1xi32>
    %4411 = stablehlo.broadcast_in_dim %4409, dims = [0, 2] : (tensor<1x4096xi32>) -> tensor<1x1x4096xi32>
    %4412 = stablehlo.broadcast_in_dim %4410, dims = [0, 1, 2] : (tensor<1x4096x1xi32>) -> tensor<1x4096x4096xi32>
    %4413 = stablehlo.broadcast_in_dim %4411, dims = [0, 1, 2] : (tensor<1x1x4096xi32>) -> tensor<1x4096x4096xi32>
    %4414 = stablehlo.compare  GE, %4412, %4413,  SIGNED : (tensor<1x4096x4096xi32>, tensor<1x4096x4096xi32>) -> tensor<1x4096x4096xi1>
    %4415 = stablehlo.broadcast_in_dim %4414, dims = [0, 2, 3] : (tensor<1x4096x4096xi1>) -> tensor<1x1x4096x4096xi1>
    %4416 = stablehlo.convert %292 : (tensor<4096x4096xf16>) -> tensor<4096x4096xf32>
    %4417 = stablehlo.dot_general %4407, %4416, contracting_dims = [2] x [0] : (tensor<1x27x4096xf32>, tensor<4096x4096xf32>) -> tensor<1x27x4096xf32>
    %4418 = stablehlo.convert %293 : (tensor<4096x4096xf16>) -> tensor<4096x4096xf32>
    %4419 = stablehlo.dot_general %4407, %4418, contracting_dims = [2] x [0] : (tensor<1x27x4096xf32>, tensor<4096x4096xf32>) -> tensor<1x27x4096xf32>
    %4420 = stablehlo.convert %294 : (tensor<4096x4096xf16>) -> tensor<4096x4096xf32>
    %4421 = stablehlo.dot_general %4407, %4420, contracting_dims = [2] x [0] : (tensor<1x27x4096xf32>, tensor<4096x4096xf32>) -> tensor<1x27x4096xf32>
    %4422 = stablehlo.reshape %4417 : (tensor<1x27x4096xf32>) -> tensor<1x27x32x128xf32>
    %4423 = stablehlo.reshape %4419 : (tensor<1x27x4096xf32>) -> tensor<1x27x32x128xf32>
    %4424 = stablehlo.reshape %4421 : (tensor<1x27x4096xf32>) -> tensor<1x27x32x128xf32>
    %4425 = stablehlo.constant dense<0> : tensor<i32>
    %4426 = stablehlo.broadcast_in_dim %4425, dims = [] : (tensor<i32>) -> tensor<1x27xi32>
    %4427 = stablehlo.compare  LT, %324, %4426,  SIGNED : (tensor<1x27xi32>, tensor<1x27xi32>) -> tensor<1x27xi1>
    %4428 = stablehlo.constant dense<4096> : tensor<i32>
    %4429 = stablehlo.broadcast_in_dim %4428, dims = [] : (tensor<i32>) -> tensor<1x27xi32>
    %4430 = stablehlo.add %324, %4429 : tensor<1x27xi32>
    %4431 = stablehlo.select %4427, %4430, %324 : tensor<1x27xi1>, tensor<1x27xi32>
    %4432 = stablehlo.broadcast_in_dim %4431, dims = [0, 1] : (tensor<1x27xi32>) -> tensor<1x27x1xi32>
    %4433 = "stablehlo.gather"(%295, %4432) {dimension_numbers = #stablehlo.gather<offset_dims = [2, 3], collapsed_slice_dims = [0], start_index_map = [0], index_vector_dim = 2>, slice_sizes = array<i64: 1, 1, 256>} : (tensor<4096x1x256xf32>, tensor<1x27x1xi32>) -> tensor<1x27x1x256xf32>
    %4434 = stablehlo.slice %4433 [0:1, 0:27, 0:1, 0:128] : (tensor<1x27x1x256xf32>) -> tensor<1x27x1x128xf32>
    %4435 = stablehlo.slice %4433 [0:1, 0:27, 0:1, 128:256] : (tensor<1x27x1x256xf32>) -> tensor<1x27x1x128xf32>
    %4436 = stablehlo.broadcast_in_dim %4435, dims = [0, 1, 2, 3] : (tensor<1x27x1x128xf32>) -> tensor<1x27x32x128xf32>
    %4437 = stablehlo.multiply %4423, %4436 : tensor<1x27x32x128xf32>
    %4438 = stablehlo.constant dense<64> : tensor<i32>
    %4439 = stablehlo.broadcast_in_dim %4438, dims = [] : (tensor<i32>) -> tensor<1xi32>
    %4440 = "stablehlo.gather"(%4423, %4439) {dimension_numbers = #stablehlo.gather<offset_dims = [0, 1, 2, 3], start_index_map = [3]>, indices_are_sorted = true, slice_sizes = array<i64: 1, 27, 32, 64>} : (tensor<1x27x32x128xf32>, tensor<1xi32>) -> tensor<1x27x32x64xf32>
    %4441 = stablehlo.negate %4440 : tensor<1x27x32x64xf32>
    %4442 = stablehlo.constant dense<0> : tensor<i32>
    %4443 = stablehlo.broadcast_in_dim %4442, dims = [] : (tensor<i32>) -> tensor<1xi32>
    %4444 = "stablehlo.gather"(%4423, %4443) {dimension_numbers = #stablehlo.gather<offset_dims = [0, 1, 2, 3], start_index_map = [3]>, indices_are_sorted = true, slice_sizes = array<i64: 1, 27, 32, 64>} : (tensor<1x27x32x128xf32>, tensor<1xi32>) -> tensor<1x27x32x64xf32>
    %4445 = stablehlo.concatenate %4441, %4444, dim = 3 : (tensor<1x27x32x64xf32>, tensor<1x27x32x64xf32>) -> tensor<1x27x32x128xf32>
    %4446 = stablehlo.broadcast_in_dim %4434, dims = [0, 1, 2, 3] : (tensor<1x27x1x128xf32>) -> tensor<1x27x32x128xf32>
    %4447 = stablehlo.multiply %4445, %4446 : tensor<1x27x32x128xf32>
    %4448 = stablehlo.add %4437, %4447 : tensor<1x27x32x128xf32>
    %4449 = stablehlo.broadcast_in_dim %4435, dims = [0, 1, 2, 3] : (tensor<1x27x1x128xf32>) -> tensor<1x27x32x128xf32>
    %4450 = stablehlo.multiply %4422, %4449 : tensor<1x27x32x128xf32>
    %4451 = stablehlo.constant dense<64> : tensor<i32>
    %4452 = stablehlo.broadcast_in_dim %4451, dims = [] : (tensor<i32>) -> tensor<1xi32>
    %4453 = "stablehlo.gather"(%4422, %4452) {dimension_numbers = #stablehlo.gather<offset_dims = [0, 1, 2, 3], start_index_map = [3]>, indices_are_sorted = true, slice_sizes = array<i64: 1, 27, 32, 64>} : (tensor<1x27x32x128xf32>, tensor<1xi32>) -> tensor<1x27x32x64xf32>
    %4454 = stablehlo.negate %4453 : tensor<1x27x32x64xf32>
    %4455 = stablehlo.constant dense<0> : tensor<i32>
    %4456 = stablehlo.broadcast_in_dim %4455, dims = [] : (tensor<i32>) -> tensor<1xi32>
    %4457 = "stablehlo.gather"(%4422, %4456) {dimension_numbers = #stablehlo.gather<offset_dims = [0, 1, 2, 3], start_index_map = [3]>, indices_are_sorted = true, slice_sizes = array<i64: 1, 27, 32, 64>} : (tensor<1x27x32x128xf32>, tensor<1xi32>) -> tensor<1x27x32x64xf32>
    %4458 = stablehlo.concatenate %4454, %4457, dim = 3 : (tensor<1x27x32x64xf32>, tensor<1x27x32x64xf32>) -> tensor<1x27x32x128xf32>
    %4459 = stablehlo.broadcast_in_dim %4434, dims = [0, 1, 2, 3] : (tensor<1x27x1x128xf32>) -> tensor<1x27x32x128xf32>
    %4460 = stablehlo.multiply %4458, %4459 : tensor<1x27x32x128xf32>
    %4461 = stablehlo.add %4450, %4460 : tensor<1x27x32x128xf32>
    %4462 = stablehlo.slice %4415 [0:1, 0:1, 0:27, 0:27] : (tensor<1x1x4096x4096xi1>) -> tensor<1x1x27x27xi1>
    %4463 = stablehlo.broadcast_in_dim %328, dims = [0, 3] : (tensor<1x27xi32>) -> tensor<1x1x1x27xi32>
    %4464 = stablehlo.reshape %4463 : (tensor<1x1x1x27xi32>) -> tensor<1x1x27xi32>
    %4465 = stablehlo.broadcast_in_dim %4464, dims = [0, 1, 3] : (tensor<1x1x27xi32>) -> tensor<1x1x27x27xi32>
    %4466 = stablehlo.constant dense<0> : tensor<i32>
    %4467 = stablehlo.broadcast_in_dim %4466, dims = [] : (tensor<i32>) -> tensor<1x1x27x27xi32>
    %4468 = stablehlo.compare  NE, %4465, %4467,  SIGNED : (tensor<1x1x27x27xi32>, tensor<1x1x27x27xi32>) -> tensor<1x1x27x27xi1>
    %4469 = stablehlo.and %4468, %4462 : tensor<1x1x27x27xi1>
    %4470 = stablehlo.convert %4469 : (tensor<1x1x27x27xi1>) -> tensor<1x1x27x27xf32>
    %4471 = stablehlo.constant dense<0.000000e+00> : tensor<f32>
    %4472 = stablehlo.broadcast_in_dim %4471, dims = [] : (tensor<f32>) -> tensor<1x1x27x27xf32>
    %4473 = stablehlo.compare  GT, %4470, %4472,  FLOAT : (tensor<1x1x27x27xf32>, tensor<1x1x27x27xf32>) -> tensor<1x1x27x27xi1>
    %4474 = stablehlo.constant dense<0.000000e+00> : tensor<f32>
    %4475 = stablehlo.broadcast_in_dim %4474, dims = [] : (tensor<f32>) -> tensor<1x1x27x27xf32>
    %4476 = stablehlo.convert %4475 : tensor<1x1x27x27xf32>
    %4477 = stablehlo.constant dense<-3.40282347E+38> : tensor<f32>
    %4478 = stablehlo.broadcast_in_dim %4477, dims = [] : (tensor<f32>) -> tensor<1x1x27x27xf32>
    %4479 = stablehlo.select %4473, %4476, %4478 : tensor<1x1x27x27xi1>, tensor<1x1x27x27xf32>
    %4480 = stablehlo.constant dense<1.280000e+02> : tensor<f32>
    %4481 = stablehlo.sqrt %4480 : tensor<f32>
    %4482 = stablehlo.convert %4481 : tensor<f32>
    %4483 = stablehlo.broadcast_in_dim %4482, dims = [] : (tensor<f32>) -> tensor<1x27x32x128xf32>
    %4484 = stablehlo.divide %4461, %4483 : tensor<1x27x32x128xf32>
    %4485 = stablehlo.dot_general %4484, %4448, batching_dims = [0, 2] x [0, 2], contracting_dims = [3] x [3] : (tensor<1x27x32x128xf32>, tensor<1x27x32x128xf32>) -> tensor<1x32x27x27xf32>
    %4486 = stablehlo.broadcast_in_dim %4479, dims = [0, 1, 2, 3] : (tensor<1x1x27x27xf32>) -> tensor<1x32x27x27xf32>
    %4487 = stablehlo.add %4485, %4486 : tensor<1x32x27x27xf32>
    %4488 = stablehlo.constant dense<0xFF800000> : tensor<f32>
    %4489 = stablehlo.reduce(%4487 init: %4488) applies stablehlo.maximum across dimensions = [3] : (tensor<1x32x27x27xf32>, tensor<f32>) -> tensor<1x32x27xf32>
    %4490 = stablehlo.broadcast_in_dim %4489, dims = [0, 1, 2] : (tensor<1x32x27xf32>) -> tensor<1x32x27x1xf32>
    %4491 = stablehlo.broadcast_in_dim %4490, dims = [0, 1, 2, 3] : (tensor<1x32x27x1xf32>) -> tensor<1x32x27x27xf32>
    %4492 = stablehlo.subtract %4487, %4491 : tensor<1x32x27x27xf32>
    %4493 = stablehlo.exponential %4492 : tensor<1x32x27x27xf32>
    %4494 = stablehlo.constant dense<0.000000e+00> : tensor<f32>
    %4495 = stablehlo.reduce(%4493 init: %4494) applies stablehlo.add across dimensions = [3] : (tensor<1x32x27x27xf32>, tensor<f32>) -> tensor<1x32x27xf32>
    %4496 = stablehlo.broadcast_in_dim %4495, dims = [0, 1, 2] : (tensor<1x32x27xf32>) -> tensor<1x32x27x1xf32>
    %4497 = stablehlo.broadcast_in_dim %4496, dims = [0, 1, 2, 3] : (tensor<1x32x27x1xf32>) -> tensor<1x32x27x27xf32>
    %4498 = stablehlo.divide %4493, %4497 : tensor<1x32x27x27xf32>
    %4499 = stablehlo.dot_general %4424, %4498, batching_dims = [0, 2] x [0, 1], contracting_dims = [1] x [3] : (tensor<1x27x32x128xf32>, tensor<1x32x27x27xf32>) -> tensor<1x32x128x27xf32>
    %4500 = stablehlo.transpose %4499, dims = [0, 3, 1, 2] : (tensor<1x32x128x27xf32>) -> tensor<1x27x32x128xf32>
    %4501 = stablehlo.reshape %4500 : (tensor<1x27x32x128xf32>) -> tensor<1x27x4096xf32>
    %4502 = stablehlo.convert %296 : (tensor<4096x4096xf16>) -> tensor<4096x4096xf32>
    %4503 = stablehlo.dot_general %4501, %4502, contracting_dims = [2] x [0] : (tensor<1x27x4096xf32>, tensor<4096x4096xf32>) -> tensor<1x27x4096xf32>
    %4504 = stablehlo.add %4390, %4503 : tensor<1x27x4096xf32>
    %4505 = stablehlo.multiply %4504, %4504 : tensor<1x27x4096xf32>
    %4506 = stablehlo.constant dense<0.000000e+00> : tensor<f32>
    %4507 = stablehlo.reduce(%4505 init: %4506) applies stablehlo.add across dimensions = [2] : (tensor<1x27x4096xf32>, tensor<f32>) -> tensor<1x27xf32>
    %4508 = stablehlo.broadcast_in_dim %4507, dims = [0, 1] : (tensor<1x27xf32>) -> tensor<1x27x1xf32>
    %4509 = stablehlo.constant dense<4.096000e+03> : tensor<f32>
    %4510 = stablehlo.broadcast_in_dim %4509, dims = [] : (tensor<f32>) -> tensor<1x27x1xf32>
    %4511 = stablehlo.divide %4508, %4510 : tensor<1x27x1xf32>
    %4512 = stablehlo.constant dense<9.99999974E-6> : tensor<f32>
    %4513 = stablehlo.broadcast_in_dim %4512, dims = [] : (tensor<f32>) -> tensor<1x27x1xf32>
    %4514 = stablehlo.add %4511, %4513 : tensor<1x27x1xf32>
    %4515 = stablehlo.sqrt %4514 : tensor<1x27x1xf32>
    %4516 = stablehlo.broadcast_in_dim %4515, dims = [0, 1, 2] : (tensor<1x27x1xf32>) -> tensor<1x27x4096xf32>
    %4517 = stablehlo.divide %4504, %4516 : tensor<1x27x4096xf32>
    %4518 = stablehlo.convert %297 : (tensor<4096xf16>) -> tensor<4096xf32>
    %4519 = stablehlo.broadcast_in_dim %4518, dims = [2] : (tensor<4096xf32>) -> tensor<1x1x4096xf32>
    %4520 = stablehlo.broadcast_in_dim %4519, dims = [0, 1, 2] : (tensor<1x1x4096xf32>) -> tensor<1x27x4096xf32>
    %4521 = stablehlo.multiply %4520, %4517 : tensor<1x27x4096xf32>
    %4522 = stablehlo.convert %298 : (tensor<4096x11008xf16>) -> tensor<4096x11008xf32>
    %4523 = stablehlo.dot_general %4521, %4522, contracting_dims = [2] x [0] : (tensor<1x27x4096xf32>, tensor<4096x11008xf32>) -> tensor<1x27x11008xf32>
    %4524 = stablehlo.convert %299 : (tensor<4096x11008xf16>) -> tensor<4096x11008xf32>
    %4525 = stablehlo.dot_general %4521, %4524, contracting_dims = [2] x [0] : (tensor<1x27x4096xf32>, tensor<4096x11008xf32>) -> tensor<1x27x11008xf32>
    %4526 = call @silu(%4525) : (tensor<1x27x11008xf32>) -> tensor<1x27x11008xf32>
    %4527 = stablehlo.multiply %4523, %4526 : tensor<1x27x11008xf32>
    %4528 = stablehlo.convert %300 : (tensor<11008x4096xf16>) -> tensor<11008x4096xf32>
    %4529 = stablehlo.dot_general %4527, %4528, contracting_dims = [2] x [0] : (tensor<1x27x11008xf32>, tensor<11008x4096xf32>) -> tensor<1x27x4096xf32>
    %4530 = stablehlo.add %4504, %4529 : tensor<1x27x4096xf32>
    %4531 = stablehlo.multiply %4530, %4530 : tensor<1x27x4096xf32>
    %4532 = stablehlo.constant dense<0.000000e+00> : tensor<f32>
    %4533 = stablehlo.reduce(%4531 init: %4532) applies stablehlo.add across dimensions = [2] : (tensor<1x27x4096xf32>, tensor<f32>) -> tensor<1x27xf32>
    %4534 = stablehlo.broadcast_in_dim %4533, dims = [0, 1] : (tensor<1x27xf32>) -> tensor<1x27x1xf32>
    %4535 = stablehlo.constant dense<4.096000e+03> : tensor<f32>
    %4536 = stablehlo.broadcast_in_dim %4535, dims = [] : (tensor<f32>) -> tensor<1x27x1xf32>
    %4537 = stablehlo.divide %4534, %4536 : tensor<1x27x1xf32>
    %4538 = stablehlo.constant dense<9.99999974E-6> : tensor<f32>
    %4539 = stablehlo.broadcast_in_dim %4538, dims = [] : (tensor<f32>) -> tensor<1x27x1xf32>
    %4540 = stablehlo.add %4537, %4539 : tensor<1x27x1xf32>
    %4541 = stablehlo.sqrt %4540 : tensor<1x27x1xf32>
    %4542 = stablehlo.broadcast_in_dim %4541, dims = [0, 1, 2] : (tensor<1x27x1xf32>) -> tensor<1x27x4096xf32>
    %4543 = stablehlo.divide %4530, %4542 : tensor<1x27x4096xf32>
    %4544 = stablehlo.convert %301 : (tensor<4096xf16>) -> tensor<4096xf32>
    %4545 = stablehlo.broadcast_in_dim %4544, dims = [2] : (tensor<4096xf32>) -> tensor<1x1x4096xf32>
    %4546 = stablehlo.broadcast_in_dim %4545, dims = [0, 1, 2] : (tensor<1x1x4096xf32>) -> tensor<1x27x4096xf32>
    %4547 = stablehlo.multiply %4546, %4543 : tensor<1x27x4096xf32>
    %4548 = stablehlo.iota dim = 0 : tensor<4096xi32>
    %4549 = stablehlo.broadcast_in_dim %4548, dims = [1] : (tensor<4096xi32>) -> tensor<1x4096xi32>
    %4550 = stablehlo.broadcast_in_dim %4549, dims = [0, 1] : (tensor<1x4096xi32>) -> tensor<1x4096x1xi32>
    %4551 = stablehlo.broadcast_in_dim %4549, dims = [0, 2] : (tensor<1x4096xi32>) -> tensor<1x1x4096xi32>
    %4552 = stablehlo.broadcast_in_dim %4550, dims = [0, 1, 2] : (tensor<1x4096x1xi32>) -> tensor<1x4096x4096xi32>
    %4553 = stablehlo.broadcast_in_dim %4551, dims = [0, 1, 2] : (tensor<1x1x4096xi32>) -> tensor<1x4096x4096xi32>
    %4554 = stablehlo.compare  GE, %4552, %4553,  SIGNED : (tensor<1x4096x4096xi32>, tensor<1x4096x4096xi32>) -> tensor<1x4096x4096xi1>
    %4555 = stablehlo.broadcast_in_dim %4554, dims = [0, 2, 3] : (tensor<1x4096x4096xi1>) -> tensor<1x1x4096x4096xi1>
    %4556 = stablehlo.convert %302 : (tensor<4096x4096xf16>) -> tensor<4096x4096xf32>
    %4557 = stablehlo.dot_general %4547, %4556, contracting_dims = [2] x [0] : (tensor<1x27x4096xf32>, tensor<4096x4096xf32>) -> tensor<1x27x4096xf32>
    %4558 = stablehlo.convert %303 : (tensor<4096x4096xf16>) -> tensor<4096x4096xf32>
    %4559 = stablehlo.dot_general %4547, %4558, contracting_dims = [2] x [0] : (tensor<1x27x4096xf32>, tensor<4096x4096xf32>) -> tensor<1x27x4096xf32>
    %4560 = stablehlo.convert %304 : (tensor<4096x4096xf16>) -> tensor<4096x4096xf32>
    %4561 = stablehlo.dot_general %4547, %4560, contracting_dims = [2] x [0] : (tensor<1x27x4096xf32>, tensor<4096x4096xf32>) -> tensor<1x27x4096xf32>
    %4562 = stablehlo.reshape %4557 : (tensor<1x27x4096xf32>) -> tensor<1x27x32x128xf32>
    %4563 = stablehlo.reshape %4559 : (tensor<1x27x4096xf32>) -> tensor<1x27x32x128xf32>
    %4564 = stablehlo.reshape %4561 : (tensor<1x27x4096xf32>) -> tensor<1x27x32x128xf32>
    %4565 = stablehlo.constant dense<0> : tensor<i32>
    %4566 = stablehlo.broadcast_in_dim %4565, dims = [] : (tensor<i32>) -> tensor<1x27xi32>
    %4567 = stablehlo.compare  LT, %324, %4566,  SIGNED : (tensor<1x27xi32>, tensor<1x27xi32>) -> tensor<1x27xi1>
    %4568 = stablehlo.constant dense<4096> : tensor<i32>
    %4569 = stablehlo.broadcast_in_dim %4568, dims = [] : (tensor<i32>) -> tensor<1x27xi32>
    %4570 = stablehlo.add %324, %4569 : tensor<1x27xi32>
    %4571 = stablehlo.select %4567, %4570, %324 : tensor<1x27xi1>, tensor<1x27xi32>
    %4572 = stablehlo.broadcast_in_dim %4571, dims = [0, 1] : (tensor<1x27xi32>) -> tensor<1x27x1xi32>
    %4573 = "stablehlo.gather"(%305, %4572) {dimension_numbers = #stablehlo.gather<offset_dims = [2, 3], collapsed_slice_dims = [0], start_index_map = [0], index_vector_dim = 2>, slice_sizes = array<i64: 1, 1, 256>} : (tensor<4096x1x256xf32>, tensor<1x27x1xi32>) -> tensor<1x27x1x256xf32>
    %4574 = stablehlo.slice %4573 [0:1, 0:27, 0:1, 0:128] : (tensor<1x27x1x256xf32>) -> tensor<1x27x1x128xf32>
    %4575 = stablehlo.slice %4573 [0:1, 0:27, 0:1, 128:256] : (tensor<1x27x1x256xf32>) -> tensor<1x27x1x128xf32>
    %4576 = stablehlo.broadcast_in_dim %4575, dims = [0, 1, 2, 3] : (tensor<1x27x1x128xf32>) -> tensor<1x27x32x128xf32>
    %4577 = stablehlo.multiply %4563, %4576 : tensor<1x27x32x128xf32>
    %4578 = stablehlo.constant dense<64> : tensor<i32>
    %4579 = stablehlo.broadcast_in_dim %4578, dims = [] : (tensor<i32>) -> tensor<1xi32>
    %4580 = "stablehlo.gather"(%4563, %4579) {dimension_numbers = #stablehlo.gather<offset_dims = [0, 1, 2, 3], start_index_map = [3]>, indices_are_sorted = true, slice_sizes = array<i64: 1, 27, 32, 64>} : (tensor<1x27x32x128xf32>, tensor<1xi32>) -> tensor<1x27x32x64xf32>
    %4581 = stablehlo.negate %4580 : tensor<1x27x32x64xf32>
    %4582 = stablehlo.constant dense<0> : tensor<i32>
    %4583 = stablehlo.broadcast_in_dim %4582, dims = [] : (tensor<i32>) -> tensor<1xi32>
    %4584 = "stablehlo.gather"(%4563, %4583) {dimension_numbers = #stablehlo.gather<offset_dims = [0, 1, 2, 3], start_index_map = [3]>, indices_are_sorted = true, slice_sizes = array<i64: 1, 27, 32, 64>} : (tensor<1x27x32x128xf32>, tensor<1xi32>) -> tensor<1x27x32x64xf32>
    %4585 = stablehlo.concatenate %4581, %4584, dim = 3 : (tensor<1x27x32x64xf32>, tensor<1x27x32x64xf32>) -> tensor<1x27x32x128xf32>
    %4586 = stablehlo.broadcast_in_dim %4574, dims = [0, 1, 2, 3] : (tensor<1x27x1x128xf32>) -> tensor<1x27x32x128xf32>
    %4587 = stablehlo.multiply %4585, %4586 : tensor<1x27x32x128xf32>
    %4588 = stablehlo.add %4577, %4587 : tensor<1x27x32x128xf32>
    %4589 = stablehlo.broadcast_in_dim %4575, dims = [0, 1, 2, 3] : (tensor<1x27x1x128xf32>) -> tensor<1x27x32x128xf32>
    %4590 = stablehlo.multiply %4562, %4589 : tensor<1x27x32x128xf32>
    %4591 = stablehlo.constant dense<64> : tensor<i32>
    %4592 = stablehlo.broadcast_in_dim %4591, dims = [] : (tensor<i32>) -> tensor<1xi32>
    %4593 = "stablehlo.gather"(%4562, %4592) {dimension_numbers = #stablehlo.gather<offset_dims = [0, 1, 2, 3], start_index_map = [3]>, indices_are_sorted = true, slice_sizes = array<i64: 1, 27, 32, 64>} : (tensor<1x27x32x128xf32>, tensor<1xi32>) -> tensor<1x27x32x64xf32>
    %4594 = stablehlo.negate %4593 : tensor<1x27x32x64xf32>
    %4595 = stablehlo.constant dense<0> : tensor<i32>
    %4596 = stablehlo.broadcast_in_dim %4595, dims = [] : (tensor<i32>) -> tensor<1xi32>
    %4597 = "stablehlo.gather"(%4562, %4596) {dimension_numbers = #stablehlo.gather<offset_dims = [0, 1, 2, 3], start_index_map = [3]>, indices_are_sorted = true, slice_sizes = array<i64: 1, 27, 32, 64>} : (tensor<1x27x32x128xf32>, tensor<1xi32>) -> tensor<1x27x32x64xf32>
    %4598 = stablehlo.concatenate %4594, %4597, dim = 3 : (tensor<1x27x32x64xf32>, tensor<1x27x32x64xf32>) -> tensor<1x27x32x128xf32>
    %4599 = stablehlo.broadcast_in_dim %4574, dims = [0, 1, 2, 3] : (tensor<1x27x1x128xf32>) -> tensor<1x27x32x128xf32>
    %4600 = stablehlo.multiply %4598, %4599 : tensor<1x27x32x128xf32>
    %4601 = stablehlo.add %4590, %4600 : tensor<1x27x32x128xf32>
    %4602 = stablehlo.slice %4555 [0:1, 0:1, 0:27, 0:27] : (tensor<1x1x4096x4096xi1>) -> tensor<1x1x27x27xi1>
    %4603 = stablehlo.broadcast_in_dim %328, dims = [0, 3] : (tensor<1x27xi32>) -> tensor<1x1x1x27xi32>
    %4604 = stablehlo.reshape %4603 : (tensor<1x1x1x27xi32>) -> tensor<1x1x27xi32>
    %4605 = stablehlo.broadcast_in_dim %4604, dims = [0, 1, 3] : (tensor<1x1x27xi32>) -> tensor<1x1x27x27xi32>
    %4606 = stablehlo.constant dense<0> : tensor<i32>
    %4607 = stablehlo.broadcast_in_dim %4606, dims = [] : (tensor<i32>) -> tensor<1x1x27x27xi32>
    %4608 = stablehlo.compare  NE, %4605, %4607,  SIGNED : (tensor<1x1x27x27xi32>, tensor<1x1x27x27xi32>) -> tensor<1x1x27x27xi1>
    %4609 = stablehlo.and %4608, %4602 : tensor<1x1x27x27xi1>
    %4610 = stablehlo.convert %4609 : (tensor<1x1x27x27xi1>) -> tensor<1x1x27x27xf32>
    %4611 = stablehlo.constant dense<0.000000e+00> : tensor<f32>
    %4612 = stablehlo.broadcast_in_dim %4611, dims = [] : (tensor<f32>) -> tensor<1x1x27x27xf32>
    %4613 = stablehlo.compare  GT, %4610, %4612,  FLOAT : (tensor<1x1x27x27xf32>, tensor<1x1x27x27xf32>) -> tensor<1x1x27x27xi1>
    %4614 = stablehlo.constant dense<0.000000e+00> : tensor<f32>
    %4615 = stablehlo.broadcast_in_dim %4614, dims = [] : (tensor<f32>) -> tensor<1x1x27x27xf32>
    %4616 = stablehlo.convert %4615 : tensor<1x1x27x27xf32>
    %4617 = stablehlo.constant dense<-3.40282347E+38> : tensor<f32>
    %4618 = stablehlo.broadcast_in_dim %4617, dims = [] : (tensor<f32>) -> tensor<1x1x27x27xf32>
    %4619 = stablehlo.select %4613, %4616, %4618 : tensor<1x1x27x27xi1>, tensor<1x1x27x27xf32>
    %4620 = stablehlo.constant dense<1.280000e+02> : tensor<f32>
    %4621 = stablehlo.sqrt %4620 : tensor<f32>
    %4622 = stablehlo.convert %4621 : tensor<f32>
    %4623 = stablehlo.broadcast_in_dim %4622, dims = [] : (tensor<f32>) -> tensor<1x27x32x128xf32>
    %4624 = stablehlo.divide %4601, %4623 : tensor<1x27x32x128xf32>
    %4625 = stablehlo.dot_general %4624, %4588, batching_dims = [0, 2] x [0, 2], contracting_dims = [3] x [3] : (tensor<1x27x32x128xf32>, tensor<1x27x32x128xf32>) -> tensor<1x32x27x27xf32>
    %4626 = stablehlo.broadcast_in_dim %4619, dims = [0, 1, 2, 3] : (tensor<1x1x27x27xf32>) -> tensor<1x32x27x27xf32>
    %4627 = stablehlo.add %4625, %4626 : tensor<1x32x27x27xf32>
    %4628 = stablehlo.constant dense<0xFF800000> : tensor<f32>
    %4629 = stablehlo.reduce(%4627 init: %4628) applies stablehlo.maximum across dimensions = [3] : (tensor<1x32x27x27xf32>, tensor<f32>) -> tensor<1x32x27xf32>
    %4630 = stablehlo.broadcast_in_dim %4629, dims = [0, 1, 2] : (tensor<1x32x27xf32>) -> tensor<1x32x27x1xf32>
    %4631 = stablehlo.broadcast_in_dim %4630, dims = [0, 1, 2, 3] : (tensor<1x32x27x1xf32>) -> tensor<1x32x27x27xf32>
    %4632 = stablehlo.subtract %4627, %4631 : tensor<1x32x27x27xf32>
    %4633 = stablehlo.exponential %4632 : tensor<1x32x27x27xf32>
    %4634 = stablehlo.constant dense<0.000000e+00> : tensor<f32>
    %4635 = stablehlo.reduce(%4633 init: %4634) applies stablehlo.add across dimensions = [3] : (tensor<1x32x27x27xf32>, tensor<f32>) -> tensor<1x32x27xf32>
    %4636 = stablehlo.broadcast_in_dim %4635, dims = [0, 1, 2] : (tensor<1x32x27xf32>) -> tensor<1x32x27x1xf32>
    %4637 = stablehlo.broadcast_in_dim %4636, dims = [0, 1, 2, 3] : (tensor<1x32x27x1xf32>) -> tensor<1x32x27x27xf32>
    %4638 = stablehlo.divide %4633, %4637 : tensor<1x32x27x27xf32>
    %4639 = stablehlo.dot_general %4564, %4638, batching_dims = [0, 2] x [0, 1], contracting_dims = [1] x [3] : (tensor<1x27x32x128xf32>, tensor<1x32x27x27xf32>) -> tensor<1x32x128x27xf32>
    %4640 = stablehlo.transpose %4639, dims = [0, 3, 1, 2] : (tensor<1x32x128x27xf32>) -> tensor<1x27x32x128xf32>
    %4641 = stablehlo.reshape %4640 : (tensor<1x27x32x128xf32>) -> tensor<1x27x4096xf32>
    %4642 = stablehlo.convert %306 : (tensor<4096x4096xf16>) -> tensor<4096x4096xf32>
    %4643 = stablehlo.dot_general %4641, %4642, contracting_dims = [2] x [0] : (tensor<1x27x4096xf32>, tensor<4096x4096xf32>) -> tensor<1x27x4096xf32>
    %4644 = stablehlo.add %4530, %4643 : tensor<1x27x4096xf32>
    %4645 = stablehlo.multiply %4644, %4644 : tensor<1x27x4096xf32>
    %4646 = stablehlo.constant dense<0.000000e+00> : tensor<f32>
    %4647 = stablehlo.reduce(%4645 init: %4646) applies stablehlo.add across dimensions = [2] : (tensor<1x27x4096xf32>, tensor<f32>) -> tensor<1x27xf32>
    %4648 = stablehlo.broadcast_in_dim %4647, dims = [0, 1] : (tensor<1x27xf32>) -> tensor<1x27x1xf32>
    %4649 = stablehlo.constant dense<4.096000e+03> : tensor<f32>
    %4650 = stablehlo.broadcast_in_dim %4649, dims = [] : (tensor<f32>) -> tensor<1x27x1xf32>
    %4651 = stablehlo.divide %4648, %4650 : tensor<1x27x1xf32>
    %4652 = stablehlo.constant dense<9.99999974E-6> : tensor<f32>
    %4653 = stablehlo.broadcast_in_dim %4652, dims = [] : (tensor<f32>) -> tensor<1x27x1xf32>
    %4654 = stablehlo.add %4651, %4653 : tensor<1x27x1xf32>
    %4655 = stablehlo.sqrt %4654 : tensor<1x27x1xf32>
    %4656 = stablehlo.broadcast_in_dim %4655, dims = [0, 1, 2] : (tensor<1x27x1xf32>) -> tensor<1x27x4096xf32>
    %4657 = stablehlo.divide %4644, %4656 : tensor<1x27x4096xf32>
    %4658 = stablehlo.convert %307 : (tensor<4096xf16>) -> tensor<4096xf32>
    %4659 = stablehlo.broadcast_in_dim %4658, dims = [2] : (tensor<4096xf32>) -> tensor<1x1x4096xf32>
    %4660 = stablehlo.broadcast_in_dim %4659, dims = [0, 1, 2] : (tensor<1x1x4096xf32>) -> tensor<1x27x4096xf32>
    %4661 = stablehlo.multiply %4660, %4657 : tensor<1x27x4096xf32>
    %4662 = stablehlo.convert %308 : (tensor<4096x11008xf16>) -> tensor<4096x11008xf32>
    %4663 = stablehlo.dot_general %4661, %4662, contracting_dims = [2] x [0] : (tensor<1x27x4096xf32>, tensor<4096x11008xf32>) -> tensor<1x27x11008xf32>
    %4664 = stablehlo.convert %309 : (tensor<4096x11008xf16>) -> tensor<4096x11008xf32>
    %4665 = stablehlo.dot_general %4661, %4664, contracting_dims = [2] x [0] : (tensor<1x27x4096xf32>, tensor<4096x11008xf32>) -> tensor<1x27x11008xf32>
    %4666 = call @silu(%4665) : (tensor<1x27x11008xf32>) -> tensor<1x27x11008xf32>
    %4667 = stablehlo.multiply %4663, %4666 : tensor<1x27x11008xf32>
    %4668 = stablehlo.convert %310 : (tensor<11008x4096xf16>) -> tensor<11008x4096xf32>
    %4669 = stablehlo.dot_general %4667, %4668, contracting_dims = [2] x [0] : (tensor<1x27x11008xf32>, tensor<11008x4096xf32>) -> tensor<1x27x4096xf32>
    %4670 = stablehlo.add %4644, %4669 : tensor<1x27x4096xf32>
    %4671 = stablehlo.multiply %4670, %4670 : tensor<1x27x4096xf32>
    %4672 = stablehlo.constant dense<0.000000e+00> : tensor<f32>
    %4673 = stablehlo.reduce(%4671 init: %4672) applies stablehlo.add across dimensions = [2] : (tensor<1x27x4096xf32>, tensor<f32>) -> tensor<1x27xf32>
    %4674 = stablehlo.broadcast_in_dim %4673, dims = [0, 1] : (tensor<1x27xf32>) -> tensor<1x27x1xf32>
    %4675 = stablehlo.constant dense<4.096000e+03> : tensor<f32>
    %4676 = stablehlo.broadcast_in_dim %4675, dims = [] : (tensor<f32>) -> tensor<1x27x1xf32>
    %4677 = stablehlo.divide %4674, %4676 : tensor<1x27x1xf32>
    %4678 = stablehlo.constant dense<9.99999974E-6> : tensor<f32>
    %4679 = stablehlo.broadcast_in_dim %4678, dims = [] : (tensor<f32>) -> tensor<1x27x1xf32>
    %4680 = stablehlo.add %4677, %4679 : tensor<1x27x1xf32>
    %4681 = stablehlo.sqrt %4680 : tensor<1x27x1xf32>
    %4682 = stablehlo.broadcast_in_dim %4681, dims = [0, 1, 2] : (tensor<1x27x1xf32>) -> tensor<1x27x4096xf32>
    %4683 = stablehlo.divide %4670, %4682 : tensor<1x27x4096xf32>
    %4684 = stablehlo.convert %311 : (tensor<4096xf16>) -> tensor<4096xf32>
    %4685 = stablehlo.broadcast_in_dim %4684, dims = [2] : (tensor<4096xf32>) -> tensor<1x1x4096xf32>
    %4686 = stablehlo.broadcast_in_dim %4685, dims = [0, 1, 2] : (tensor<1x1x4096xf32>) -> tensor<1x27x4096xf32>
    %4687 = stablehlo.multiply %4686, %4683 : tensor<1x27x4096xf32>
    %4688 = stablehlo.iota dim = 0 : tensor<4096xi32>
    %4689 = stablehlo.broadcast_in_dim %4688, dims = [1] : (tensor<4096xi32>) -> tensor<1x4096xi32>
    %4690 = stablehlo.broadcast_in_dim %4689, dims = [0, 1] : (tensor<1x4096xi32>) -> tensor<1x4096x1xi32>
    %4691 = stablehlo.broadcast_in_dim %4689, dims = [0, 2] : (tensor<1x4096xi32>) -> tensor<1x1x4096xi32>
    %4692 = stablehlo.broadcast_in_dim %4690, dims = [0, 1, 2] : (tensor<1x4096x1xi32>) -> tensor<1x4096x4096xi32>
    %4693 = stablehlo.broadcast_in_dim %4691, dims = [0, 1, 2] : (tensor<1x1x4096xi32>) -> tensor<1x4096x4096xi32>
    %4694 = stablehlo.compare  GE, %4692, %4693,  SIGNED : (tensor<1x4096x4096xi32>, tensor<1x4096x4096xi32>) -> tensor<1x4096x4096xi1>
    %4695 = stablehlo.broadcast_in_dim %4694, dims = [0, 2, 3] : (tensor<1x4096x4096xi1>) -> tensor<1x1x4096x4096xi1>
    %4696 = stablehlo.convert %312 : (tensor<4096x4096xf16>) -> tensor<4096x4096xf32>
    %4697 = stablehlo.dot_general %4687, %4696, contracting_dims = [2] x [0] : (tensor<1x27x4096xf32>, tensor<4096x4096xf32>) -> tensor<1x27x4096xf32>
    %4698 = stablehlo.convert %313 : (tensor<4096x4096xf16>) -> tensor<4096x4096xf32>
    %4699 = stablehlo.dot_general %4687, %4698, contracting_dims = [2] x [0] : (tensor<1x27x4096xf32>, tensor<4096x4096xf32>) -> tensor<1x27x4096xf32>
    %4700 = stablehlo.convert %314 : (tensor<4096x4096xf16>) -> tensor<4096x4096xf32>
    %4701 = stablehlo.dot_general %4687, %4700, contracting_dims = [2] x [0] : (tensor<1x27x4096xf32>, tensor<4096x4096xf32>) -> tensor<1x27x4096xf32>
    %4702 = stablehlo.reshape %4697 : (tensor<1x27x4096xf32>) -> tensor<1x27x32x128xf32>
    %4703 = stablehlo.reshape %4699 : (tensor<1x27x4096xf32>) -> tensor<1x27x32x128xf32>
    %4704 = stablehlo.reshape %4701 : (tensor<1x27x4096xf32>) -> tensor<1x27x32x128xf32>
    %4705 = stablehlo.constant dense<0> : tensor<i32>
    %4706 = stablehlo.broadcast_in_dim %4705, dims = [] : (tensor<i32>) -> tensor<1x27xi32>
    %4707 = stablehlo.compare  LT, %324, %4706,  SIGNED : (tensor<1x27xi32>, tensor<1x27xi32>) -> tensor<1x27xi1>
    %4708 = stablehlo.constant dense<4096> : tensor<i32>
    %4709 = stablehlo.broadcast_in_dim %4708, dims = [] : (tensor<i32>) -> tensor<1x27xi32>
    %4710 = stablehlo.add %324, %4709 : tensor<1x27xi32>
    %4711 = stablehlo.select %4707, %4710, %324 : tensor<1x27xi1>, tensor<1x27xi32>
    %4712 = stablehlo.broadcast_in_dim %4711, dims = [0, 1] : (tensor<1x27xi32>) -> tensor<1x27x1xi32>
    %4713 = "stablehlo.gather"(%315, %4712) {dimension_numbers = #stablehlo.gather<offset_dims = [2, 3], collapsed_slice_dims = [0], start_index_map = [0], index_vector_dim = 2>, slice_sizes = array<i64: 1, 1, 256>} : (tensor<4096x1x256xf32>, tensor<1x27x1xi32>) -> tensor<1x27x1x256xf32>
    %4714 = stablehlo.slice %4713 [0:1, 0:27, 0:1, 0:128] : (tensor<1x27x1x256xf32>) -> tensor<1x27x1x128xf32>
    %4715 = stablehlo.slice %4713 [0:1, 0:27, 0:1, 128:256] : (tensor<1x27x1x256xf32>) -> tensor<1x27x1x128xf32>
    %4716 = stablehlo.broadcast_in_dim %4715, dims = [0, 1, 2, 3] : (tensor<1x27x1x128xf32>) -> tensor<1x27x32x128xf32>
    %4717 = stablehlo.multiply %4703, %4716 : tensor<1x27x32x128xf32>
    %4718 = stablehlo.constant dense<64> : tensor<i32>
    %4719 = stablehlo.broadcast_in_dim %4718, dims = [] : (tensor<i32>) -> tensor<1xi32>
    %4720 = "stablehlo.gather"(%4703, %4719) {dimension_numbers = #stablehlo.gather<offset_dims = [0, 1, 2, 3], start_index_map = [3]>, indices_are_sorted = true, slice_sizes = array<i64: 1, 27, 32, 64>} : (tensor<1x27x32x128xf32>, tensor<1xi32>) -> tensor<1x27x32x64xf32>
    %4721 = stablehlo.negate %4720 : tensor<1x27x32x64xf32>
    %4722 = stablehlo.constant dense<0> : tensor<i32>
    %4723 = stablehlo.broadcast_in_dim %4722, dims = [] : (tensor<i32>) -> tensor<1xi32>
    %4724 = "stablehlo.gather"(%4703, %4723) {dimension_numbers = #stablehlo.gather<offset_dims = [0, 1, 2, 3], start_index_map = [3]>, indices_are_sorted = true, slice_sizes = array<i64: 1, 27, 32, 64>} : (tensor<1x27x32x128xf32>, tensor<1xi32>) -> tensor<1x27x32x64xf32>
    %4725 = stablehlo.concatenate %4721, %4724, dim = 3 : (tensor<1x27x32x64xf32>, tensor<1x27x32x64xf32>) -> tensor<1x27x32x128xf32>
    %4726 = stablehlo.broadcast_in_dim %4714, dims = [0, 1, 2, 3] : (tensor<1x27x1x128xf32>) -> tensor<1x27x32x128xf32>
    %4727 = stablehlo.multiply %4725, %4726 : tensor<1x27x32x128xf32>
    %4728 = stablehlo.add %4717, %4727 : tensor<1x27x32x128xf32>
    %4729 = stablehlo.broadcast_in_dim %4715, dims = [0, 1, 2, 3] : (tensor<1x27x1x128xf32>) -> tensor<1x27x32x128xf32>
    %4730 = stablehlo.multiply %4702, %4729 : tensor<1x27x32x128xf32>
    %4731 = stablehlo.constant dense<64> : tensor<i32>
    %4732 = stablehlo.broadcast_in_dim %4731, dims = [] : (tensor<i32>) -> tensor<1xi32>
    %4733 = "stablehlo.gather"(%4702, %4732) {dimension_numbers = #stablehlo.gather<offset_dims = [0, 1, 2, 3], start_index_map = [3]>, indices_are_sorted = true, slice_sizes = array<i64: 1, 27, 32, 64>} : (tensor<1x27x32x128xf32>, tensor<1xi32>) -> tensor<1x27x32x64xf32>
    %4734 = stablehlo.negate %4733 : tensor<1x27x32x64xf32>
    %4735 = stablehlo.constant dense<0> : tensor<i32>
    %4736 = stablehlo.broadcast_in_dim %4735, dims = [] : (tensor<i32>) -> tensor<1xi32>
    %4737 = "stablehlo.gather"(%4702, %4736) {dimension_numbers = #stablehlo.gather<offset_dims = [0, 1, 2, 3], start_index_map = [3]>, indices_are_sorted = true, slice_sizes = array<i64: 1, 27, 32, 64>} : (tensor<1x27x32x128xf32>, tensor<1xi32>) -> tensor<1x27x32x64xf32>
    %4738 = stablehlo.concatenate %4734, %4737, dim = 3 : (tensor<1x27x32x64xf32>, tensor<1x27x32x64xf32>) -> tensor<1x27x32x128xf32>
    %4739 = stablehlo.broadcast_in_dim %4714, dims = [0, 1, 2, 3] : (tensor<1x27x1x128xf32>) -> tensor<1x27x32x128xf32>
    %4740 = stablehlo.multiply %4738, %4739 : tensor<1x27x32x128xf32>
    %4741 = stablehlo.add %4730, %4740 : tensor<1x27x32x128xf32>
    %4742 = stablehlo.slice %4695 [0:1, 0:1, 0:27, 0:27] : (tensor<1x1x4096x4096xi1>) -> tensor<1x1x27x27xi1>
    %4743 = stablehlo.broadcast_in_dim %328, dims = [0, 3] : (tensor<1x27xi32>) -> tensor<1x1x1x27xi32>
    %4744 = stablehlo.reshape %4743 : (tensor<1x1x1x27xi32>) -> tensor<1x1x27xi32>
    %4745 = stablehlo.broadcast_in_dim %4744, dims = [0, 1, 3] : (tensor<1x1x27xi32>) -> tensor<1x1x27x27xi32>
    %4746 = stablehlo.constant dense<0> : tensor<i32>
    %4747 = stablehlo.broadcast_in_dim %4746, dims = [] : (tensor<i32>) -> tensor<1x1x27x27xi32>
    %4748 = stablehlo.compare  NE, %4745, %4747,  SIGNED : (tensor<1x1x27x27xi32>, tensor<1x1x27x27xi32>) -> tensor<1x1x27x27xi1>
    %4749 = stablehlo.and %4748, %4742 : tensor<1x1x27x27xi1>
    %4750 = stablehlo.convert %4749 : (tensor<1x1x27x27xi1>) -> tensor<1x1x27x27xf32>
    %4751 = stablehlo.constant dense<0.000000e+00> : tensor<f32>
    %4752 = stablehlo.broadcast_in_dim %4751, dims = [] : (tensor<f32>) -> tensor<1x1x27x27xf32>
    %4753 = stablehlo.compare  GT, %4750, %4752,  FLOAT : (tensor<1x1x27x27xf32>, tensor<1x1x27x27xf32>) -> tensor<1x1x27x27xi1>
    %4754 = stablehlo.constant dense<0.000000e+00> : tensor<f32>
    %4755 = stablehlo.broadcast_in_dim %4754, dims = [] : (tensor<f32>) -> tensor<1x1x27x27xf32>
    %4756 = stablehlo.convert %4755 : tensor<1x1x27x27xf32>
    %4757 = stablehlo.constant dense<-3.40282347E+38> : tensor<f32>
    %4758 = stablehlo.broadcast_in_dim %4757, dims = [] : (tensor<f32>) -> tensor<1x1x27x27xf32>
    %4759 = stablehlo.select %4753, %4756, %4758 : tensor<1x1x27x27xi1>, tensor<1x1x27x27xf32>
    %4760 = stablehlo.constant dense<1.280000e+02> : tensor<f32>
    %4761 = stablehlo.sqrt %4760 : tensor<f32>
    %4762 = stablehlo.convert %4761 : tensor<f32>
    %4763 = stablehlo.broadcast_in_dim %4762, dims = [] : (tensor<f32>) -> tensor<1x27x32x128xf32>
    %4764 = stablehlo.divide %4741, %4763 : tensor<1x27x32x128xf32>
    %4765 = stablehlo.dot_general %4764, %4728, batching_dims = [0, 2] x [0, 2], contracting_dims = [3] x [3] : (tensor<1x27x32x128xf32>, tensor<1x27x32x128xf32>) -> tensor<1x32x27x27xf32>
    %4766 = stablehlo.broadcast_in_dim %4759, dims = [0, 1, 2, 3] : (tensor<1x1x27x27xf32>) -> tensor<1x32x27x27xf32>
    %4767 = stablehlo.add %4765, %4766 : tensor<1x32x27x27xf32>
    %4768 = stablehlo.constant dense<0xFF800000> : tensor<f32>
    %4769 = stablehlo.reduce(%4767 init: %4768) applies stablehlo.maximum across dimensions = [3] : (tensor<1x32x27x27xf32>, tensor<f32>) -> tensor<1x32x27xf32>
    %4770 = stablehlo.broadcast_in_dim %4769, dims = [0, 1, 2] : (tensor<1x32x27xf32>) -> tensor<1x32x27x1xf32>
    %4771 = stablehlo.broadcast_in_dim %4770, dims = [0, 1, 2, 3] : (tensor<1x32x27x1xf32>) -> tensor<1x32x27x27xf32>
    %4772 = stablehlo.subtract %4767, %4771 : tensor<1x32x27x27xf32>
    %4773 = stablehlo.exponential %4772 : tensor<1x32x27x27xf32>
    %4774 = stablehlo.constant dense<0.000000e+00> : tensor<f32>
    %4775 = stablehlo.reduce(%4773 init: %4774) applies stablehlo.add across dimensions = [3] : (tensor<1x32x27x27xf32>, tensor<f32>) -> tensor<1x32x27xf32>
    %4776 = stablehlo.broadcast_in_dim %4775, dims = [0, 1, 2] : (tensor<1x32x27xf32>) -> tensor<1x32x27x1xf32>
    %4777 = stablehlo.broadcast_in_dim %4776, dims = [0, 1, 2, 3] : (tensor<1x32x27x1xf32>) -> tensor<1x32x27x27xf32>
    %4778 = stablehlo.divide %4773, %4777 : tensor<1x32x27x27xf32>
    %4779 = stablehlo.dot_general %4704, %4778, batching_dims = [0, 2] x [0, 1], contracting_dims = [1] x [3] : (tensor<1x27x32x128xf32>, tensor<1x32x27x27xf32>) -> tensor<1x32x128x27xf32>
    %4780 = stablehlo.transpose %4779, dims = [0, 3, 1, 2] : (tensor<1x32x128x27xf32>) -> tensor<1x27x32x128xf32>
    %4781 = stablehlo.reshape %4780 : (tensor<1x27x32x128xf32>) -> tensor<1x27x4096xf32>
    %4782 = stablehlo.convert %316 : (tensor<4096x4096xf16>) -> tensor<4096x4096xf32>
    %4783 = stablehlo.dot_general %4781, %4782, contracting_dims = [2] x [0] : (tensor<1x27x4096xf32>, tensor<4096x4096xf32>) -> tensor<1x27x4096xf32>
    %4784 = stablehlo.add %4670, %4783 : tensor<1x27x4096xf32>
    %4785 = stablehlo.multiply %4784, %4784 : tensor<1x27x4096xf32>
    %4786 = stablehlo.constant dense<0.000000e+00> : tensor<f32>
    %4787 = stablehlo.reduce(%4785 init: %4786) applies stablehlo.add across dimensions = [2] : (tensor<1x27x4096xf32>, tensor<f32>) -> tensor<1x27xf32>
    %4788 = stablehlo.broadcast_in_dim %4787, dims = [0, 1] : (tensor<1x27xf32>) -> tensor<1x27x1xf32>
    %4789 = stablehlo.constant dense<4.096000e+03> : tensor<f32>
    %4790 = stablehlo.broadcast_in_dim %4789, dims = [] : (tensor<f32>) -> tensor<1x27x1xf32>
    %4791 = stablehlo.divide %4788, %4790 : tensor<1x27x1xf32>
    %4792 = stablehlo.constant dense<9.99999974E-6> : tensor<f32>
    %4793 = stablehlo.broadcast_in_dim %4792, dims = [] : (tensor<f32>) -> tensor<1x27x1xf32>
    %4794 = stablehlo.add %4791, %4793 : tensor<1x27x1xf32>
    %4795 = stablehlo.sqrt %4794 : tensor<1x27x1xf32>
    %4796 = stablehlo.broadcast_in_dim %4795, dims = [0, 1, 2] : (tensor<1x27x1xf32>) -> tensor<1x27x4096xf32>
    %4797 = stablehlo.divide %4784, %4796 : tensor<1x27x4096xf32>
    %4798 = stablehlo.convert %317 : (tensor<4096xf16>) -> tensor<4096xf32>
    %4799 = stablehlo.broadcast_in_dim %4798, dims = [2] : (tensor<4096xf32>) -> tensor<1x1x4096xf32>
    %4800 = stablehlo.broadcast_in_dim %4799, dims = [0, 1, 2] : (tensor<1x1x4096xf32>) -> tensor<1x27x4096xf32>
    %4801 = stablehlo.multiply %4800, %4797 : tensor<1x27x4096xf32>
    %4802 = stablehlo.convert %318 : (tensor<4096x11008xf16>) -> tensor<4096x11008xf32>
    %4803 = stablehlo.dot_general %4801, %4802, contracting_dims = [2] x [0] : (tensor<1x27x4096xf32>, tensor<4096x11008xf32>) -> tensor<1x27x11008xf32>
    %4804 = stablehlo.convert %319 : (tensor<4096x11008xf16>) -> tensor<4096x11008xf32>
    %4805 = stablehlo.dot_general %4801, %4804, contracting_dims = [2] x [0] : (tensor<1x27x4096xf32>, tensor<4096x11008xf32>) -> tensor<1x27x11008xf32>
    %4806 = call @silu(%4805) : (tensor<1x27x11008xf32>) -> tensor<1x27x11008xf32>
    %4807 = stablehlo.multiply %4803, %4806 : tensor<1x27x11008xf32>
    %4808 = stablehlo.convert %320 : (tensor<11008x4096xf16>) -> tensor<11008x4096xf32>
    %4809 = stablehlo.dot_general %4807, %4808, contracting_dims = [2] x [0] : (tensor<1x27x11008xf32>, tensor<11008x4096xf32>) -> tensor<1x27x4096xf32>
    %4810 = stablehlo.add %4784, %4809 : tensor<1x27x4096xf32>
    %4811 = stablehlo.multiply %4810, %4810 : tensor<1x27x4096xf32>
    %4812 = stablehlo.constant dense<0.000000e+00> : tensor<f32>
    %4813 = stablehlo.reduce(%4811 init: %4812) applies stablehlo.add across dimensions = [2] : (tensor<1x27x4096xf32>, tensor<f32>) -> tensor<1x27xf32>
    %4814 = stablehlo.broadcast_in_dim %4813, dims = [0, 1] : (tensor<1x27xf32>) -> tensor<1x27x1xf32>
    %4815 = stablehlo.constant dense<4.096000e+03> : tensor<f32>
    %4816 = stablehlo.broadcast_in_dim %4815, dims = [] : (tensor<f32>) -> tensor<1x27x1xf32>
    %4817 = stablehlo.divide %4814, %4816 : tensor<1x27x1xf32>
    %4818 = stablehlo.constant dense<9.99999974E-6> : tensor<f32>
    %4819 = stablehlo.broadcast_in_dim %4818, dims = [] : (tensor<f32>) -> tensor<1x27x1xf32>
    %4820 = stablehlo.add %4817, %4819 : tensor<1x27x1xf32>
    %4821 = stablehlo.sqrt %4820 : tensor<1x27x1xf32>
    %4822 = stablehlo.broadcast_in_dim %4821, dims = [0, 1, 2] : (tensor<1x27x1xf32>) -> tensor<1x27x4096xf32>
    %4823 = stablehlo.divide %4810, %4822 : tensor<1x27x4096xf32>
    %4824 = stablehlo.convert %321 : (tensor<4096xf16>) -> tensor<4096xf32>
    %4825 = stablehlo.broadcast_in_dim %4824, dims = [2] : (tensor<4096xf32>) -> tensor<1x1x4096xf32>
    %4826 = stablehlo.broadcast_in_dim %4825, dims = [0, 1, 2] : (tensor<1x1x4096xf32>) -> tensor<1x27x4096xf32>
    %4827 = stablehlo.multiply %4826, %4823 : tensor<1x27x4096xf32>
    %4828 = stablehlo.convert %322 : (tensor<4096x32000xf16>) -> tensor<4096x32000xf32>
    %4829 = stablehlo.dot_general %4827, %4828, contracting_dims = [2] x [0] : (tensor<1x27x4096xf32>, tensor<4096x32000xf32>) -> tensor<1x27x32000xf32>
    return %4829 : tensor<1x27x32000xf32>
  }
  func.func private @_take(%arg0: tensor<32000x4096xf32>, %arg1: tensor<1x27xi32>) -> tensor<1x27x4096xf32> {
    %0 = stablehlo.constant dense<0> : tensor<i32>
    %1 = stablehlo.broadcast_in_dim %0, dims = [] : (tensor<i32>) -> tensor<1x27xi32>
    %2 = stablehlo.compare  LT, %arg1, %1,  SIGNED : (tensor<1x27xi32>, tensor<1x27xi32>) -> tensor<1x27xi1>
    %3 = stablehlo.constant dense<32000> : tensor<i32>
    %4 = stablehlo.broadcast_in_dim %3, dims = [] : (tensor<i32>) -> tensor<1x27xi32>
    %5 = stablehlo.add %arg1, %4 : tensor<1x27xi32>
    %6 = call @_where(%2, %5, %arg1) : (tensor<1x27xi1>, tensor<1x27xi32>, tensor<1x27xi32>) -> tensor<1x27xi32>
    %7 = stablehlo.broadcast_in_dim %6, dims = [0, 1] : (tensor<1x27xi32>) -> tensor<1x27x1xi32>
    %8 = stablehlo.constant dense<0> : tensor<1xi32>
    %9 = stablehlo.constant dense<0> : tensor<1xi32>
    %10 = stablehlo.constant dense<32000> : tensor<i32>
    %11 = stablehlo.broadcast_in_dim %10, dims = [] : (tensor<i32>) -> tensor<1xi32>
    %12 = stablehlo.constant dense<4096> : tensor<i32>
    %13 = stablehlo.broadcast_in_dim %12, dims = [] : (tensor<i32>) -> tensor<1xi32>
    %14 = stablehlo.concatenate %11, %13, dim = 0 : (tensor<1xi32>, tensor<1xi32>) -> tensor<2xi32>
    %15 = stablehlo.constant dense<0> : tensor<i32>
    %16 = stablehlo.broadcast_in_dim %15, dims = [] : (tensor<i32>) -> tensor<1xi32>
    %17 = stablehlo.compare  LT, %8, %16,  SIGNED : (tensor<1xi32>, tensor<1xi32>) -> tensor<1xi1>
    %18 = stablehlo.constant dense<2> : tensor<i32>
    %19 = stablehlo.broadcast_in_dim %18, dims = [] : (tensor<i32>) -> tensor<1xi32>
    %20 = stablehlo.add %8, %19 : tensor<1xi32>
    %21 = stablehlo.select %17, %20, %8 : tensor<1xi1>, tensor<1xi32>
    %22 = stablehlo.broadcast_in_dim %21, dims = [0] : (tensor<1xi32>) -> tensor<1x1xi32>
    %23 = "stablehlo.gather"(%14, %22) {dimension_numbers = #stablehlo.gather<collapsed_slice_dims = [0], start_index_map = [0], index_vector_dim = 1>, slice_sizes = array<i64: 1>} : (tensor<2xi32>, tensor<1x1xi32>) -> tensor<1xi32>
    %24 = stablehlo.constant dense<1> : tensor<i32>
    %25 = stablehlo.broadcast_in_dim %24, dims = [] : (tensor<i32>) -> tensor<1xi32>
    %26 = stablehlo.constant dense<4096> : tensor<i32>
    %27 = stablehlo.broadcast_in_dim %26, dims = [] : (tensor<i32>) -> tensor<1xi32>
    %28 = stablehlo.concatenate %25, %27, dim = 0 : (tensor<1xi32>, tensor<1xi32>) -> tensor<2xi32>
    %29 = stablehlo.constant dense<0> : tensor<i32>
    %30 = stablehlo.broadcast_in_dim %29, dims = [] : (tensor<i32>) -> tensor<1xi32>
    %31 = stablehlo.compare  LT, %9, %30,  SIGNED : (tensor<1xi32>, tensor<1xi32>) -> tensor<1xi1>
    %32 = stablehlo.constant dense<2> : tensor<i32>
    %33 = stablehlo.broadcast_in_dim %32, dims = [] : (tensor<i32>) -> tensor<1xi32>
    %34 = stablehlo.add %9, %33 : tensor<1xi32>
    %35 = stablehlo.select %31, %34, %9 : tensor<1xi1>, tensor<1xi32>
    %36 = stablehlo.broadcast_in_dim %35, dims = [0] : (tensor<1xi32>) -> tensor<1x1xi32>
    %37 = "stablehlo.gather"(%28, %36) {dimension_numbers = #stablehlo.gather<collapsed_slice_dims = [0], start_index_map = [0], index_vector_dim = 1>, slice_sizes = array<i64: 1>} : (tensor<2xi32>, tensor<1x1xi32>) -> tensor<1xi32>
    %38 = stablehlo.subtract %23, %37 : tensor<1xi32>
    %39 = stablehlo.constant dense<0> : tensor<i32>
    %40 = stablehlo.broadcast_in_dim %39, dims = [] : (tensor<i32>) -> tensor<1x27x1xi32>
    %41 = stablehlo.compare  GE, %7, %40,  SIGNED : (tensor<1x27x1xi32>, tensor<1x27x1xi32>) -> tensor<1x27x1xi1>
    %42 = stablehlo.broadcast_in_dim %38, dims = [2] : (tensor<1xi32>) -> tensor<1x1x1xi32>
    %43 = stablehlo.broadcast_in_dim %42, dims = [0, 1, 2] : (tensor<1x1x1xi32>) -> tensor<1x27x1xi32>
    %44 = stablehlo.compare  LE, %7, %43,  SIGNED : (tensor<1x27x1xi32>, tensor<1x27x1xi32>) -> tensor<1x27x1xi1>
    %45 = stablehlo.and %41, %44 : tensor<1x27x1xi1>
    %46 = stablehlo.constant dense<true> : tensor<i1>
    %47 = stablehlo.reduce(%45 init: %46) applies stablehlo.and across dimensions = [2] : (tensor<1x27x1xi1>, tensor<i1>) -> tensor<1x27xi1>
    %48 = "stablehlo.gather"(%arg0, %7) {dimension_numbers = #stablehlo.gather<offset_dims = [2], collapsed_slice_dims = [0], start_index_map = [0], index_vector_dim = 2>, slice_sizes = array<i64: 1, 4096>} : (tensor<32000x4096xf32>, tensor<1x27x1xi32>) -> tensor<1x27x4096xf32>
    %49 = stablehlo.broadcast_in_dim %47, dims = [0, 1] : (tensor<1x27xi1>) -> tensor<1x27x4096xi1>
    %50 = stablehlo.constant dense<0x7FC00000> : tensor<f32>
    %51 = stablehlo.broadcast_in_dim %50, dims = [] : (tensor<f32>) -> tensor<1x27x4096xf32>
    %52 = stablehlo.select %49, %48, %51 : tensor<1x27x4096xi1>, tensor<1x27x4096xf32>
    return %52 : tensor<1x27x4096xf32>
  }
  func.func private @_where(%arg0: tensor<1x27xi1>, %arg1: tensor<1x27xi32>, %arg2: tensor<1x27xi32>) -> tensor<1x27xi32> {
    %0 = stablehlo.select %arg0, %arg1, %arg2 : tensor<1x27xi1>, tensor<1x27xi32>
    return %0 : tensor<1x27xi32>
  }
  func.func private @silu(%arg0: tensor<1x27x11008xf32>) -> tensor<1x27x11008xf32> {
    %0 = stablehlo.negate %arg0 : tensor<1x27x11008xf32>
    %1 = stablehlo.exponential %0 : tensor<1x27x11008xf32>
    %2 = stablehlo.constant dense<1.000000e+00> : tensor<f32>
    %3 = stablehlo.broadcast_in_dim %2, dims = [] : (tensor<f32>) -> tensor<1x27x11008xf32>
    %4 = stablehlo.add %3, %1 : tensor<1x27x11008xf32>
    %5 = stablehlo.constant dense<1.000000e+00> : tensor<f32>
    %6 = stablehlo.broadcast_in_dim %5, dims = [] : (tensor<f32>) -> tensor<1x27x11008xf32>
    %7 = stablehlo.divide %6, %4 : tensor<1x27x11008xf32>
    %8 = stablehlo.multiply %arg0, %7 : tensor<1x27x11008xf32>
    return %8 : tensor<1x27x11008xf32>
  }
}
